data/models/AAPL_20251216_165807.pt (torch, 129045 bytes, 9 tensors)

lstm.weight_ih_l0 f4 [200, 1]
000000 0c 9e 38 3d bb 2e 2b 3d ac 57 b1 bc e6 20 8d bd
       0.0450726 0.041792613 -0.02164825 -0.068910405
000010 d8 7a 1f bd cf be 9f bd aa 51 6f bb c1 d3 e4 bd
       -0.038935512 -0.07800066 -0.0036517181 -0.11173201
000020 79 b2 2a 3c 14 e9 9d bc 7b cc 25 be 67 17 c2 bd
       0.010418528 -0.01927618 -0.16191284 -0.0947712
000030 35 41 f2 bd 38 0e 97 bd 25 31 9f 3d 4f c8 c0 3d
       -0.118288435 -0.07375759 0.077730455 0.09413206
000040 c8 a8 f0 bd 37 08 f5 3c ee 82 f1 3d 0c 08 d8 bd
       -0.117509425 0.029911144 0.11792551 -0.1054841
000050 b8 48 da 3c 0b b3 02 3d 56 57 8e 3c c4 6c 90 bd
       0.026646003 0.03190903 0.01737563 -0.070519954
000060 ef 84 08 3e e3 bb 87 bd be 38 8d bb 8a 9a d3 3c
       0.1333196 -0.066276334 -0.0043097427 0.025830526
000070 70 ef b9 3d d1 7c ec 3c 00 71 80 bc 90 8f c5 bb
       0.09078872 0.02886811 -0.015678883 -0.006029077
000080 e9 ce f4 bd ed 98 90 bb ff 79 31 bd 80 c9 d6 bd
       -0.119535275 -0.0044127614 -0.043329235 -0.10487652
000090 75 19 04 3e 73 2f 10 3e c7 46 9b bd a3 42 87 bd
       0.12900336 0.140806 -0.07581859 -0.06604507
0000a0 b8 43 b6 bd 18 ce 8a bd 24 66 df 3c 03 d4 1b bd
       -0.08899635 -0.067775905 0.027270384 -0.038043987
0000b0 17 ec e3 bd b8 b1 61 3d 47 91 f7 3d ab f1 58 bd
       -0.11129015 0.055101126 0.12088256 -0.052964848
0000c0 01 7a dc bc 4a 76 c6 3d 8d 9f 70 3d 89 a5 01 be
       -0.026913645 0.096905306 0.05874591 -0.12660803
0000d0 eb ce ec 3d 86 63 09 3d c5 e9 67 bc 79 d1 01 3b
       0.11562904 0.03354218 -0.014154856 0.0019808693
0000e0 5e 30 99 3c 07 eb 5d 3d e2 78 15 3e 8d 51 65 ba
       0.018699821 0.054179218 0.14596894 -0.0008747809
0000f0 1d 15 33 bd 23 b9 94 bc fa 90 a9 bb c6 ae c9 3d
       -0.043721307 -0.018154686 -0.0051747533 0.098477885
000100 d3 8d f6 3c eb d7 d5 bc 0d 98 d0 3d 41 dd 83 bd
       0.030096924 -0.026103934 0.101852514 -0.06438685
000110 cc c0 e5 3d f2 a3 f2 3b 58 97 5f 3d fe 54 30 3c
       0.11218414 0.0074047977 0.054587692 0.010762451
000120 fb 19 5f bc 3c 17 b8 3d 26 b6 23 bd 51 90 bf bd
       -0.013617034 0.089888066 -0.039968632 -0.09353698
000130 a0 7a 0a 3d df d0 ac 3d 57 58 4d bd 0a bd 28 3d
       0.03380835 0.084382765 -0.050133076 0.041195907
000140 6b 04 b0 3d c7 26 ce 3c 10 56 4e bd e3 be ba bd
       0.08594593 0.025164975 -0.050375044 -0.0911844
000150 a7 36 ac bd 2a 0c 6b bc 89 1c 0e 3e 47 1e 03 3d
       -0.084088616 -0.014346162 0.13878073 0.032011297
000160 1f 12 54 3d 73 96 0d bd 8c a3 ab bc 01 10 2a bd
       0.051775094 -0.034567308 -0.020952009 -0.04151917
000170 97 67 4e bd e1 d1 38 bd 18 fb f0 3d 44 65 ad bd
       -0.05039176 -0.04512203 0.11766642 -0.084665805
000180 68 12 cf 3c 5c 53 83 3d 1a ed f1 3c a1 b2 4b 3d
       0.025277331 0.06412384 0.029532004 0.0497309
000190 e8 96 0d 3d 54 bf 92 3d d2 7c 2b bc 1f 90 ff 3c
       0.034567744 0.07165399 -0.010466771 0.031196652
0001a0 5f ba 20 3e 6b 40 69 3d c7 9d ae 3d f1 90 ea bd
       0.15696095 0.0569462 0.085261874 -0.11453427
0001b0 c0 16 fb bd 59 e0 c4 bc 8f 92 bd bd 00 4a 1a 3d
       -0.122601986 -0.024032759 -0.092564695 0.03766823
0001c0 72 09 a2 3d 90 22 be bd f3 dd ac bb 1c 5d 92 b9
       0.07911958 -0.09283936 -0.005275482 -0.00027916662
0001d0 1e a2 26 3b 2a 6c ac 3d df d4 db bd c9 94 f4 bd
       0.002542622 0.08419068 -0.10733961 -0.11942441
0001e0 d2 cc e9 bb 53 ab 76 3d 98 ca dc bd 40 08 22 3e
       -0.007135012 0.06022198 -0.10780829 0.1582346
0001f0 cf 15 e9 bb 71 47 98 3a 22 58 ba bd 79 cd 59 3d
       -0.0071131955 0.0011617971 -0.09098841 0.05317447
000200 c6 78 65 bd a6 d2 82 bd de 17 21 bc 2d 65 9e bd
       -0.05602338 -0.06387834 -0.009832351 -0.077341415
000210 e4 d0 5e 3c 7d ca 45 3d 6c 41 02 3d 1e 7d a3 bd
       0.013599608 0.04828881 0.031800672 -0.079828486
000220 35 0e 1e bd cb 0c a6 3c 1b 7c 07 be d9 d1 b0 bd
       -0.038587768 0.020269772 -0.13230936 -0.08633775
000230 f2 a3 d0 bd ba f0 fe bd f7 a3 90 3c d9 74 c7 3c
       -0.1018752 -0.12448259 0.01765631 0.02434771
000240 1e 34 81 3d c9 9c 73 3c 61 fb 04 bd b8 ad 6b 3d
       0.06308769 0.014868923 -0.032466296 0.057538718
000250 10 78 09 be 2f 53 ce bd 8f 86 fb bd 1e 3d d7 bd
       -0.13424706 -0.1007446 -0.122815244 -0.10509704
000260 bc 5e c6 bd be a5 02 be 22 c1 39 bc f5 c5 09 3e
       -0.09686038 -0.12758538 -0.01133755 0.13454421
000270 62 c2 ca 3d a3 e8 79 3d ef 77 d9 bd 45 e0 d1 bd
       0.09900357 0.061012875 -0.10618579 -0.10247854
000280 3f d3 0e 3d 54 f0 04 be 4a ad 34 3d e0 1e 01 3e
       0.03486943 -0.12982303 0.044110574 0.12609434
000290 76 ab f5 bd e2 2f 1b 3e 7d d5 b8 bc c2 f9 c0 bd
       -0.11995594 0.15154985 -0.022562737 -0.094226375
0002a0 9f 8b 9f bd d0 e3 f0 3c bd f6 77 3d ec b7 68 3b
       -0.077903025 0.029405504 0.060538042 0.0035510017
0002b0 57 b6 21 3e f7 1f 9f bd 2d 4d dd bd 8a 7a 30 bd
       0.15792213 -0.07769769 -0.10805736 -0.043085612
0002c0 3a 93 29 3d 44 ec 02 be ea 2b 64 3d 5e 5d e0 3d
       0.04140017 -0.1278544 0.055705942 0.109553084
0002d0 98 79 a1 bd a9 13 77 bc af 13 94 bc 29 75 91 3d
       -0.0788452 -0.015080371 -0.018075792 0.07102425
0002e0 37 39 93 bd 73 8b 39 bd 68 ad 04 3d 7a 79 d3 bd
       -0.07188647 -0.045299005 0.032391936 -0.10325904
0002f0 1c c5 17 bd dc 42 e7 3d dd aa 7b bd 74 49 be 3d
       -0.037053213 0.11292049 -0.061442245 0.09291354
000300 0e d7 07 be 48 98 06 3e 20 6d 06 bd a9 99 63 bb
       -0.1326563 0.13144028 -0.032818913 -0.003472904
000310 bb ed 81 bd 84 e2 02 be 85 30 d9 3d 4b a4 41 3d
       -0.063441716 -0.12781721 0.106049575 0.047275823

lstm.weight_hh_l0 f4 [200, 50]
000000 13 d0 30 bd 92 06 cc b7 14 4d b8 bc dc 2b 6f 3d
       -0.043167185 -2.4321755e-05 -0.022497691 0.058391437
000010 90 6c ac 3d 51 b0 58 3d 92 a7 af 3c 4e fe b4 bd
       0.08419144 0.052902523 0.021442208 -0.08837567
000020 6a fb 03 3d 05 60 c5 3d 38 19 e4 3d 33 af 32 3b
       0.03222219 0.09637455 0.111376226 0.0027265071
000030 38 24 21 3d 61 f5 26 bd ed 34 bc bd 56 8f a1 bd
       0.03934118 -0.040761355 -0.09189782 -0.07888667
000040 f7 55 33 3c d0 c5 0d 3e b7 e3 83 3d c8 f5 55 3d
       0.010945789 0.1384499 0.064399175 0.05223635
000050 31 18 96 3d 24 90 ce bd e6 2e f4 bd 01 28 91 bd
       0.07328833 -0.100860864 -0.11923008 -0.07087708
000060 fe f7 ee bd ff 44 8b 3b 9f 95 c6 bc 07 cc b4 bd
       -0.116683945 0.0042501683 -0.024241267 -0.08827978
000070 7b 3e 1a bc e4 10 5b 3d 3e 6c d4 3c 55 dc 44 bd
       -0.009414311 0.053482905 0.02593052 -0.048061687
000080 c6 86 e3 3d c4 79 a5 bd f4 34 e9 3b ce a6 03 3d
       0.1110969 -0.080798656 0.007116908 0.0321415
000090 89 b0 58 bc 59 76 86 3d 63 f6 ae bc b2 2b 8b 3d
       -0.013225683 0.06565542 -0.02135772 0.067954436
0000a0 de be ec 3b 09 c5 85 bd bc b1 89 bc 1c 9d ee 3d
       0.0072249016 -0.06531722 -0.016808383 0.1165106
0000b0 da 66 8d 3d 33 6b b0 bd ec ad c9 3d eb 84 a0 bd
       0.06904383 -0.08614197 0.09847626 -0.07837852
0000c0 c5 c3 12 be 21 f4 18 3d 57 ba 9f 3a 49 6b e4 bc
       -0.14332493 0.037342194 0.0012186271 -0.027883189
0000d0 8a 6d 02 bd 34 d0 f2 bd a1 23 cc 3d 12 20 9e bd
       -0.031842746 -0.11856118 0.09967733 -0.07720961
0000e0 7b 75 ad 3d 1b cf 59 bd 9d 51 28 3a 14 0b 45 bd
       0.08469673 -0.053176027 0.0006420853 -0.048106268
0000f0 84 00 47 3b 31 78 00 be ca 2c d2 bc 0f c0 bc b9
       0.0030365298 -0.1254585 -0.025656123 -0.0003600125
000100 22 4c f7 bd a8 70 b9 3d 1d 77 13 bd 17 07 3e 3c
       -0.12075068 0.090546906 -0.036002267 0.01159837
000110 c2 67 34 3d aa 66 13 be 37 89 e4 bb 13 69 14 bd
       0.044044264 -0.14394632 -0.006974365 -0.03623302
000120 26 08 b8 bc c2 2e cc bd 7b 0a 0d bd 8e 3e 6f 3c
       -0.022464823 -0.09969856 -0.034433823 0.014602317
000130 eb a8 31 bd 63 22 1d 3d 50 52 12 bd 05 db 0b 3e
       -0.043373983 0.03836287 -0.03572303 0.13657768
000140 99 81 fb bd c5 71 ec bd 24 13 d5 3d c8 8d 8f bd
       -0.12280578 -0.11545137 0.104040414 -0.070094645
000150 ac f0 20 3c 37 ae 0f 3c fc 3f 08 be 3a e3 f1 bd
       0.009823006 0.008769563 -0.13305658 -0.11810918
000160 1c ff ed bd 80 db f4 bd 48 98 f7 bd 27 83 0e bd
       -0.11620924 -0.11955929 -0.12089592 -0.034793045
000170 45 a1 f7 bd c5 00 04 be e5 6d ef 3d 08 3a 3f 3d
       -0.120913066 -0.12890919 0.116908826 0.046686202
000180 75 5d e7 3d 85 48 8e 3d 0d a5 0b be 2c eb 5a bd
       0.112971224 0.06947426 -0.1363718 -0.053446934
000190 6f d4 f4 3d ee d8 6b 3c 92 9c 6f bd 2a af cb 3b
       0.11954581 0.014394982 -0.058498926 0.0062159495
0001a0 b1 a8 ff 3c bb 8b 11 bc df 48 f5 bd 61 cf 8a bd
       0.031208368 -0.008883412 -0.1197679 -0.06777836
0001b0 68 ba 86 bd b7 a1 95 3b a0 b8 ab 3d 6b f7 b8 bd
       -0.06578523 0.004566397 0.08384824 -0.09031566
0001c0 12 22 df 3c 60 38 a9 3a c8 4a b1 bd f9 86 07 3e
       0.027237926 0.0012910478 -0.086568415 0.13235082
0001d0 27 d2 78 bc 52 96 7c 3d e5 a2 13 bc a3 31 47 bd
       -0.015186823 0.061666794 -0.009011005 -0.04863132
0001e0 70 62 a5 bd 93 d7 a8 3d f6 08 73 3a 1a 40 a2 3d
       -0.08075416 0.082442425 0.00092710496 0.07922383
0001f0 62 cd 7b 3d 30 28 14 be 68 b1 f8 bd e9 d2 87 bd
       0.061475165 -0.14468455 -0.121432126 -0.06632025
000200 a2 d7 0e 3c f4 ed 0d be d9 43 80 3d ef 4e cf bd
       0.008718403 -0.13860303 0.06262941 -0.10122477
000210 10 20 b7 bc 66 ad f0 3d 6b d2 e8 3c ee 14 c6 3d
       -0.022354156 0.11751823 0.028420648 0.09671961
000220 c2 d9 00 3d b5 48 4a 3d ee da 13 bd d4 a8 26 3d
       0.03145767 0.049385745 -0.03609746 0.04068835
000230 df 20 f9 3d 79 ed e7 3c f6 39 e9 bd 79 9c 8b bd
       0.12164473 0.028311478 -0.11388008 -0.06816954
000240 73 95 1c bd ef 2a b5 bc c4 a4 8e bd e2 e9 fe 3d
       -0.038228463 -0.022115199 -0.0696502 0.12446953
000250 21 e6 d7 3b 43 d6 c6 bd 47 75 01 be 82 3f 10 3e
       0.006588713 -0.09708836 -0.12642394 0.14086726
000260 66 73 c2 bd af b0 29 3d 2b 12 80 3d 43 50 f2 3d
       -0.09494667 0.041428264 0.06253465 0.11831715
000270 c6 1b f5 3d 68 a6 00 3e ed e4 d1 bd bb 71 86 bd
       0.11968188 0.12563479 -0.10248742 -0.06564661
000280 e1 ab 6c bb d6 65 ba bd 2b 47 ea 3d 84 29 4d 3c
       -0.003611319 -0.09101455 0.114393555 0.012522105
000290 45 2e a2 bd d2 d0 02 bd 5b 27 b3 bc 95 91 e9 bd
       -0.079189815 -0.031937428 -0.021869352 -0.11404721
0002a0 bc 32 65 3c 0d 05 f3 bc 41 62 a0 bd 61 44 e3 3d
       0.013989147 -0.029665494 -0.078312404 0.110970266
0002b0 36 8c 93 3d b3 ea fb 3d de b6 37 bd 60 13 10 be
       0.072044775 0.12300625 -0.04485213 -0.14069891
0002c0 1e 46 0b be b1 ee 1c bd 1c e1 38 bd e9 1d 08 be
       -0.13600966 -0.03831357 -0.045136556 -0.1329266
0002d0 be 13 c2 3d ca 73 84 bd d4 6e 9a 3d c4 08 46 bc
       0.09476422 -0.064673975 0.0754067 -0.012087051
0002e0 53 05 00 3e 83 b4 90 3d 5c fb 35 3d a2 24 f2 bc
       0.12502031 0.0706568 0.044429168 -0.029558484
0002f0 82 42 c4 3b 80 ee 17 3c dc 54 41 bd 67 46 89 bd
       0.0059893737 0.009273171 -0.04720007 -0.06702881
000300 4f cb af bd ee 5d 62 3d 51 fe b1 3d 74 4c 2b 3d
       -0.085837 0.05526536 0.08691085 0.04182096
000310 c9 13 b3 3d 2f 17 e2 3c 4d 7c 90 3d 7b 2a 2b bd
       0.08744008 0.027598945 0.070549585 -0.04178856
000320 f8 8d f8 bd 1c e2 09 be 95 22 b8 bc a5 0f 9b 3c
       -0.121364534 -0.1346516 -0.022477427 0.018928358
000330 20 28 be bc 37 46 28 bd f6 5d f0 bd 3c 20 ed bc
       -0.023212492 -0.041082587 -0.117366716 -0.028946035
000340 1a 52 c0 3d ea 4d 03 bd 66 49 b9 3d 9e 87 be 3d
       0.0939066 -0.032056727 0.09047203 0.09303211
000350 a7 c9 b2 3d ba b2 05 be 46 c5 e2 3d 40 56 8a 3d
       0.087298684 -0.1305646 0.11072783 0.06754732
000360 f5 5a 1a 3e 64 36 08 3e 9b 57 ed bd 0d 2e 0a 3d
       0.1507376 0.13301998 -0.11588975 0.033735324
000370 a7 1a 46 bd 15 9b fb bd c3 03 f8 3d 44 c4 fd 3d
       -0.04836526 -0.12285439 0.121100925 0.1239095
000380 29 29 20 3d 62 9c ed bd 3e 9c 61 bc ac b3 a6 3d
       0.039101753 -0.11602093 -0.013770161 0.081397384
000390 1b 8e b0 bb 0b 3b 54 bd a1 dc 85 3b 15 dd 24 3d
       -0.005388034 -0.05181412 0.004085139 0.040249903
0003a0 d4 ab f8 3d 0a 7a d4 3d d4 06 98 3d 06 a0 20 3d
       0.121421486 0.103748396 0.07423177 0.03921511
0003b0 fc 35 33 bc 9e be a3 3d 5a 05 ac bd 06 a0 bf 3d
       -0.010938164 0.07995342 -0.08399458 0.09356694
0003c0 42 cf fe 3d a1 1b 75 bc 68 6d 60 3d 76 32 aa 3d
       0.12441875 -0.0149602005 0.054791838 0.08310406
0003d0 41 cd 08 3d 89 24 da 3d ea 22 29 bd 5b 99 22 3d
       0.03339887 0.106515 -0.041293062 0.039697032
0003e0 b4 a5 5a bc 5e cf cd bd 0e 22 67 bd 9d ba 14 3e
       -0.013345171 -0.10049318 -0.05642896 0.14524312
0003f0 11 49 b5 3d ca 66 e0 bd bf 23 12 3b db 9f 0e 3e
       0.08851827 -0.109571055 0.0022299138 0.13928168

lstm.bias_ih_l0 f4 [200]
000000 b0 27 63 bd a0 23 84 3d cb 17 37 bc 5d 68 f9 bd
       -0.05545777 0.064521074 -0.011175106 -0.12178109
000010 65 dd ee 3d c2 a8 2f 3c 18 89 1d be 08 ef e8 bd
       0.116633214 0.010721387 -0.15384328 -0.113737166
000020 f5 04 18 3e 7d 4e 8e bd ef 8e d8 bd c4 74 81 bb
       0.14845641 -0.06948564 -0.105741374 -0.003950687
000030 34 c6 20 3e f6 98 8d 3d ce 99 c0 3c ef 7e 37 bd
       0.15700608 0.069139406 0.02351084 -0.044798788
000040 60 02 0c 3e da 7e 12 be 00 bc 89 bd 8b 4a d4 3d
       0.13672781 -0.14306203 -0.06725311 0.103657804
000050 b5 25 25 3d 39 2b 30 3b 0a 17 4f bd 2f 46 f3 bd
       0.040319163 0.0026881231 -0.05055908 -0.11878621
000060 62 89 0d 3e 33 08 3f 3d 04 48 df bd 6f a3 d8 bd
       0.13821939 0.04663868 -0.10902408 -0.105780475
000070 e1 62 ca 3d 17 2d 93 bd 9c 18 83 3d 2a 1a c4 3d
       0.09882141 -0.071863346 0.06401178 0.09575303
000080 c8 85 6e bd 72 d6 f1 bb f8 ed db 3d 5b e9 45 3d
       -0.058233052 -0.0073803 0.10738748 0.04831825
000090 fd da 8f 3d 61 ed 02 be bd 87 bf bb 4b 0b 4f 3d
       0.070241906 -0.12785865 -0.0058450387 0.05054788
0000a0 eb 45 ad bd 0a b4 fa 3d 6f 34 d3 bc 5c 49 fd 3d
       -0.084606014 0.12241371 -0.025781838 0.12367508
0000b0 98 ef 8e bd fc b9 18 bc fc 32 14 be ea eb e1 bd
       -0.06979293 -0.009321686 -0.14472574 -0.11031325
0000c0 8a 98 14 bd 08 44 2d 3d 91 47 84 3d e8 de a9 3d
       -0.036278285 0.042301208 0.06458963 0.08294469
0000d0 6b 8d c0 3d 9f 39 6c 3d 95 f9 2e 3c ad a3 19 3e
       0.09401973 0.05767214 0.010679622 0.15003844
0000e0 2a 2a 18 3d 1a 52 ec 3d 09 f9 96 3d f7 5d 06 be
       0.037149586 0.11539097 0.073717184 -0.13121782
0000f0 30 05 ef bc ba c6 f8 3c 82 29 bb bd bc 70 9a 3d
       -0.029177278 0.030368198 -0.09138776 0.075410336
000100 66 46 ae bc 72 74 75 3a 3a e1 62 bd 22 37 ab 3d
       -0.021273803 0.000936336 -0.055390574 0.08360125
000110 7f fe ca 3d 67 5f fe 3d fb 65 83 3d fa 35 a3 3d
       0.099118225 0.1242054 0.064159356 0.079692796
000120 b0 c3 11 3d 41 66 53 bd 83 91 28 bc d3 76 46 3b
       0.035587013 -0.05161119 -0.010288599 0.0030283227
000130 1a d3 dc bd a4 7c 22 3c 2c 1e 59 bc f6 e3 de bd
       -0.10782452 0.009917412 -0.013251822 -0.10883324
000140 08 3c ce bd fd a5 96 bd 9c 73 c1 3b 7e 6a 8d bd
       -0.10070044 -0.073558785 0.0059036743 -0.069050774
000150 6b 04 df 3d 7e fd 97 ba 7c 11 55 bd e7 2f 8b bd
       0.108895145 -0.0011595932 -0.052018628 -0.06796246
000160 27 00 05 39 03 15 03 be ed 26 96 3d 4c 55 cd bd
       0.00012683925 -0.12800984 0.07331643 -0.10026035
000170 b6 ae 15 3d 8e 1a 72 bd 86 00 00 be df a4 27 bd
       0.03654357 -0.059107356 -0.125002 -0.040928718
000180 5a c0 a0 bd 8a ea 67 3d c9 82 da 3c ff 05 bd bd
       -0.07849188 0.05662016 0.026673691 -0.09229659
000190 75 6d 10 be e2 2e f0 3d fa 13 10 3e 4c 0b ab 3d
       -0.14104255 0.11727692 0.1407012 0.08351764
0001a0 9f cf 06 3e eb 7a 60 bd 49 45 01 be e5 14 57 bc
       0.13165139 -0.054804724 -0.12624086 -0.01312754
0001b0 f7 49 c2 bd 76 82 a2 3d 43 00 16 3d 03 9b ad 3c
       -0.09486764 0.0793504 0.036621343 0.02119208
0001c0 d8 b4 b6 bd 7d 96 a1 bd ed e6 95 bd b3 b4 87 3d
       -0.08921212 -0.078900315 -0.07319436 0.066262625
0001d0 08 9c fa bd 5e 79 04 3d 50 81 4f 3d 77 8f f3 3c
       -0.12236792 0.032342307 0.05066043 0.029731495
0001e0 04 60 38 3d a0 c2 74 bd c5 2d 9e bd eb 2b 79 bd
       0.045013443 -0.05975592 -0.077235736 -0.0608329
0001f0 07 f5 58 3d 1b 9f f9 bd 81 21 0a 3e 8f 32 96 3d
       0.05296805 -0.1218855 0.13489343 0.07333862
000200 4a ff 09 3e e0 2e 81 3d 10 fc b3 bd 69 04 fa bd
       0.13476291 0.06307769 -0.087883115 -0.122078724
000210 01 18 ab 3d 21 d2 ab 3d d0 17 8b bd bd 45 b0 bd
       0.08354188 0.08389688 -0.06791651 -0.086070515
000220 a0 a2 de 3d a6 97 3c bd 72 eb 54 bb 38 91 b9 3d
       0.10870862 -0.04604306 -0.003248897 0.090609014
000230 1f 97 e3 3b a7 80 5b bd 7d e6 a6 3d 41 45 ce 3d
       0.0069455053 -0.05358949 0.08149431 0.10071803
000240 b0 42 87 bd f2 66 03 3c 25 f1 23 bc 3b ce 3f 3d
       -0.066045165 0.00802015 -0.010006224 0.046827536
000250 27 54 1f be 86 93 15 be 96 bc 5b 3d c0 6b 58 3c
       -0.15559445 -0.14607057 0.053646646 0.013209283
000260 37 59 be 3c 64 03 b3 3c fc 2b 98 3d cc a5 b1 bc
       0.0232359 0.021852203 0.07430264 -0.021685503
000270 a9 0d 43 ba 12 a8 52 3d 64 14 cb 3d 1e c2 18 be
       -0.0007440695 0.051429816 0.099159986 -0.149178
000280 7a 33 ce bc 92 cc f0 3d f8 e0 1b bd ca 8e 1e 3d
       -0.02517103 0.11757769 -0.038056344 0.038710393
000290 13 9a d6 bd 89 f4 72 bc ae 99 46 bd ae 92 5d 3d
       -0.10478606 -0.01482881 -0.048486404 0.054094963
0002a0 03 73 6f 3d de 53 10 be 40 ed e7 3d 14 99 4b 3d
       0.058459293 -0.14094493 0.11324549 0.049706534
0002b0 04 fd 44 bd 53 48 ce bd 38 30 d4 bd ed 2a 18 3c
       -0.048092857 -0.100723885 -0.103607595 0.009287578
0002c0 ec a3 06 3e f0 eb 06 bd b7 d1 ef bd 5a b7 f2 b9
       0.13148469 -0.03293985 -0.11709922 -0.00046294444
0002d0 31 d6 87 bd d6 08 0c bd 66 c9 b9 bd bb d3 67 3c
       -0.06632651 -0.034188114 -0.09071617 0.014149602
0002e0 bf d3 21 bd 67 7e f5 bd 59 30 11 bd d9 e9 f6 3d
       -0.039508577 -0.11987 -0.0354465 0.12056322
0002f0 fa 68 1c 3e 8b d2 23 3b 89 15 9c bd 6a b9 b6 3d
       0.1527442 0.002499732 -0.07621295 0.08922084
000300 ca b7 76 bd 4a 0e 9b 3d a3 fe 01 3e f2 09 d7 3c
       -0.06023387 0.07571085 0.12694792 0.02624986
000310 0d 49 d0 bd 96 24 96 3d 15 74 7b bd c5 ef 02 bd
       -0.10170183 0.07331197 -0.06139 -0.031966943

lstm.bias_hh_l0 f4 [200]
000000 94 10 85 3d 6e a6 c2 3b b1 32 9b bd 54 28 08 bd
       0.06497303 0.00594025 -0.07578028 -0.033241585
000010 79 72 3c bd 66 de 41 3d 99 3c c7 bd 95 ee 06 be
       -0.046007607 0.047331236 -0.09728355 -0.1317695
000020 87 c4 e0 3c e3 33 85 3d 55 0c 6c bd ce 04 ea bd
       0.027437462 0.06504037 -0.05762895 -0.11426698
000030 c4 64 8f 3c 31 e0 bc bd d9 69 0e bd 2f 80 c8 3b
       0.017504103 -0.092224486 -0.034768913 0.0061187963
000040 13 8f 95 bc be f1 11 be 3b b2 db 3d 73 03 f2 bd
       -0.0182567 -0.14252374 0.10727354 -0.11817064
000050 a5 6d 11 3d a8 f1 a8 3d 0f 8b 18 3c cd a5 64 3d
       0.035504956 0.08249217 0.009310498 0.055822182
000060 57 d8 f4 bd 21 00 9d 3d 3d 11 16 3d 6f 6d ee bd
       -0.11955326 0.0766604 0.036637533 -0.116419666
000070 f9 65 eb 3d d4 d3 b4 bc 6a da f7 bd d2 e6 e7 bc
       0.11494059 -0.022073664 -0.12102206 -0.028308306
000080 be b7 5f 3d 1a 47 00 be 60 2d 2e bd 72 5c e3 3d
       0.05461859 -0.12527123 -0.04252374 0.11101617
000090 84 e8 36 bd 8d 4d 1d bd 76 e8 de 3d 23 35 0f be
       -0.044655338 -0.038404036 0.10884182 -0.13985114
0000a0 46 47 92 bd 25 9f 4e bd 78 66 67 3c 58 7f c6 bd
       -0.071425006 -0.05044474 0.014123552 -0.09692258
0000b0 c6 e7 a5 3d 6f 90 54 3d 84 fe 08 bd 69 c7 a4 bc
       0.08100848 0.051895555 -0.03344585 -0.020114617
0000c0 a5 8a b7 3d a4 a6 b7 bd 93 41 8f bd 7d 9a 7a 3d
       0.08961991 -0.08967331 -0.06994929 0.061182488
0000d0 63 60 af 3d 56 60 f7 3c ee c0 90 3c e1 4a 6d bd
       0.08563306 0.030197304 0.017670121 -0.05793274
0000e0 01 d5 ce bc 0e 56 c2 bd b7 8c 1c bd c7 ba d9 3c
       -0.025248053 -0.0948907 -0.038220134 0.02657832
0000f0 48 c8 b0 bd 63 0b 97 3c 2c b7 05 3e 73 00 2e bd
       -0.086319506 0.018438047 0.13058156 -0.042480897
000100 7d 41 fa bd 9a 07 b7 bd 20 b2 c0 bd 70 47 ac bd
       -0.12219522 -0.08936997 -0.09408975 -0.08412063
000110 7d c3 a5 bd d4 57 f8 3d 0b 88 b5 3d 20 fb bc 3d
       -0.08093927 0.12126127 0.08863839 0.09227586
000120 ff a0 97 3d d6 69 81 bd a9 ed ba bd 9a b2 28 bd
       0.074037544 -0.06319015 -0.09127361 -0.041185953
000130 18 1c 42 bd fb eb be 3d 87 9f 6e 3d f5 28 1f 3e
       -0.047390074 0.093223535 0.058257606 0.15542968
000140 74 9f 80 bd 8e f3 2a bd 54 9d b8 3c ae 01 ba bd
       -0.06280413 -0.041736178 0.022535957 -0.090823516
000150 e1 ed ec 3d eb 62 da bd 3b 58 bc bd 2f 45 a8 bd
       0.11568809 -0.10663398 -0.09196516 -0.08216321
000160 f3 fe ec 3d c4 e1 ce 3c e2 03 a5 bd e3 fe b5 b9
       0.11572065 0.025254138 -0.08057381 -0.00034712916
000170 22 57 f0 3d 1b 94 fb bc 66 9a bf 3c c7 2b c0 3d
       0.11735369 -0.03071027 0.023389053 0.0938335
000180 6d b2 ff bd da 40 b5 3d ce e8 ba bd 37 f8 1a 3e
       -0.12485204 0.0885026 -0.09126435 0.15133749
000190 18 49 19 be c4 10 a7 bd 93 0e b9 3c a5 03 25 bc
       -0.1496929 -0.08157495 0.022589957 -0.01007167
0001a0 d0 c9 47 3d 8e b9 e3 3c 62 e9 f0 3c 16 2a 50 bd
       0.048776448 0.02779844 0.02940816 -0.050821386
0001b0 62 96 85 bb 18 14 8a 3d 7d 90 8f 3d 49 20 f7 3d
       -0.004076765 0.06742114 0.07009981 0.12066705
0001c0 32 bc 01 3e 32 34 a6 bd 6a db e8 bc 9e 25 13 3e
       0.12669447 -0.08115424 -0.028424937 0.14369819
0001d0 c3 3a 1a 3e bd cc 76 3d 9d 19 14 3e 58 79 c9 bb
       0.15061478 0.060253847 0.14462896 -0.0061484985
0001e0 ca e9 9c 3d 8d 7a 15 be f9 4c 23 3d 78 29 f8 3b
       0.07661779 -0.1459753 0.03986833 0.007573303
0001f0 b8 83 0d 3e b9 9a 4b bc 32 31 d9 3d b5 89 5c 3d
       0.13819778 -0.0124270255 0.106050864 0.053842265
000200 f2 3b f0 bd 83 bb fb bd 6a 4f 1c bb 42 24 02 3d
       -0.11730184 -0.122916244 -0.0023851045 0.03177286
000210 5e 4a 4e 3d 65 a6 f2 3d 83 d0 27 bd b3 4a 0a bd
       0.05036389 0.118481435 -0.040970337 -0.033762645
000220 65 9e 0d bc 5d 9d 90 bd 9a 9f a0 b9 96 2f e6 bb
       -0.008643721 -0.07061265 -0.0003063649 -0.0070247157
000230 35 2b b8 3d 2e 18 c7 3d e3 af 1d bd c6 dc 18 bd
       0.08992616 0.09721409 -0.038497817 -0.03731992
000240 3b 44 2f bd ce 0d c4 bd 0b 2b 93 3d 75 49 0c be
       -0.04278968 -0.095729455 0.07185944 -0.13699897
000250 9b ba 08 be 20 cd 98 bd 02 e3 8f bd b6 ca 07 be
       -0.13352434 -0.074609995 -0.0702572 -0.13260922
000260 97 cd ae bc 55 76 8f 3d c6 4c b3 3d 52 a9 1c 3e
       -0.021338267 0.07004992 0.08754878 0.15298966
000270 13 cc f7 3d 03 7b 90 3d 10 75 bc 3d 19 4a d1 bd
       0.12099471 0.070547126 0.092020154 -0.10219211
000280 df 72 8f 3d 18 7a 15 bd 8a 23 68 bd 63 71 f5 bd
       0.07004332 -0.03649339 -0.056674518 -0.119845174
000290 6c 55 0b bd 24 36 99 bd f4 96 f5 3d 76 d1 d0 bd
       -0.03401701 -0.0748103 0.11991683 -0.101962015
0002a0 e9 e8 62 3d 15 ab bb 3c c8 bc c0 3d 7e 8f b3 bd
       0.0553979 0.022908727 0.09411007 -0.08767603
0002b0 7a a4 16 bc 3a d0 4b 3d da 44 eb bd 10 5b 71 3d
       -0.009194488 0.049759127 -0.11487742 0.058924735
0002c0 f1 9c e6 3c a0 58 91 3d dd 26 93 bd cf 8e 4e 3d
       0.028151007 0.07096982 -0.07185147 0.05042916
0002d0 8a d7 da bd 17 07 89 bd 9f a6 dd 3d 33 b7 ff bd
       -0.10685642 -0.066908054 0.10822796 -0.12486114
0002e0 43 4a 18 3d fe b4 9c bd 4b b3 31 bd 4b 5f 11 3e
       0.037180196 -0.07651709 -0.043383878 0.14196508
0002f0 c2 c4 22 bc 14 9e f9 bc f6 db 20 bd 59 fa 14 3d
       -0.009934606 -0.030470885 -0.03927227 0.036371563
000300 36 ea 03 be 62 93 1a 3e b7 bb 54 3d 83 ee a6 bd
       -0.12882313 0.15095285 0.05193683 -0.08150961
000310 29 6e 38 bc 3c f6 a9 bd 59 f2 d8 bd cb d0 5f 3d
       -0.011256733 -0.082989186 -0.10593099 0.05464248

lstm.weight_ih_l1 f4 [200, 50]
000000 0d 76 dc bd 1a 3c 81 3d 19 04 f1 bc d5 e5 38 bd
       -0.10764704 0.063102916 -0.0294209 -0.04514106
000010 fe 29 b3 bd d7 35 6f 3c 3d 2c 0d be f1 71 a5 3d
       -0.08748244 0.014600239 -0.13786407 0.08078373
000020 7b e2 b1 3d 8b ad c4 3d c6 81 9a 3d 9b 32 79 bd
       0.08685776 0.09603413 0.075442836 -0.060839277
000030 3f 9a cc bd c6 7c 8c 3a 91 a6 6c bd b2 38 b0 3c
       -0.099903576 0.0010718338 -0.057776038 0.02151141
000040 09 88 b3 3d f5 d5 79 bd 87 78 38 3d e4 0c 18 bc
       0.08766181 -0.06099506 0.04503682 -0.009280417
000050 0f 4f 89 3d 31 14 23 3e ae 66 c3 bd 88 ff 34 bd
       0.06704532 0.15925671 -0.09541069 -0.044189006
000060 f1 6f 1c bd bd a7 ae 3d da cf 9d bd 56 b1 88 3d
       -0.038192693 0.08528087 -0.0770566 0.06674449
000070 31 ab 82 3d 28 02 df bd c3 bf 2a 3d 6d 37 41 bd
       0.063803084 -0.10889083 0.041686784 -0.047172
000080 f2 f9 22 be c7 19 c7 bd f7 7f 9b 3b 55 6c 0d 3d
       -0.15915659 -0.097217135 0.004745479 0.03452714
000090 e1 64 69 3d 06 aa a8 bd 2e 79 61 bc ca 37 8c bd
       0.05698097 -0.082355544 -0.013761802 -0.068465784
0000a0 ce 17 58 3d 6a 2c a3 3d 0e 01 dc 3d 3f 6e e9 bd
       0.052757077 0.07967456 0.10742389 -0.11397981
0000b0 82 75 e2 bd 95 35 b9 bc 1c fa 9a bd 92 62 de bd
       -0.11057569 -0.022608558 -0.07567236 -0.108586445
0000c0 0c a1 c0 bb e3 21 db 3d 40 bf f7 3d ee 0b c3 bd
       -0.0058785733 0.10699823 0.12097025 -0.0952376
0000d0 aa c4 ea bd 3a 41 05 bd 29 cf a9 bd ee bf 41 bd
       -0.11463292 -0.032532908 -0.08291466 -0.04730218
0000e0 39 35 48 bd 67 81 5f bd 4e ff 1e be 66 ca 93 3d
       -0.048878882 -0.054566767 -0.15527079 0.07216339
0000f0 31 2f 0c 3d 62 f3 eb bd 0c 44 6b bd 6f 10 b5 3d
       0.034224693 -0.11521031 -0.05743794 0.08841025
000100 d1 0f 04 bd 29 3e c8 3c 88 42 b5 bd 9d e9 8e bd
       -0.032241646 0.024443703 -0.088505805 -0.06978152
000110 82 87 ac 3d 49 6a bf 3d 72 f6 9e bc f1 7a 70 bc
       0.084242836 0.09346444 -0.019404624 -0.014677749
000120 20 b6 02 be cc 0b 08 3e 20 5d e6 3c 7f 9a cc 3c
       -0.12764788 0.1328575 0.028120577 0.024976013
000130 38 68 1d 3d c4 00 dd 3d f9 39 51 3d 5b 6e ff bd
       0.03842947 0.10791162 0.051080678 -0.124722205
000140 cd 68 ee bd 9e e3 8a bd f0 6b d9 3d 9d 94 b9 bd
       -0.11641083 -0.06781696 0.106162906 -0.09061549
000150 48 4e 3b bc 0d 3d fa 3d e0 c9 3d 3d 64 84 bb 3d
       -0.011432238 0.12218676 0.0463351 0.09156111
000160 8e 58 15 3d 33 5e 90 bc 53 6c 93 3c 90 30 91 3d
       0.036461405 -0.017623043 0.017995989 0.07089341
000170 c1 48 11 be 30 60 8f bd 88 cc 79 bd 7c f2 82 3d
       -0.1418791 -0.07000768 -0.06098607 0.063939065
000180 b6 12 f2 3d 2d 8f ec 3d c3 6b 0b be f1 64 e9 3d
       0.11819975 0.11550746 -0.13615327 0.11396206
000190 1f 0a ff bd 7a a6 be 3c 26 7b 90 bd 1e ca b6 3d
       -0.12453102 0.023272742 -0.07054739 0.089252695
0001a0 d0 95 bf 3c 6a 66 05 3e 0d eb ac 3d 61 91 55 bd
       0.023386866 0.13027349 0.0844327 -0.052140597
0001b0 1d 73 83 3c 98 ef 81 bd b0 67 84 bd 09 08 aa 3d
       0.016046101 -0.06344527 -0.06465089 0.08302314
0001c0 05 8f d3 bd 22 e3 0b bd 31 f9 97 bd 13 5b de bc
       -0.10330013 -0.034152158 -0.07420576 -0.027143037
0001d0 12 dd e9 3d 3a 14 83 3d 3f 06 d8 bd 35 cd a1 bd
       0.11419119 0.06400342 -0.10548066 -0.07900468
0001e0 4e b9 dd 3d 0d e5 20 be 80 85 5e bc 73 99 d6 bc
       0.1082636 -0.15712376 -0.013581634 -0.026196217
0001f0 d5 9b bb bc a5 52 d1 bc 43 f7 13 3e a7 ff ee 3d
       -0.022901455 -0.025552103 0.14449792 0.116698556
000200 c6 f7 35 bd b4 ef 05 be 6f b2 36 bd 38 3c 71 bc
       -0.04442575 -0.1307972 -0.04460376 -0.01472383
000210 e9 49 f4 3d cb 08 7c 3d 26 2f 04 be 42 38 e9 bd
       0.1192816 0.061531823 -0.1290861 -0.113876835
000220 ed 4a 56 bd b5 59 9c 3c 72 8e 5c 3c 1d 6d a5 bd
       -0.05231755 0.019085744 0.013461696 -0.08077452
000230 dd 74 e5 3d bd de 04 be 13 89 df bc b2 f5 cf 3d
       0.112039305 -0.12975593 -0.027287042 0.101542845
000240 ed 54 f4 3c 98 9b 74 bd 2e 5f 1b bd 22 8a e3 3d
       0.029825652 -0.0597187 -0.037932567 0.11110331
000250 2b 52 5b bd 15 2b 9d 3d 35 27 9c bd f1 b0 73 3d
       -0.05354516 0.07674233 -0.07624666 0.059494916
000260 2e 9c 04 be 1b 60 80 bd c0 f0 ba 3d 12 7d c2 bd
       -0.12950203 -0.06268331 0.09127951 -0.094965115
000270 9c 78 da bd 59 95 f1 3d ae a1 a6 bd 59 de 12 be
       -0.10667536 0.11796064 -0.08136307 -0.14342631
000280 b6 3a 00 3e 80 2b db bc 45 d4 22 be b5 a5 d7 bd
       0.12522396 -0.02675414 -0.15901287 -0.10529653
000290 e6 30 3c 3d a1 4f a9 bd b4 40 fd bd 3b a9 08 3c
       0.04594507 -0.08267141 -0.12365857 0.008341129
0002a0 30 34 be 3d 87 36 15 bd a4 a1 e0 bd 63 52 e2 3d
       0.09287298 -0.036428954 -0.109683305 0.1105087
0002b0 da 81 c4 3d 5d bf 80 bc 8f 62 c7 bd d0 41 9d 3d
       0.0959508 -0.01571625 -0.097355954 0.07678568
0002c0 72 c2 8a bc 9f 3d a8 bd b2 9b b4 3a 3a 88 15 3e
       -0.016938422 -0.08214878 0.0013779311 0.14602748
0002d0 16 58 d0 bd 50 45 99 bd b6 ea ae 3c 04 37 d3 bc
       -0.10173051 -0.074839234 0.021352153 -0.02578307
0002e0 4e 0f df bd 07 59 da bd 76 25 4e bd 9f 5d 9d bd
       -0.10891591 -0.10661512 -0.050328694 -0.076838724
0002f0 5e 04 9a bd 21 c1 80 bd 7d ef e3 bd 45 8c b6 3c
       -0.07520364 -0.062868364 -0.11129663 0.022283683
000300 6f 16 4a bd 2d 84 96 bd bd d8 0a bd 31 ef 1e 3e
       -0.0493378 -0.07349429 -0.033898104 0.15520932
000310 66 cb dd 3d ee 9d 9d bd de 60 c5 bd 09 e1 34 3d
       0.10829811 -0.07696138 -0.096376166 0.044159923
000320 37 b4 94 bd a5 b1 8b bc db 80 b3 3d 0a f1 4c bc
       -0.07260936 -0.017052481 0.087648116 -0.01250864
000330 a0 01 0e 3d 43 c3 c9 3c 67 be 61 3d 5a b8 29 bd
       0.03466952 0.02462924 0.055113222 -0.041435577
000340 d8 0a b4 bc f3 29 12 3e 49 ee f2 3d 8a c7 90 bc
       -0.021977827 0.14273815 0.118618555 -0.017673273
000350 b1 42 16 3e 53 d7 93 3d 27 9e 8f bd 23 94 56 bd
       0.14673878 0.07218804 -0.07012587 -0.052387368
000360 ce ee 8e 3d d3 96 03 3e e0 0d f7 bc a9 ea d8 3d
       0.06979142 0.12850504 -0.030157983 0.10591633
000370 b7 4f 13 bd c1 0e 7a bd 47 2a 5c bd 24 10 81 3d
       -0.035964694 -0.061049227 -0.053751256 0.06301907
000380 e9 0e a9 3d 80 40 f0 bd 32 b3 3b bb 49 60 46 bd
       0.08254797 -0.117310524 -0.0028640744 -0.04843167
000390 ac b1 8d 3d 6e 74 b7 3b 1b c7 99 bd 64 7e dc bc
       0.06918654 0.0055985963 -0.075086795 -0.026915736
0003a0 bd f7 49 3d f1 56 aa 3d 18 15 80 bd 48 07 1f be
       0.049308527 0.08317364 -0.06254023 -0.15530121
0003b0 b6 4b 2a 3d 9d dd 10 3d db 01 08 be 41 5a 69 3c
       0.04157611 0.035367597 -0.13281958 0.01424271
0003c0 a9 3a c9 bd 0e 23 b4 bd e4 5c 50 bd 07 b0 1d 3e
       -0.09825642 -0.08795749 -0.050869837 0.1539918
0003d0 2c c3 2f bd 27 8c b0 3d f1 2f 99 bd ec 02 9a 3d
       -0.04291074 0.08620482 -0.07479847 0.075200886
0003e0 50 2e f5 bd 7f e3 02 be b4 79 94 bc 37 5f d7 bc
       -0.11971724 -0.12782095 -0.018124439 -0.02629052
0003f0 ff 44 92 bd b1 ed 64 bc 1e b0 f6 bd a0 18 b7 bd
       -0.07142066 -0.013972686 -0.120453104 -0.08940244

lstm.weight_hh_l1 f4 [200, 50]
000000 2f 7b 93 3d 0b ba e0 3d c3 d3 0a 3c bf 7e 1c bd
       0.0720123 0.10972985 0.0084733395 -0.038206812
000010 50 b9 38 3d c1 2c a2 bd c0 22 39 3d d7 c5 b5 bd
       0.045098603 -0.079186924 0.045199156 -0.088756256
000020 c5 77 a0 bd db 8d a5 bd 33 ca 52 bc c5 75 e5 bd
       -0.07835344 -0.080836974 -0.012865591 -0.112041034
000030 d5 fd f5 3d 87 75 67 bc fc 48 dd bd f0 9e b7 3d
       0.12011305 -0.014127142 -0.10804936 0.08965862
000040 93 89 10 3b 0c 00 b3 3d ef cc 6f bd 11 97 42 bc
       0.0022054657 0.08740243 -0.05854505 -0.011876837
000050 b7 d2 2b 3d 1a 22 3b 3c 07 a1 69 3d 57 d8 26 be
       0.041949 0.011421705 0.057038333 -0.16293465
000060 44 a5 91 bd 8e ad f4 bd 15 6e 16 bd 74 31 fe bd
       -0.071116 -0.119471654 -0.036726076 -0.12411776
000070 7c 69 4d bd 6b c9 13 3c a0 27 0d 3e 9b 90 e8 bd
       -0.050149426 0.00902019 0.13784647 -0.11355706
000080 ab 3c cf 3d fd 75 9d 3d 32 b3 de 3d a3 77 d3 bd
       0.10118993 0.0768852 0.108740225 -0.10325553
000090 18 67 49 bd 55 8f cf bd 23 b9 46 3d 2d ad 2f 3c
       -0.049170583 -0.1013476 0.048516404 0.010722441
0000a0 26 7e e2 bd 35 22 73 bd d1 f1 12 3d e7 9d 48 ba
       -0.11059217 -0.059358794 0.035875145 -0.0007652924
0000b0 28 70 5e 3d 99 87 f7 3d d2 96 a7 bd f3 95 15 bd
       0.05430618 0.1208641 -0.081830636 -0.036519956
0000c0 19 d9 3b bd 9c a5 4d bd 3c 96 57 3a 0e 0d 9d 3d
       -0.045861337 -0.050206766 0.0008223986 0.076685056
0000d0 ec e6 db bc f0 9a c1 bd be 18 17 3d 14 5b e8 bd
       -0.02684351 -0.0945338 0.03688883 -0.11345497
0000e0 0e a3 34 bd 70 01 be bd d9 83 17 3e e5 02 f3 3b
       -0.044100814 -0.09277618 0.1479639 0.0074161165
0000f0 49 34 02 be db 2b 8b bd 4e 3c 1f 3d d6 68 30 bd
       -0.12715258 -0.06795474 0.03887587 -0.04306873
000100 54 47 08 3e d2 29 5d 3d 99 68 70 bd 3e 61 f1 3b
       0.1330846 0.05399496 -0.058693502 0.0073663285
000110 a0 01 e8 bd 78 ec da bd d7 04 54 bd 15 d2 c1 3d
       -0.11328435 -0.10689634 -0.051762428 0.09463898
000120 2a e2 d0 bd b2 c4 2c bd 1e 17 d0 3d d0 4c da bd
       -0.10199387 -0.04217977 0.10160659 -0.10659182
000130 b0 37 bb 3d a2 18 8a 3c 57 04 1b 3c c7 25 89 3d
       0.09141481 0.016857449 0.009461484 0.066966586
000140 39 c5 38 bb 9b f4 d6 bd 87 72 03 bd 35 54 08 3d
       -0.0028193726 -0.104958735 -0.032091644 0.03328343
000150 b9 fb 26 3d 39 3b ab 3d fc 9e 0c 3d 77 cb 46 3c
       0.040767405 0.08360905 0.034331307 0.012133471
000160 15 87 0c be 50 95 db 3d bc 7d 9c 3d 4d 3f f1 3d
       -0.13723405 0.107218385 0.076411694 0.11779652
000170 7e cb 07 be 2e 84 b8 3b f3 69 9a 3d d4 9a 0c be
       -0.1326122 0.0056309914 0.075397395 -0.13730937
000180 b9 13 9b bd 31 76 f7 bd 05 1b ae bd 62 4a 1c 3e
       -0.07572121 -0.1208309 -0.08501247 0.1526275
000190 66 1b b9 3d 22 4d e4 bc 3c 0f bd bd 6f 96 ba bc
       0.09038429 -0.027868811 -0.09231421 -0.02277681
0001a0 f7 df a5 bc 4a 3e 9f bd d0 de c9 3d 5d 57 73 bd
       -0.020248396 -0.077755526 0.09856951 -0.059409488
0001b0 49 1e ae bd 0a 8f 06 3e a8 38 f1 3d 9e c1 a0 bd
       -0.0850187 0.13140503 0.117783844 -0.078494295
0001c0 f2 e4 41 3d cf c5 14 3c 4f 80 97 3d 0c 45 e7 3d
       0.04733748 0.009080364 0.0739752 0.112924665
0001d0 4d 7f 99 bd fd 2c a9 bd d7 46 e6 bd 25 91 33 bd
       -0.07494984 -0.08260534 -0.112439804 -0.043839592
0001e0 6d 3c 6d 3d fe 76 09 3e e1 93 4d bb 6b ff 6f bd
       0.057918955 0.13424298 -0.003136866 -0.058593195
0001f0 21 53 b3 bd 04 6d 0a 3e 70 a2 b0 bd 3a 1f 81 3d
       -0.0875609 0.13518149 -0.086247325 0.06304784
000200 30 1e 70 3d 71 ac 84 bd c2 35 fd bd c4 87 c2 bd
       0.05862254 -0.06478203 -0.12363769 -0.094985515
000210 7d 58 63 bd 6e cf ad 3d 59 26 f3 bd 96 55 9f 3d
       -0.05550431 0.0848683 -0.118725486 0.07779996
000220 77 eb db 3d 3b 33 1b be 9e a0 fd 3c 3e 16 bd bd
       0.10738271 -0.15156262 0.030960377 -0.09232758
000230 bd 43 e1 3c c5 b5 22 3d 44 ad 73 bd d7 ca 4f bd
       0.02749812 0.03972413 -0.05949141 -0.050730553
000240 f1 1c e5 3c 2d 6b 2e bd cc 2f 15 be 8c 2e 5e 3d
       0.027967902 -0.04258268 -0.14569014 0.05424361
000250 df fb 60 bd db 48 07 3e 9a b5 d8 3d 8d 7c cf 3d
       -0.054927703 0.13211386 0.10581513 0.10131178
000260 77 56 c5 bb 6b fc 97 3c 4d e7 10 3e 2c 73 d3 3d
       -0.0060222703 0.01855298 0.14150734 0.10324702
000270 74 0f 3c bd 2e 40 2b bd c4 d4 0a be e7 cf a2 3d
       -0.045913175 -0.041809253 -0.13557726 0.079498105
000280 68 5e 3c bd 76 19 d3 bd 12 e2 52 bd 08 62 c2 3d
       -0.04598847 -0.10307591 -0.05148513 0.09491354
000290 f0 31 c6 bc d7 8b d7 bd 01 b6 f9 bd 11 5e ed 3d
       -0.024193734 -0.10524719 -0.121929176 0.11590207
0002a0 d1 45 7c bd 56 a0 e2 bd 10 57 0b bd 31 b6 92 3d
       -0.06159002 -0.11065738 -0.034018576 0.071636565
0002b0 80 d0 3b bd a7 4d 36 3c a2 6c c9 3c 4d be c9 bb
       -0.045853138 0.011126912 0.024587933 -0.006156719
0002c0 05 10 b5 3d 31 07 70 bd b3 6a b9 bc 2c 93 10 bd
       0.08840946 -0.05860061 -0.022633886 -0.035296604
0002d0 5b 7e 8f 3d 62 b9 1e 3e 45 a4 c4 bc 34 cc 64 3b
       0.07006522 0.15500405 -0.024004111 0.0034911754
0002e0 ef e1 a8 bc 25 32 47 3d b5 db 8d bb 30 29 e2 3d
       -0.020615546 0.048631806 -0.0043291696 0.11043012
0002f0 53 fd 19 3e 00 74 0f be fa 20 a7 bb e0 92 ca bc
       0.15038042 -0.14009094 -0.0051003667 -0.024728239
000300 40 ca ca 3d bf d9 80 3c 44 46 bc 3d a9 7c d7 bc
       0.099018574 0.01572883 0.091930896 -0.02630456
000310 09 70 41 bd 0d 52 98 3d 23 6e 1e bd 1e 61 d6 bc
       -0.047225986 0.07437525 -0.038679253 -0.026169356
000320 35 5f bf 3d 57 37 82 3d 3a bb ed bd 58 53 a9 3d
       0.09344331 0.063582115 -0.11607976 0.0826785
000330 87 6b 6a bd 6a 6a 9c bd f1 54 d2 bd eb c4 b4 3d
       -0.057231452 -0.07637484 -0.102701075 0.088266216
000340 eb 37 2c 3d 9c a9 28 3c 00 4b 09 bd 31 23 90 3d
       0.042045515 0.010294344 -0.03351879 0.07037962
000350 b1 e3 11 3e ac 01 07 3e 4e b7 1d 3e 4b 2c 80 bd
       0.14247014 0.13184232 0.15401956 -0.06258448
000360 31 f7 55 3d a0 85 74 bd 00 17 dc bd e6 67 b1 ba
       0.052237693 -0.059697747 -0.107465744 -0.0013534992
000370 26 8d b9 3d 73 1f b7 3d c8 69 e0 3b de df d7 3c
       0.09060125 0.08941545 0.0068485476 0.026351865
000380 61 d7 1b 3e 11 2f df bc 44 f6 0c be 4e ac 93 bd
       0.1521888 -0.027244123 -0.13765818 -0.07210599
000390 49 d9 ce bc 30 73 8d 3b 10 62 05 3d 5e 7d cd 3d
       -0.025250094 0.00431671 0.032564223 0.100336775
0003a0 11 03 d8 bd 33 5f c8 bd c2 65 f9 bd 6d df b4 bc
       -0.1054746 -0.09783783 -0.12177612 -0.022079194
0003b0 9d 13 c5 bd 65 4a ac bc 3e 9c cc bb 4f 4f 91 bd
       -0.096228816 -0.021031568 -0.0062442115 -0.07095205
0003c0 48 c9 db 3d 4b 13 0a 3e d2 15 a5 3d 23 4d e6 3c
       0.10731751 0.13483922 0.080608025 0.028112954
0003d0 ba e4 be bd 2c 7e be bc 9b 3e 1f be 68 a7 a0 bd
       -0.0932097 -0.023253523 -0.15551226 -0.0784443
0003e0 96 87 87 bd b0 57 bb 3b 61 72 9c bd 90 d3 b1 3d
       -0.06617658 0.0057172403 -0.076390035 0.086829305
0003f0 6f bc 79 3d 37 5b 50 bd 37 3a 8f 3d a5 78 19 be
       0.06097072 -0.05086824 0.069935255 -0.14987428

lstm.bias_ih_l1 f4 [200]
000000 d4 25 c4 bd b9 9d d1 bc 2a b2 27 bd 77 24 eb bd
       -0.09577528 -0.025587903 -0.040941395 -0.114815645
000010 ba 3c 11 3e e9 e7 7c 3c 52 a2 f8 bd 24 1d 20 3e
       0.14183322 0.015436151 -0.12140335 0.15636116
000020 a1 b7 23 3d 40 22 02 be 98 64 02 3e fc 5d 86 bc
       0.039970044 -0.12708378 0.12733686 -0.016402237
000030 8e 25 17 be 52 01 b4 3d 90 a6 83 3d 69 5d 4c 3d
       -0.1476042 0.08789314 0.06428254 0.04989377
000040 1b 8d ee bd a3 82 09 3e 60 4e 3a 3d 08 7c 92 3d
       -0.116480075 0.1342874 0.0454849 0.07152563
000050 4e 31 e7 3d 22 01 44 3d db 92 24 3d ee e3 46 3d
       0.11288701 0.047852643 0.040179115 0.048557214
000060 98 e5 0e 3e 7d c4 08 3e 46 5f ca 3d 6e 66 26 3e
       0.1395477 0.13356204 0.09881453 0.16250011
000070 3f bc b7 bd 7f ac 87 bd 94 b6 84 bd 86 4a 9a bd
       -0.08971452 -0.06624698 -0.064801365 -0.075337455
000080 32 29 8f bd 5b e1 0c bd d8 c1 0b bd 06 df ef bc
       -0.06990279 -0.034394603 -0.03412041 -0.02928115
000090 d7 bf 19 be 43 cc 2e bd 1c 3d ea bd 2e 9e cc bd
       -0.15014587 -0.042675268 -0.11437437 -0.09991108
0000a0 2c 31 f9 bd ab a6 0f 3e 7a 0e ed 3d be e5 1e be
       -0.12167582 0.14028423 0.11575027 -0.15517327
0000b0 c6 94 0b 3e 91 5a 2a 3d 74 a6 a2 bd ef 5b 00 bd
       0.13630971 0.041590277 -0.07941905 -0.031337675
0000c0 c2 73 f5 3d 89 9a f0 bb 0e 7e c4 3d a9 08 aa 3c
       0.1198497 -0.007342641 0.095943555 0.020756083
0000d0 45 58 da bd 99 af 31 bc f3 ff 43 3d 01 0b 7b 3d
       -0.10661367 -0.010845088 0.047851514 0.06128979
0000e0 cc 5d e8 3c 57 e6 de bd c2 2f 39 3c c0 89 a9 3d
       0.028365038 -0.108837776 0.01130289 0.08278227
0000f0 23 7b 2d 3d 0a a4 1d be 31 0e e6 3d 8e 2f 58 ba
       0.04235376 -0.15394607 0.112331755 -0.00082468323
000100 8c 4a 8e bd 89 8a 05 bd 57 0b 8b bc 22 53 86 bd
       -0.069478124 -0.03260282 -0.01697318 -0.06558825
000110 3f a4 6e 3d b1 91 c5 3d 5a 6e 0b 3e 00 90 a4 bd
       0.058262106 0.09646929 0.13616315 -0.08035278
000120 8e 8a a8 bd 49 08 65 3d da 2a e6 bd 7c a0 a3 bd
       -0.08229552 0.055916104 -0.11238642 -0.07989594
000130 e4 05 14 3e 12 d8 01 bd 1e d8 a4 3d 1b 78 19 3e
       0.14455372 -0.0317002 0.080490336 0.14987223
000140 52 c5 e8 bc d9 50 df 3c 13 27 1e 3d f2 b5 eb 3d
       -0.028414402 0.02726023 0.038611483 0.11509313
000150 36 fa e0 bd 1d fa 8e 3d 4b c7 f8 bd 26 d7 13 3d
       -0.10985224 0.06981299 -0.12147387 0.036093853
000160 44 b1 96 3d 59 4e f6 3d a4 f2 fc bd a3 e9 98 bd
       0.073580295 0.120266624 -0.123509675 -0.07466438
000170 90 1d eb 3d d0 39 06 3d 82 0c cf 3d 22 e1 95 3d
       0.11480248 0.032769978 0.101098076 0.07318331
000180 4f 9b e4 3c f4 b8 75 bd d1 e4 31 bd e6 2b a5 bc
       0.027906088 -0.05999084 -0.043431107 -0.020162534
000190 10 a6 c6 bd 8e 1f a1 3d 77 b4 70 bd 99 68 a5 bd
       -0.09699643 0.07867347 -0.058765855 -0.08076591
0001a0 42 b1 5a bd 6d c0 9b bd d3 2c 02 be 9f f5 1a be
       -0.053391702 -0.07605062 -0.12712412 -0.1513276
0001b0 e0 21 90 3d fd 3c de 3d e7 1a 88 3d 79 3f 42 3d
       0.07037711 0.10851476 0.06645756 0.047423813
0001c0 bd 61 20 3d 10 4e bc 3c 21 8a ed 3d 7a 08 e6 3d
       0.03915571 0.022986442 0.115986116 0.112320855
0001d0 5b 09 d8 3c 01 67 f2 bc e0 22 d8 3d 6a 84 e1 3d
       0.026371649 -0.029590132 0.10553527 0.11011584
0001e0 3a 8d 80 3d 20 c2 b7 3d cd 95 e2 bd 73 d7 26 3d
       0.06276937 0.08972573 -0.110637285 0.040732812
0001f0 1a f8 8e 3d 3f 31 2d 3d 84 82 de bd 3a 01 df 3d
       0.06980915 0.042283293 -0.10864738 0.10888906
000200 d4 4c 1d 3d ce 00 72 3d 3e 92 76 bd cd 16 23 be
       0.038403347 0.0590828 -0.06019806 -0.15926667
000210 c6 4f 03 3e 8c d5 b1 3c 32 87 e6 bd 6d 29 e9 bd
       0.128234 0.021708272 -0.11256255 -0.113848545
000220 c3 48 a4 bd 2a a4 1d 3c 85 4f e1 bd 43 c8 83 3d
       -0.08021691 0.009621659 -0.11001495 0.06434681
000230 ae 73 95 bd 17 04 3d bd d4 b0 ed bd 08 e9 e5 bc
       -0.07297455 -0.04614648 -0.11605993 -0.02806522
000240 11 c5 09 bc 33 69 b3 bc e5 5f 34 3d 36 a9 da bd
       -0.008408801 -0.021900749 0.044036765 -0.10676806
000250 34 1e 0a be 0e 78 bc 3d 48 7f 10 be 95 9c ab bd
       -0.13488084 0.09202586 -0.14111054 -0.08379475
000260 4a 4b ef bd 5f 83 d9 bd 6e 30 17 3e d4 1c 9a bd
       -0.11684282 -0.1062076 0.14764568 -0.0752503
000270 b2 84 c5 bc 9b 79 43 3c 4e 83 d9 bd d3 9a 95 bd
       -0.024111126 0.0119308485 -0.106207475 -0.07304921
000280 04 b8 bb 3d de 3f bd 3c 15 1f c6 3d 06 e2 98 bb
       0.091659576 0.023101743 0.09673897 -0.004665616
000290 b6 17 de 3d 5a 7c 1c 3d dd 37 34 bd 53 64 75 bd
       0.10844366 0.03820453 -0.043998588 -0.05991013
0002a0 f7 0a ed 3d 34 e5 b3 3d 6e a5 c0 bd 28 63 39 bd
       0.11574357 0.087839514 -0.09406553 -0.04526058
0002b0 d0 b1 96 bc 93 23 c1 3d 09 e8 c7 bd d0 41 37 bc
       -0.018395334 0.09430613 -0.09761054 -0.0111851245
0002c0 86 de 0c 3e 45 24 c7 3b 5a a1 a5 3d eb 56 13 3e
       0.13756761 0.0060773217 0.08087416 0.14388625
0002d0 aa 07 4b 3d 2c 4f 3d bd 8c 6d 64 3d 8e 8f 88 bc
       0.049567856 -0.046218082 0.055768535 -0.016670015
0002e0 7d fa 5d bd ed 23 b2 bd ff 2f b9 3d fe b9 24 bc
       -0.054193962 -0.086982585 0.09042358 -0.01005411
0002f0 5f 9f 9e bd a3 2d 28 3d 6a 69 06 be c2 b6 92 3b
       -0.077452414 0.041059148 -0.1312615 0.004477353
000300 ee 53 b7 3d b8 f4 16 be 19 f0 c3 bd 2e d7 7e 3c
       0.08951555 -0.1474179 -0.09567279 0.0155542325
000310 c9 0e e5 bd d7 49 04 be df 63 89 3d e7 cc 98 bd
       -0.11184461 -0.12918793 0.06708502 -0.07460957

lstm.bias_hh_l1 f4 [200]
000000 de 52 8b 3d 0a 25 f0 3d 8e ae 20 bd f1 c9 b2 3d
       0.06802915 0.11725815 -0.03922897 0.087299235
000010 c9 c7 a4 3d 08 51 75 3c 8e e2 6f bc 73 b0 74 bc
       0.080459185 0.014972933 -0.014641417 -0.014934647
000020 ff 99 8c 3d 4b 4e d7 bd 30 d8 7a 3d a1 c9 a4 bd
       0.0686531 -0.1051298 0.06124133 -0.0804627
000030 f9 9b b7 bd c6 af e5 ba 2c 4b 75 3c ab 35 a1 3d
       -0.08965296 -0.0017523698 0.014971536 0.078715645
000040 32 46 28 bc 8a 0f d8 bd 1f 06 c4 bd fd da 27 3d
       -0.010270642 -0.10549839 -0.0957148 0.040980328
000050 f3 9d fb bb 8f 61 22 bb 83 ed c0 3d 8b e2 8f bc
       -0.007678741 -0.0024777388 0.09420302 -0.017564079
000060 6f 24 e3 bc 5f f6 c0 bd 43 15 20 bd 7e 5c 0f 3e
       -0.027727334 -0.094219916 -0.039082777 0.14000127
000070 e9 cd 90 3d 9e 8e b7 3d 06 92 48 3c 4f 5b a5 3d
       0.07070524 0.08962749 0.012241846 0.08074056
000080 18 68 d4 3d 88 58 27 3c 09 fe e3 bd 4a 89 9e 3c
       0.10371417 0.010213979 -0.11132438 0.019352574
000090 49 58 aa 3c 3d d6 80 bd d0 4c 0b 3e 76 43 d8 bd
       0.02079405 -0.06290863 0.1360352 -0.10559742
0000a0 fb 25 9b bd b1 55 79 3c 88 c6 82 3c 29 8c 22 bd
       -0.075756036 0.015218184 0.015963808 -0.03968445
0000b0 3a d6 be bd b4 2a d1 3d 43 36 94 bd 48 4f c3 3b
       -0.09318204 0.10213223 -0.07236912 0.005960379
0000c0 4b bd 7a 3d 2d 25 0d 3e eb 48 17 3d 2d 01 e4 3d
       0.06121568 0.13783713 0.036934774 0.11133037
0000d0 dc 9f cc bd d4 66 fc bd 68 7b df 3d 58 46 fb 3d
       -0.09991428 -0.123243004 0.1091221 0.122692764
0000e0 12 6b e5 3d e9 49 e0 3d 93 a9 9e 3d 6a 48 07 be
       0.11202063 0.10951597 0.077471875 -0.13211218
0000f0 d2 ea 81 3d 9a 08 88 3d 30 28 7b bd ec c0 cb bd
       0.063436165 0.066422656 -0.061317623 -0.09948906
000100 1a 2b a1 bd 1f aa 79 3d b1 c3 c8 3d f0 c9 c0 3d
       -0.07869549 0.060953256 0.0980295 0.094135165
000110 67 2a 01 bc cf bc 02 3e 19 24 a5 bd a3 13 43 3b
       -0.007883645 0.12767337 -0.08063526 0.0029766343
000120 07 6b 56 bd 3a 71 22 3e 7c a8 01 bd 63 70 30 bd
       -0.052348163 0.15863505 -0.03165482 -0.04307593
000130 80 a6 ca bd 29 aa f5 bd e9 1e fc 3d 1e 33 0f 3d
       -0.098950386 -0.11995346 0.12310583 0.03496086
000140 8c b2 d2 bc 78 f0 b1 bd 07 a3 8b 3d ca 0a f4 bd
       -0.025719903 -0.08688444 0.068182044 -0.1191612
000150 bb d2 b6 bb 5c 05 93 bd 03 10 9d 3d fe 92 08 3d
       -0.0055793202 -0.071787566 0.076690696 0.033343308
000160 c6 c2 1c 3d 85 b7 9c bd d9 1d 8f bd bb 22 0f bd
       0.038271688 -0.07652191 -0.06988115 -0.03494523
000170 7b 21 5f 3d ed 51 36 3c 93 e3 fb bc b3 e4 03 3d
       0.05447529 0.011127931 -0.030748164 0.032200526
000180 6d 07 fc 3c 08 d1 00 be 89 d8 81 bc 7d 51 28 3e
       0.03076526 -0.12579739 -0.015850322 0.16437335
000190 2e 3f 3e ba 1d b8 b9 bd 52 5f 03 be 18 b4 b9 3c
       -0.00072573393 -0.0906832 -0.1282933 0.022668883
0001a0 19 1e cb bd 2e eb 92 bd a4 b7 d7 3d 15 bc 6f bd
       -0.0991785 -0.07173763 0.105330735 -0.05852898
0001b0 af df 80 bd c6 6e d8 bd 85 d9 06 be b5 cc ed bd
       -0.06292664 -0.10568003 -0.13168915 -0.116113104
0001c0 8d 93 ed 3d 18 1a ec 3d 77 51 85 3d 38 0e e8 3d
       0.11600409 0.115284145 0.06509679 0.11330837
0001d0 0f 43 3a 3d b2 cd bd bd e3 02 23 3d 1e 7f 22 3e
       0.04547411 -0.09267749 0.039797675 0.15868804
0001e0 a9 5a 56 3d 02 d2 54 bd 31 b4 bd bd f4 86 05 3e
       0.052332554 -0.05195809 -0.092628844 0.13039762
0001f0 8a 40 bd 3d 1d dd 0e 3e e4 2e b3 bd ff c2 f6 bc
       0.092408255 0.13951536 -0.08749178 -0.030122278
000200 b0 95 f2 3d 0b e5 18 be b4 cd ed bb 7b ce 42 3d
       0.11844957 -0.14931123 -0.0072571877 0.047560196
000210 42 2d e0 3d 0d 72 5a bc 8c 44 db bc 5e 02 61 ba
       0.10946132 -0.013332856 -0.026766084 -0.00085834216
000220 bf 24 b0 bd fc 08 3d bd b1 bc b0 bd e3 00 93 3d
       -0.08600759 -0.046151146 -0.0862974 0.071779035
000230 cc 95 78 3d ce f8 29 3e 45 5a 1b be 27 07 e4 3d
       0.060689732 0.16598818 -0.15171154 0.11134177
000240 22 d0 a8 bd 68 58 d9 3b c4 55 12 be 56 83 f1 3d
       -0.08242823 0.0066328533 -0.1429053 0.117926285
000250 4d 72 00 3e ec 35 f3 3d aa 02 f0 3c 6f 6c ae 3d
       0.12543602 0.11875519 0.029298145 0.08516776
000260 16 3e 10 3e d7 28 c1 bd 80 da 02 3e 79 7c 00 3e
       0.14086184 -0.09431618 0.12778664 0.12547483
000270 47 3a 0a 3d c0 52 b1 3d ce 30 64 bc 1f aa 5d 3d
       0.033746984 0.086583614 -0.013927652 0.05411732
000280 8b 2b 1c 3e 16 db ef bc 63 60 26 bd cb 27 b3 bc
       0.15250985 -0.029279273 -0.040619265 -0.02186956
000290 d9 8c 1f be 6a 60 67 bd bb 87 93 bd 31 a9 bf bd
       -0.15581073 -0.056488432 -0.07203623 -0.093584426
0002a0 ae 74 06 3d da e4 26 3d 16 58 11 3e 15 81 19 be
       0.03282612 0.040745594 0.14193758 -0.14990647
0002b0 a3 0b 15 bd 35 45 d3 bd 45 d6 7a bd 2a aa da 3d
       -0.03638805 -0.103159346 -0.0612395 0.106769875
0002c0 bc 48 d5 bc a5 f2 b6 bd 52 da d0 bc d2 70 a8 bd
       -0.026035659 -0.089329995 -0.025494728 -0.08224644
0002d0 67 e7 dd 3d fe 50 b6 bd e6 cd 0e bd 0a 48 15 3e
       0.10835152 -0.08902167 -0.03486433 0.14578262
0002e0 24 b5 dd 3d 5b 92 33 bd f3 00 de 3d 1b f8 0c bc
       0.108255655 -0.043840747 0.10840025 -0.008604075
0002f0 43 e3 b4 bd 89 b4 85 bd b9 06 06 3e 43 05 da bc
       -0.08832409 -0.06528575 0.13088502 -0.026613837
000300 6f f2 52 bd 9b ba a2 bc 47 ad 09 3e 32 ae 76 3c
       -0.051500734 -0.019864371 0.13445006 0.01505618
000310 63 dc 8c 3d 53 b8 d7 bd cb a1 80 3c 56 3b 2e bd
       0.06877973 -0.10533204 0.015702149 -0.042537056

fc.weight f4 [1, 50]
000000 17 e6 45 3d 72 60 3e 3d ec 1b c5 bc bb 5c f5 bc
       0.048315134 0.046478696 -0.024061166 -0.029951444
000010 29 75 0d be 19 7a 84 bc 94 36 bc bd c3 4b f0 bd
       -0.13814224 -0.016171502 -0.091900975 -0.117332004
000020 de e7 82 bd 60 5f e4 bc 19 e8 f0 bd e0 83 10 3d
       -0.063918814 -0.02787751 -0.11763019 0.035282016
000030 3a 89 d4 bd c1 f7 0a 3d 1e 70 bd bd cc 53 7d 3c
       -0.103777364 0.033927683 -0.092499 0.015461873
000040 08 60 a9 3c 61 9f 07 be 07 70 e2 3d d9 14 da 3c
       0.020675674 -0.13244392 0.11056524 0.026621269
000050 13 ab 02 3e 09 fd 63 3d a7 f3 94 3d 32 8a b9 3d
       0.12760572 0.055661235 0.072730355 0.09059562
000060 e9 cc ca 3d 75 bc a7 3d 67 cc a1 bd cf 70 e5 3d
       0.09902365 0.08190242 -0.07900315 0.11203157
000070 61 bd ff 3d f2 14 15 be 30 d6 b1 bd 24 8d 6e bd
       0.12487293 -0.14558771 -0.08683431 -0.05824007
000080 0e 2b c0 3d 30 f2 14 3e bd e2 41 bd 85 82 16 be
       0.09383212 0.14545512 -0.047335375 -0.14698227
000090 9d f6 1d 3d 54 c7 f5 bd 5e 3a 8c bd 48 96 c3 3d
       0.038565267 -0.120009094 -0.0684707 0.09550148
0000a0 ea cd e6 3b e0 95 d5 3d ee 7f fb bd 1c 4c bd bd
       0.00704359 0.10428977 -0.1228026 -0.09243032
0000b0 e3 0a c4 bd 30 b1 42 3d f2 ca 03 be 9d 3c 8d 3d
       -0.09572389 0.04753226 -0.12870386 0.06896327
0000c0 f5 d2 84 3c 2b b6 4a 3d
       0.016213873 0.049490135
