data/models/AAPL_20251215_182353.pt (torch, 128853 bytes, 9 tensors)

lstm.weight_ih_l0 f4 [200, 1]
-0.045803554 0.07994487 0.018002195 0.01997771 -0.08023675 0.045272492 -0.12171464 0.0019282239
-0.046736095 -0.09370665 0.07278217 -0.064800374 -0.07519846 -0.050452895 -0.014524343 -0.02323932
-0.11386132 0.11418546 -0.116783686 0.12631437 0.016080983 0.09889821 0.15439299 0.053643424
0.030479567 -0.027344318 -0.02538557 -0.11672089 -0.046284124 0.12391184 -0.0097023845 -0.10149551
0.10146712 -0.11817634 -0.10449255 0.055704977 -0.051330864 -0.08646501 0.009695048 0.0479909
-0.08850014 -0.08192045 -0.1161319 -0.03362084 -0.09922271 -0.06628581 0.14987396 -0.057770815
-0.058819514 -0.110626295 -0.031713918 0.103842646 -0.1291328 -0.0855946 -0.012220347 0.10332504
0.10062058 -0.06590707 -0.06917899 0.09336868 -0.02275955 0.0699185 0.08282038 -0.036458343
-0.024536658 -0.030844795 0.09266907 0.12109754 0.04956437 -0.044433042 -0.11224698 0.06721989
0.15905677 0.10377455 0.010765421 -0.08350742 0.029361963 -0.007319022 -0.08141258 -0.072556876
-0.076871306 -0.1324361 -0.12224008 0.12093112 0.1603595 0.03532792 0.09054695 0.005972412
-0.08218663 0.07473483 0.13080722 0.09752639 -0.08467105 0.06461315 0.1542729 0.11555644
0.025682202 0.12705097 -0.11174336 -0.09279039 -0.09216391 0.14080186 0.07649899 -0.10967024
-0.03445932 -0.078897305 0.08575735 0.12288884 -0.08186961 -0.05359222 -0.12633595 0.033807732
-0.06681773 0.11693928 0.12166652 -0.04693845 0.14275923 0.07024758 -0.15596545 0.14005071
0.02497039 -0.049104217 -0.0013248882 -0.13376041 -0.0005512292 -0.044695605 0.08194833 0.15711762
-0.013241369 0.10661221 0.08887621 -0.09469073 0.14826149 0.06556259 -0.0658777 0.0972165
-0.009516558 0.15067695 -0.029729448 -0.109780185 -0.09916957 0.097328946 0.02712956 -0.030032398
-0.0137157645 -0.09511355 -0.0659914 -0.07484252 0.045617945 -0.079914644 0.0020236091 0.08753279
-0.014598284 -0.023483021 0.098384984 0.12505817 0.010023033 -0.05839472 0.07801566 -0.14108463
-0.02877697 0.01549772 0.052231025 0.12066835 0.04651978 -0.026205448 -0.049604315 -0.0470897
-0.077486716 0.038297024 -0.084029295 -0.011084203 0.07077897 0.118412286 0.09603211 -0.14223582
0.030493401 -0.030980822 0.06652808 -0.033092942 -0.14825074 0.12005459 0.108156554 0.021188414
-0.016518177 -0.026182467 -0.083024465 0.04322415 0.0540884 -0.063413456 0.15034717 0.16084808
0.059663318 0.1078708 0.14813618 -0.10533728 -0.11380418 -0.043279983 -0.08719949 0.023297802
00000000: 829c 3bbd 23ba a33d 5779 933c 4ba8 a33c
00000010: 2a53 a4bd a66f 393d 8645 f9bd 75bc fc3a
00000020: 596e 3fbd 46e9 bfbd d10e 953d 0fb6 84bd
00000030: a601 9abd b2a7 4ebd 83f7 6dbc 6360 bebc
00000040: 2030 e9bd 11da e93d 492c efbd 8e58 013e
00000050: 44bc 833c 258b ca3d 3219 1e3e 35b9 5b3d
00000060: 49b0 f93c 3101 e0bc 66f5 cfbc 5d0b efbd
00000070: 6c94 3dbd 7ec5 fd3d c0f6 1ebc e1dc cfbd
00000080: fecd cf3d 7006 f2bd 3100 d6bd e72a 643d
00000090: 5040 52bd 9114 b1bd fbd7 1e3c 1b92 443d
000000a0: 903f b5bd e9c5 a7bd 90d6 edbd 02b6 09bd
000000b0: 4735 cbbd dbc0 87bd 8f78 193e 17a1 6cbd
000000c0: bbec 70bd 0a90 e2bd 74e6 01bd 74ab d43d
000000d0: 643b 04be 394c afbd da37 48bc 149c d33d
000000e0: 2a12 ce3d 49fa 86bd b7ad 8dbd 1438 bf3d
000000f0: 3c72 babc 6e31 8f3d bb9d a93d 5855 15bd
00000100: 1a01 c9bc 39ae fcbc 48c9 bd3d fd01 f83d
00000110: 0204 4b3d 6cff 35bd bfe1 e5bd 95aa 893d
00000120: c7df 223e c087 d43d 7361 303c f005 abbd
00000130: 8088 f03c 68d4 efbb a4bb a6bd b398 94bd
00000140: b46e 9dbd 549d 07be 0259 fabd bcaa f73d
00000150: 4835 243e 02b4 103d ae70 b93d 39b4 c33b
00000160: 7751 a8bd 930e 993d 54f2 053e eabb c73d
00000170: 0468 adbd e653 843d b7f9 1d3e dba8 ec3d
00000180: 7b63 d23c a619 023e b4d9 e4bd e308 bebd
00000190: 6fc0 bcbd 5d2e 103e 81ab 9c3d ca9a e0bd
000001a0: 3725 0dbd e994 a1bd 8da1 af3d 25ad fb3d
000001b0: 41ab a7bd 8483 5bbd 365e 01be fa79 0a3d
000001c0: bcd7 88bd dc7d ef3d 4c2c f93d 8842 40bd
000001d0: 7a2f 123e f7dd 8f3d 68b5 1fbe 7469 0f3e
000001e0: b48e cc3c 8121 49bd dfa7 adba 7df8 08be
000001f0: 5e80 10ba bd12 37bd 87d4 a73d 71e3 203e
00000200: 54f2 58bc 8157 da3d bb04 b63d 37ed c1bd
00000210: dcd1 173e ae45 863d e3ea 86bd 7219 c73d
00000220: 56eb 1bbc 0f4b 1a3e 2c8b f3bc 6fd4 e0bd
00000230: 6a19 cbbd 6654 c73d d03e de3c 8106 f6bc
00000240: 16b8 60bc e5ca c2bd 8026 87bd 0947 99bd
00000250: e2d9 3a3d 4aaa a3bd 879e 043b 6444 b33d
00000260: a42d 6fbc 775f c0bc 117e c93d 400f 003e
00000270: a637 243c 4d2f 6fbd adc6 9f3d 7d78 10be
00000280: aebd ebbc 26ea 7d3c 33f0 553d f820 f73d
00000290: 868b 3e3d cfac d6bc e52d 4bbd 21e1 40bd
000002a0: 5bb1 9ebd 57dd 1c3d 8d17 acbd 849a 35bc
000002b0: 91f4 903d 2482 f23d 7cac c43d 44a6 11be
000002c0: 4ccd f93c 7ecb fdbc e03f 883d 778c 07bd
000002d0: 0bcf 17be 2edf f53d 2f81 dd3d 5393 ad3c
000002e0: 2151 87bc 9d7c d6bc bb08 aabd ce0b 313d
000002f0: cc8b 5d3d eade 81bd 9cf4 193e 5cb5 243e
00000300: 8661 743d 5eeb dc3d 03b1 173e 12bb d7bd
00000310: 2a12 e9bd 5a46 31bd a595 b2bd 08db be3c

lstm.weight_hh_l0 f4 [200, 50]
-0.10586428 -0.040145114 0.14295353 0.095925555 -0.053997207 -0.00040555533 0.022073448 0.050926708
-0.0077695404 -0.12837423 0.057853255 -0.07614894 -0.051225074 -0.054130685 -0.0056714695 0.087882504
-0.08005466 -0.06292776 -0.03579102 -0.0575593 0.04739189 -0.14804544 -0.05133226 -0.003941713
-0.10326587 0.087954566 0.12259544 -0.028020438 -0.062068563 -0.020756498 0.042629827 0.07895234
0.117446646 -0.07164916 0.061873805 -0.06763085 -0.035567824 0.08231656 0.08812672 0.0005250676
0.065562084 0.122981355 0.017582837 -0.028726809 0.047920704 0.057560146 -0.105941854 -0.005082635
0.113418505 -0.027756225 0.08253447 -0.054660484 -0.060865596 0.07012994 0.0047555976 0.10506846
-0.04873357 0.110102914 0.063361555 0.02057253 0.090314426 0.047370885 -0.059217565 0.14640066
0.02653572 0.08645144 -0.11333124 0.060284425 -0.094850436 0.0818544 -0.004256357 0.032540027
-0.012216748 0.06398156 -0.06469899 0.11024287 0.01678711 0.11835734 -0.06603335 0.0009934126
0.10525318 -0.057927594 0.15120046 0.10693574 0.12564589 0.019683363 -0.16190262 -0.0020873016
0.08133879 0.0017573856 0.14686787 -0.07088639 -0.056705683 0.02067083 0.09966646 -0.13475925
0.04560953 0.002446111 0.111994155 0.10781541 -0.04343427 0.049114443 -0.14580356 0.12260205
-0.09144594 0.00031511043 -0.13172913 0.04372341 0.037048854 0.09374432 -0.034763306 0.13507521
-0.028057031 -0.12032591 0.0959652 -0.03805814 -0.070513695 -0.04507057 0.11145981 0.09017911
-0.14489068 -0.015386976 -0.13714279 -0.05753882 -0.03460079 0.047062412 0.04522026 -0.009616945
0.0017541011 -0.040100966 -0.042874478 -0.031593192 0.114197694 -0.00021355932 0.109514385 0.01458213
-0.094703786 0.003894655 -0.0054152175 -0.041930944 -0.09215644 -0.1296434 0.1445472 -0.12888412
0.051728755 0.12219163 0.07148614 0.11846148 0.11828296 -0.069878355 0.11827297 -0.015380126
0.06564256 -0.11175517 0.082917444 0.00398039 0.09004079 -0.056662753 -0.08024723 0.004972265
-0.14896417 0.08109534 -0.0042530466 -0.09244963 -0.120935194 -0.010508368 0.03665061 -0.12995821
-0.12363286 0.104836576 -0.023256663 -0.1485168 -0.026080897 0.04418058 -0.10424478 -0.013900615
0.059562966 0.0016432861 -0.07384741 0.019828402 -0.10828921 -0.0020016674 -0.11373799 0.13115104
0.11353128 -0.111646324 -0.09650486 -0.10147847 -0.043003414 0.083159275 0.05891832 0.137633
0.12779166 -0.011588225 0.063435666 -0.14674157 -0.12636161 -0.004423562 -0.035319895 0.12694122
-0.027677286 -0.123090334 -0.0075162034 -0.0722591 -0.09467136 0.10388331 -0.08732462 0.04924971
-0.007772365 0.118800886 -0.028464574 -0.0311399 0.12243664 -0.10429231 0.10802075 0.03986592
0.14532585 0.098219454 -0.08151684 0.12145318 0.10820537 -0.09183638 -0.08097676 0.03339276
-0.06678293 0.05311099 -0.00078778766 -0.11379668 0.08963592 -0.006558716 -0.009789797 -0.043047946
0.037259944 0.08051186 0.07761425 0.04387574 0.01989319 -0.064459234 0.07585046 0.07045572
-0.08306017 -0.100599974 0.014725713 0.061117243 -0.03389636 0.12117121 0.043713827 0.10936588
0.046560775 0.062028565 0.057820436 0.13364778 -0.003595915 0.058371503 0.053425916 -0.07452945
00000000: 5fcf d8bd 346f 24bd 6962 123e 9e74 c43d
00000010: 2d2c 5dbd b7a0 d4b9 60d3 b43c 8698 503d
00000020: a197 febb 8974 03be 89f7 6c3d faf3 9bbd
00000030: 62d1 51bd 23b8 5dbd bcd7 b9bb befb b33d
00000040: b3f3 a3bd 45e0 80bd 9b99 12bd 4dc3 6bbd
00000050: 001e 423d 3999 17be c741 52bd 7c29 81bb
00000060: 0e7d d3bd 8621 b43d 5113 fb3d 1e8b e5bc
00000070: 9b3b 7ebd 8809 aabc 9d9c 2e3d c4b1 a13d
00000080: de87 f03d cbbc 92bd 636f 7d3d 0b82 8abd
00000090: 91af 11bd 9695 a83d c87b b43d b1a4 093a
000000a0: 6a45 863d a6dd fb3d e209 903c 7c54 ebbc
000000b0: 8048 443d 30c4 6b3d 0bf8 d8bd 3c8c a6bb
000000c0: f647 e83d 0661 e3bc d507 a93d ace3 5fbd
000000d0: 344e 79bd 49a0 8f3d d8d4 9b3b 222e d73d
000000e0: da9c 47bd a37d e13d b4c3 813d b987 a83c
000000f0: c5f6 b83d f907 423d 1e8e 72bd 0eea 153e
00000100: 7061 d93c 740d b13d 361a e8bd cdec 763d
00000110: f240 c2bd 48a3 a73d e978 8bbb b148 053d
00000120: c128 48bc c408 833d e780 84bd 04c7 e13d
00000130: 1f85 893c 5565 f23d 7e3c 87bd 6535 823a
00000140: fb8e d73d 7c45 6dbd 4bd4 1a3e 2001 db3d
00000150: 51a9 003e 013f a13c cdc9 25be 1ccb 08bb
00000160: f494 a63d 1358 e63a 8864 163e e22c 91bd
00000170: 3844 68bd df55 a93c ee1d cc3d 54fe 09be
00000180: 0fd1 3a3d ef4e 203b 315d e53d 53ce dc3d
00000190: 22e8 31bd 3a2c 493d 874d 15be c916 fb3d
000001a0: 0248 bbbd 6835 a539 00e4 06be 5217 333d
000001b0: 8ac0 173d 06fd bf3d f863 0ebd 2851 0a3e
000001c0: dcd7 e5bc 6e6d f6bd 6789 c43d dae2 1bbd
000001d0: 7c69 90bd eb9b 38bd 0a45 e43d d3af b83d
000001e0: 395e 14be a819 7cbc 296f 0cbe d3ad 6bbd
000001f0: 8fb9 0dbd 84c4 403d e138 393d 6490 1dbc
00000200: dee9 e53a e940 24bd 269d 2fbd dd67 01bd
00000210: 7be0 e93d e5ee 5fb9 1449 e03d e3e9 6e3c
00000220: 0ff4 c1bd 783d 7f3b 2372 b1bb c8bf 2bbd
00000230: 84bc bcbd 3dc1 04be 2e04 143e 33fa 03be
00000240: 88e1 533d 9b3f fa3d 5367 923d ef9b f23d
00000250: 563e f23d 621c 8fbd 1939 f23d edfc 7bbc
00000260: 9b6f 863d e5df e4bd 9fd0 a93d ee6d 823b
00000270: 4e67 b83d 3417 68bd a958 a4bd 62ee a23b
00000280: 108a 18be 5015 a63d 245d 8bbb 3b56 bdbd
00000290: dfac f7bd 4a2b 2cbc f31e 163d c413 05be
000002a0: 3a33 fdbd 8fb4 d63d c284 bebc ca14 18be
000002b0: 9ba7 d5bc b2f6 343d 4a7e d5bd 68bf 63bc
000002c0: 4cf8 733d 8863 d73a 503d 97bd 2c6f a23c
000002d0: bcc6 ddbd 682e 03bb 77ef e8bd 754c 063e
000002e0: 1683 e83d d4a6 e4bd 57a4 c5bd f2d3 cfbd
000002f0: 5924 30bd 694f aa3d 5654 713d aaef 0c3e
00000300: d1db 023e 8adc 3dbc 8fea 813d 6c43 16be
00000310: f064 01be 87f3 90bb 98ab 10bd e1fc 013e
00000320: 7abb e2bc c916 fcbd 7c4a f6bb 94fc 93bd
00000330: 0fe3 c1bd c6c0 d43d 40d7 b2bd 10ba 493d
00000340: 53af febb e14d f33d 8a2e e9bc 1b19 ffbc
00000350: 10c0 fa3d 3597 d5bd fc39 dd3d 724a 233d
00000360: 4dd0 143e 4827 c93d 4df2 a6bd 72bc f83d
00000370: c79a dd3d b614 bcbd 25d7 a5bd d9c6 083d
00000380: 7dc5 88bd e98a 593d 8983 4eba 3c0e e9bd
00000390: 0a93 b73d 7fea d6bb 6265 20bc 0b53 30bd
000003a0: e29d 183d 67e3 a43d 38f4 9e3d 0cb7 333d
000003b0: 0bf7 a23c 3403 84bd 7c57 9b3d 174b 903d
000003c0: 731b aabd 5c07 cebd 1e44 713c 1356 7a3d
000003d0: e9d6 0abd 9d28 f83d 450d 333d 38fb df3d
000003e0: 83b6 3e3d aa11 7e3d 1fd5 6c3d f7da 083e
000003f0: 71a9 6bbb f516 6f3d 22d5 5a3d e5a2 98bd

lstm.bias_ih_l0 f4 [200]
0.025312105 -0.045105096 -0.002529267 0.011216515 -0.037244145 -0.018654177 0.0066353255 0.06753409
-0.12653668 -8.88342e-06 0.009860208 0.15023498 -0.080606975 0.0836907 0.0055566505 0.009458092
-0.084372066 -0.12645239 0.007052611 -0.10263716 -0.046180464 -0.0019584505 -0.041682392 0.08822408
-0.07462056 0.08074185 -0.08320723 0.05933324 -0.11167818 -0.07270117 -0.03348066 0.09781611
0.12904574 0.06808819 0.077130675 -0.06515839 0.033346735 0.06580321 0.03847506 -0.06835104
0.034042273 -0.0706022 0.054102015 -0.05382032 -0.026016977 0.003525611 0.0044005266 -0.018596632
-0.12266849 -0.021893134 -0.029184757 -0.06650798 -0.13877282 0.028886916 -0.007931904 -0.06957463
-0.036113203 0.11223395 0.15442032 -0.07566136 -0.075811476 0.06679741 -0.14077532 -0.0428658
-0.059402898 0.026272405 0.052124333 -0.06690765 0.023270981 -0.059112538 -0.096049994 0.109714456
-0.11996007 -0.07608104 0.03802593 -0.14645615 -0.008356278 0.11581809 0.113201275 0.05897688
0.07994168 -0.03177614 -0.117685385 0.008175733 0.073124476 0.046101708 -0.09471384 -0.038276814
-0.12574844 0.10210861 -0.09738286 -0.04913262 -0.10490419 -0.08138071 -0.05154051 -0.10433521
-0.033594284 0.11480908 -0.11251923 -0.011416524 -0.023625819 0.016382383 0.04376884 0.11391429
-0.101384215 0.010794623 0.00012189814 0.07462413 -0.025598168 0.06553758 0.04506701 -0.13078453
0.116396695 0.09743549 -0.02791446 -0.031685583 0.09622136 -0.10326816 0.03741935 0.13886744
0.12000159 -0.055587932 -0.08369628 -0.153274 -0.030902192 0.12689885 0.11439089 0.09618029
0.05487207 -0.15409496 -0.087919466 -0.07148724 0.027145544 -0.10948954 0.15326478 0.121419124
-0.115784384 0.100603044 -0.07782371 0.14523657 0.0957429 0.1463505 -0.031839058 0.08785976
-0.07670049 0.014180844 -0.13713177 0.049785435 -0.051440567 0.15618958 0.07927439 0.1402123
-0.043130517 -0.10903861 -0.09822968 -0.022140129 -0.120368935 0.040151805 0.09159588 -0.003408102
-0.12156691 0.058050912 0.09146425 0.017972229 0.046785157 -0.03420549 -0.03647562 -0.050398692
-0.06532354 0.09698234 -0.054057457 -0.059097894 0.13421492 -0.076860175 -0.0835747 0.005095451
-0.05820832 0.011746859 -0.0060092383 0.04907066 -0.14930604 -0.061646625 -0.06639806 0.037786946
-0.026666908 0.031004904 0.114380136 -0.0045588287 0.061673664 -0.08911178 0.14027837 0.03414096
-0.08296326 -0.07365667 0.047075786 -0.0009929086 -0.023016335 0.13082333 0.057840962 0.065192774
00000000: 555b cf3c 1fc0 38bd 0fc2 25bb 79c5 373c
00000010: 518d 18bd a5d0 98bc 256d d93b 504f 8a3d
00000020: d592 01be 000a 15b7 b68c 213c 33d7 193e
00000030: 4515 a5bd 0866 ab3d 9014 b63b 1df6 1a3c
00000040: 43cb acbd bc7c 01be 9719 e73b 6e33 d2bd
00000050: ba27 3dbd 5959 00bb 28bb 2abd d4ae b43d
00000060: aad2 98bd fc5b a53d 8d68 aabd 6907 733d
00000070: 88b7 e4bd 5ae4 94bd 0423 09bd d053 c83d
00000080: 9124 043e d271 8b3d b0f6 9d3d c371 85bd
00000090: 9696 083d d5c3 863d 0698 1d3d a1fb 8bbd
000000a0: e96f 0b3d e397 90bd 139a 5d3d b272 5cbd
000000b0: 8e21 d5bc f00d 673b 4b32 903b f757 98bc
000000c0: 9e39 fbbd 3b59 b3bc df14 efbc 5635 88bd
000000d0: 761a 0ebe 41a4 ec3c d1f4 01bc 257d 8ebd
000000e0: 70eb 13bd eada e53d 5c20 1e3e 58f4 9abd
000000f0: 0c43 9bbd 15cd 883d 6827 10be 0d94 2fbd
00000100: 7450 73bd 3a39 d73c 5380 553d e106 89bd
00000110: c9a2 be3c fd1f 72bd dcb5 c4bd f9b1 e03d
00000120: a0ad f5bd 60d0 9bbd 14c1 1b3d 9af8 15be
00000130: c5e8 08bc 0932 ed3d 12d6 e73d be91 713d
00000140: 77b8 a33d b327 02bd 0905 f1bd 82f3 053c
00000150: 49c2 953d 25d5 3c3d 54f9 c1bd 26c8 1cbd
00000160: 33c4 00be 521e d13d aa70 c7bd 493f 49bd
00000170: 02d8 d6bd eeaa a6bd 241c 53bd b3ad d5bd
00000180: 299a 09bd 0621 eb3d 7b70 e6bd 5f0c 3bbc
00000190: ef8a c1bc 5934 863c f546 333d e54b e93d
000001a0: 87a2 cfbd eedb 303c 91a3 ff38 89d4 983d
000001b0: 40b3 d1bc 9138 863d 2f98 383d 61ec 05be
000001c0: 6461 ee3d 428c c73d deac e4bc bec8 01bd
000001d0: b40f c53d 427e d3bd 0845 193d 4433 0e3e
000001e0: 65c3 f53d 2cb0 63bd f568 abbd dcf3 1cbe
000001f0: 9826 fdbc c6f1 013e c545 ea3d 2cfa c43d
00000200: 89c1 603d 12cb 1dbe 1f0f b4bd e767 92bd
00000210: 5560 de3c 0d3c e0bd 71f1 1c3e 97aa f83d
00000220: 5d20 edbd f808 ce3d 0a62 9fbd e5b8 143e
00000230: db14 c43d e8dc 153e ac69 02bd d1ef b33d
00000240: 2615 9dbd c556 683c 456c 0cbe d0eb 4b3d
00000250: 58b3 52bd 29f0 1f3e 9d5a a23d d093 0f3e
00000260: a0a9 30bd a24f dfbd a42c c9bd 375f b5bc
00000270: fd83 f6bd 3876 243d 9f96 bb3d 775a 5fbb
00000280: 12f8 f8bd cbc6 6d3d 9c51 bb3d 7f3a 933c
00000290: cba1 3f3d 0e1b 0cbd 7667 15bd dc6e 4ebd
000002a0: 59c8 85bd ad9e c63d 5a6b 5dbd a210 72bd
000002b0: a36f 093e de68 9dbd 3629 abbd bef7 a63b
000002c0: d96b 6ebd e675 403c 25e9 c4bb 51fe 483d
000002d0: afe3 18be 2c81 7cbd b5fb 87bd 7cc6 1a3d
000002e0: 8f74 dabc fffd fd3c 2240 ea3d 3a62 95bb
000002f0: 869d 7c3d 3d80 b6bd 22a5 0f3e 64d7 0b3d
00000300: a4e8 a9bd 4fd9 96bd 8ad2 403d 7c24 82ba
00000310: c18c bcbc 8df6 053e a5ea 6c3d ca83 853d

lstm.bias_hh_l0 f4 [200]
0.11260433 -0.11443179 0.114518255 0.030719398 0.097091235 0.044944435 0.05933086 0.083425455
0.08284514 -0.1114112 -0.039135836 0.053931653 0.05697723 -0.062930696 -0.111511014 0.14603448
-0.0917615 0.036649473 0.05063256 -0.12129071 0.064968206 -0.10036795 0.14077224 0.082067415
0.038981553 -0.07203488 0.075251244 -0.06418862 -0.088430434 0.113261014 -0.12642123 -0.06014965
-0.066261135 -0.0520187 0.15009259 -0.025762564 0.039253898 0.13331193 0.025244582 -0.096427634
-0.024318634 0.079271376 0.025570251 -0.116374336 0.02859324 -0.07493824 0.13731898 -0.010202634
0.08300081 0.030854741 0.014042702 -0.11496542 -0.09365248 -0.03942381 0.12868921 0.1391591
-0.14277016 -0.10457288 0.12719578 0.018135415 -0.024620228 -0.06401135 -0.053846683 -0.10211307
-0.078341976 0.05940459 -0.09718753 0.14949346 0.009842787 0.045814965 0.15188847 0.10227134
-0.11254008 -0.020789592 -0.005251626 0.039557844 0.10691757 0.13606927 0.055259768 -0.06727802
0.03915921 -0.06798628 0.11688419 0.046173185 -0.06454205 0.05720206 0.022562355 -0.118626505
0.036763094 0.1317223 0.14516038 -0.053288598 -0.115113266 -0.07053402 -0.07188372 0.104714684
-0.09000097 -0.016120728 -0.05912877 0.07437558 -0.068199426 0.12644973 -0.07308982 0.14355996
0.009665252 -0.046604775 0.026973246 -0.00708148 0.02627556 -0.11600082 -0.038826767 -0.11163651
0.043931678 0.08018662 0.10745166 0.06358495 0.07013485 -0.15160888 -0.14205617 0.016556213
0.06356706 -0.054701716 -0.08476923 -0.1093431 -0.08445133 -0.0303465 -0.012123106 0.10939187
0.055141035 -0.07256896 -0.00029507934 0.089075066 0.03843976 0.14735633 0.12517588 0.08733063
-0.051440224 -0.013469538 0.1370855 -0.025409743 0.021035185 0.060838506 -0.01987726 0.11420525
-0.1446619 -0.083510794 0.03445615 -0.16308466 0.10175297 -0.10682957 -0.080681376 -0.07539494
0.12775709 -0.02009335 0.08999094 -0.010702802 0.079708286 0.0031683452 0.13822801 -0.06272344
-0.102024555 0.017519375 0.031953912 0.13768727 -0.104223646 -0.06805947 0.09319461 0.0055632913
0.026091052 -0.09853143 -0.09832792 -0.026631048 -0.038869392 -0.043385897 0.13573799 -0.1415767
-0.06511833 -0.048836727 0.036370523 -0.08136695 0.09726277 -0.10331429 -0.05726521 -0.03751657
0.014571877 -0.021607758 -0.14194158 -0.08899334 -0.029878378 -0.0726572 -0.102690786 0.14137389
-0.1138082 -0.05949317 0.13888131 -0.10352582 -0.058782384 -0.011574354 -0.09057131 0.027000343
00000000: 199d e63d 375b eabd 8c88 ea3d 3fa7 fb3c
00000010: c5d7 c63d a817 383d ea04 733d f7da aa3d
00000020: b6aa a93d 8e2b e4bd e64c 20bd 70e7 5c3d
00000030: f560 693d cfe1 80bd e35f e4bd 108a 153e
00000040: 74ed bbbd c21d 163d 1664 4f3d 4467 f8bd
00000050: 0d0e 853d b68d cdbd 9926 103e f612 a83d
00000060: 1fab 1f3d 0687 93bd 531d 9a3d 5375 83bd
00000070: 041b b5bd 64f5 e73d 9174 01be 7b5f 76bd
00000080: ebb3 87bd 8f11 55bd dfb1 193e 030c d3bc
00000090: b2c8 203d ec82 083e bacd ce3c da7b c5bd
000000a0: df37 c7bc 0859 a23d b478 d13c ab55 eebd
000000b0: 5f3c ea3c 3879 99bd 599d 0c3e f328 27bc
000000c0: 54fc a93d 15c3 fc3c 5c13 663c fd72 ebbd
000000d0: dfcc bfbd dc7a 21bd 1bc7 033e b97f 0e3e
000000e0: 5732 12be 4e2a d6bd 9c3f 023e b990 943c
000000f0: 5cb0 c9bc 6218 83bd 578e 5cbd a820 d1bd
00000100: c271 a0bd 3a52 733d 410a c7bd d014 193e
00000110: a443 213c 79a8 3b3d a788 1b3e a373 d13d
00000120: 6a7b e6bd ef4e aabc d515 acbb 6807 223d
00000130: 99f7 da3d be55 0b3e 1158 623d 0fc9 89bd
00000140: 6865 203d 643c 8bbd fa60 ef3d 1820 3d3d
00000150: 9f2e 84bd b54c 6a3d b0d4 b83c 74f2 f2bd
00000160: e694 163d 36e2 063e eca4 143e 2545 5abd
00000170: 81c0 ebbd 2474 90bd c637 93bd a774 d63d
00000180: 6e52 b8bd 9e0f 84bc 0231 72bd 3952 983d
00000190: 24ac 8bbd 0a7c 013e 1eb0 95bd 6201 133e
000001a0: 015b 1e3c a6e4 3ebd fff6 dc3c c30b e8bb
000001b0: d83f d73c d791 edbd d108 1fbd afa1 e4bd
000001c0: b4f1 333d e238 a43d 9e0f dc3d d438 823d
000001d0: dca2 8f3d 5c3f 1bbe 2c77 11be e5a0 873c
000001e0: 722f 823d e80e 60bd 7d9b adbd 46ef dfbd
000001f0: d2f4 acbd 3999 f8bc fe9f 46bc d808 e03d
00000200: 91db 613d 099f 94bd e1b4 9ab9 fd6c b63d
00000210: 0373 1d3d 94e4 163e 1b2e 003e 67da b23d
00000220: fcb2 52bd 56af 5cbc 2460 0c3e 1828 d0bc
00000230: fb51 ac3c cc31 793d a3d5 a2bc 71e4 e93d
00000240: 4022 14be b507 abbd e421 0d3d aaff 26be
00000250: dc63 d03d 76c9 dabd 473c a5bd aa68 9abd
00000260: c1d2 023e cf9a a4bc 2c4d b83d ce5a 2fbc
00000270: 193e a33d 03a4 4f3b a58b 0d3e 2675 80bd
00000280: 40f2 d0bd cb84 8f3c 1be2 023d e4fd 0c3e
00000290: 3573 d5bd c362 8bbd d1dc be3d 454c b63b
000002a0: e7bc d53c d9ca c9bd 2660 c9bd 5b29 dabc
000002b0: 8335 1fbd 69b5 31bd e6fe 0a3e 7cf9 10be
000002c0: c25c 85bd 0509 48bd 42f9 143d b7a3 a6bd
000002d0: b431 c73d 7196 d3bd ed8e 6abd faaa 19bd
000002e0: e2be 6e3c c102 b1bc 2259 11be 2442 b6bd
000002f0: 80c3 f4bc 4ccd 94bd 8c4f d2bd 51c4 103e
00000300: 4614 e9bd 1caf 73bd e736 0e3e 5805 d4bd
00000310: ccc5 70bd 5ca2 3dbc 737d b9bd d32f dd3c

lstm.weight_ih_l1 f4 [200, 50]
-0.083695024 0.012412322 -0.12807688 -0.0602157 -0.11050706 -0.097377084 -0.01509277 0.06657953
-0.12547678 0.025465354 0.037021067 0.08162219 -0.13007374 -0.095695764 0.1163321 -0.04032232
-0.06873686 0.06951609 -0.1191561 -0.09453794 -0.13652661 0.005878222 -0.050902717 -0.063184574
-0.044908445 0.017460115 -0.13579729 0.11974742 0.0051185745 -0.13323008 0.13244623 0.06471106
-0.00045604602 -0.030390857 0.13119759 -0.061997958 0.07048001 0.03448019 -0.028933657 -0.043606665
-0.0033973765 0.10943749 0.03613533 0.06733012 -0.12664619 -0.14281164 -0.029750373 0.10505055
0.026202824 0.14555988 0.08116906 -0.050186656 -0.0146922935 0.045500834 -0.13613407 -0.050833542
-0.07728625 -0.0011053381 0.022156969 -0.027591912 0.09971455 -0.06866127 0.09549244 -0.060401432
0.08542985 0.00028572138 -0.14050505 -0.055729706 -0.04187055 0.13875297 0.13075644 -0.023085397
0.10522406 0.09277578 -0.09449212 -0.13187449 -0.11050258 0.13516827 -0.051872276 0.05749081
0.06655939 -0.12658803 0.068807416 0.062078115 0.060030837 0.0309934 -0.1169689 0.022200745
0.112971656 0.082204916 0.12785394 -0.12460127 0.11241883 -0.07113653 -0.13939694 0.04670784
0.037688516 0.022042789 -0.13839927 -0.010896742 -0.09004642 -0.04760109 -0.13371217 0.025081052
0.14793834 -0.080744796 0.101002686 -0.07009752 0.0821886 -0.10042982 0.10391173 0.14080061
0.022639766 -0.1272117 0.0018980488 -0.11420004 -0.08679702 0.019556643 0.046962846 -0.1204342
-0.10657821 -0.038364656 -0.048764154 0.12596469 0.14002545 0.04009205 -0.040915035 -0.013290809
0.004617123 0.058372848 -0.10496948 0.12662657 -0.06773564 -0.07218597 -0.071844436 0.069960654
-0.09572297 -0.16096964 -0.058254067 -0.13223451 -0.06639308 0.017122185 0.06488365 -0.10505304
0.08412427 -0.08123464 0.04770179 0.052362733 -0.12544994 0.012636579 -0.09679485 0.014736562
0.111675926 -0.021807881 0.009615751 0.13174523 -0.13563319 0.09643557 0.014565127 0.13773352
0.06423655 0.11759846 -0.050370965 -0.071646795 0.0043002535 -0.020328756 -0.033472948 -0.07194201
-0.056675553 -0.06907865 0.09948204 -0.037214935 -0.018923875 -0.09813728 0.10601902 -0.06267306
0.088812 -0.107787326 -0.05998615 0.0716555 -0.13034731 -0.07452402 0.078777194 -0.08589162
0.011694802 -0.14189985 -0.031724155 0.11408507 -0.07031367 -0.1433136 0.020995857 0.033401117
-0.028576305 -0.118110076 0.02915498 -0.0701814 0.00018278878 -0.11686119 0.09065083 0.0983964
0.071064256 -0.0522403 0.05260032 0.01975588 -0.007010157 0.0021677562 0.07308118 0.15259206
-0.0708779 0.053434484 0.087853976 0.056298144 0.0753222 -0.009865115 0.052175265 0.1306254
-0.063664325 -0.13535759 -0.12157502 0.06785119 0.02094328 -0.14204623 -0.1476876 0.008797503
-0.09678781 -0.0718338 -0.057399414 0.010412302 0.08387868 -0.058767445 -0.046520453 -0.029234787
-0.034206953 -0.024144039 0.11546978 0.040072296 0.014096371 -0.06021372 0.07121751 0.08943101
0.123920016 0.12239567 -0.059844267 0.007826698 -0.15357889 -0.13322805 -0.13099973 -0.077933446
-0.0456548 0.007946755 0.10423293 0.031998567 -0.11985677 0.12726714 -0.13272834 -0.043465633
00000000: 4c68 abbd 0d5d 4b3c 9626 03be bda4 76bd
00000010: 8751 e2bd a36d c7bd aa47 77bc d95a 883d
00000020: fc7c 00be b89c d03c 67a3 173d 8929 a73d
00000030: 0d32 05be 24fc c3bd 863f ee3d 0429 25bd
00000040: e9c5 8cbd 745e 8e3d 1d08 f4bd 1c9d c1bd
00000050: a2cd 0bbe 1a9e c03b 5e7f 50bd ea66 81bd
00000060: ebf1 37bd 8408 8f3c 720e 0bbe 233e f53d
00000070: b7b9 a73b 776d 08be fc9f 073e 3b87 843d
00000080: 7619 efb9 3ff6 f8bc a958 063e 92f1 7dbd
00000090: d357 903d 1a3b 0d3d 4706 edbc e79c 32bd
000000a0: 85a6 5ebb c320 e03d a402 143d 60e4 893d
000000b0: 8aaf 01be 373d 12be 0eb7 f3bc be24 d73d
000000c0: 4ea7 d63c a60d 153e f73b a63d 8690 4dbd
000000d0: f2b7 70bc 155f 3a3d bb66 0bbe d536 50bd
000000e0: 4148 9ebd fee0 90ba 8882 b53c 6f08 e2bc
000000f0: 2437 cc3d 489e 8cbd 8a91 c33d 7e67 77bd
00000100: d8f5 ae3d e0cc 9539 8ee0 0fbe d544 64bd
00000110: 7480 2bbd 4215 0e3e 04e5 053e 961d bdbc
00000120: b67f d73d 3a01 be3d 1685 c1bd 1b0a 07be
00000130: 2d4f e2bd 8d69 0a3e 0678 54bd 7c7b 6b3d
00000140: 4a50 883d 4ba0 01be e7ea 8c3d 9f45 7e3d
00000150: e5e2 753d dfe5 fd3c 648d efbd 56de b53c
00000160: af5d e73d 0d5b a83d 25ec 023e f32e ffbd
00000170: d83b e63d 07b0 91bd 12be 0ebe b850 3f3d
00000180: 465f 1a3d 1493 b43c 8ab8 0dbe 4088 32bc
00000190: 426a b8bd 5cf9 42bd d8eb 08be c776 cd3c
000001a0: 267d 173e 875d a5bd 7fda ce3d 4a8f 8fbd
000001b0: 7f52 a83d 26ae cdbd accf d43d 092e 103e
000001c0: 0877 b93c c943 02be f3c7 f83a b6e1 e9bd
000001d0: a3c2 b1bd 4135 a03c 1d5c 403d 35a6 f6bd
000001e0: ad45 dabd 4224 1dbd ecbc 47bd e3fc 003e
000001f0: d562 0f3e 9037 243d 8696 27bd b1c1 59bc
00000200: 3c4b 973b 5e18 6f3d 3dfa d6bd 65aa 013e
00000210: fcb8 8abd 3dd6 93bd 2d23 93bd 8847 8f3d
00000220: 680a c4bd 3ad5 24be d19b 6ebd 7c68 07be
00000230: 18f9 87bd d343 8c3c b8e1 843d 0c26 d7bd
00000240: 5849 ac3d 595e a6bd f462 433d 4e7a 563d
00000250: f375 00be a709 4f3c 613c c6bd 9f71 713c
00000260: 59b6 e43d 71a6 b2bc 628b 1d3c 39e8 063e
00000270: 6de3 0abe 0380 c53d 92a2 6e3c 040a 0d3e
00000280: 748e 833d 76d7 f03d c951 4ebd 8ebb 92bd
00000290: 24e9 8c3b 7e88 a6bc ee1a 09bd 5556 93bd
000002a0: a024 68bd 1b79 8dbd 3dbd cb3d b06e 18bd
000002b0: 3e06 9bbc 33fc c8bd 8020 d93d bc5a 80bd
000002c0: 11e3 b53d 9abf dcbd 0ab4 75bd 1ec0 923d
000002d0: c479 05be 0da0 98bd f055 a13d f2e7 afbd
000002e0: 8e9b 3f3c 324e 11be 30f1 01bd 6fa5 e93d
000002f0: 9d00 90bd cdc0 12be 81ff ab3c 9ccf 083d
00000300: db18 eabc b2e3 f1bd 6dd6 ee3c 44bb 8fbd
00000310: fdaa 3f39 eb54 efbd 24a7 b93d 0d84 c93d
00000320: 238a 913d edf9 55bd 6f73 573d 15d7 a13c
00000330: 76b5 e5bb ea10 0e3b 96ab 953d 1841 1c3e
00000340: 6f28 91bd 1ede 5a3d c9ec b33d e298 663d
00000350: 8742 9a3d 4ba1 21bc bbb5 553d aac2 053e
00000360: 7162 82bd 2e9b 0abe 53fc f8bd 91f5 8a3d
00000370: 3e91 ab3c 9174 11be 6b3b 17be 6723 103c
00000380: b038 c6bd 991d 93bd a61b 6bbd 5c98 2a3c
00000390: 96c8 ab3d 22b6 70bd 3b8c 3ebd cb7d efbc
000003a0: 971c 0cbd b8c9 c5bc 6c7b ec3d d922 243d
000003b0: 77f4 663c a9a2 76bd 7cda 913d 9b27 b73d
000003c0: c7c9 fd3d 95aa fa3d 431f 75bd 8d3b 003c
000003d0: c943 1dbe ef6c 08be cb24 06be 929b 9fbd
000003e0: 8700 3bbd 1b33 023c 1378 d53d ee10 033d
000003f0: 7777 f5bd 5152 023e f0e9 07be 0509 32bd

lstm.weight_hh_l1 f4 [200, 50]
-0.09064251 -0.052009996 0.0075472402 0.12988599 -0.055356003 0.13141365 0.03861832 0.009493899
0.058307756 0.010384342 -0.019110836 0.024935478 0.106941454 0.13655679 -0.05362334 -0.05383567
0.12438983 0.07557868 0.13181356 0.03696905 -0.139757 0.13584408 -0.041652653 0.022266624
0.0009761222 -0.09967948 0.12971008 -0.13848181 -0.061742224 0.14073017 0.03871407 0.13611735
0.11907065 0.029756296 -0.033646163 -0.097620964 -0.11384548 -0.025181893 -0.07535531 0.12500277
0.038978122 0.045755442 0.03128805 0.086372234 0.06403371 -0.059660632 0.063493475 -0.08900335
-0.1335588 0.016872123 -0.06771907 0.0989589 0.0783119 0.093486704 -0.12919179 0.093702875
0.0827141 0.0135825975 0.04794631 -0.06299821 -0.04895231 0.05588026 0.012545572 0.11354378
0.11848918 0.05950255 -0.11688899 -0.0033163596 0.010688109 -0.08035677 -0.0063615264 0.13484485
-0.11936926 -0.028198311 -0.041408867 -0.12187373 -0.070827655 -0.13934502 -0.065940306 0.12518165
-0.046767995 -0.07839668 0.12056537 -0.1254519 0.067505635 0.058503304 -0.08308001 -0.108214006
-0.08084302 -0.13046256 -0.09449813 0.12627384 0.037211366 0.10186243 0.027042048 -0.055367358
0.08412479 0.0078063924 0.042673193 0.12091885 0.12763435 0.021799533 0.1014942 0.00067626
0.03273159 0.13319618 -0.07837204 0.11914354 -0.002142225 0.00081840175 -0.072469786 0.007337044
-0.086766765 -0.08947041 -0.15376917 -0.15357544 0.014927231 -0.07835427 0.12959982 0.073726594
-0.012285823 -0.00078273204 0.041114986 -0.056884963 -0.10807819 -0.14798462 -0.035270054 -0.03551659
-0.042007938 0.09933464 -0.053381473 0.09307658 -0.055718154 -0.06397451 -0.15702692 0.060329463
-0.04103643 0.058104727 -0.11228113 0.020555137 0.07852111 0.047663644 -0.07157796 -0.0020354486
0.11094384 -0.072973065 0.06779656 -0.013520897 -0.044311307 -0.124849536 0.06727865 -0.03889446
-0.083913796 -0.057642005 0.067233585 0.13891353 0.06956699 0.108806476 0.011671127 -0.079532444
-0.06367718 0.0302255 -0.06134479 0.025727715 -0.12402691 -0.08519094 -0.099416725 -0.10385197
-0.11472014 0.060756367 0.017851507 -0.148585 0.12514943 -0.075895384 -0.05683515 -0.14904043
0.11029833 0.1036753 0.066174805 -0.10584432 -0.11675772 0.14992064 0.046753798 -0.03487533
-0.060725737 0.07458614 0.04105168 -0.0119686965 0.044675488 -0.018237583 0.0056096497 0.11560143
0.07271994 -0.1279967 0.025910387 0.08448544 0.07838552 0.09137898 -0.061447773 -0.08516783
0.0061490126 -0.0992053 -0.11260069 -0.028213909 0.05339263 -0.09311428 0.037161004 -0.12196802
-0.14606214 0.08979396 -0.013789154 -0.030100007 -0.057573657 -0.057747573 -0.09926595 0.13486531
0.00040504045 0.031903274 -0.027298972 -0.12954722 0.051766284 -0.086179495 -0.0056196363 0.0091449935
0.027331611 0.100480214 0.08695551 -0.067217216 0.121662036 0.12044572 0.098447025 -0.02804908
-0.0987773 -0.009714964 0.15553153 -0.004974174 0.08571139 0.12280324 -0.09942415 0.14771406
-0.06171273 0.12332185 0.044776686 -0.0064222673 -0.057441603 0.013636961 0.020395992 -0.045298528
-0.029957768 0.1122786 -0.009184045 -0.07009881 0.010148276 -0.027029438 -0.11022016 0.0042072623
00000000: c8a2 b9bd 6f08 55bd d74e f73b d500 053e
00000010: fabc 62bd 4d91 063e 3e2e 1e3d 4c8c 1b3c
00000020: 1dd4 6e3d 1623 2a3c 548e 9cbc 7d45 cc3c
00000030: 1f04 db3d 8bd5 0b3e 26a4 5bbd cb82 5cbd
00000040: 18c0 fe3d ffc8 9a3d 22fa 063e dc6c 173d
00000050: 761c 0fbe b61a 0b3e f99b 2abd 7f68 b63c
00000060: 74e2 7f3a c124 ccbd b8d2 043e 2dce 0dbe
00000070: 6ae5 7cbd 921b 103e a592 1e3d 5962 0b3e
00000080: 50db f33d 7ac3 f33c 8fd0 09bd 80ed c7bd
00000090: d227 e9bd 424a cebc e353 9abd ba00 003e
000000a0: 86a7 1f3d 0f6a 3b3d e627 003d ede3 b03d
000000b0: 1b24 833d b55e 74bd de08 823d 6347 b6bd
000000c0: a3c3 08be 6837 8a3c 4cb0 8abd f7aa ca3d
000000d0: fd61 a03d f575 bf3d da4a 04be 4be7 bf3d
000000e0: 0366 a93d 8b89 5e3c 5a63 443d 3505 81bd
000000f0: 3882 48bd b3e2 643d f18b 4d3c a489 e83d
00000100: 75aa f23d f2b8 733d 7f63 efbd 4857 59bb
00000110: 2e1d 2f3c 1792 a4bd 5a74 d0bb c514 0a3e
00000120: df77 f4bd 2500 e7bc 589c 29bd ef98 f9bd
00000130: 170e 91bd 76b0 0ebe b60b 87bd 9e2f 003e
00000140: cc8f 3fbd 708e a0bd faea f63d 7676 00be
00000150: 6540 8a3d 29a1 6f3d da25 aabd 4e9f ddbd
00000160: 0691 a5bd fa97 05be 3c88 c1bd ee4d 013e
00000170: f26a 183d 409d d03d 4987 dd3c e2c8 62bd
00000180: 9e49 ac3d c4cc ff3b 16ca 2e3d 4da4 f73d
00000190: 94b2 023e ef94 b23c 31dc cf3d 0a47 313a
000001a0: 8f11 063d 9464 083e 8581 a0bd 8701 f43d
000001b0: 9264 0cbb 038a 563a 0a6b 94bd 966b f03b
000001c0: c6b2 b1bd 433c b7bd aa75 1dbe e142 1dbe
000001d0: 5891 743c 3478 a0bd d1b5 043e f8fd 963d
000001e0: 7a4a 49bc 4230 4dba 3068 283d 3500 69bd
000001f0: 1958 ddbd 4889 17be 5577 10bd d879 11bd
00000200: 8410 2cbd f66f cb3d 88a6 5abd ef9e be3d
00000210: b838 64bd 1105 83bd aacb 20be 071c 773d
00000220: d115 28bd 39ff 6d3d a6f3 e5bd 3f63 a83c
00000230: adcf a03d f43a 433d 7797 92bd 2965 05bb
00000240: 8636 e33d e772 95bd ecd8 8a3d c186 5dbc
00000250: c67f 35bd 1db1 ffbd 64c9 893d cc4f 1fbd
00000260: ffda abbd 061a 6cbd c3b1 893d 593f 0e3e
00000270: 2379 8e3d eed5 de3d 4138 3f3c e8e1 a2bd
00000280: 2e69 82bd 789b f73c ad44 7bbd eec2 d23c
00000290: d201 febd 9678 aebd ff9a cbbd 57b0 d4bd
000002a0: 65f2 eabd abdb 783d 533d 923c ab26 18be
000002b0: 2c27 003e 0a6f 9bbd f9cb 68bd 0e9e 18be
000002c0: 17e4 e13d b753 d43d a886 873d e8c4 d8bd
000002d0: ac1e efbd cc84 193e e980 3f3d 6fd9 0ebd
000002e0: 8dbb 78bd 9ec0 983d ce25 283d 5a18 44bc
000002f0: a5fd 363d fc66 95bc 27d1 b73b 71c0 ec3d
00000300: 31ee 943d 9111 03be 0542 d43c b406 ad3d
00000310: 9688 a03d e724 bb3d a9b0 7bbd 796c aebd
00000320: a87d c93b 262c cbbd 319b e6bd db20 e7bc
00000330: 3bb2 5a3d b3b2 bebd 2336 183d 5fca f9bd
00000340: 5091 15be e5e5 b73d e7eb 61bc 4a94 f6bc
00000350: 5bd2 6bbd b888 6cbd f24b cbbd 221a 0a3e
00000360: 9c5b d439 02ad 023d 18a2 dfbc 07a8 04be
00000370: e208 543d e07e b0bd ed24 b8bb e2d4 153c
00000380: 8be6 df3c 92c8 cd3d bb15 b23d 2ea9 89bd
00000390: f229 f93d 3fac f63d 989e c93d 2fc7 e5bc
000003a0: c14b cabd 832b 1fbc a843 1f3e 65fe a2bb
000003b0: 7489 af3d 4480 fb3d e49e cbbd 5b42 173e
000003c0: 7dc6 7cbd 2b90 fc3d c267 373d e271 d2bb
000003d0: e347 6bbd 8f6d 5f3c 7f15 a73c f38a 39bd
000003e0: fe69 f5bc 53f2 e53d ad78 16bc f78f 8fbd
000003f0: f444 263c d76c ddbc 1bbb e1bd 13dd 893b

lstm.bias_ih_l1 f4 [200]
0.059605144 0.107209146 0.0077324063 0.122829385 0.15153806 -0.09227228 0.076566316 -0.02589052
-0.1356633 -0.09731924 0.098333836 0.10639746 0.087160535 0.03728194 0.15441139 0.10006012
0.014710582 0.01744461 0.13875428 -0.12941392 -0.121472485 -0.09939062 0.1384543 0.106279686
-0.003849473 0.060930543 0.0008654808 0.137715 -0.13135804 0.102273785 -0.05448368 -0.10781712
-0.08913286 0.027448518 -0.0077713355 -0.072991826 -0.013621017 0.081521824 -0.02207938 0.107495844
0.10497919 0.00809532 -0.01966993 -0.03884739 0.024877341 -0.0032860795 0.053460356 0.047308557
-0.0015234003 0.0017959158 0.14136855 -0.12050041 0.0033415428 -0.0018945427 -0.09994593 -0.013197314
-0.11053451 -0.106148794 -0.031786885 0.00046002975 -0.099787295 0.07797157 -0.0823407 0.1356315
0.049253285 0.06174059 -0.10987491 0.106985 0.024216786 0.11527198 -0.022231575 -0.019755708
0.026653908 -0.058049258 0.1336486 -0.10923702 0.13936089 -0.006321359 -0.13905701 0.10785899
-0.0885902 -0.011814359 -0.116825335 -0.08521027 -0.057693888 0.0043860152 0.10987584 0.013837247
-0.04336597 0.03463418 0.09749135 0.01366698 0.14958102 -0.039153572 0.103263184 -0.026790056
-0.07412225 -0.09696031 0.10122919 -0.002902792 -0.05220557 -0.09210824 -0.011132296 0.0106125465
-0.15643089 0.012319316 0.15337642 -0.07410852 -0.11086478 0.052339245 -0.063011646 0.041661043
-0.039888687 -0.14155775 0.021468058 -0.022585066 0.026733374 0.10479377 -0.07398734 0.07134981
0.06427815 0.00014026178 0.15317209 -0.08962114 0.11661868 0.13149664 0.10706377 0.10488073
0.019872323 0.12861723 -0.09874432 0.034636922 0.071257345 -0.06699846 -0.0703484 0.00998275
0.07454056 0.00034216206 -0.14949784 -0.00341186 -0.077441774 -0.082870156 0.02497158 0.10822987
0.09834669 0.110817485 0.0012865558 -0.039211 -0.049525563 -0.012193154 0.12294608 -0.072989605
-0.10132684 -0.037046082 -0.09806642 -0.11728062 0.08184968 0.1157052 0.070702896 -0.08133983
-0.018930243 0.06215595 0.015583809 0.11227694 0.16132514 0.078185886 -0.025333231 0.075910665
-0.11283432 -0.06318201 0.010320223 0.120377265 -0.09367143 0.13914397 0.03739249 -0.07290433
0.14521733 -0.015077244 -0.082778245 -0.01721598 0.05107832 0.0315483 0.02586235 0.1258462
0.10984877 0.09900705 0.09975023 -0.0637838 -0.014898277 -0.14261997 0.13002956 0.054412168
0.01465837 0.124336556 0.0766979 -0.084800586 0.06016264 -0.060304247 0.083902895 0.022239203
00000000: 8624 743d 7890 db3d 2060 fd3b f98d fb3d
00000010: cb2c 1b3e 40f9 bcbd cdce 9c3d 5b18 d4bc
00000020: 52eb 0abe 4f4f c7bd 4063 c93d e9e6 d93d
00000030: 3981 b23d f3b4 183d 051e 1e3e 52ec cc3d
00000040: a704 713c 00e8 8e3c 9a15 0e3e 1585 04be
00000050: 91c6 f8bd 4f8d cbbd f7c6 0d3e 2aa9 d93d
00000060: 7147 7cbb 4e92 793d 6fe1 623a 2905 0d3e
00000070: b982 06be eb74 d13d 472a 5fbd 39cf dcbd
00000080: 4a8b b6bd b7db e03c b0a6 febb bd7c 95bd
00000090: b02a 5fbc eaf4 a63d d1df b4bc c826 dc3d
000000a0: 54ff d63d 3ca2 043c d522 a1bc 711e 1fbd
000000b0: 91cb cb3c 445b 57bb 3ff9 5a3d 9ec6 413d
000000c0: d5ac c7ba ef64 eb3a ebc2 103e ebc8 f6bd
000000d0: c9fd 5a3b 4e52 f8ba 74b0 ccbd 8c39 58bc
000000e0: eb5f e2bd 8a64 d9bd f732 02bd 2630 f139
000000f0: 485d ccbd 8faf 9f3d 3ea2 a8bd fce2 0a3e
00000100: d0bd 493d b3e3 7c3d 1906 e1bd f41a db3d
00000110: 4862 c63c b713 ec3d fe1e b6bc b9d6 a1bc
00000120: 4c59 da3c 0fc5 6dbd 2edb 083e a9b7 dfbd
00000130: 9fb4 0e3e 6723 cfbb f664 0ebe 2de5 dc3d
00000140: c76e b5bd 0391 41bc 1f42 efbd b982 aebd
00000150: 6d50 6cbd 90b8 8f3b 9606 e13d 9fb5 623c
00000160: 84a0 31bd 92dc 0d3d 8ba9 c73d 78eb 5f3c
00000170: c42b 193e 7f5f 20bd a67b d33d d276 dbbc
00000180: 68cd 97bd 2193 c6bd 4051 cf3d c53c 3ebb
00000190: 82d5 55bd 3fa3 bcbd 3c64 36bc 3fe0 2d3c
000001a0: 6b2f 20be f5d6 493c b50e 1d3e 35c6 97bd
000001b0: 130d e3bd ad61 563d 400c 81bd c5a4 2a3d
000001c0: 5262 23bd 84f4 10be c8dd af3c 5104 b9bc
000001d0: f3ff da3c 1e9e d63d ad86 97bd d91f 923d
000001e0: 43a4 833d 3c13 1339 25d9 1c3e 4a8b b7bd
000001f0: c6d5 ee3d 0ea7 063e 4044 db3d b5cb d63d
00000200: 48cb a23c 3cb4 033e 763a cabd 72df 0d3d
00000210: 5fef 913d 7d36 89bd d212 90bd b08e 233c
00000220: b9a8 983d 3764 b339 f615 19be 8399 5fbb
00000230: cb99 9ebd d4b7 a9bd 3391 cc3c 9fa7 dd3d
00000240: fd69 c93d 47f4 e23d a6a1 a83a b79b 20bd
00000250: 51db 4abd cbc5 47bc 28cb fb3d 937b 95bd
00000260: 7284 cfbd a2bd 17bd 0cd7 c8bd d230 f0bd
00000270: cea0 a73d d9f6 ec3d aecc 903d 7f95 a6bd
00000280: 9913 9bbc 3d97 7e3d 3c53 7f3c 74f1 e53d
00000290: 6b32 253e ec1f a03d a387 cfbc 0d77 9b3d
000002a0: ae15 e7bd 9265 81bd 2716 293c 5b88 f63d
000002b0: cfd6 bfbd c27b 0e3e de28 193d de4e 95bd
000002c0: dab3 143e 8b06 77bc a487 a9bd 8708 8dbc
000002d0: 8037 513d ca38 013d 47dd d33c d4dd 003e
000002e0: 64f8 e03d 35c4 ca3d d949 cc3d 15a1 82bd
000002f0: e717 74bc f80a 12be 7826 053e 4bdf 5e3d
00000300: a929 703c 2aa4 fe3d ca13 9d3d eeab adbd
00000310: 1a6d 763d 9601 77bd 48d5 ab3d fd2e b63c

lstm.bias_hh_l1 f4 [200]
-0.07015099 0.0038029791 0.11524652 0.002293218 -0.09305584 0.09360494 -0.046609007 0.036662348
-0.05406803 0.048171133 -0.054899845 0.05366774 -0.14165369 0.15742156 0.07647508 -0.077630326
0.070742406 0.12372119 -0.101200715 -0.078760885 0.019151857 -0.03851446 0.03178807 0.05347271
0.07012778 -0.060738645 -0.0025397625 -0.0835365 0.03758993 0.013721302 -0.03064013 0.10026651
-0.060132254 0.07857567 0.12864994 -0.031678084 -0.10397333 -0.08044033 0.11446112 -0.07788346
0.07216576 -0.1064564 -0.07795376 -0.13455231 0.061206475 0.011670424 -0.055688057 0.13023765
-0.12154714 0.079543345 0.020288238 0.06036433 -0.11662264 0.01003655 0.091989934 0.028168827
0.1455992 0.06064334 -0.043191805 0.0451203 -0.09905492 -0.07668989 -0.027917795 -0.047588702
0.008571845 0.049210478 0.07407736 -0.00011794217 0.023216054 0.0013653061 0.08619462 0.052843876
-0.083304875 -0.088353135 -0.04834008 0.063996874 -0.06661726 -0.01849446 0.031409364 0.04950171
-0.004140974 -0.08319895 -0.08034463 -0.078539364 -0.09381885 -0.043327443 0.14103906 0.053907815
0.08011441 0.029250156 -0.028335556 0.122895986 0.079202875 -0.0842949 0.08978067 0.05802005
0.016790073 -0.03938814 0.06750402 -0.15492581 0.0692748 0.14564356 0.061409585 0.099898554
-0.06366056 -0.13169055 0.0069520148 -0.088745646 0.00022959175 0.07442416 0.013109173 -0.10115063
0.011202292 0.016973093 0.13352485 0.025924219 0.07735638 0.050410945 -0.02440151 -0.0526477
-0.027130418 0.11334016 -0.04625524 -0.0058947476 0.06281203 -0.02415932 0.15477464 0.019254483
0.104886465 -0.10577938 -0.015334923 -0.12201556 0.10904773 -0.08773599 0.12870647 -0.01286188
0.1518072 -0.06843504 0.08953638 0.09172006 0.15951493 0.05182731 -0.107225925 0.02191495
0.013200079 -0.03814474 0.0006397709 -0.14603953 0.01069145 -0.0009121739 0.08997857 0.05429203
0.10400781 -0.13562873 0.066639975 -0.05429934 0.11649847 0.041646708 0.118120745 -0.03596732
-0.10549743 -0.122107126 0.08052876 -0.112476215 0.08130608 -0.06501133 -0.0535689 0.15620023
0.043075256 0.04674723 -0.13173787 -0.09377923 0.1543657 0.036994103 -0.09535304 -0.0253245
0.0013429676 0.09976478 -0.104702726 0.03530373 -0.045657713 0.1472934 -0.12543601 0.07044625
-0.11886344 -0.11805538 0.14001393 0.0087194005 0.041751288 -0.05633381 -0.07471489 0.15692583
0.074807964 -0.041452374 -0.029996825 -0.039156158 -0.048619814 0.053921174 -0.035071317 -0.14482744
00000000: 52ab 8fbd 673b 793b 5e06 ec3d d049 163b
00000010: 0f94 bebd f2b3 bf3d 16e9 3ebd 422b 163d
00000020: 7076 5dbd 184f 453d a9de 60bd b4d2 5b3d
00000030: aa0d 11be 1e33 213e f79e 9c3d a6fc 9ebd
00000040: 65e1 903d 8961 fd3d 5242 cfbd 634d a1bd
00000050: 5be4 9c3c 57c1 1dbd 3534 023d 3306 5b3d
00000060: 279f 8f3d 16c9 78bd 2572 26bb 2f15 abbd
00000070: e6f7 193d 50cf 603c 0301 fbbc 8758 cd3d
00000080: 3d4d 76bd 48ec a03d cfbc 033e e1c0 01bd
00000090: f8ef d4bd e6bd a4bd 976a ea3d 5d81 9fbd
000000a0: a4cb 933d d005 dabd 39a6 9fbd 15c8 09be
000000b0: a4b3 7a3d 4e35 3f3c 2919 64bd 055d 053e
000000c0: b5ed f8bd 9fe7 a23d 8533 a63c 9640 773d
000000d0: dad7 eebd 5870 243c 3865 bc3d 50c2 e63c
000000e0: f517 153e 2765 783d e4e9 30bd 10d0 383d
000000f0: 4edd cabd 970f 9dbd dcb3 e4bc 5fec 42bd
00000100: ec70 0c3c ed90 493d dfb5 973d b857 f7b8
00000110: 982f be3c 12f4 b23a ce86 b03d d272 583d
00000120: bf9b aabd 7df2 b4bd 3f00 46bd cb10 833d
00000130: a16e 88bd b281 97bc 1ba7 003d 4ec2 4a3d
00000140: 02b1 87bb 3664 aabd ba8b a4bd 3fd9 a0bd
00000150: 1924 c0bd 1e78 31bd 8b6c 103e 71ce 5c3d
00000160: 0613 a43d 069e ef3c f81f e8bc e4b0 fb3d
00000170: 1e35 a23d cea2 acbd eede b73d 6fa6 6d3d
00000180: 568b 893c 7555 21bd 8c3f 8a3d dfa4 1ebe
00000190: f2df 8d3d 9623 153e 9e88 7b3d 9d97 cc3d
000001a0: 7860 82bd e3d9 06be bacd e33b 47c0 b5bd
000001b0: 91be 7039 b26b 983d dbc7 563c 1028 cfbd
000001c0: d189 373c 280b 8b3c bdba 083e 075f d43c
000001d0: 066d 9e3d b57b 4e3d ade5 c7bc 1da5 57bd
000001e0: 9c40 debc e31e e83d 2276 3dbd ba28 c1bb
000001f0: 98a3 803d c4e9 c5bc 3e7d 1e3e 94bb 9d3c
00000200: b7ce d63d dca2 d8bd 543f 7bbc 4be3 f9bd
00000210: 6b54 df3d edae b3bd a1cb 033e a2ba 52bc
00000220: 5973 1b3e ac27 8cbd d95e b73d bad7 bb3d
00000230: e257 233e e048 543d 4499 dbbd fb86 b33c
00000240: 2545 583c a93d 1cbd 4cb6 273a 638b 15be
00000250: 312b 2f3c f41e 6fba af46 b83d 5261 5e3d
00000260: 0c02 d53d 42e2 0abe 8a7a 883d fc68 5ebd
00000270: c096 ee3d bd95 2a3d 4ae9 f13d 7852 13bd
00000280: 090f d8bd 4d13 fabd 43ec a43d ee59 e6bd
00000290: cd83 a63d a924 85bd 106b 5bbd f4f2 1f3e
000002a0: ae6f 303d 067a 3f3d 4be6 06be 530f c0bd
000002b0: 0b12 1e3e 2187 173d 7448 c3bd 5375 cfbc
000002c0: 8406 b03a 7a51 cc3d 626e d6bd a59a 103d
000002d0: 9503 3bbd 15d4 163e 4c72 00be 2046 903d
000002e0: ad6e f3bd 05c7 f1bd d05f 0f3e d1db 0e3c
000002f0: 6603 2b3d 48be 66bd 1f04 99bd 2ab1 203e
00000300: eb34 993d f7c9 29bd e7bb f5bc 3562 20bd
00000310: 9225 47bd 73dc 5c3d f1a6 0fbd a54d 14be

fc.weight f4 [1, 50]
-0.11809056 0.0037811096 -0.056886084 -0.09247051 -0.07301238 -0.02304639 0.021446332 0.11894486
0.0729453 0.0781783 -0.1364844 -0.13301176 0.085542716 -0.12565123 0.08551423 0.024372857
-0.1000342 0.04239024 -0.06386837 0.10222343 -0.014774473 0.14894286 0.06640189 -0.03250688
-0.0024939573 0.056831867 0.06897074 0.088008374 -0.09624001 0.08731817 0.003389983 -0.14578156
0.02917146 -0.06127243 0.033305448 -0.007964224 0.06420872 -0.111698605 -0.073250756 -0.11873415
0.06231001 0.053021953 -0.06808218 -0.07360837 -0.07519971 -0.016651511 0.077719785 -0.038894605
0.0126136765 0.04589016
00000000: 77d9 f1bd 7ecc 773b 6201 69bd 2e61 bdbd
00000010: 8487 95bd c8cb bcbc 38b0 af3c 5d99 f33d
00000020: 5864 953d f21b a03d 91c2 0bbe 3c34 08be
00000030: 0531 af3d b7aa 00be 1622 af3d 96a9 c73c
00000040: bbde ccbd 63a1 2d3d 6ccd 82bd 855a d13d
00000050: a210 72bc 7a84 183e b7fd 873d ef25 05bd
00000060: a971 23bb 88c8 683d 8840 8d3d bc3d b43d
00000070: 7b19 c5bd ded3 b23d 7a2a 5e3b c347 15be
00000080: fcf8 ee3c cdf8 7abd 4b6b 083d 607c 02bc
00000090: dd7f 833d 3dc2 e4bd 7e04 96bd e42a f3bd
000000a0: c838 7f3d 8c2d 593d ac6e 8bbd fcbf 96bd
000000b0: 4e02 9abd c068 88bc 8d2b 9f3d f34f 1fbd
000000c0: 98a9 4e3c 52f7 3b3d
