data/models/AAPL_20251229_153926.pt (torch, 128750 bytes, 9 tensors)

lstm.weight_ih_l0 f4 [200, 1]
000000 ab 60 fb 3d 45 ee 98 3c c6 6d b8 3c 57 85 7d 3d
       0.12274297 0.018668303 0.022513282 0.06189474
000010 a3 c2 e2 3d fe ff b4 3c 63 8c 7e bb 1c aa f7 bd
       0.1107228 0.022094723 -0.0038841001 -0.12092993
000020 ed d0 10 3e fc d0 c1 3d 58 1f ca 3d 78 f2 35 3d
       0.14142199 0.09463689 0.098692596 0.04442069
000030 c5 fd 32 bb 63 89 68 bd d2 76 12 bd 83 6b c8 3d
       -0.0027311903 -0.056771647 -0.035757847 0.09786131
000040 4d 07 fe bd 45 27 f1 bb 8e d3 ea 3d cc f0 53 3d
       -0.12403736 -0.0073594176 0.11466132 0.051743314
000050 4c 9d 20 3e af ae 45 3d 1c 92 cb 3b e2 1f 01 3e
       0.15685004 0.048262294 0.006212486 0.12609819
000060 29 e1 dc bd ec 24 3a 3d 00 a4 56 bd 43 53 01 bd
       -0.107851334 0.045445368 -0.052402496 -0.031573545
000070 69 41 ae bd a9 51 02 be 56 65 ac 3d 6c 45 ea 3d
       -0.0850857 -0.12726463 0.08417766 0.114390224
000080 27 9d 14 3c c8 be 24 3e 98 f0 2c 3c d0 f4 e9 bd
       0.009070671 0.16088402 0.010555409 -0.114236474
000090 3e e1 43 3c bb cf a5 bc 36 79 00 3e 66 db ce bc
       0.011955557 -0.020240655 0.12546238 -0.025251102
0000a0 f3 c3 ad 3c 1d 75 c6 bd 00 bc a9 3d 8d fb 0f 3d
       0.0212116 -0.09690306 0.08287811 0.035152007
0000b0 d3 f1 58 bb 5a 36 e6 bd 2e 25 3d 3d 3e 5e 1a 3e
       -0.0033103123 -0.112408355 0.046178035 0.15075013
0000c0 85 03 e2 bd cb 29 41 3c 70 0c 4b bd 8c 68 bc 3d
       -0.110358275 0.011789749 -0.04957241 0.09199628
0000d0 9f fb e3 3d 26 7a 81 bd 5b 72 02 be 51 97 73 3d
       0.11131977 -0.06322126 -0.12738936 0.05947048
0000e0 61 78 46 3d ce 97 3a 3d 81 9a b1 3b ef 4e 30 bd
       0.048454646 0.04555493 0.0054200296 -0.043044027
0000f0 b5 a2 14 3e af 6b 38 3d d8 3e e2 bd 11 b9 30 3c
       0.14515193 0.04502457 -0.11047143 0.010786311
000100 c2 a3 0f 3d 92 b5 e2 bd db 8f 47 bd 79 81 b0 bd
       0.03506828 -0.11069788 -0.048721176 -0.08618445
000110 f1 d5 3b bc 8e a2 e4 3c c3 6a a4 3d 3f 32 b4 bc
       -0.011464582 0.027909543 0.08028176 -0.021996615
000120 f6 c2 e8 bd b9 11 95 bd 39 10 05 3d af 50 23 3d
       -0.11365311 -0.07278771 0.032486174 0.039871868
000130 4f af 0f be b5 3b ee 3d e8 21 e1 3c df ee 8b bd
       -0.14031719 0.11632482 0.027481988 -0.068326704
000140 1a 8d 51 bb 2f 01 7d bd 2c 53 0b bd ee 61 d1 bd
       -0.0031974972 -0.061768707 -0.034014866 -0.10223757
000150 c6 ee d5 3d 76 a0 80 bd 0b 19 81 3c de c8 dc bd
       0.10445933 -0.062806055 0.015759012 -0.107805
000160 b6 a0 db 3d 73 87 44 3d d9 9c d1 3d 84 56 6a bc
       0.107240126 0.047980737 0.102349944 -0.0143028535
000170 f0 69 b3 3d 7a 74 ca ba 93 f0 41 bd 18 d8 f0 bd
       0.0876044 -0.001544609 -0.04734857 -0.117599666
000180 e6 26 ab 3d b7 2a f4 bd 56 fc ac 3d f4 58 23 3e
       0.08357029 -0.1192221 0.08446567 0.15951902
000190 09 b4 00 3c b4 ab 08 be 43 52 f4 bd e3 8c 1b be
       0.007855424 -0.1334675 -0.11929753 -0.15190463
0001a0 c0 9e cd 3d c0 4e 25 3e 73 00 c9 3d 70 f6 7d bd
       0.10040045 0.16143322 0.09814539 -0.0620026
0001b0 fb 63 e5 bd 72 ea 0d 3e 34 8c 34 3d f4 6e 14 be
       -0.112007104 0.13858965 0.04407902 -0.1449545
0001c0 9a e0 bd ba 22 be cf bd 86 bb fc bd 35 79 46 bd
       -0.0014486492 -0.10143687 -0.12340455 -0.048455436
0001d0 e9 42 dd 3d 57 b1 c2 bd 58 9e e5 bd e3 af 0b 3e
       0.10803778 -0.09506481 -0.11211842 0.13641314
0001e0 1b 8a da bd 03 cd 1b be ee 6b 8b 3d 0f 5f 00 be
       -0.10670873 -0.15214925 0.06807695 -0.12536262
0001f0 e6 e3 0a bb 79 46 0f 3e 47 6c 13 3e ee 40 0e be
       -0.0021192967 0.13991727 0.14396773 -0.13891956
000200 bf 5c eb 3d 4d 47 27 3d d9 01 11 3e ce 19 8b 3c
       0.11492299 0.040839482 0.14160861 0.016980078
000210 4b 82 8c bd d2 b0 3f 3d c3 db ad bd d3 0d b6 3d
       -0.06860789 0.04679949 -0.08489182 0.088893555
000220 2b b7 cc 3d 0b 6a b1 3d 5d 75 08 3e 9d 87 79 3b
       0.09995874 0.08662804 0.1332602 0.0038075217
000230 78 67 c7 3d c0 fc 9f bd e2 e3 a5 3d e4 97 f7 3c
       0.09736532 -0.0781188 0.08100106 0.030223794
000240 29 c7 8c 3d a0 49 84 3d b6 5f 07 3d ab ce 15 bd
       0.06873924 0.06459355 0.03305026 -0.036574047
000250 85 fa 65 3c 76 1c 10 3e e4 65 0e 3e f4 d8 bd 3d
       0.014036779 0.14073357 0.13906056 0.09269896
000260 97 0b 12 3d c3 ba a6 bd 8f 11 de 3d cc 82 86 3b
       0.035655584 -0.08141091 0.10843193 0.0041049477
000270 bf 50 f6 3d 62 95 8b 3d 0f 9b 20 bd af 91 d0 3b
       0.1202712 0.06815602 -0.039210375 0.006365023
000280 2e 4f b0 bd d4 5a 3f 3d 1b 73 2d 3d 48 5c 5d 3b
       -0.08608852 0.04671748 0.0423461 0.0033776928
000290 5d 7f a9 3b a2 9d b8 bd 49 a0 1a bd ca 35 d8 3d
       0.0051726536 -0.09014441 -0.037750516 0.105571344
0002a0 65 ef eb 3c 53 4c 35 bd 57 55 e6 bd 2e 78 ec ba
       0.028800676 -0.04426224 -0.11246746 -0.0018041187
0002b0 1c 3b 0c 3e a8 d3 49 bd fa 9d f8 3d 1a 18 bc 3d
       0.13694423 -0.049274117 0.12139507 0.091842845
0002c0 90 59 36 3d e9 df f0 3d 04 da b2 bd 31 45 08 3e
       0.044519007 0.117614575 -0.087329894 0.13307644
0002d0 53 ed 6d 3d 4e 8f e8 bd f8 70 3c 3c 23 76 de 3d
       0.058087658 -0.11355458 0.011501543 0.108623765
0002e0 c2 5a 7b 3d 28 02 ca bd 6a 07 76 bd 91 d3 8c bb
       0.06136585 -0.098636925 -0.060065664 -0.0042976816
0002f0 b2 e7 14 bc d6 26 47 bb fd 7e 14 be 08 92 8d 3d
       -0.009088444 -0.0030388138 -0.14501567 0.06912619
000300 02 85 ff bc 98 ae d0 3c 77 0f ff 3c 6b 73 7c bd
       -0.031191353 0.025473878 0.031135304 -0.06163351
000310 da ca 38 bd b0 e1 d5 3d d4 df 20 bd 3a 57 2c 3d
       -0.04511533 0.10443437 -0.03927596 0.042075373

lstm.weight_hh_l0 f4 [200, 50]
000000 c8 63 05 be 57 45 1a be af 7c ed bc 60 a1 f2 3d
       -0.13026345 -0.15065514 -0.028990118 0.11847186
000010 72 f0 03 be af 7a e5 3d ac f1 b4 3b a9 4f cb 3d
       -0.12884691 0.11205041 0.0055219736 0.09927303
000020 c7 7d c6 3d 1f c5 16 3c 66 df 78 3d 81 6c dc 3d
       0.09691959 0.009202271 0.060759924 0.10762883
000030 1d f0 f8 bd 6c f7 e6 3d 77 70 e0 bd 99 e6 bc 3d
       -0.12155173 0.11277661 -0.10958951 0.092236705
000040 c4 8f f0 3d b3 da cf 3d 8e 81 05 bd 0f 6c 0a 3e
       0.11746171 0.101491354 -0.032594256 0.13517784
000050 35 5d 5e 3d e4 80 c4 3d 6d e8 86 3d 2c 2a 70 3d
       0.054288108 0.095948964 0.065873004 0.05863397
000060 47 92 07 3e e8 1e ba bd 78 1c 00 3e 9b 21 c9 3d
       0.13239394 -0.09087926 0.1251086 0.09820863
000070 ba f5 ee 3d 34 03 13 bd 11 60 20 3e a7 51 09 bc
       0.11667962 -0.035891727 0.15661646 -0.008381284
000080 e4 a2 a7 bd 26 fe 3f 3d 8e 02 0e be d4 6a ff bd
       -0.08185366 0.046873234 -0.13868162 -0.12471548
000090 c6 8c 62 bd 29 fe de 3d f7 17 14 bd 2c 22 f0 3d
       -0.055310033 0.10888321 -0.036155667 0.11725268
0000a0 0f 47 3b 3d af f3 a4 bd 44 92 d5 bd e3 bd bf 3d
       0.045722064 -0.080542915 -0.104282886 0.0936239
0000b0 82 5d ad bd c1 34 f8 3d 36 ad ac 3c 89 7b 29 bd
       -0.08465101 0.12119437 0.021078687 -0.041377578
0000c0 05 55 0d be e1 bc c1 3d 4b 2e ed 3c b4 d0 0c be
       -0.13801964 0.09459854 0.028952738 -0.13751489
0000d0 02 38 90 bd 62 a1 57 bd 4c 16 08 be 0f d8 09 3d
       -0.07041933 -0.05264414 -0.13289756 0.033653315
0000e0 d1 ab 4a bd e3 31 0a be a5 3c e0 3c d3 06 e9 3c
       -0.049480263 -0.13495593 0.027372668 0.028445637
0000f0 a3 cf b6 3a 1e fd 5d 3d 14 d0 c0 bd 31 a0 35 3d
       0.0013947379 0.05419647 -0.09414688 0.044342224
000100 dc ce 9c bd 99 1a 98 bd 8e ca 93 3d f5 cf cf bc
       -0.07656643 -0.07426948 0.072163686 -0.025367716
000110 63 b4 c6 bd f4 99 16 3e 45 1a b1 3d 9e 27 ba ba
       -0.09702375 0.14707166 0.08647589 -0.0014202481
000120 4c 49 b8 bd 51 1e 96 bd 67 07 da bd 4c 5f 11 3e
       -0.08998355 -0.07330001 -0.10645943 0.14196509
000130 91 73 c5 3d 85 18 eb 3d 96 13 16 3e e6 7f ef bd
       0.09641183 0.11479286 0.14655909 -0.116943166
000140 e2 22 6f bd ab 87 4c 3d 9e 0c 89 bd 9a 7f f8 3d
       -0.058382876 0.04993407 -0.0669186 0.12133713
000150 3b 4b a1 3d 38 a0 db bd f6 2a a7 bc 29 dc fe bd
       0.07875677 -0.10723919 -0.020406228 -0.12444336
000160 fa b6 2e bd 8f f3 3f bd af 3d 86 3d ad e8 e3 3d
       -0.04265497 -0.046863135 0.06554734 0.11128364
000170 4a 58 cf bd d9 ac 8f 3d bf 28 18 bd a8 4e 34 bd
       -0.10124262 0.0701539 -0.037148234 -0.044020325
000180 d1 29 b9 bb 8b b3 10 3d c1 22 ab 3c 78 b4 9c bd
       -0.005650737 0.035327476 0.020890595 -0.07651609
000190 c7 96 da bd 87 fd e3 3d 84 75 76 bd 28 31 6f 3d
       -0.1067329 0.11132341 -0.060170665 0.05839649
0001a0 45 58 fd bd 0b bd d7 bb 5c 50 ea 3d a0 b8 d6 bc
       -0.12370352 -0.006583815 0.114411086 -0.026211083
0001b0 79 eb 0a 3d 40 da 78 bc c2 57 bb 3d aa 6f d4 3c
       0.03391597 -0.015188754 0.09147598 0.025932152
0001c0 d3 2a d8 3c 77 01 b7 bc 57 4d de bc 28 db 63 bd
       0.026387608 -0.022339566 -0.027136488 -0.055628926
0001d0 66 57 4d bd bc b7 92 3b 70 15 02 be ce d7 a9 3b
       -0.050132178 0.0044774693 -0.1270349 0.0051831966
0001e0 72 6d 05 3e 05 95 a8 bd fc 96 fb bc 2a a0 5c bd
       0.13030031 -0.08231548 -0.030711643 -0.05386368
0001f0 fb 92 0c 3e d4 27 2a 3d d2 6d cb 3d 14 c0 ef 3d
       0.13727944 0.04154189 0.09933056 0.11706558
000200 fa 7f 95 3d f3 89 da bd 95 61 72 bd 80 86 c6 bd
       0.072998 -0.10670843 -0.059175093 -0.096936226
000210 20 40 10 3d 7f 25 4f 3d ce 92 28 3c bf b7 af 3c
       0.035217404 0.05057287 0.010288907 0.021449922
000220 92 77 12 bd 54 bf 10 3e c7 7a b7 3d 56 80 2d bd
       -0.035758562 0.14135486 0.08958965 -0.04235872
000230 df 75 f8 3d 1c 89 96 3d 2d 4c a9 bc 70 26 ab 3c
       0.12131857 0.0735037 -0.020666206 0.020892352
000240 11 4a 66 3d 30 48 04 3e f9 b4 0b 3d f8 5f 44 3d
       0.05622298 0.12918162 0.034108136 0.047943085
000250 80 ed 00 3e dc af d8 bd 08 d6 9d bc f0 d5 f1 3d
       0.12590599 -0.105804175 -0.019267097 0.118083835
000260 0d 0b d1 bd 76 93 df bd 97 6e 54 bc f0 30 dc 3d
       -0.10207186 -0.10916798 -0.01296582 0.107515216
000270 3a 1c c2 3d 59 51 08 3d 2f 7c d9 bb 47 89 d9 bd
       0.0947804 0.033280704 -0.0066371183 -0.10621887
000280 01 78 96 3d 44 ad 46 3d 3a 56 4f bc 44 b4 39 bd
       0.07347108 0.048505083 -0.012654835 -0.04533793
000290 cc 61 24 be 51 ca 9e bd 89 68 09 3e 41 21 a1 3c
       -0.16052932 -0.077534325 0.13418783 0.019669177
0002a0 39 2a 58 bd 8e da a6 bd 25 3f 91 bd 40 b9 ce 3d
       -0.05277464 -0.08147155 -0.07092122 0.100939274
0002b0 29 f0 4c 3d 33 b4 b0 3d 30 0b c1 3d 28 be e9 bd
       0.050033722 0.0862812 0.09425962 -0.114132226
0002c0 f1 c7 0e 3e 0b 54 c1 bd 8c b1 20 bc 47 b7 a9 bc
       0.13943459 -0.09439858 -0.0098079555 -0.020717276
0002d0 07 da f4 bd e5 a7 aa bd b2 08 85 3d 09 db 08 3d
       -0.11955648 -0.083328046 0.06495799 0.033412013
0002e0 fa 88 67 3d a6 c0 97 3d 3b 49 a1 bd 79 90 a6 bd
       0.056527115 0.07409792 -0.07875296 -0.08133025
0002f0 9b 6c 2b bd d9 53 55 bd 1d b6 c0 bd b2 d8 1e be
       -0.04185162 -0.052081916 -0.09409735 -0.1551235
000300 0c 3b 70 3d 30 90 90 bd 5b 73 78 3c e3 0a fe bd
       0.05865006 -0.070587516 0.015164222 -0.1240442
000310 e3 52 bc 3d 45 22 ca 3d b6 29 2a 3d fa 7e 30 bd
       0.09195497 0.09869818 0.041543685 -0.043089844
000320 e3 96 01 3d 7a 4f 99 bd 53 fd b5 bc 1a 99 86 3d
       0.031638037 -0.07485862 -0.022215521 0.065721706
000330 50 e2 8f bd 42 dd 14 bd 6a 44 e9 3d a5 30 3c 3d
       -0.070255876 -0.03634382 0.11390002 0.04594483
000340 01 98 ac 3d 96 4e b9 bd fc 97 64 bd 2c 15 be 3c
       0.0842743 -0.09048192 -0.055809006 0.023203455
000350 e2 07 27 bd 0b 77 13 bc 8b 56 c3 bc 05 eb 4b bd
       -0.040779002 -0.00900055 -0.023844978 -0.04978468
000360 22 9d 17 be 05 5f 54 bd 76 c4 4b 3d c9 fb 04 3e
       -0.14806035 -0.05184843 0.049747907 0.12986673
000370 ae 31 b6 bc 90 b9 59 3d 26 9d 73 3d 19 19 82 bd
       -0.022240486 0.05315548 0.05947604 -0.06352443
000380 32 61 0c 3d e5 76 c7 3d 42 14 e3 bd f1 fa 11 bd
       0.03427238 0.09739474 -0.11087848 -0.035639707
000390 58 ad 17 3d e9 6e 66 3d f5 93 8f 3d 7d 22 df bd
       0.037030548 0.056258116 0.070106424 -0.1089525
0003a0 bb d4 01 be 59 f9 fd 3d 4c d4 81 bd 27 87 8a 3d
       -0.12678806 0.12401075 -0.063393205 0.067640595
0003b0 25 85 58 3c 66 4d 9e bd c1 ac 53 3d 7e d3 b9 3b
       0.013215338 -0.07729606 0.051678423 0.005670964
0003c0 02 10 61 bd f5 c2 c1 bd 24 51 b2 3d 85 b3 c9 3d
       -0.054946907 -0.09461013 0.087068826 0.09848694
0003d0 bb fb 08 3d ef d6 f5 3d 88 97 12 bd 39 4e d3 3d
       0.033443194 0.12003886 -0.035789043 0.10317654
0003e0 3d 58 59 3d 49 e1 0c be 9e 38 c9 bd 00 2f 83 bd
       0.053062666 -0.13757814 -0.09825252 -0.06405449
0003f0 82 9c 06 be e1 49 a4 bd 93 71 01 be bb dc c6 3d
       -0.1314564 -0.08021904 -0.12640981 0.0971007

lstm.bias_ih_l0 f4 [200]
000000 45 36 1d bc e6 6e 3d 3c 00 b5 56 bd 95 9c 4e 3c
       -0.009595458 0.011562085 -0.05241871 0.012610574
000010 a7 84 9f 3d 79 47 88 bd bf 44 fb 3b 06 83 c1 bb
       0.07788973 -0.06654257 0.0076681073 -0.005905512
000020 67 7e 9e 3d f4 95 70 bd 4f e6 72 bb 30 03 92 bd
       0.07738953 -0.058736756 -0.0037063544 -0.07129514
000030 a7 88 c9 bd 3a b3 47 3d a6 ac e4 3d 31 53 20 be
       -0.098405175 0.04875491 0.111657426 -0.15656735
000040 71 05 01 3e e7 98 e5 3d 4c cc 00 3c ee 7e 1b 3d
       0.12599732 0.112108044 0.007861208 0.037962846
000050 e4 50 37 bd 50 ce 1b 3e 85 6b d9 bc 32 33 02 3c
       -0.044754878 0.1521542 -0.026540527 0.007946776
000060 b7 e0 d6 3c 67 b3 05 bd f1 52 85 bb 19 09 4c 3d
       0.0262302 -0.032641795 -0.0040687253 0.049813364
000070 f7 00 df bd 99 fa 70 bd a1 e3 22 3e 70 98 06 3e
       -0.10888856 -0.05883274 0.15907146 0.13144088
000080 3f 96 e1 bd a0 a0 e3 3c 07 0e 98 3d ce 62 d6 3d
       -0.11014985 0.027786553 0.074245505 0.10468064
000090 20 6c e4 3d 3a aa f8 3d 1b c1 c8 bd a5 48 01 3e
       0.11153436 0.12141843 -0.09802457 0.12625368
0000a0 6d d5 df bc 5a d9 88 bd ab bc 1b 3d 62 eb 81 bd
       -0.027323449 -0.066820815 0.038021725 -0.06343724
0000b0 0a 4c ca bd 9b 0d a3 bd a1 7d 08 3e 9c c5 51 bc
       -0.098777846 -0.079615794 0.13329174 -0.012803461
0000c0 f2 85 f1 bd a3 a3 c5 bc b3 a5 30 3d 76 c7 b6 3d
       -0.11793126 -0.02412588 0.043126773 0.08924763
0000d0 51 1e 93 bc 08 76 72 bb 40 bc c9 bd 7e 61 12 3e
       -0.017958792 -0.0036996622 -0.09850359 0.14295003
0000e0 4f f0 87 bd e8 a2 91 3d e8 4a 77 bd ad 0d 2e 3d
       -0.06637632 0.0711115 -0.06037417 0.04249351
0000f0 34 61 16 bd ad c8 30 3d 8f 6c 85 3d fb 24 f2 3c
       -0.036713794 0.04316013 0.065148465 0.02955865
000100 ff 64 9c 3d 83 28 c6 bd cd 7a 36 3c f7 08 89 bc
       0.07636451 -0.09675696 0.011137676 -0.016727908
000110 92 1d 29 bd 1b 5b 5b 3d 15 c4 21 3d 77 d7 4b bd
       -0.041287966 0.05355368 0.03949364 -0.04976603
000120 ae cc 2c 3d fd f8 28 bd f2 a4 9b bd ef c3 ae bd
       0.042187385 -0.04125308 -0.0759982 -0.08533465
000130 17 36 8a 3d af ec 16 3e 76 b2 be 3b 43 7e f6 3d
       0.06748598 0.14738725 0.005819614 0.12035801
000140 42 db 63 bd b0 e1 86 3d 97 1e 0a bd 61 8a 6d 3d
       -0.055629022 0.06586015 -0.03372058 0.057993297
000150 39 7b db bd d0 50 55 3c 9a 78 3a bd fb 15 0f 3d
       -0.10716862 0.0130197555 -0.04552517 0.03493307
000160 18 1b 19 3e 0a b7 06 3d cc 26 c0 3d ad 41 1f 3e
       0.14951742 0.032889403 0.093824 0.15552397
000170 7a 89 90 3d 2b 14 71 bd 56 29 1d 3e 3c cd 2c bd
       0.070574716 -0.058857124 0.153478 -0.042187914
000180 34 30 a2 bc ce f6 b9 bc d2 a8 36 3d fd 8b 38 bd
       -0.019798376 -0.022700693 0.044594593 -0.04505538
000190 ef 0f 16 be 45 1b 00 be c4 34 e3 3a 6f b0 a8 bd
       -0.14654516 -0.12510403 0.0017334451 -0.08236777
0001a0 e6 68 17 be ad 2e 0a 3e d0 85 5e 3d 2b a5 93 bd
       -0.1478611 0.13494368 0.054326832 -0.07209238
0001b0 ad 41 18 3e 3f f3 85 3d c9 58 90 3c 3c 1a e5 bc
       0.14868803 0.06540536 0.017620461 -0.027966611
0001c0 93 d6 b6 bd 2e 6b ca 3d 84 68 b7 bd 97 d2 fd 3c
       -0.089276455 0.09883724 -0.08955482 0.030984206
0001d0 38 41 81 3c 0a 6d 2e bd bc e7 07 3e 61 b6 d3 3d
       0.015778169 -0.042584457 0.13271993 0.103375204
0001e0 83 f9 b0 bd 59 53 a0 3d b9 6c 82 3d c6 4d ab 3d
       -0.086413406 0.07828397 0.063683935 0.083644435
0001f0 5e 91 8b 3d f7 b5 c6 3d fb ca c1 bc 4e 62 e9 bd
       0.06814836 0.09702676 -0.023656359 -0.11395703
000200 40 45 ed 3d 7b 02 23 be a2 c6 21 3d 59 aa 32 bd
       0.11585474 -0.15918915 0.03949607 -0.043619487
000210 db f5 b7 38 d7 8e 7a 3d e2 40 50 3d 88 c4 c1 bd
       8.771914e-05 0.06117138 0.050843127 -0.094613135
000220 38 9c 02 be 94 26 8d 3d ab 7a 33 bc a8 ca 44 3b
       -0.12754905 0.06892124 -0.010954539 0.003002802
000230 21 92 f6 bc 1b 85 00 be 38 5b bc bd 99 b6 b8 ba
       -0.030098977 -0.12550776 -0.09197086 -0.0014092504
000240 e7 04 6e bd 55 4b 36 bd 16 0b fd 3b 85 13 aa bd
       -0.058110144 -0.044505436 0.007722269 -0.08304504
000250 26 92 43 bd 43 f5 13 3d 02 7f c6 3d 5a 42 c7 3c
       -0.0477468 0.03612257 0.096921936 0.024323631
000260 b5 d7 15 3d fa a7 c8 3d b9 b5 ad bc 26 53 6b ba
       0.036582667 0.09797664 -0.021204816 -0.00089769287
000270 0c 60 eb 3d b3 c3 ef 3d 8c 04 b5 bc cf 4d 24 3e
       0.11492929 0.117072485 -0.022096895 0.16045307
000280 c3 28 24 3d a5 f3 d5 bd 2f 6b 3b 3d f4 23 6d bd
       0.040077936 -0.10446862 0.045756515 -0.057895616
000290 66 79 bc 3d 8c fd 91 bd a9 0f 1f bd 07 ad f2 3d
       0.092028424 -0.07128438 -0.038833294 0.118494086
0002a0 fc 1d 02 bb 94 fc d5 3d d3 ff 0b 3e e4 56 d6 bd
       -0.0019854298 0.10448566 0.13671808 -0.10465792
0002b0 4d 21 c8 bc bf a3 ae bd 99 e4 87 bc 79 a4 a2 3c
       -0.024429942 -0.08527326 -0.016588496 0.019853817
0002c0 c5 b3 1b 3d 21 2d f1 3d d2 01 91 bd e6 ab a7 3d
       0.03801324 0.11776186 -0.07080425 0.08187084
0002d0 68 40 bb 3b 1f 15 0a bd b1 52 c4 3d ca 75 c1 3d
       0.005714465 -0.03371155 0.09586085 0.094462946
0002e0 20 29 b0 bd c8 19 ef 3d d6 a8 ba bc cd e4 72 bd
       -0.08601594 0.11674839 -0.022785585 -0.059300233
0002f0 c5 d2 05 bd f4 20 f9 3d e5 9b 6d bd bf 50 1a 3d
       -0.03267171 0.121644884 -0.05801 0.03767466
000300 8d 17 98 3d c0 5b 23 3d d9 a0 a8 3d 95 03 1e bd
       0.07426367 0.03988242 0.08233804 -0.038577635
000310 e4 09 a6 3c 01 0a 88 3d 7c 78 d4 ba 18 9f 24 3e
       0.020268388 0.06642533 -0.0016210224 0.16076314

lstm.bias_hh_l0 f4 [200]
000000 f2 4e af bc 76 d4 c8 3d b2 60 ae bd 86 11 d1 3d
       -0.021399949 0.09806149 -0.08514537 0.102084205
000010 43 ed c8 bd d4 91 1e 3e b8 c1 8a bd 7a ab 44 3d
       -0.09810879 0.15485317 -0.0677523 0.048015095
000020 e3 f3 e4 3d c3 c4 e5 3d ba 5c 62 bd e4 f6 e3 3c
       0.1117933 0.1121917 -0.055264212 0.027827688
000030 91 23 ba bd 0d 4d c3 3d 06 9f 00 3e 2a 72 c8 3d
       -0.09088815 0.09536181 0.12560663 0.097874
000040 fa b8 05 3e dd f6 c2 3d ce 94 14 bd 3f f4 3c bc
       0.13058844 0.09519742 -0.036274724 -0.011532842
000050 8c f2 f7 3d 71 a8 91 bc 5e 96 22 3d 51 4b 0f 3d
       0.12106809 -0.017780514 0.039694183 0.034983937
000060 dd 25 6f bc 7e 85 fe bb 5d 63 b0 bd 8d 54 83 3d
       -0.01459643 -0.0077673784 -0.08612702 0.06412611
000070 cd b6 d6 3d 1a 0e 07 3e 7c 24 93 3d 2a ab c7 3d
       0.10484085 0.13188973 0.07184693 0.09749444
000080 33 0c b9 bd d2 a6 a1 bc f8 00 fd bd 68 13 f8 3c
       -0.0903553 -0.019732866 -0.123537004 0.030282691
000090 dc 16 99 bd 9d 87 a7 3d 8a 26 77 bd 7d 44 e5 3d
       -0.07475063 0.08180163 -0.060339488 0.11194704
0000a0 24 62 2d 3c dc 19 e2 3d a2 07 f1 bd e5 36 55 bd
       0.010582481 0.110400885 -0.11769034 -0.052054305
0000b0 5d 1a 02 3e ed 02 aa 3c cb 81 31 3d d4 90 ee 3c
       0.1270537 0.020753348 0.04333667 0.029121794
0000c0 b7 1e ae bc e6 19 04 bd 6f 28 b7 bd 9a c8 c7 bd
       -0.02125488 -0.03225126 -0.08943259 -0.097550586
0000d0 d7 d2 9a 3d f9 7d d5 bd 12 44 25 bd ca da 7f bc
       0.07559746 -0.10424418 -0.04034812 -0.015616128
0000e0 08 c7 0e be d4 84 a0 3d fa c5 ed 3b 75 c4 a4 bd
       -0.13943112 0.07837835 0.0072562667 -0.08045284
0000f0 76 11 3f bd 54 01 82 bd 77 67 87 3d b4 67 c3 3c
       -0.04664751 -0.063479096 0.06611531 0.02385316
000100 a9 ac d6 bd 73 a7 2b 3d 3b d9 20 3c 2a ee 6f bd
       -0.10482151 0.04190774 0.009817417 -0.05857674
000110 7f 92 a9 3d a5 40 f1 3d b3 d6 9c 3d 59 69 1d 3d
       0.08279895 0.11779908 0.07658138 0.038430545
000120 c4 76 5e bc a1 eb 3a 3d f5 35 e2 3d bf ed 81 bd
       -0.013578121 0.04563487 0.11045448 -0.063441746
000130 15 04 a9 3d a4 51 e1 bd f5 b7 c4 3d 96 41 f2 bd
       0.08252732 -0.110019 0.096053995 -0.11828916
000140 33 39 e7 3d 52 2b e6 bc d3 64 eb 3b 11 2f 5d 3d
       0.11290207 -0.028096829 0.00718365 0.053999964
000150 77 10 04 3d cf f1 19 3d b3 89 92 3d 68 83 12 bd
       0.032242265 0.037584122 0.0715517 -0.03576985
000160 c6 a2 f8 3d 3f 4d 6a 3d 16 7d 4f bd ef 9e 78 bd
       0.121404216 0.057202574 -0.0506564 -0.060698446
000170 65 7b 7b bd 88 62 8c bd f3 a7 df 3d 06 51 c7 bd
       -0.061396975 -0.06854731 0.10920706 -0.09732251
000180 6c 50 0a 3e 34 c0 a3 bc 35 de aa 3d 9a af 06 3e
       0.13507241 -0.01998911 0.08343164 0.13152924
000190 6b a6 85 3c 3a 6f ff bb 23 2d 21 bd ef fd 0b 3d
       0.016314706 -0.0077952417 -0.039349686 0.034177717
0001a0 f3 1d 01 3b 66 03 35 bd 5a b5 e1 3d 1b a1 eb bb
       0.001970169 -0.044192694 0.11020918 -0.007190836
0001b0 17 86 01 3e d2 89 29 3e c8 25 25 3e cd e4 82 bd
       0.12648807 0.1655648 0.16127694 -0.063912965
0001c0 d6 fd f1 3c 40 c5 e1 bd 67 88 8c 3d 62 c7 e8 bd
       0.029539984 -0.110239506 0.06861954 -0.11366154
0001d0 b6 30 a2 3d 15 a4 22 be 5b 1b b6 bd 84 bb 38 bd
       0.07919447 -0.15882905 -0.088919364 -0.045100704
0001e0 96 0a 12 3b e6 d5 bd bc 15 07 91 3d 9a 09 7b 3d
       0.0022284142 -0.023173284 0.07081429 0.061288454
0001f0 c5 46 a4 bd 3e b2 27 3c ad 15 41 bd 90 b4 ca 3d
       -0.08021311 0.010235367 -0.047139812 0.09897721
000200 7b bc ea bd dc 63 4e 3d c4 60 5c 3d 3e ff 8d 3d
       -0.11461731 0.050388202 0.05380322 0.06933449
000210 eb fb c9 bd 93 01 23 3e 1e 24 8c bd 2a 0e 07 be
       -0.09862503 0.1591857 -0.06842826 -0.13188997
000220 7b 41 00 be d0 06 00 bd 10 a7 de 3d e4 83 86 bd
       -0.12524979 -0.031256497 0.108717084 -0.06568125
000230 db 4e d9 3d 94 50 e4 bd f5 61 9d bb 9a ab bf ba
       0.106107436 -0.111481816 -0.004802937 -0.0014623285
000240 10 bc b8 3d ae 2f 78 3a 08 e3 b5 3d 31 a7 b8 3d
       0.09020245 0.0009467554 0.088811934 0.09016264
000250 be 29 e8 bc eb b2 0b 3e 24 f6 ac 3d 4f 78 54 bd
       -0.028340217 0.1364247 0.08445385 -0.051872548
000260 47 11 06 be 97 20 0f 3e fc 11 7d bd 6e ec a3 bd
       -0.13092528 0.13977276 -0.06178473 -0.0800408
000270 ab 7e 6a bd fb b0 be bd 2a 2d a8 3d d7 03 6f bd
       -0.057249706 -0.093111 0.08211739 -0.05835327
000280 67 bb ba 3d 05 c3 cd 3d 0a 38 f2 bd 90 96 41 3d
       0.091177754 0.10046963 -0.11827095 0.04726273
000290 de c8 d0 3d 3e d3 82 3d 24 1f e8 bd e5 bd f3 3d
       0.101945624 0.063879475 -0.113340646 0.11901454
0002a0 9f 8b 69 3d 83 ac a3 bc db 4a c0 bd 7b 0b 94 bd
       0.05701792 -0.019979721 -0.093892775 -0.07228752
0002b0 87 99 3c 3d bd e4 b1 3d 46 83 45 bd 9b 3b 88 3d
       0.046044853 0.086862065 -0.048220895 0.06651994
0002c0 59 a1 37 bd a7 3b d6 3c c9 99 08 3e b6 b5 b8 bc
       -0.044831607 0.026151491 0.13339914 -0.022547584
0002d0 ca 49 ff 3d 3d 1b 09 3e 05 21 88 bd 0e b6 a4 ba
       0.12465246 0.13389297 -0.06646923 -0.0012566464
0002e0 c5 e4 9e bd f4 37 5b 3d 52 ad b6 3c ab b3 da bd
       -0.07758478 0.053520158 0.022299442 -0.106788
0002f0 4d 39 ba bd 46 fd d7 3a d2 aa fd bd a2 7e bd bd
       -0.090929605 0.001647868 -0.12386097 -0.09252669
000300 82 6c 2b bb 54 36 67 3b 3b 86 9d 3d 5d 7d 27 bd
       -0.0026157205 0.0035280185 0.07691618 -0.04089104
000310 67 8d 65 bd c2 32 0b bd 83 f0 58 bd ad ce fd 3d
       -0.056043055 -0.033983953 -0.052963745 0.12392936

lstm.weight_ih_l1 f4 [200, 50]
000000 70 05 6c bd 4d 1e f8 3c 4d 81 65 bc 24 4f e1 3d
       -0.057622373 0.030287886 -0.0140078785 0.11001423
000010 78 9b d6 3d 84 87 43 3d c4 12 c9 bc c4 15 00 3e
       0.10478872 0.04773666 -0.024545081 0.12508303
000020 00 c1 ac 3d 91 cf 6d 3d 85 69 32 3d d7 f0 73 bd
       0.08435249 0.05805928 0.043557663 -0.059555855
000030 ea 81 b3 ba 74 d3 e0 3c e8 a5 0d be c9 39 79 3d
       -0.0013695334 0.027444579 -0.1383282 0.060846124
000040 30 ac 81 3d 2d 03 b1 3b 78 6a 75 3d b2 d9 22 bd
       0.0633167 0.00540199 0.05991599 -0.03975839
000050 a4 e7 1c bd 00 14 70 bd d6 03 fc bd 7e 2f 05 3d
       -0.038306847 -0.058612823 -0.12305419 0.032515995
000060 3b 84 16 3e 17 e5 e6 3d 32 a7 4c bd 14 e4 cc 3d
       0.1469888 0.11274164 -0.049964137 0.1000444
000070 a0 b9 d3 bd 2b 3d 9e bd 0a 8b 76 3d 82 ad e1 bd
       -0.103381395 -0.077265106 0.06019119 -0.11019422
000080 06 8a 1b be cb 4b 13 bd 18 65 ef 3c b2 2e 91 3c
       -0.1518937 -0.035960954 0.02922301 0.017722461
000090 c4 8f f2 3d dc f5 64 3d 4d 68 79 3d ba 6f 3f bc
       0.11843827 0.055898532 0.060890485 -0.0116843525
0000a0 67 53 f6 3d 41 29 2f ba 55 51 22 bd 0e d4 ea bd
       0.120276265 -0.00066818675 -0.039628346 -0.114662275
0000b0 ea a1 6e 3d c1 88 9a bb 4e a9 16 bd 75 51 ca 3c
       0.058259882 -0.0047160094 -0.036782555 0.024697045
0000c0 74 74 88 bd c3 4d 41 3d 40 e8 0a 3e 36 15 49 3d
       -0.06662837 0.0471933 0.13565159 0.049092494
0000d0 e3 15 2c 3d 14 81 73 bd fa 15 fd bd 5b 3f ce bd
       0.04201306 -0.05944927 -0.12357707 -0.10070678
0000e0 f9 e0 09 3e 05 24 15 bd 40 9e ed 3d c3 7a b1 bd
       0.13464727 -0.036411304 0.116024494 -0.08665993
0000f0 82 dc 98 bd 5e a0 93 bd db b0 ae bd 92 22 97 3d
       -0.074639335 -0.07208322 -0.08529826 0.07379641
000100 0d 25 7b bd 6c 89 d1 bd d0 78 fa 3d 93 d7 80 bd
       -0.06131463 -0.10231289 0.122300744 -0.062911175
000110 65 97 cc bd da 3b c3 bd 3b 4d bd bd d5 e9 7f 3d
       -0.09989814 -0.095329 -0.09243246 0.06247886
000120 3a 28 61 3d 4b f1 b5 bd 4c fc b8 bd 0e 57 9f 3d
       0.054970004 -0.088839136 -0.09032497 0.07780276
000130 01 db 99 bd 0d 9e e2 bc 18 f9 96 bd 5f e8 04 bd
       -0.07512475 -0.027663255 -0.073717296 -0.03244817
000140 50 9d c8 3d 81 47 8a bd 64 7b a2 3c 8f ec 33 3d
       0.0979563 -0.067519195 0.019834228 0.04392677
000150 0b be a4 3d 74 d0 17 bd 76 a5 b2 bd 31 3f 75 bc
       0.0804406 -0.03706403 -0.087229654 -0.014968679
000160 fa 43 a0 bd f3 80 0c be 8d 81 d4 3d 03 83 0f bd
       -0.078254655 -0.13721065 0.10376272 -0.035037052
000170 56 4a b8 3d 4c 95 1a bd 72 dd 9f 3d 3a 6a de 3d
       0.089985535 -0.037740037 0.07805909 0.10860105
000180 82 2f 3c 3d 30 ad ac bd ad ba d6 3d f8 76 d6 3c
       0.045943744 -0.084314704 0.10484824 0.026179776
000190 1b 96 f2 3d ea 16 8d 3d 2c 92 dc 3d e4 34 0f bc
       0.118450366 0.06889136 0.107700676 -0.008740637
0001a0 94 27 1f 3d d4 b6 e3 3d b5 0b 21 be 72 c6 f8 3c
       0.038856104 0.11118856 -0.15727122 0.030368064
0001b0 1a 04 2a bc d9 bc fd bd 5a bd d0 3d 3f e9 01 3e
       -0.010376954 -0.123895355 0.10192366 0.12686633
0001c0 94 de aa 3d f1 25 35 3d db 76 94 bd f3 d2 4b ba
       0.08343235 0.044225637 -0.072492324 -0.00077752693
0001d0 9d ab 21 be d7 30 27 3e 3d 2d 8b 3d e1 0d 61 bd
       -0.15788122 0.16327225 0.06795738 -0.054944877
0001e0 89 44 c4 3b 7f 14 5f bd d8 0e df bd 3a 97 8c 3d
       0.0059896153 -0.054462906 -0.10891503 0.06864782
0001f0 a4 ad 4b 3d 69 76 51 3d 70 34 9c bd 4c 3c da ba
       0.049726143 0.051138315 -0.07627189 -0.001665005
000200 fa 98 00 bd bf e5 75 bb 2a 81 8a bc df ca df 3d
       -0.03139589 -0.0037520973 -0.016907293 0.109273665
000210 9b ff ac bd db 63 15 be 80 af 90 3d 11 34 97 bc
       -0.084471904 -0.14588873 0.07064724 -0.018457444
000220 c0 57 c0 3d 3b 74 ea 3c 9c 31 0c be f5 c7 c2 3d
       0.09391737 0.028619876 -0.136908 0.09510795
000230 90 fe cb bd a5 07 21 3e 38 81 c2 bd 32 26 84 bc
       -0.09960663 0.15725572 -0.09497303 -0.016131494
000240 53 69 f9 bd cd a1 e0 bd 74 bf d5 3d be 3b 0c 3e
       -0.12178292 -0.10968361 0.104369074 0.13694665
000250 8d ae da bd 33 fd e9 3d 91 c4 65 3d d2 cc 69 bd
       -0.10677824 0.11425247 0.056095663 -0.057080097
000260 09 29 89 bd 24 fe 40 bc 6b 70 8d 3d a5 82 8f 3c
       -0.0669728 -0.011779342 0.06906208 0.01751835
000270 3f 61 05 3d 96 3e f7 bd e4 b6 7c 3d 5a 54 cc bd
       0.032563444 -0.12072484 0.061697856 -0.09977026
000280 8a bc ec bd 30 d6 4b bc 62 7a b9 bd 09 f7 b8 3d
       -0.115593985 -0.012441203 -0.09056546 0.09031493
000290 cc f1 ce bd 9b a9 89 bd 79 d6 8b 3d 79 c0 00 bd
       -0.10104713 -0.06721803 0.06828017 -0.031433556
0002a0 b0 a6 b8 3c 32 1b a3 3d 48 bc ad bd 07 09 95 3d
       0.02254042 0.079641715 -0.084831774 0.072771125
0002b0 62 0c 14 3d 99 28 00 be 30 7c e0 3d 57 56 8f bd
       0.03614462 -0.12515487 0.10961187 -0.0699889
0002c0 db 91 06 3e 8a be e8 3d 8b 47 0a 3e 1e 40 a3 3d
       0.13141577 0.113644674 0.13503854 0.07971214
0002d0 5a 2c a1 bd 7f 88 c4 bd fa ff a4 bd 14 7c c3 3d
       -0.078697875 -0.09596347 -0.08056636 0.095451504
0002e0 f2 2b 81 3b e7 32 cb 3d 3d ef fc bd 38 27 82 3d
       0.0039420063 0.09921818 -0.123503186 0.06355137
0002f0 2d af f3 3a 35 d0 4d 3d 66 03 dd bd 27 14 30 bd
       0.0018591635 0.05024739 -0.10791664 -0.04298797
000300 c8 3e 06 be 13 3d 94 3d 11 6d fa bd f2 39 64 3d
       -0.13109887 0.072382115 -0.12227834 0.055719323
000310 51 97 ab bd 39 4e dc bd b7 8e 05 3c 2a 46 e0 bc
       -0.08378471 -0.10757107 0.008151702 -0.027377207
000320 c3 2b 4e 3c 19 25 49 3d 3c be f7 bb df db 4d bd
       0.012583676 0.049107645 -0.0075605195 -0.050258514
000330 a4 f5 f4 bd 52 7b 14 3e c8 c5 76 3c 38 fa fa bc
       -0.11960915 0.14500168 0.015061803 -0.030636892
000340 85 67 01 3d c3 13 a8 bd d6 45 ba bc 80 1b 6e 3d
       0.031592865 -0.08206894 -0.022738378 0.058131695
000350 91 ab fc b9 c2 34 b7 bd e8 42 02 bd 0b 4b 83 3d
       -0.00048193012 -0.0894561 -0.031802088 0.06410798
000360 f2 bc 41 bd 74 e8 a7 3c 0e f4 d9 3c 12 31 c1 bc
       -0.047299333 0.020496584 0.026605632 -0.023582969
000370 18 80 4d bc 58 98 d6 bc 6e 69 ad bc 83 6e 19 3e
       -0.012542747 -0.02619569 -0.021168437 0.14983563
000380 c8 1a 0b 3d 61 40 0c bd ed 4c 98 3c b0 a6 8b bd
       0.033961087 -0.034241084 0.018591369 -0.068189025
000390 f8 b7 99 3d 1b e2 76 ba bb b3 32 3d 05 a4 06 3e
       0.075057924 -0.00094178476 0.043628436 0.13148506
0003a0 f1 fd b6 bd 90 07 5a 3d c1 2a 03 bd 77 9d 0d be
       -0.08935154 0.05322987 -0.032023195 -0.138296
0003b0 c6 af d4 bd d4 32 80 bb 6c 91 92 bd ef 47 b1 bd
       -0.103850886 -0.003912309 -0.07156643 -0.08656298
0003c0 ab 99 1a 3e a0 e7 ba bd 68 e5 84 bd be b0 4f 3d
       0.15097682 -0.0912621 -0.06489068 0.050705664
0003d0 2b 19 24 3e 6f 74 97 bd 79 16 11 3e fe b2 87 bd
       0.16025226 -0.07395255 0.14168729 -0.06625937
0003e0 9a ae a1 bc f2 8b 0f bd 4f 54 d6 bd 07 e3 db bb
       -0.019736577 -0.03504557 -0.10465299 -0.0067104134
0003f0 ca 16 29 bb 62 12 ed 3d 5a 0e 17 be f2 21 22 3d
       -0.0025800937 0.11575772 -0.14751568 0.039583154

lstm.weight_hh_l1 f4 [200, 50]
000000 16 7d 84 3b e6 71 82 bd 37 29 ec 3d dd 75 62 bd
       0.0040432317 -0.06369381 0.115312986 -0.055288184
000010 2c e6 bc 3d 2a d1 18 bd c5 57 00 bd 05 e2 15 3e
       0.09223589 -0.03730885 -0.031333704 0.14637001
000020 33 27 19 bd f0 ae b2 3d 5e e3 c3 3d fe 7d 8d 3d
       -0.0373909 0.08724773 0.09564851 0.06908797
000030 29 0c ae bd af f2 20 bc bb 9c 69 3d f8 5c cd bd
       -0.08498413 -0.009823485 0.057034235 -0.10027498
000040 b4 71 1a 3d df 57 af bd ea df 27 bc 8a e3 b7 3d
       0.037706092 -0.08561682 -0.010246256 0.089789465
000050 02 4c 70 3d 47 10 34 bc 23 e6 dd 3c 98 aa 8f 3d
       0.058666237 -0.010990209 0.027087277 0.0701496
000060 28 68 27 3a 26 de a7 3d 67 3f 87 3d ff 95 f6 3c
       0.0006386065 0.08196668 0.0660389 0.03010082
000070 f1 89 12 be 56 d1 d4 bd a7 9a 6d 3d ee 71 8c bc
       -0.14310433 -0.1039149 0.058008816 -0.01714417
000080 b7 06 4e bd 1f 83 60 3d 7b a4 48 bd b2 9c 33 bd
       -0.050299373 0.054812547 -0.048984986 -0.04385061
000090 05 47 7b bc dd b3 aa bb bb 81 21 bd 70 47 eb 3b
       -0.015336757 -0.0052094297 -0.03943036 0.007180147
0000a0 ff 7c 5d bd ac bd b2 bc ea 90 e7 3c 21 b0 dd bd
       -0.054074284 -0.021818958 0.028267343 -0.108246095
0000b0 74 04 d5 bd fc b6 18 be 12 c7 0b 3d a3 3d 0b be
       -0.1040124 -0.14913553 0.034125395 -0.13597731
0000c0 32 5d ff bd 7f d9 06 3c da 4f bf 3d 0d 62 9f 3d
       -0.124689475 0.008230566 0.09341402 0.077823736
0000d0 9a 87 08 3e 5f 17 24 ba 68 ee ca 3c 94 d9 03 bb
       0.13332978 -0.0006259586 0.024771884 -0.00201187
0000e0 7a 1a 03 3e 69 a5 72 3d d8 8c 0c 3e 11 48 ac 3d
       0.12803069 0.05923978 0.13725603 0.08412183
0000f0 23 fa 80 bd 85 9c 31 3d d9 13 b7 bd d0 72 77 bd
       -0.0629771 0.04336216 -0.089393325 -0.060412228
000100 97 bc d4 3d 13 eb a3 3d a8 8f 92 3d ca 45 dd 3d
       0.10387533 0.08003821 0.071563065 0.10804327
000110 da 5d 04 be b4 20 9a bd 8a 9f e3 bd 0e 3d 98 bd
       -0.12926427 -0.07525769 -0.11114414 -0.0743352
000120 5e e3 e5 bc 3d 57 da bd a2 33 e6 bd 28 27 0e b8
       -0.028062519 -0.10661171 -0.11240317 -3.3891905e-05
000130 c9 ce 63 3d 2d 2d 05 be bb 9b ba 3d 01 10 ce 3d
       0.055617128 -0.13005514 0.091117345 0.10061646
000140 29 bc fd bd 98 00 10 3b 68 cc fc 3d e1 64 fa bd
       -0.12389404 0.002197301 0.12343675 -0.122262724
000150 ad 25 41 3c 4a bc ed bc d3 06 f2 bb c2 4f b4 bc
       0.011788768 -0.029020447 -0.0073860674 -0.022010688
000160 34 4c fe 3d d7 1f b2 bd cc b4 5b bc cf 93 c6 3d
       0.12416878 -0.08697479 -0.013409805 0.09696161
000170 f6 d4 9e bc de d7 b9 bd ba 47 58 3d b0 4d f4 3d
       -0.019388657 -0.090743765 0.05280278 0.1192888
000180 52 de 09 be e0 80 a7 bd 42 1b e7 bc 91 40 a0 3d
       -0.13463715 -0.08178878 -0.02821124 0.07824815
000190 cd 95 9d bc 18 81 f4 bc e4 2a 13 3d 26 8d ee 3d
       -0.01923647 -0.029846713 0.035929576 0.11648016
0001a0 af b8 aa bd 69 e9 19 be 25 e2 dc bd dc d3 cb bd
       -0.08336007 -0.15030445 -0.10785321 -0.09952518
0001b0 c3 cb 23 bd e3 57 29 3d 9b fa 9c bd df 63 97 3d
       -0.039989244 0.04134358 -0.07664987 0.07392096
0001c0 53 e4 18 be 49 6e 45 bc 5d 3f c0 bd df 15 bb 3d
       -0.14930849 -0.01205022 -0.093870856 0.09135031
0001d0 6d 2b fd 3d 35 5f db 3b fd 70 a6 3c 12 30 93 bd
       0.123617984 0.006694699 0.020317549 -0.07186903
0001e0 a5 9a bb 3c c1 40 bf bd 24 4d df 3d a6 ad cb bd
       0.022900889 -0.09338523 0.10903385 -0.0994523
0001f0 0c 46 88 3d c0 8f 10 3d 9e 06 95 3d d7 72 c0 3c
       0.066539854 0.03529334 0.07276653 0.02349226
000200 08 0d 70 bc 04 fb cf 3c 73 45 d4 3c e3 c7 1d bd
       -0.014651544 0.025388248 0.025912022 -0.038520705
000210 4a 5e 8b bd 0c 00 96 bd 19 7c 51 bd bd 9f 34 bd
       -0.068050936 -0.07324228 -0.05114374 -0.04409765
000220 18 c5 d2 3d cb c9 45 3d b6 91 f6 3b a0 2c be 3d
       0.10291499 0.048288148 0.0075246943 0.09285855
000230 4c 28 fa bd a9 70 08 be 1d e3 aa 3b 3e 59 44 bd
       -0.12214717 -0.13324226 0.0052150623 -0.04793667
000240 35 c5 eb 3b 99 07 60 bc d4 43 b9 ba e8 80 3d 3d
       0.00719514 -0.013673686 -0.0014134594 0.046265513
000250 b8 4d 0c 3e 80 04 87 bd f5 15 e8 3d 78 32 bb 3d
       0.13701522 -0.06592655 0.11332313 0.091404855
000260 0d d3 27 be a8 6f f5 bc 87 95 62 3d 13 46 d7 bd
       -0.16389103 -0.029960468 0.05531838 -0.105114125
000270 d7 09 1a bd 28 ed db 3d 7b 8f ad bb 86 2d f8 3d
       -0.03760704 0.10738593 -0.005296645 0.12118058
000280 20 9a 74 bc d7 49 84 bd 03 13 97 3c ef 0a 73 3d
       -0.014929324 -0.06459396 0.018441683 0.0593366
000290 6a 8f f3 bd b6 82 2f 3d fc be 58 bd 2c 94 2d bd
       -0.118925884 0.042849265 -0.052916512 -0.042377636
0002a0 d1 af e6 3c 25 11 c0 3d f2 a5 a1 bd 78 21 be bd
       0.028160008 0.0937827 -0.0789298 -0.092837274
0002b0 b5 80 05 be 37 a3 e0 bd 02 3e 0e 3e 16 b3 f9 3b
       -0.13037379 -0.10968631 0.13890842 0.0076202257
0002c0 35 6a fd bd 4c 15 a3 bd c6 86 d3 3d 78 88 f9 3b
       -0.12373773 -0.079630464 0.1032844 0.0076151453
0002d0 47 7c 8a bd 4e 82 c3 3d 32 4d f9 bd d4 b8 9d 3b
       -0.06761985 0.09546338 -0.12172927 0.004813293
0002e0 b1 e5 c1 bd 18 0f 07 bd cb e1 81 3d 0e 7a 3e bd
       -0.09467638 -0.03297338 0.06341895 -0.04650312
0002f0 95 a3 f3 bd 21 27 0c 3d 69 df 03 3d c1 1a c5 bd
       -0.11896435 0.034217004 0.032195482 -0.096242435
000300 e7 30 aa 3c cf 84 09 be a9 13 70 bd 34 83 f0 bd
       0.020775272 -0.13429569 -0.0586125 -0.11743775
000310 27 b9 03 bd 3c c2 07 be c9 f3 4d bc 9a 0b d9 3c
       -0.032158997 -0.13257688 -0.01257033 0.02649479
000320 5b 7d b3 bd ef cd 07 be f8 68 b1 bd 24 0a 34 bd
       -0.08764144 -0.13262151 -0.08662599 -0.043954983
000330 1a 50 3b bd 9d b4 6c bc f4 bb 85 3d e7 59 be 3c
       -0.045730688 -0.014447358 0.0652999 0.023236228
000340 74 62 1f 3d 7b 23 ca bd a9 6a 14 bd 3f ed 53 bc
       0.03891225 -0.098700486 -0.03623453 -0.012934982
000350 dc 4a c5 bd 24 4d d6 bd b5 78 bd 3d 32 15 02 bd
       -0.09633419 -0.10463932 0.09251539 -0.031758495
000360 8d 8f 9f 3d ce d0 ef bd d9 f6 83 3d 7e da f7 3c
       0.07791052 -0.11709748 0.06443567 0.030255552
000370 50 00 93 bc 75 0e ab 3c 9b 9d 0a be 1a a7 e6 3a
       -0.017944485 0.020880917 -0.13536684 0.0017597408
000380 ae 18 0b 3d 62 d7 a4 bd e0 14 03 3d 32 74 ba 3c
       0.033959083 -0.080488935 0.03200233 0.022760484
000390 c0 a7 ca bd 53 67 51 3d b8 56 3b 3d 72 1a a8 3d
       -0.09895277 0.05112393 0.045737 0.08208169
0003a0 30 76 9c 3b 15 89 01 3d b1 ed 16 3d f2 e0 1a 3d
       0.0047748312 0.031624872 0.036847774 0.03781218
0003b0 c5 be 24 be 1e 8b a7 bd c3 23 61 3d a4 79 28 39
       -0.16088398 -0.081808314 0.054965746 0.00016067043
0003c0 37 a3 a4 3c 2b 73 c9 3d 05 af 53 3d 52 7b fb bb
       0.020097358 0.0983642 0.051680584 -0.007674613
0003d0 4c 9d 19 be 6f 8a 98 3d f3 5f 1b bd e4 96 06 be
       -0.1500141 0.07448279 -0.0379333 -0.13143498
0003e0 53 51 9e bd ec 91 0b be 7e 5a cc bd 66 d6 c5 bd
       -0.07730355 -0.13629884 -0.099781975 -0.09660034
0003f0 75 a0 3a 3d dc 26 00 be d4 d6 cd 3d aa 50 fb 3d
       0.04556318 -0.12514824 0.10050741 0.12271245

lstm.bias_ih_l1 f4 [200]
000000 8a b3 fd 3d aa 03 79 3d 0a 2e 79 bd 3d b4 41 3d
       0.1238776 0.06079451 -0.060834922 0.04729103
000010 4d b8 1a 3d 8b d1 df bc ce c0 01 be 97 2b 3c bd
       0.03777342 -0.027321598 -0.12671205 -0.045940008
000020 52 47 a4 3d 4c fc 0c be e4 23 23 3e 79 16 ca 3a
       0.08021416 -0.13768119 0.1593166 0.0015418074
000030 05 3d d8 3b 76 ac 33 3d 22 ad 01 3e f1 82 07 bc
       0.006599071 0.043865643 0.12663701 -0.008270965
000040 5e 8d 0a be 7d 1f f0 bd 7d 1c 18 3d 8a ef f5 3d
       -0.1353049 -0.11724756 0.037136544 0.12008579
000050 d0 c3 38 bb dd e6 d2 bc 78 50 ed 3d e1 7c 8b 3d
       -0.0028192885 -0.02574485 0.11587614 0.06810928
000060 cc 2a 76 bd 00 ff 2a 3e 6e 8f af bd 30 8e f3 bc
       -0.060099408 0.16698837 -0.08572279 -0.029730886
000070 d6 48 eb bd ff 59 1d 3d a5 f6 58 bc be 89 38 3d
       -0.11488502 0.038415905 -0.013242398 0.045053236
000080 b0 79 cb 3d 43 43 e2 3d 7b d1 94 3c 00 05 be 3d
       0.099353194 0.110479854 0.018166294 0.092782974
000090 9f 36 ad bd 26 67 e9 bc b1 d2 90 bc c7 2d c8 3d
       -0.08457684 -0.028491568 -0.01767859 0.09774356
0000a0 b5 3b 85 3c 4e ce d6 3d 99 7e fe bc 98 38 c3 bd
       0.016263822 0.10488568 -0.031066226 -0.09532279
0000b0 8f 65 ca bb f7 cb a8 bd 27 6f 94 3d 02 26 1d 3e
       -0.0061766575 -0.08242028 0.07247763 0.1534653
0000c0 c6 d3 1a bd 99 72 a4 3d 1a c2 5c 3c aa ca 37 3d
       -0.03779962 0.0802967 0.013474012 0.04487101
0000d0 84 4e b4 3b 7d 43 2c bb 99 17 15 3e 2a 51 db 3a
       0.005502524 -0.0026285343 0.14559783 0.0016732563
0000e0 47 6c db 3d 90 2f 0e be 54 69 ad bd da 17 13 39
       0.10714012 -0.13885331 -0.08467355 0.00014027898
0000f0 38 5f af bb 04 53 91 bc 5e e6 07 3c ba fb d3 bc
       -0.005351927 -0.01773978 0.00829467 -0.025876869
000100 a5 27 cd bd 94 19 e2 3d 7c bf ef bd 27 10 49 bd
       -0.10017327 0.11040035 -0.117064446 -0.04908767
000110 71 a8 8c bd cc 15 fd bc 44 dd 23 bd 9b e6 e9 bd
       -0.06868065 -0.030894183 -0.040005937 -0.11420938
000120 7f 9c 5a 3c e3 ff 02 be 9c 8a f1 3d 0f 0e 43 bd
       0.013342976 -0.12792926 0.11794016 -0.04762083
000130 4c 3c 94 3d 5b 06 05 bd 9d a4 1b 3e 97 64 9e 3d
       0.07238063 -0.032476764 0.15199514 0.0773403
000140 0b 84 d1 bc c0 2e 3c 3d 4d 08 6a bc 17 e3 98 3d
       -0.025575658 0.04594302 -0.014284206 0.07465189
000150 70 2e e4 bc 12 a1 71 bd 4e 28 22 bd 67 b4 07 3e
       -0.027854174 -0.0589915 -0.03958922 0.13252412
000160 f8 a9 c3 bd 46 de 86 bd f5 2e d4 3d 32 a9 ad 3d
       -0.09553903 -0.06585364 0.10360519 0.08479537
000170 d9 ed 50 3b 13 8f d1 3c c8 10 42 bd ea a2 a3 3d
       0.003188005 0.025580918 -0.047379285 0.07990058
000180 84 ed b2 3b 95 d0 2d 3d 6b 9d c1 3d 4a 85 ab bd
       0.005460443 0.042435247 0.09453853 -0.08375032
000190 f6 1b 58 3a 3c 3f d4 3d 66 22 70 bc ac 97 ed bd
       0.00082439126 0.103636235 -0.014656639 -0.11601195
0001a0 7f 49 e4 bc 3b 0a 28 3e 89 c4 e4 bc ec 5b d0 3d
       -0.027867077 0.16410153 -0.027925747 0.10173783
0001b0 69 80 dc bd df 55 5f bd 9e 15 65 3d 88 d9 48 bd
       -0.1076668 -0.054525252 0.05592882 -0.04903558
0001c0 27 11 fc ba 1b e2 18 3d 90 0d e8 bc c2 e1 65 3c
       -0.0019231186 0.037325006 -0.02832678 0.014030876
0001d0 ef 36 26 3d 34 97 d2 3b cf 41 b6 3d 07 6d bb bd
       0.040579733 0.006426716 0.08899271 -0.09151655
0001e0 67 80 07 3e 77 b8 82 bd 76 bf 74 bd c8 d2 4b 3d
       0.13232575 -0.0638284 -0.059752904 0.049761564
0001f0 e1 83 bb 3d da ee 8a 3d 4c ea 5f 3d 6c a1 18 3d
       0.09156013 0.067838386 0.054666802 0.03726332
000200 50 87 6f bd 83 10 0e bd 63 9b 3d 3d c8 eb 1b 3d
       -0.058478653 -0.034683716 0.046290766 0.038066655
000210 18 03 b8 bc be a4 35 3c 5f 4e 51 bd 1f 56 e4 bd
       -0.022462413 0.011086641 -0.05110013 -0.11149239
000220 d5 88 f1 bd a5 2a d3 bd 53 d9 29 3c 40 16 99 bc
       -0.11793677 -0.10310868 0.010366756 -0.018687367
000230 12 06 85 3c 73 6e 8d 3d 34 af 23 3e 28 47 5e bc
       0.016238246 0.06905832 0.15984803 -0.01356677
000240 60 ee fe bd 24 36 08 be f5 e6 87 bb d9 34 65 3c
       -0.1244781 -0.13301903 -0.0041474053 0.013989651
000250 7e a7 12 be 5b 86 8e 3d 65 19 69 bc 15 9b 02 3d
       -0.14321706 0.0695922 -0.014227246 0.03188618
000260 f0 b1 fb bd 1e 5b 06 3c ad 59 76 bd 90 c7 ce 3c
       -0.12289798 0.008200435 -0.060144115 0.025241643
000270 a6 ae ec 3d 54 67 ed bd e2 2e 48 3d 78 b2 72 3d
       0.11556749 -0.11591974 0.048872836 0.059252232
000280 af 73 69 3d 87 30 1c bd 19 7d ab bd 4e ea 97 bd
       0.05699509 -0.038132217 -0.0837347 -0.07417737
000290 67 1f 87 bd aa b8 90 bd d9 0f 36 bc c4 5c 47 3c
       -0.065977864 -0.07066472 -0.011112177 0.012168113
0002a0 bd 12 ee bb b5 0d e6 bd fa 97 f5 3b d9 84 0a bd
       -0.0072654174 -0.11233083 0.0074949237 -0.0338181
0002b0 7b 7b bf 3d d1 ba ba bd f0 9b 11 be 13 97 02 3e
       0.09349724 -0.09117664 -0.14219642 0.12752943
0002c0 f4 17 17 3e a1 c7 80 3a ff 6f f1 3d 5f 1d d8 3c
       0.14755231 0.0009825119 0.1178894 0.026381193
0002d0 fd df e8 bd c3 97 ce bd 8f 9d c0 bd 00 60 21 bd
       -0.113708474 -0.1008754 -0.09405052 -0.039398193
0002e0 6b 38 23 3e 85 4f ce bd f6 95 40 bd 63 bd a3 bc
       0.1593949 -0.10073761 -0.047018014 -0.019987768
0002f0 75 09 a3 3d 97 b4 8e bd 37 70 57 3d a3 9b 00 be
       0.07960788 -0.069680385 0.05259725 -0.1255937
000300 44 f7 0c 3e 4b 88 ca 3d 39 dc 2b 3d 59 aa fc bc
       0.137662 0.09889277 0.041958068 -0.030842947
000310 0c 82 97 3c 79 bf 77 3d ea 7e ab bd f3 7c ea bd
       0.018494628 0.060485337 -0.08373816 -0.114496134

lstm.bias_hh_l1 f4 [200]
000000 9f 7d be 3c ba f3 d0 bd 27 aa c9 bd b1 8e 1d 3d
       0.02325326 -0.10202737 -0.09846907 0.03846616
000010 80 47 75 bd e5 1d 58 bd 07 a9 17 3e bf 88 c7 bd
       -0.05988264 -0.052762885 0.14810573 -0.09742879
000020 88 95 1f 3c d0 ab 43 3d ae 26 a8 bc 20 48 a1 3d
       0.009740241 0.047771275 -0.020526256 0.07875085
000030 e7 8d bd 3d ea 78 5a 3d bb 3c 08 bd 45 f3 24 3b
       0.09255581 0.05333797 -0.033261042 0.0025169414
000040 5c d4 ca bd 4b 56 f3 3d 18 c8 d7 3d 3f b3 69 3d
       -0.099037856 0.118816935 0.10536212 0.057055708
000050 7c 20 fe bd 10 19 0e bd 3e e1 f1 bd e3 22 f7 bd
       -0.1240854 -0.03469187 -0.1181054 -0.12067201
000060 f2 5e 04 be 42 87 28 3e fc e1 8f bd dc 2c a1 3d
       -0.12926844 0.16457847 -0.07025525 0.07869884
000070 e8 ae a3 3d 5c 6b ba bd b5 46 80 bd 6a ac 05 3e
       0.07992345 -0.091025084 -0.06263486 0.13054052
000080 79 5c 65 bd 2c 8e 6a 3d a8 0b 82 3d 74 2c 9e 3d
       -0.055996392 0.057264492 0.063498795 0.077233225
000090 dc ad e9 bc 73 3f 9d bd cf 8c 30 3d 9d f5 1a be
       -0.028525285 -0.076781176 0.043103036 -0.15132757
0000a0 48 7b 0b 3d c5 ed 51 bd 5f 6c 9a 3c 2c b3 bb 3d
       0.034053117 -0.051252145 0.018850503 0.09165034
0000b0 06 76 c2 bd 71 55 e9 bd 17 b9 f8 3c a9 eb 16 3e
       -0.094951674 -0.1139325 0.030361695 0.14738335
0000c0 62 9e 33 3d ab dc 0a be d7 b8 1f 3d 44 a7 8d 3d
       0.043852217 -0.1356074 0.038994636 0.06916669
0000d0 15 b4 ba bd da 1e bc 3d 5a c0 32 bd 99 fb 17 bc
       -0.09116379 0.09185572 -0.043640472 -0.009276294
0000e0 39 1f 16 3e ef c8 71 3c ea 48 20 3d 4a 8b b6 3d
       0.14660348 0.014757379 0.039132036 0.08913286
0000f0 58 8e d3 bb 92 6b 86 3d f8 5d 7c bd 99 cb e4 bd
       -0.0064561777 0.06563486 -0.061613053 -0.11171646
000100 33 30 7c bb a0 8b 86 3d 0a 47 b4 3d cf c6 c0 3d
       -0.0038480877 0.065696 0.08802612 0.0941292
000110 b9 e3 6c bd a0 a6 bb 3d 8e 67 44 3d c6 69 aa 3d
       -0.05783436 0.091626406 0.04795032 0.08320956
000120 75 c7 d5 3d 41 8d 71 bd a4 c3 0c be 95 aa 26 3d
       0.10438434 -0.0589726 -0.13746506 0.040690023
000130 de 14 73 3d a5 b9 a6 3d a7 1e 15 bc f1 e2 08 be
       0.059346072 0.08140878 -0.009101546 -0.13367821
000140 84 35 1a bd fa 83 a7 3d 65 4d 9f bd 09 3b b5 3d
       -0.037648693 0.081794694 -0.07778434 0.08849151
000150 9b ef a1 3d 29 6f 94 bd c4 94 80 bd f5 b8 f7 3d
       0.07907029 -0.072477646 -0.06278375 0.12095825
000160 0d 56 78 bd 43 e5 ab 3b ca 6f 03 be 73 5a 80 bc
       -0.06062894 0.005245836 -0.12835613 -0.01566813
000170 d8 3f fe 3d 19 35 4e 3d fe e7 1f 3e d4 c7 51 3d
       0.12414521 0.050343607 0.15615842 0.05121596
000180 4f db da 3c d4 d1 65 bb d4 d9 58 3d 64 9f 98 bd
       0.026715903 -0.0035067694 0.052942112 -0.07452276
000190 78 06 b2 bc 8c b5 9d 3c e5 ae c6 bd f8 75 d8 3d
       -0.0217316 0.019251607 -0.09701327 0.10569376
0001a0 a1 33 00 3e 5f ea b4 bd 0d 5d a6 3d d7 20 b9 3c
       0.12519695 -0.08833765 0.08123217 0.022598667
0001b0 d4 69 1b 3d 22 91 6e 3d e7 64 1c be 5f 8c 32 bd
       0.037942722 0.05824388 -0.15272866 -0.0435909
0001c0 05 08 90 3d 65 4e 72 bd 40 64 92 3d 1f ed d8 3d
       0.070327796 -0.059156794 0.071480274 0.10592102
0001d0 b6 ce a0 bd 2a ac 47 3c 33 4c ff bc 4e 03 78 3b
       -0.07851927 0.012187043 -0.031164264 0.0037843767
0001e0 1d 79 58 bd 17 2a 07 3e 87 52 09 bd b5 07 88 3d
       -0.052849878 0.1319965 -0.03352597 0.06642095
0001f0 7f 29 f6 3d d2 db 0b be b4 9e 68 3d 2f 30 3e bc
       0.120196335 -0.13658074 0.056791976 -0.011608168
000200 0f e9 62 bc 49 d1 53 3d 22 46 17 bd f1 60 65 bc
       -0.013849511 0.05171326 -0.03693212 -0.014000163
000210 6a 17 78 bd cf 91 e1 3c 00 e1 16 be 62 cf 15 3e
       -0.060569204 0.027535347 -0.14734268 0.14629892
000220 f3 b8 ac bd df 64 51 bd 64 39 a2 3b 2a c2 dc 3d
       -0.08433714 -0.05112159 0.004950689 0.10779221
000230 85 21 0d bd a1 64 18 3d f5 73 7d bb 55 2a a3 bc
       -0.034455795 0.037205342 -0.0038673852 -0.019917646
000240 55 f7 81 3d 04 6e 8d bd c4 f0 20 3e 21 d5 9f bd
       0.06346003 -0.069057494 0.15716845 -0.07804323
000250 72 da 2e 3d de 2a 96 bc 80 e8 b0 bc 55 c4 df 3c
       0.042688794 -0.018330988 -0.02159524 0.027315298
000260 54 a5 6c bb 1f 78 aa bd da 30 7f 3d eb f6 e3 3d
       -0.0036109285 -0.083236925 0.062302448 0.1113108
000270 50 45 8d bd 4c a3 a6 bd c5 50 88 bd 84 56 30 bd
       -0.06897986 -0.08136615 -0.066560306 -0.043051258
000280 52 9b 1b 3e 3b 25 bb bd 06 27 d5 bd c8 5e a3 3d
       0.15195969 -0.091379605 -0.10407834 0.079770625
000290 81 ff a9 bd 07 21 1d 3c c6 1b 0c be 27 68 db bd
       -0.08300687 0.009590394 -0.1368247 -0.10713225
0002a0 12 bd 76 3d 99 de 71 3c b5 42 14 3b b1 db 00 3d
       0.060238905 0.014762544 0.0022622768 0.031459514
0002b0 6d c7 f9 3d 93 07 99 3d 73 83 df bc 97 93 1b 3e
       0.121962406 0.07472148 -0.02728436 0.1519302
0002c0 ac 55 83 bd 56 de 00 3e de e9 0a 3e d4 30 10 bd
       -0.06412825 0.12584814 0.13565776 -0.035202816
0002d0 df 91 b5 bc e0 69 ec bd f4 ba 15 3d c1 47 1a 3d
       -0.022164283 -0.115436316 0.036555246 0.037666086
0002e0 06 60 8d bd 8d 06 b9 3d e6 3f 3d 3d cc a4 f8 3d
       -0.06903081 0.090344526 0.046203516 0.121408075
0002f0 20 37 ce bd 25 bf 11 bd ab 0e c2 3d 57 6f f2 bd
       -0.10069108 -0.03558268 0.09475454 -0.11837643
000300 fd a2 4d bd d5 8e d5 3c 7c 05 5a ba ac 95 ce 3d
       -0.050204266 0.026069084 -0.0008316857 0.100871414
000310 a4 94 f6 3d 99 4a 22 3e 68 4e 1b bc f8 7d 21 3d
       0.1204007 0.15848769 -0.009479143 0.039426774

fc.weight f4 [1, 50]
000000 b8 fa b6 bd 94 6c 19 bd 28 9e eb 3d cc 74 cf bc
       -0.089345396 -0.037457064 0.11504775 -0.025324248
000010 9d 5e 3f 3d 5c 0a 0a bb b3 bc 5d 3d 51 a7 db bb
       0.04672109 -0.0021063304 0.054135036 -0.0067032953
000020 8b 50 68 3d 2d 6e 88 bd 85 bb e8 bd 0c 34 99 bc
       0.056717437 -0.06661639 -0.113638915 -0.018701576
000030 1c 6a 97 bc 2b ce 11 be 75 83 1a 3e 5c 85 84 bd
       -0.018483214 -0.14238803 0.1508921 -0.06470749
000040 1b bb 4c bd f4 6a 66 3d ac 0f 02 be 96 83 b4 bb
       -0.049983125 0.056254342 -0.12701291 -0.0055088503
000050 1c 51 53 bb 25 5e c6 bc 00 5d c0 bd b5 8d 35 bd
       -0.003224439 -0.024214813 -0.09392738 -0.044324595
000060 d4 66 47 bd 81 a5 a9 bd 02 ec 03 3d 7a fb fb 3d
       -0.04868205 -0.082835205 0.032207496 0.12303825
000070 a0 6a 3a bd 11 8b 98 bd de 1b 15 3e 17 70 b6 bd
       -0.04551184 -0.074484 0.14561412 -0.08908098
000080 0e 4d ff 3b 38 ba aa bd 64 cc 05 bd 6d f6 03 3e
       0.007791168 -0.083363 -0.032665625 0.12886973
000090 76 19 0b be 23 a9 54 bd 34 2c 20 bd d1 c2 5c 3c
       -0.13583931 -0.051919114 -0.039104655 0.013474182
0000a0 cc cc c2 3d 03 55 82 bd 8b da f9 3d ee 3f 06 3e
       0.09511718 -0.06363871 0.12199887 0.13110325
0000b0 3b 01 f6 bd 48 4e f7 bd 67 09 03 3e d7 d9 1b be
       -0.120119534 -0.12075478 0.12796555 -0.15219818
0000c0 e8 0c 69 ba 48 41 3e bd
       -0.0008890168 -0.046448976
