data/models/AAPL_20251216_174425.pt (torch, 130069 bytes, 9 tensors)

lstm.weight_ih_l0 f4 [200, 2]
00000000: 6201 49bd 42a8 713d be6f d4bd 588f a73b
00000010: 48b2 0bbd dced 943d cb10 d73d 4693 b13c
00000020: a0f9 b83d 05b2 373d 3c96 973d 8b68 e9bc
00000030: 3a69 133e e5c0 03bc 4b8f f7bd 03ac 98bc
00000040: a75e 083d 25f7 58bc 13b1 2ebd 910e 80bc
00000050: be86 3cbd 1148 08be fc7e 2c3d 38aa d0bd
00000060: f888 403d 96f3 963d c07a db3d 0e60 9ebc
00000070: 36d8 0d3d ff49 743d 2652 bdbb 85c7 653d
00000080: 68d9 d2bc 8522 d73d a2da eb3d f269 983d
00000090: 2a16 fabd a80d 923d 9ed4 e1bd a1c5 48bd
000000a0: fa79 72bd 2228 02be 1247 ed3d edf8 8d3c
000000b0: 30f0 84bd a747 fd3d b847 1b3e 1d4c 7ebc
000000c0: 686c bebd a89c ff3d 533c 493d 4115 5cbd
000000d0: 7c32 e53b dae3 f93b 4e7a 083e 25a8 d83c
000000e0: 0dcd f3bd b9a0 71bd 77af 763d cf4c bb3d
000000f0: 993e 98bd 61bf 083e 39de 13bd 8d79 d9bd
00000100: bcd2 e6bd a666 b33d cbdd af3c cd03 6fbc
00000110: fa05 2ebd d991 a5bd ed8f e33c d3a2 ca3d
00000120: 0c96 89bd cf7f 6bbc 13bc b33c 15f6 a4bd
00000130: 72ff 8cbd 31c9 f4bd 7820 78bd c6b9 6cbd
00000140: 728d 3fbd 5ddb 123e 443c a13c f6da fd3c
00000150: 1828 f23c 7745 68bd 4e42 fa3d 0842 9cbc
00000160: 65bd 42bd 25d1 043e a09c efbc 284f f73c
00000170: a8c0 febd b1b9 d83c d241 bc3d 96f6 1c3b
00000180: aaa4 b5bd ea61 81bd 0a49 b6bd 742e a43d
00000190: ff94 05be bbeb e4bd 98cc 8b3c 0fad de3d
000001a0: 0e00 ecbd 3c3e f3bd e299 f73c 181e 5b3d
000001b0: 38af 93bd 1028 07bd a8b5 163d af58 df3c
000001c0: f40f 733d 1380 1f3e f46b ed3d ea62 a4bb
000001d0: a6a0 8b3c 4faa 043e 4ab2 6c3d 8b96 d93d
000001e0: e10e 063e 536b c3bd b076 b6bd 10da 90bd
000001f0: 2397 2ebd 8340 bfbd a0b1 f63d c722 113e
00000200: c790 fd3d c96f 173d dd08 2a3d 5475 2e3d
00000210: 18da 91bd 3777 6fbc 64d7 8dbd 279b 0b3d
00000220: dad2 163e 6dc5 c1bd 5e31 e13c 4103 003e
00000230: d22b fcba ac23 88bd 7487 0dbd 3394 39bd
00000240: 73d4 75bd fb0e d4bd c185 f7bd f3b0 7b3d
00000250: 000b ecbd c105 153d f15a 2f3b d0f1 0cbd
00000260: 3de9 623d 306c ac3c 0503 af3d ece9 b3bd
00000270: d661 5fbd b723 a73d 5f27 9b3c 73fc d13d
00000280: 5b28 1dbd c079 11bd 8d1e b43d c11a 47bd
00000290: 0eb0 84bc f190 ccbd 6463 1b3e 2639 013e
000002a0: f668 61bd 081a c4bd 5b64 7d3d 245b 713c
000002b0: b0db b8bd d893 21bd 91c5 a33d 9add 2fbd
000002c0: 6533 f0bd 0f2f a93d 8dba d3bc 9f1e 45bd
000002d0: 7d5d fc3d 209a 7c3d 4268 703c 758e 9fbc
000002e0: 70be b1bd c831 81bd 4323 ca3d 7158 d73d
000002f0: 9d7e 0e3e 66fc 4abd 698d 0d3e f0be 83bd
00000300: 9a56 c0bb 4d0e 6e3d e0ee 5dbd 37b1 d53d
00000310: 6044 0bbe 57fd d5bd 4723 da3d 1e92 cfbd
00000320: eb35 f5bd 1d53 1b3b 686b 42bb 8226 423d
00000330: dd42 e03d 1333 bf3c a885 25bd 0aca c0bd
00000340: 43fd 453d 636a 75bc 01f5 f3bd b21c 503c
00000350: 883b a2bd 3f91 09be ec40 aebd a13b 58bd
00000360: 1463 1b3b 4f75 8dbc b72e f9bd 7ded 3dbd
00000370: f755 ce3d fc68 8c3c 259c 24bc 4c03 0cbe
00000380: 9c9c 003e 76d5 f5bd 10b4 1abd 807a a5bd
00000390: c875 9abd 9cd3 943d c5fe 4a3d af30 0dbd
000003a0: 2951 6b3d 4283 e33d bd99 c2bd 322c 08be
000003b0: f040 0abe f5e8 eebd 28a2 1abc e4a0 27bd
000003c0: 4692 2f3d 9eb7 b1bd 2c98 113c a779 98bd
000003d0: 5f79 c23b 641b 073e d132 81bd b9be da3d
000003e0: 7bb0 2bbd 24c4 b73d 0892 803d 4967 2bbd
000003f0: f9cf fdbd 2038 e9bd cae9 f93d a15c 12bd
-0.049073584 0.058998354 -0.10372876 0.0051135235 -0.03410557 0.072719306 0.1050125 0.02167667
0.09031987 0.044847507 0.07401702 -0.028492233 0.1439561 -0.008041595 -0.12087878 -0.01863671
0.033293393 -0.013242518 -0.04264934 -0.015631946 -0.046026938 -0.13308741 0.04211329 -0.10188717
0.047005624 0.07370679 0.10716772 -0.019332912 0.034630023 0.05964088 -0.005777615 0.05609848
-0.025738433 0.10504631 0.1151631 0.074420825 -0.12211259 0.07131511 -0.11026882 -0.0490166
-0.059198357 -0.12710622 0.11585821 0.017330611 -0.06491125 0.12367182 0.15164077 -0.0155210765
-0.092980206 0.12481052 0.049129795 -0.053731207 0.0069945436 0.007626039 0.13327906 0.026447365
-0.11904345 -0.058991168 0.06022593 0.091455095 -0.074338146 0.13354255 -0.0361006 -0.10618887
-0.11270663 0.08759813 0.021468064 -0.0145883085 -0.04248617 -0.08084459 0.02777859 0.098943375
-0.06718072 -0.014373734 0.021940267 -0.08054749 -0.0688466 -0.11952437 -0.06057784 -0.057794355
-0.046765752 0.14341493 0.019682057 0.030988198 0.029560134 -0.05670687 0.12219678 -0.019074455
-0.047543902 0.12970407 -0.02924949 0.030189112 -0.1243909 0.026455732 0.09192242 0.0023950688
-0.08869298 -0.06317504 -0.0890065 0.08016673 -0.13045119 -0.111777745 0.017065331 0.10872852
-0.11523448 -0.11877105 0.030224744 0.053495497 -0.07211155 -0.03299719 0.036794335 0.027263967
0.059341386 0.155762 0.11592856 -0.0050166743 0.017044377 0.12955593 0.057787217 0.10624417
0.13091613 -0.09541955 -0.089093566 -0.07072842 -0.042624604 -0.093384765 0.12045598 0.14173423
0.1238113 0.03697184 0.04151236 0.04259236 -0.07121676 -0.014615825 -0.06925848 0.03408351
0.14728871 -0.09461484 0.02748936 0.12501241 -0.0019239134 -0.06647429 -0.034553006 -0.04530735
-0.06001706 -0.1035442 -0.120860584 0.06144805 -0.115255356 0.03638244 0.0026757086 -0.034410298
0.055398215 0.021047682 0.08545498 -0.087848514 -0.054536663 0.08161109 0.018939672 0.10253229
-0.038368564 -0.0355165 0.087948896 -0.0486095 -0.01619723 -0.09988583 0.15174633 0.12619457
-0.05503174 -0.095752776 0.061863285 0.014731202 -0.09026277 -0.039447635 0.07996667 -0.042935945
-0.11728553 0.08260929 -0.02584579 -0.048124906 0.12322519 0.061670423 0.0146732945 -0.019477108
-0.08678901 -0.06308323 0.09870007 0.10514916 0.13915487 -0.049557112 0.13823475 -0.06432903
-0.0058696987 0.058119107 -0.054182887 0.10434192 -0.13600302 -0.10448711 0.1065126 -0.101352915
-0.11973175 0.0023700662 -0.002966607 0.047400005 0.10950253 0.023339784 -0.040410668 -0.09413536
0.048337232 -0.014978978 -0.11911965 0.012702154 -0.07921511 -0.13434313 -0.085084766 -0.05279124
0.0023710178 -0.017267851 -0.12167113 -0.046369065 0.1007499 0.017139904 -0.010046993 -0.13673133
0.12559742 -0.12003605 -0.037769377 -0.08080006 -0.07541996 0.07266924 0.049559373 -0.034470256
0.057450447 0.1110902 -0.095019795 -0.13298109 -0.13501334 -0.11665527 -0.009438075 -0.04092492
0.042864107 -0.086776 0.008886378 -0.07445078 0.0059348787 0.13194042 -0.063085206 0.10680909
-0.04191635 0.08972958 0.06277853 -0.041846547 -0.12393183 -0.11387658 0.12202795 -0.03573287

lstm.weight_hh_l0 f4 [200, 50]
00000000: a05b 28bd a820 52bd 6e6b 9a3d 4ac1 e63d
00000010: d117 b4bc ef5a b73c 7469 0c3e c793 07be
00000020: d703 83bc e3f3 8abd cf30 103e c405 c3bd
00000030: feec 0abe d98a f5bd 488f 9abd ffd3 b33c
00000040: 273a 923d 6ff8 4f3d b64b 3a3d ea0d e83d
00000050: 6526 b73c 4c5b ca3d 5542 9c3c e57b bbbd
00000060: e363 3f3d 2d00 f43d 5a40 f7bb efc1 93bd
00000070: 420b 1c3d c46d 26bd 8a00 f7bc 2028 af3d
00000080: 611e 97bd d3c4 163c 12ca ef3d 455f 913d
00000090: df88 bb3d 6461 ba3d 47c7 0c3e 0c25 d03d
000000a0: 374f 1d3d fb50 e03c c3e4 083e f830 8e3d
000000b0: a2b5 713d a139 ee3c d057 be3d c12a c33d
000000c0: c80c e53d 46ad 033e 1941 0b3e 5baa 54bd
000000d0: b67a dd3d 359a e63c d4e0 543d 6ab9 143b
000000e0: 1bcd c1bd af9d ff3d 9aeb c0bd a0a6 cc3d
000000f0: 57ba a3bd dfa8 bc3d 14ca b43d 30d3 9dbd
00000100: 3719 413d 2a0e 8abd 5267 e93c 6e19 eabc
00000110: e429 9b3d 31fb 8d3d 3d1c c13c 2052 243d
00000120: de0a 813d f8cb c23d e460 92bc 92b8 903d
00000130: 7561 dabd 22ff c23d e2a1 123e e593 973d
00000140: d221 273d 1ded c53d 2609 ad3c ef15 2d3d
00000150: 9458 503d b725 c3bd b5d9 98bc 02a8 39bd
00000160: ffb2 763d da28 e13d 5d6f e2bd d4bf 70bb
00000170: a37d 3b3d 14b4 d5bc c536 c93c b26d 893c
00000180: 5c27 883d 2e93 1e3d 96a7 c4bd 2382 8bbd
00000190: b403 aabd 171a a83b 85d5 da3c bc37 fe3c
000001a0: 70d0 01ba c676 e6bb 16c8 0abe c69d 5dbc
000001b0: 1fc4 753d 037d 38bd d92d 683c a17f f7bd
000001c0: f798 ce3d cd8b 1fbe c37d ff3d 229b c2bd
000001d0: 30ae a83d 7345 c63d d535 173d ef5b 77bd
000001e0: 880d cc3d 3f8a ee3c b444 343d 3fd9 13bd
000001f0: d16a 103e ac53 023e 3ee5 2dbd 6b98 f33b
00000200: c903 d43d 1951 a3bd 863b f83c cc08 c7bd
00000210: 89ba 213e 1688 c5bd e9cf 303b bb13 d5bd
00000220: 1724 7cbd 7565 fd3c 20e0 a4bd 0d4b f03c
00000230: cb67 593d bc27 a1bd a3bb 0dbe 67b9 b13c
00000240: 5084 623c 96fb 2cbd 555f a83d 3487 d63d
00000250: 8b45 053e aeca 163d b840 c23b b71b 193e
00000260: 1415 20be 55f6 bf3d 8117 ef3d 8e4c 103e
00000270: acb7 03bd d65f dcbd 23b3 433d 02ab b4bc
00000280: 878f a43d 71a0 abbc cc50 12be c87c 763d
00000290: 0fce ccbc 299a 563d 9233 5c3c 2dde 753d
000002a0: 30f9 5abd ee48 8e3d f63a 25bd 4771 8fbd
000002b0: 2e52 d53d b21d cdbd f2e3 8abd 3fa1 0cbe
000002c0: b354 14bd 63cf 7c3d 8e80 5a3d 55af e13d
000002d0: d46a 773c 18c4 adbc 209b 99bd f1e1 893d
000002e0: 92d1 8fbc 6ac5 2c3d 6b93 4b3c 5951 28bd
000002f0: 9a57 f83d 5ccf bc3d 373f ecbb 05cb 63bd
00000300: 39f7 953d 1d18 30bd cb5a 883d 128a f6bd
00000310: 9fdd bfbd 2c46 f73c 1b47 6cbd 7673 fa3d
00000320: 118e fc3d 668e e53d 3bad a6bd e98f 0d3e
00000330: 7e97 e3bc 0dd5 63bc 94a4 11bc 07c3 2cbd
00000340: fdac 0ebd beab 92bd 3a05 133c 9f8f f5bc
00000350: b96b b73d 35f6 6bbc 1a98 15b9 4378 913d
00000360: 1c69 5fbd 0d41 c0bd c5f9 08be 7603 dc3d
00000370: 9c9a ddbd 9e88 633d 2aac dd3d d98d 0d3d
00000380: e3f3 c7bc db10 333d 191e 56bd cc12 9f3a
00000390: f837 83bd 8bbf a73d 8ffc a93d 8a4c 6b3c
000003a0: 746b c9bd bad7 c93d a503 e1ba b6da c13d
000003b0: 1a90 683d 351b f1bd 5f57 18be 7ab8 f83d
000003c0: 681d ec3c f3e6 f43c 4789 d1bd c090 8a3d
000003d0: 298c 61bd 1466 433d 9246 ee3c 5ee4 843d
000003e0: 96f2 c43d 80b1 3e3c 18a6 7c3c 8adc c6bd
000003f0: 0b9c 0bbe e037 d03d 9929 51bd b6ba 0abd
-0.041103005 -0.051300675 0.07540022 0.11267336 -0.021984013 0.022382228 0.13712102 -0.13239966
-0.015993042 -0.06784799 0.14081119 -0.09522584 -0.13566968 -0.11989374 -0.0754686 0.021951674
0.07139998 0.050774034 0.04548236 0.11330779 0.022357175 0.09880695 0.019074598 -0.091544904
0.04672612 0.11914096 -0.007545513 -0.07214724 0.038096674 -0.040632024 -0.030151624 0.08552575
-0.07378841 0.0092022 0.11708464 0.07098249 0.091569655 0.09100607 0.13747893 0.10163316
0.038405623 0.027382364 0.13368516 0.06942934 0.05901111 0.029080214 0.09294093 0.09529639
0.111840785 0.12859067 0.13599052 -0.051920276 0.10814421 0.028149704 0.051972225 0.0022693523
-0.09462949 0.12481248 -0.094199374 0.09992719 -0.07994526 0.09211897 0.08827606 -0.077062964
0.047143187 -0.06740983 0.02849165 -0.028576579 0.075763494 0.069326766 0.023573035 0.040117383
0.06300901 0.0951156 -0.017868467 0.07066454 -0.1066312 0.09521319 0.14319566 0.074012555
0.040803738 0.096643664 0.021122526 0.042257246 0.050865725 -0.09528678 -0.018658498 -0.04532624
0.060229298 0.1099412 -0.11056397 -0.0036735432 0.045774113 -0.026086845 0.024562249 0.01677594
0.06648132 0.03871458 -0.09602277 -0.06811931 -0.083014876 0.0051300633 0.026713142 0.031032436
-0.0004952019 -0.007033202 -0.13552889 -0.013526386 0.06000149 -0.045041095 0.014171087 -0.1208489
0.100877695 -0.15580674 0.12475159 -0.095022455 0.08236349 0.09681215 0.036916573 -0.06039041
0.099635184 0.029118655 0.044010833 -0.036095854 0.14103247 0.12727231 -0.04245495 0.007433941
0.103522845 -0.079744525 0.03030182 -0.09718475 0.15793814 -0.09645097 0.0026979393 -0.10404154
-0.061557855 0.030932168 -0.08050561 0.029332662 0.0530775 -0.07868907 -0.13841109 0.021694852
0.013825491 -0.04223212 0.08221308 0.10475007 0.1301481 0.036814384 0.005928125 0.14951979
-0.1563304 0.09373156 0.11674405 0.14091703 -0.032157585 -0.10760467 0.04777826 -0.0220542
0.08035188 -0.020950528 -0.14288634 0.060177594 -0.0250006 0.052393112 0.01344003 0.060026336
-0.0534603 0.06947504 -0.040339433 -0.07004028 0.10416065 -0.100154296 -0.06781758 -0.13733386
-0.036213588 0.061721217 0.053345256 0.1101977 0.015101153 -0.021211669 -0.07500291 0.06732548
-0.017555986 0.042180456 0.012425284 -0.041093204 0.12126084 0.09219238 -0.0072096842 -0.055613536
0.073225446 -0.042991746 0.066579424 -0.120380536 -0.09368443 0.030184828 -0.057685 0.12229054
0.123317845 0.11208801 -0.0813851 0.13824429 -0.027782198 -0.013905776 -0.008889336 -0.04217818
-0.034832943 -0.071616635 0.008973414 -0.02997571 0.08956093 -0.014401962 -0.0001426641 0.07103016
-0.0545436 -0.093874075 -0.1337653 0.107428476 -0.10820505 0.05555021 0.10823853 0.034559105
-0.024408286 0.043717247 -0.052274797 0.0012136339 -0.064071596 0.08190831 0.08300125 0.01436151
-0.09834948 0.098556 -0.0017167224 0.09465544 0.05677805 -0.117727675 -0.1487708 0.12144561
0.028822616 0.029895281 -0.10231262 0.0676589 -0.055065308 0.04770477 0.029086385 0.0648887
0.09616582 0.011638999 0.015420459 -0.09710033 -0.13633744 0.10166907 -0.05106506 -0.033869468

lstm.bias_ih_l0 f4 [200]
00000000: da09 993d 9582 24bd 345d a0bc f1c5 1fbe
00000010: 624a 2f3c 7c20 95bc 9ab8 843d f70b 0abd
00000020: fdd6 383d 9dc7 3fbd 6aaf 0abe 1040 d0bd
00000030: 6e71 0cbe 08b4 033e 4428 0f3e e35f 233e
00000040: 29cc ba3b 0031 1c3e 99fe 163e ea77 11be
00000050: 6c04 d43d ad21 f13d 0a1d b0bd ea34 76bd
00000060: 7842 87bd 15a1 0f3e c926 a8bd 5ffb 873d
00000070: 63c5 123d 309f 5a3d 1074 03bd 5f4a b23d
00000080: 6498 afbd 3304 00bd 3685 ef3d 28e2 e3bd
00000090: b72f a23d 98dc f53d 0f37 8dbd 65ca 46bd
000000a0: c0db 81bd fecd 103e e821 45bd 86f7 8938
000000b0: 9c62 bdbc 32eb ecbc 7205 0fbd b6d8 103c
000000c0: 7166 253d 3b70 13bd 4ceb bdbd 1e6d 5cbd
000000d0: 4ea3 593d 72f5 f03c 62d0 213d 32d8 0a3e
000000e0: cb0e 373d 1b6a 00bd 258f 673d dd3d f3bc
000000f0: 06f7 373d 13b9 1e3e a6fb 05be 6c5a e53d
00000100: ae57 d8bd 6407 f0bd 8989 fa3d efd0 1f3e
00000110: ac42 413d c3a6 f93d dac9 f2bc 97b3 cf3d
00000120: 55e8 f2bd 7cd7 873d 0f72 f3bd 6a7c e23d
00000130: 3ac1 aabd cc86 153e 1cab c5bd ceb9 edbd
00000140: 2382 71bd 9a5c 83bd da05 b3bd 1923 eabb
00000150: a2c6 533c 0bdd 203d 13db 053e 3d07 fa3d
00000160: 18ae 103e f132 023e f703 db3d e694 f5bc
00000170: 15af bbbd 6f98 dbbd 3904 2d3d 221b e8bd
00000180: 83c3 7f3d b736 ec3c d02e b2bd fa80 f63d
00000190: e092 d7bc 3a33 67bd 71f8 853d 00cc 033e
000001a0: 01cd 07be f0ea 57bd bfa4 a5bd 4f94 ed3d
000001b0: e66d 57bd 2cad f63d cbe1 08be 65e9 46bc
000001c0: 08b0 fdbd d776 00be e831 0e3d 4b63 d93d
000001d0: f0ae 1bbe 8d87 0dbe 8543 b2bd 1161 b7bd
000001e0: e726 af3c 6b49 59ba 35b9 a0bd 3b79 fc3d
000001f0: ad49 47bd a85d 30bd 34a8 acbd dfb8 1a3e
00000200: 1e18 313d a553 c2bd e5fa 33bd 4422 bf3d
00000210: ace6 183d 73f6 623d d3c8 723a 3252 b0bd
00000220: 7b85 b4bd 857e 493d 500f c3bd 0fdf c43b
00000230: 334a ddbc 4e15 ab3c efc1 52bd 3a57 b23d
00000240: 1c36 28be f43a 003e 3057 04bd 0434 22bd
00000250: 31cd d73d f25f 323d 5e7c 023c 7a6a f5bb
00000260: 5016 f03d 9a3d 19bd 8854 89ba abcc 043e
00000270: bda0 4b3d daf2 f9bd 57c0 053e 548f 843d
00000280: 4d74 9b3d 31e1 433d 834d c63d c043 823d
00000290: fb65 f13d 85ac 223e ecd7 59bd 6844 77bc
000002a0: c9b5 cabd 9871 8cbd 7c85 a1bd 5328 8fbd
000002b0: db59 19bd b1e5 9dbd 6ee1 df3d 9cd1 173e
000002c0: fa07 033e 5590 e5bd 79a2 053d 9e1c 5bbd
000002d0: f3d9 c2bd afab ee3d b875 03bd 0691 0c3e
000002e0: fe05 a53c b901 d53d 57f8 d1bd d220 de3d
000002f0: 0460 afbd 34bd ce3d c6e9 e83c 10f9 d23d
00000300: 420d e6bd d679 3d3d 1d24 153e d4d7 e7bc
00000310: 8bd9 c43d d6f5 b7bd c598 ae3d fdf8 22bd
0.07472582 -0.040163595 -0.019575693 -0.15602852 0.010698887 -0.018203966 0.064805225 -0.033702817
0.045126904 -0.046821225 -0.13543478 -0.10168469 -0.13715145 0.12861645 0.13980204 0.15954547
0.0057006073 0.15253067 0.14745559 -0.142059 0.10352406 0.11774001 -0.08599289 -0.060109057
-0.06604475 0.14026292 -0.08210523 0.06639742 0.035832774 0.05337447 -0.032093108 0.087055914
-0.08573988 -0.031254005 0.1169533 -0.1112712 0.07919257 0.120049655 -0.06895267 -0.048532862
-0.06340742 0.1414108 -0.04812804 6.578774e-05 -0.02311831 -0.028920744 -0.034917302 0.00884073
0.0403809 -0.035995703 -0.09273395 -0.053815 0.053134255 0.029413912 0.03950537 0.13559034
0.044691842 -0.03135119 0.056532998 -0.029692585 0.044913314 0.15500288 -0.13084278 0.11198887
-0.105635986 -0.1172016 0.12233264 0.15607046 0.047182724 0.121900104 -0.029637266 0.10141676
-0.1186072 0.06632897 -0.11886989 0.11058886 -0.08337636 0.14602202 -0.09651777 -0.11607705
-0.058962 -0.06414147 -0.087413505 -0.0071452972 0.012925776 0.039273303 0.13071851 0.12208412
0.14128911 0.12714745 0.106941156 -0.029978227 -0.091642536 -0.10722434 0.042240355 -0.113333
0.062442314 0.028834684 -0.08700335 0.12036319 -0.026315153 -0.056445338 0.06541527 0.12870789
-0.13261797 -0.05271429 -0.080880634 0.11600553 -0.05259504 0.12044749 -0.13367383 -0.0121406065
-0.12387091 -0.12545334 0.034715563 0.10614642 -0.15203452 -0.1382124 -0.087042846 -0.08954061
0.021380855 -0.0008288833 -0.078478254 0.123278104 -0.048654247 -0.043058068 -0.0843052 0.15109585
0.04323589 -0.0948861 -0.043940444 0.093327075 0.03732936 0.055410814 0.00092614925 -0.086094275
-0.08814522 0.049192924 -0.09524405 0.006008036 -0.02701292 0.020884182 -0.05145448 0.087080434
-0.16426891 0.12522489 -0.03230971 -0.039600387 0.10537184 0.04354853 0.007964222 -0.0074894996
0.11723006 -0.037412263 -0.0010477463 0.129687 0.04971384 -0.122045234 0.13061653 0.0647265
0.07590542 0.04782218 0.09682753 0.063605785 0.11787029 0.15886123 -0.053184435 -0.015091993
-0.09897954 -0.06857604 -0.07886788 -0.06990113 -0.03743921 -0.07709826 0.10931669 0.14826053
0.12796012 -0.1120917 0.03262565 -0.05349409 -0.09514227 0.1165384 -0.032094687 0.13727197
0.020144459 0.10400719 -0.10252445 0.10846104 -0.085632354 0.100946814 0.028431784 0.10301411
-0.112329975 0.04625877 0.14564557 -0.028301157 0.096118055 -0.08982436 0.08525232 -0.039788235

lstm.bias_hh_l0 f4 [200]
00000000: f21d ecbd 5c40 edbd ac30 173e 9240 6e3a
00000010: 2ee8 c73d 9349 1e3d 03b4 f2bd 9e47 0a3e
00000020: a68f e3bd 51f3 83bd 38d3 533d 8a51 26bd
00000030: 86ae d43d 5412 8f3b 231b a93d 77d7 ea3d
00000040: 7375 313c 43c8 0a3e cd4e 63bd 1dd7 d9bd
00000050: 10e9 a23d 62bb 6a3d 2e2b b2bd bc4d f83c
00000060: fdb6 533d ab6e e9bd f028 8d3d 112d acbd
00000070: 6975 063e 9c9e 6b3d a4c3 68bd d751 a73d
00000080: 34b7 ba3d 41fa 2dbd a62c 1dbd 63d1 bcbd
00000090: 3972 d2bd 1854 023c 9190 bf3c d76f a23c
000000a0: 6803 74bd 7c0c b5bb 8ad4 05bd 7928 9fbc
000000b0: a1ab 37bd 325f c8bd 1bf4 0cbe 1104 733d
000000c0: 93aa 683d 02fa 8e3c 1e3e 1dbc 8ed4 f93d
000000d0: 8b43 60bc b967 d33d 27a5 e8bd d512 d83d
000000e0: 411a 9ebc 2ffa 93bd 2d69 023e 913c 1bbd
000000f0: c6ef acbc 2f4b a33d eda0 09be 6909 483d
00000100: 1e24 233d f35c 8e3d d761 bd3d b135 06bc
00000110: ea97 c03c ee3a 1bbe 6feb ffbd 49be ba3d
00000120: 9b04 013e ea7d a0bc b113 193e bdd7 6bbd
00000130: df7c 153d 76f4 81bd 41e5 023e d4eb d53d
00000140: f320 b33d 9b63 cfbd 9fce 5cbd feec dd3d
00000150: 8892 0bbe 12d5 9f3d 22e7 87bd 83e9 623d
00000160: 8fb5 a83d 5bef 89ba cec6 803d 92be 32bc
00000170: 811b aa3d 7c27 b6bd 73ec 0e3d f31d 143e
00000180: 3293 953b 48a6 2ebd b261 f6bd 7cc6 e23d
00000190: 541c 423d 2375 e0bd 39a4 1f3e 8629 a7bc
000001a0: c2f9 c9bc 2bed a2bd 5946 033d a3d6 0f3e
000001b0: 671f 22be 9297 08bd a8f0 87bd f80e a3bd
000001c0: 55de b13d a533 0fbe 93a3 863d 2413 843d
000001d0: c06f c93b 44bb 3ebc 9414 bf3d 8a8e c03c
000001e0: d9db d23d d41a a3bd 443e c83c 391a 163e
000001f0: 7f67 343d 7478 233e 55ac 95bd 0d54 9b3d
00000200: d66b 1a3e 69bb 003e dd67 0b3c 4bc7 4dbd
00000210: f05f bd3d 228d 9b3d c359 1a3c 6bc8 6bbd
00000220: 1aca 1f3d 4a64 1e3e 4df2 1cbd 7bd6 22be
00000230: 8419 9d3d 0c98 c3ba 0f7a 4d3b a355 a6bb
00000240: 2217 27be ab6a 7a3c 6bcc f83c 10c6 0a3d
00000250: fd09 b53d 642b 7ebd 9803 503d 9a72 e1bd
00000260: 4662 213e 7948 d13c c9f0 ffbd aae5 e0bd
00000270: c3b9 0b3d 8cd8 0b3e 79e4 a4bd 2430 11be
00000280: d31a 72bd d643 a6bd 00e7 5dbd e5aa 123c
00000290: 41ee dd3d 0ae5 0d3d 2c21 fe3c 549a bd3d
000002a0: 4916 a33c 9bae 33bd e9c6 873c e058 0a3e
000002b0: 2204 16be 40f5 97bc f061 033e 4685 edbc
000002c0: fda7 b6bd 5b6c ddbb 4745 f0bd 4d65 febd
000002d0: 653a 563d 4de8 b6bd 4c67 0b3e 96ab 3bbd
000002e0: 8a14 e5bd ab36 74bd 70ec c73d 59d7 d63c
000002f0: 2b0f 45bc c035 c7bc 365d d33c 41d2 053e
00000300: 8b88 e2bd 033b f6bd 0f34 153c 83be 213d
00000310: d37a 033e 7a3f 0dbc 52f2 0bbe 7959 18bd
-0.11529149 -0.11584541 0.1476466 0.0009088601 0.09761082 0.038644385 -0.11850741 0.13503882
-0.11111383 -0.06442893 0.051715106 -0.040605105 0.1038485 0.0043661986 0.08257129 0.11466878
0.010831225 0.13552956 -0.055495072 -0.10636733 0.079546094 0.05730761 -0.08699642 0.030310504
0.051688183 -0.11398061 0.06892574 -0.08407033 0.13130726 0.05752431 -0.056827202 0.081699066
0.091169745 -0.04247499 -0.03837266 -0.09219625 -0.102756925 0.00795462 0.023384364 0.01982872
-0.05957356 -0.00552517 -0.032673396 -0.019428479 -0.044841412 -0.09783782 -0.13764994 0.05933005
0.056803297 0.017453197 -0.009597329 0.12198745 -0.0136879785 0.10322518 -0.11359625 0.10550467
-0.019299628 -0.07225453 0.12735434 -0.037899558 -0.021110427 0.079733245 -0.13440295 0.0488371
0.039829366 0.069513224 0.09247177 -0.008191512 0.023509938 -0.15159199 -0.12496077 0.09118325
0.12599413 -0.01959129 0.14948918 -0.05757879 0.03649604 -0.06345455 0.12782766 0.10445371
0.08746519 -0.1012642 -0.053907987 0.10836218 -0.13630116 0.07804312 -0.06635882 0.055398475
0.082377546 -0.0010523604 0.06287919 -0.010909693 0.08306027 -0.0889425 0.034893464 0.1446455
0.004564666 -0.042639047 -0.12030353 0.11073014 0.047390297 -0.10959842 0.1558999 -0.020405542
-0.024655227 -0.079553925 0.03204951 0.14046721 -0.15832292 -0.033347674 -0.066376984 -0.079618394
0.086849846 -0.13984545 0.06574168 0.06448963 0.006147355 -0.011641327 0.09330097 0.023505468
0.10295839 -0.079641014 0.024443753 0.1465844 0.044044014 0.15963918 -0.0730826 0.07584391
0.15080199 0.12571491 0.00850865 -0.05023889 0.09246814 0.07595278 0.009420815 -0.05756418
0.0390111 0.15467945 -0.038317014 -0.1590213 0.07670882 -0.0014922633 0.003135327 -0.0050761267
-0.16317418 0.015284221 0.030370912 0.033880293 0.08839796 -0.0620531 0.050784677 -0.11008187
0.15760145 0.025547253 -0.12497098 -0.10981305 0.034112703 0.13656825 -0.0805139 -0.1417852
-0.059107613 -0.081184074 -0.054175377 0.008951877 0.10836459 0.034642257 0.031021677 0.092579514
0.019908087 -0.04386769 0.01657434 0.13510466 -0.14650014 -0.018549562 0.12830329 -0.028994214
-0.0891876 -0.0067573017 -0.117319636 -0.12421665 0.052301783 -0.089310266 0.13613623 -0.045817934
-0.11185558 -0.059622448 0.09761894 0.026225733 -0.012027542 -0.024317622 0.025801282 0.13068487
-0.110612 -0.12022974 0.00910665 0.039488327 0.12839822 -0.008621091 -0.13666657 -0.037194703

lstm.weight_ih_l1 f4 [200, 50]
00000000: 2325 df3d 51b5 253c 6dc2 2abd 01a6 f0bd
00000010: 7364 56bd e43b f9bd c7bb 963d 9003 a03d
00000020: 8ceb 013e 686c d23d 1f75 8b3b e3be 923d
00000030: c782 0e3d 3872 dcbd 5b6c 58bd 56fc b43d
00000040: e39c 4a3d f117 453c 75f4 ebbc 7979 223d
00000050: b3f8 febc c768 883d d902 16bd 7d76 dd3d
00000060: ae23 853d 3b57 853d 9273 31bc cbba 76bd
00000070: 104c 503d ae67 d43d 39a3 3e3d fdea f3bd
00000080: d253 a73c d32e 9dbd 83b1 67bd 99b7 c8bd
00000090: 1b9f 2ebc 6b9a 1dbe 670f 1a3e 7cbc a0bd
000000a0: 46be b6bd 8291 743d 490e f7bd 5454 cb3d
000000b0: ea2c 3e3d fccb a53d f737 2ebd 48df 143e
000000c0: e53a f73d be37 e1bd 0a1f 39bd 8c92 803d
000000d0: 852d 49bc 85f5 0d3e 7c96 cabd c5dd d2bd
000000e0: 3102 a43d 0c8b 45bc f30e 95bd 7889 c4bd
000000f0: f5c3 83bd 8c9f 993d 37e5 7e3d 29a7 cb3d
00000100: 42f0 903d 281b f73d 2b5c 9dbd f7b5 473c
00000110: 1ba5 13be 8334 74bd 0b94 1f3c 6091 13be
00000120: e14a b1bd 7e07 f9bd dc22 5b3c f559 423c
00000130: eb70 17bd ff80 be3b c5ad 3e3d da57 ed3d
00000140: 390e eabd 1150 82bd 34b9 ef3d f299 053e
00000150: 0eba a43d 6ff8 913d 4f89 f4bd 2496 eabd
00000160: 905e a8bd f691 e3bc 0cfe 91bd d0d2 dc3b
00000170: 3b4b 8e3c 76f1 e3bd 1d72 573d f22e 65bd
00000180: 56b6 b63d 99ed 773d 5d33 063c 5e86 c33d
00000190: 9f11 63bd 497e 67bd 3d79 cd3d 17e6 07be
000001a0: f352 523d 72d1 fcbd c215 843a fa73 8e3d
000001b0: 8a4e febd bd42 133d b39d e4bc 0c29 083e
000001c0: 6de1 0abe 8465 00be b623 49bd e752 be3d
000001d0: d292 a23d 4c6e 6abd 5d1f aabd c5f1 e7bd
000001e0: 032e e0bc 9e55 52bc c6e1 e73d 3d2b 4bbd
000001f0: a157 843d 4130 bc3d 66f7 8f3d fbd9 993d
00000200: 2c21 0c3e 5868 a8bd 0176 cb3d 1f7b 2e3d
00000210: 239f 55bd 18b6 e3bc 39ac e3bd d0c2 e2bb
00000220: 9dc4 89bd 75e8 d6bd 4dbc ecbc 3730 87bd
00000230: 809d 993d 8146 083e 7767 59bc c05c 403d
00000240: a462 c83d abce 0cbe 3258 f4bd 6022 b83b
00000250: 2493 8fbc fd72 6b3d b600 a43d 6565 e43d
00000260: e9d3 93bd e0e1 de3d db38 a33c fbae c4bc
00000270: 67ea 02bb ff2c 08bd 693a 54bc c3f9 ce3b
00000280: 593d a73d 13a3 f8bb d719 c1bd 5567 40bc
00000290: 0d0e dabc 2da3 033e aa48 c0bd c9ed 8cbd
000002a0: b344 863d b949 d63d 2958 f7bd ea40 e83c
000002b0: c9bd 4bbd 2fc3 b83d db0b e33d 50f4 153e
000002c0: e6a0 15bd d981 61bd 5951 023d e6ab 7d3d
000002d0: 2902 823d 2868 983d 236f a0bd b505 563d
000002e0: 42f6 33bc d4a1 f53d 480d b2bb cea6 f63d
000002f0: e7be 0bbd 7018 69bd 3cea aa3d 7563 aa3c
00000300: 172e 363d 7ca2 db3d 446d f2bc 8fee b03d
00000310: 4362 95bd 310f 013c d27b 16bd 01e8 c73d
00000320: b876 febd 6e61 e13a f5b6 293d e74a 013d
00000330: 4e1f 033d fa92 2ebd bf77 cd3d 7a3c 5cbd
00000340: 000c c83d 0b7d b03d 5e14 023e fe18 08be
00000350: 83d8 68bd ee21 dc3d 3d31 7b3d 01ad a73d
00000360: 86e4 1c3d 0446 e63d af01 a63d 627a 7d3d
00000370: 3fb0 cd3d cbd2 54bd bcd0 3dbd 85ed 05be
00000380: 85f7 cabd d0d3 a8bd 03fe bcbd ad1d bb3c
00000390: a3ce 4bbd da25 53ba 88b6 4abc 4843 fabd
000003a0: 63c2 763d 7f55 3abc 5122 a8bd 507a 0e3d
000003b0: 395a 0bbe 0c4a 703d ae7d 46bc 4152 083e
000003c0: c3ac 133e 0a3c c73c e721 0fbe 8858 03be
000003d0: fa21 cf3d ee20 3bbd 1bd4 e8bc 719f 70bd
000003e0: 339e 89bd 6345 373c 858b 9abd f1a4 153e
000003f0: f35b d6bd 8214 b43c 937d ac3d e60c 083e
0.10895755 0.01011403 -0.041689325 -0.11750413 -0.05234189 -0.12169626 0.073600344 0.078131795
0.1268751 0.10274583 0.0042559053 0.07165315 0.034792688 -0.10763973 -0.05283771 0.08837192
0.049466025 0.012029634 -0.02880309 0.039666627 -0.031124448 0.0666061 -0.03662381 0.108136155
0.06500946 0.065107785 -0.010830777 -0.060236733 0.05085379 0.10371338 0.04654238 -0.11910055
0.02042571 -0.07674947 -0.056565773 -0.098006435 -0.010658051 -0.15390937 0.15044938 -0.078484505
-0.089230105 0.05970908 -0.120632716 0.09928194 0.046429552 0.080955476 -0.04253384 0.145383
0.1207178 -0.1099696 -0.045195617 0.062779516 -0.012278919 0.1386319 -0.09891984 -0.102962054
0.080082305 -0.012057077 -0.07278242 -0.095965326 -0.0643386 0.07501134 0.062230315 0.09943993
0.070770755 0.120657265 -0.07683595 0.01218938 -0.14418451 -0.05962039 0.009739886 -0.14410925
-0.0865686 -0.12159632 0.01337501 0.011862268 -0.03697292 0.0058137174 0.04655244 0.11589022
-0.11428494 -0.06362928 0.117052466 0.13047007 0.080432996 0.07127463 -0.11940252 -0.11454418
-0.08221161 -0.02777956 -0.07128534 0.006738998 0.017369857 -0.111300394 0.05259906 -0.055952974
0.089214966 0.060529325 0.008190957 0.09547113 -0.055436727 -0.05651692 0.1003289 -0.13271366
0.051348638 -0.12344636 0.0010077285 0.069557145 -0.12417324 0.03595232 -0.027907228 0.13296908
-0.13562556 -0.12538725 -0.049106322 0.09293156 0.0793816 -0.057234094 -0.08306763 -0.11325411
-0.02736569 -0.012837796 0.1132236 -0.049601782 0.064620264 0.09188891 0.070296094 0.075122796
0.13684529 -0.08223027 0.09934617 0.042597886 -0.052153718 -0.02779679 -0.11116833 -0.006920196
-0.06726954 -0.104935564 -0.028898383 -0.06600993 0.07500744 0.13308145 -0.013269297 0.046963453
0.09784439 -0.13750713 -0.119308844 0.005619332 -0.017526217 0.05748271 0.08007948 0.11152152
-0.07218153 0.10882926 0.019924572 -0.024009218 -0.001997614 -0.033246037 -0.012953379 0.006316395
0.08165998 -0.0075877993 -0.09428757 -0.011743386 -0.026618028 0.12855215 -0.093888596 -0.068812914
0.06556072 0.1046328 -0.12077362 0.028351266 -0.04974154 0.09021603 0.110862456 0.14643979
-0.036530398 -0.055055473 0.03181586 0.061931513 0.06348068 0.07441741 -0.07833698 0.052251536
-0.010984005 0.11993757 -0.005433712 0.12043534 -0.034117606 -0.05690807 0.08345458 0.020799378
0.04447755 0.10724351 -0.029593118 0.086392514 -0.072941326 0.007877157 -0.036739178 0.09761048
-0.124249876 0.0017195174 0.041434247 0.031565573 0.032012276 -0.042620637 0.100326054 -0.053768612
0.09767914 0.086176 0.12703082 -0.13290784 -0.056847107 0.10748659 0.061326254 0.08187295
0.038303874 0.11243823 0.0810579 0.06188429 0.10043382 -0.05195884 -0.046341643 -0.13078888
-0.09910492 -0.08243525 -0.092281364 0.022841299 -0.04975761 -0.00080546516 -0.01237262 -0.12219864
0.060243975 -0.011372923 -0.0820967 0.034784615 -0.13608636 0.058664367 -0.012114925 0.13312627
0.14421372 0.024320621 -0.13977776 -0.1282674 0.101139024 -0.0456857 -0.028421452 -0.058745805
-0.06719627 0.011185977 -0.075461425 0.14613701 -0.10466757 0.021982435 0.08422389 0.1328617

lstm.weight_hh_l1 f4 [200, 50]
00000000: c862 0abc 5533 bb3d e68d 81bd 8b0b c2bd
00000010: 8a97 073d 0b7f fdbd 7444 1d3e 74e5 f23d
00000020: c3a9 6b3d 92db 84bd a9b8 04be 4182 f5bd
00000030: 09ee b3bd a5cd fc3d 6d88 89bc db2d 063d
00000040: 2ca8 e4bc 063a 2a3d c8d1 10bd 0cf1 623c
00000050: 5adb c5bd 4bf5 77bd 2a16 16bc c86e 10be
00000060: 9980 5dbd a31b da3d dae5 92bd 410d 9d3d
00000070: 33b5 bc3d 1390 bcbd a0be df3d d407 c43d
00000080: 897c 2cbd 9978 8bbc d8a4 d73d 7f0f e1bc
00000090: 2858 193e 1115 743d 4c89 583d 2767 f8bd
000000a0: 2dcc 0dbe d757 ecbd 667c 15be 54dd e03d
000000b0: a5a1 803d 9e19 a2bb 62b7 263d 65c9 733c
000000c0: c09d 6a3d 9593 00bc d350 c43d 64e2 b13c
000000d0: 5019 1cbd bebf 183e f100 47bd 063c 01be
000000e0: 24c3 c7bd abf3 b4bd b0cb 71bd d91d 913d
000000f0: 11b8 ed3d 0419 c5bd 202d b13d 5638 093e
00000100: 2075 043e 5bba a03d 4b49 63bd 7933 cc3d
00000110: 6d10 d33d 8eda 2b3a 804c ddbc aa45 9cbd
00000120: d704 953c ab77 203d cde6 113b f16b ca3d
00000130: b849 0b3d d4c5 d0bc 09f2 183e aa9f c7bd
00000140: 1b09 49bc 70db a83d 8792 f73c 14ad 95bd
00000150: 95db 8c3c ee23 813d 2aec 8fbc 468f 4a3d
00000160: 80f3 5d3b 4ee1 8ebd e5e9 5cbd 631f 4d3d
00000170: 2173 1abd ac07 213c 935a 723c e3ef 373d
00000180: c175 cabd 6e6f 8b3c b7c2 143d 638c c13b
00000190: 92f4 eebd f2ff 0bbe 4ef4 dabc c251 09be
000001a0: da3a c53c 402a 9e3d 92a4 01bd 72e4 c23d
000001b0: fc34 e73d 1858 d93d b5aa 493d 9564 f73d
000001c0: 4036 c23d e252 febd 8542 55bd 881d 85bc
000001d0: a667 85bd 14bd 273b fc02 323d e95c 59bc
000001e0: e1f4 b7bd d9b8 c7bd 80e2 b2bd d75d ed3d
000001f0: db69 573c 322f ba3d 1cf0 0b3d 2744 793d
00000200: c11a b63d d7f4 3b3c 9584 35bd 8b38 08be
00000210: f1b3 68bd e7ab 96bc deed 05be 995b ee3d
00000220: 2f82 123e 0f6d 74bc 767c 053e 51a5 0dbe
00000230: ce8e e7bc 1181 e23d 9c73 eebd 1e96 88bc
00000240: 5fca dc3c bd9b 2ebc 3ac4 e7b9 0745 963c
00000250: 6764 8cbd 02b3 c63d 808e 933c 5dcc 7fbd
00000260: 9041 38bd fea4 c83d c647 43bd 2753 ecbd
00000270: 2eb7 713d 1079 073e e0cd b9bd f1d4 ebbc
00000280: 0fa6 313d e249 babd 535f 8b3d f2d0 0dbe
00000290: 4758 ca3d c423 0dbe 70ca 19be 443e bdbd
000002a0: 953a 8a3d 9303 8c3d 785b 14be f284 aebd
000002b0: 6e1c 143d 9966 143e 26f1 f9bc 773a ed3c
000002c0: 3afa efbc 57f1 993d e891 b0bc 4dca 09be
000002d0: 01b9 9d3c f18b 363d d852 7c3c 843d 7e3d
000002e0: a322 543d 307d a2bd ced2 08be 5b4e edbd
000002f0: ddc3 71bd 77e8 203d 00ac a4bd ac96 983d
00000300: 291c a03d 231c 3fbd 5d02 80bd 8bbc 163e
00000310: b9e6 d43d 9cf6 92bd e011 293d 3bfa e7bc
00000320: b3ff e53d 06cd 03be 5f01 c43d 22bb b2bd
00000330: 0856 c03d b99f 853d 6ee9 82bd a00b cabb
00000340: 3999 c4bd 8b05 033e fabd 3bbd d89e c7bd
00000350: 6b08 903d 003b d93d af51 07be 0456 ba3d
00000360: 2243 dcbd d7a1 ae3d 2a45 a7bc b7f1 7cbd
00000370: 89f9 023e 5d28 e1bd 9bb2 883d 6f83 2abd
00000380: 06e2 ee3d 2449 1a3d f66b dbbd bcbf 8e3d
00000390: 403f 1fbd 7f86 2dbd a969 1e3a 60bd 083e
000003a0: ac9f e93d 17eb ca3d d0da 8d3d 1df3 9a3d
000003b0: 5761 b4bd e3d6 e63d 7533 4a3d 38bb bdbd
000003c0: 288c fc3d f5ba 793d 8709 9bbd aee5 093d
000003d0: 21bf b03b f7fe 7a3d 6c46 073c 94e9 2cbd
000003e0: dabd a53d 757a 023e fd39 103c 7c3c 873d
000003f0: eb26 19bc f7b1 13bd 0736 b1bd b33a 47bd
-0.008446403 0.0914065 -0.06325893 -0.09474858 0.033103503 -0.12377747 0.15358144 0.11860171
0.057534944 -0.06487192 -0.12961067 -0.119877346 -0.08785636 0.12343911 -0.016788686 0.032758575
-0.027912222 0.04155924 -0.035356313 0.013851415 -0.096609786 -0.060536664 -0.009160558 -0.1410476
-0.05407772 0.106498025 -0.07172747 0.076685436 0.092142485 -0.092071675 0.10925031 0.095718056
-0.042110953 -0.017025279 0.10529488 -0.02747321 0.14975035 0.059590403 0.05286531 -0.1212905
-0.13847418 -0.115401916 -0.14598235 0.10979715 0.06280831 -0.0049469015 0.04070223 0.014879559
0.05727935 -0.007847686 0.095857285 0.021714397 -0.038110077 0.14916894 -0.048584882 -0.12620553
-0.09754017 -0.088355385 -0.059032142 0.07085771 0.116073735 -0.09623912 0.08651185 0.13400397
0.12935305 0.078480445 -0.05548982 0.09970755 0.10305867 0.00065556995 -0.027014017 -0.07630475
0.018190784 0.039176624 0.0022262812 0.098838694 0.03400585 -0.025484957 0.14936079 -0.097472504
-0.012270237 0.082449794 0.030221237 -0.07308403 0.017194549 0.06305681 -0.017568666 0.049453042
0.003386706 -0.06976567 -0.053933997 0.05007876 -0.03770745 0.009828489 0.014792102 0.04490651
-0.09885741 0.017020907 0.036318507 0.005906628 -0.11667742 -0.13671854 -0.026727822 -0.13410094
0.024075914 0.07722902 -0.031651087 0.09516229 0.11289403 0.10612506 0.049235065 0.120797314
0.094830036 -0.124181524 -0.05206539 -0.016249433 -0.0651391 0.0025594877 0.043459877 -0.01326678
-0.08982254 -0.09752054 -0.08734608 0.11590164 0.0131477965 0.09091033 0.034164533 0.06085601
0.08891822 0.011471949 -0.044315893 -0.1330282 -0.05681223 -0.018392516 -0.1307902 0.116385646
0.14307474 -0.01491858 0.1303576 -0.13832594 -0.028266337 0.11059774 -0.116431445 -0.016673144
0.026951967 -0.010657248 -0.00044205954 0.018343462 -0.06855088 0.09702112 0.018012285 -0.062450755
-0.0449844 0.09797095 -0.04767587 -0.115392976 0.059012584 0.13229775 -0.09072471 -0.028788062
0.043371256 -0.09096123 0.06805291 -0.13849238 0.09880119 -0.13783175 -0.1501863 -0.09240392
0.06749455 0.06836619 -0.14488018 -0.08521451 0.036159925 0.14492263 -0.030510496 0.028958542
-0.029294122 0.07516735 -0.021553949 -0.13456078 0.019253256 0.044567052 0.015400611 0.062070385
0.051790845 -0.07934034 -0.13361666 -0.11587211 -0.05902468 0.039284196 -0.08040619 0.074506134
0.07817871 -0.046657693 -0.06250451 0.14720361 0.10395569 -0.07175943 0.041276813 -0.028317561
0.112304114 -0.12871179 0.09570574 -0.08727099 0.09391409 0.06524605 -0.063921794 -0.0061659366
-0.095995374 0.12795083 -0.045835473 -0.09747094 0.070328556 0.106069565 -0.13214754 0.090984374
-0.10754992 0.08526962 -0.020418722 -0.061753955 0.12790503 -0.10994027 0.06674691 -0.04162925
0.11664204 0.03766741 -0.10713951 0.06970164 -0.03887868 -0.042364594 0.0006042966 0.13353491
0.11407408 0.09908121 0.06926501 0.075659014 -0.088076286 0.11271455 0.04936548 -0.09264225
0.1233142 0.06096931 -0.075701766 0.033666305 0.005393878 0.06127831 0.008256536 -0.042214945
0.08092852 0.12742026 0.008802888 0.06603333 -0.009347658 -0.036058392 -0.08652883 -0.048639964

lstm.bias_ih_l1 f4 [200]
00000000: 165f 9cb8 ca3c 07bd 121b 5cbd abd0 61bc
00000010: 5895 1abd ea89 19be 0e45 443d bbda 7c3c
00000020: 29de 9dbc b6b9 c3bd ffdd ec3d 7518 54bd
00000030: 4a63 b03d 84c0 0f3e 76c1 203e 856f de3c
00000040: 7bda 25ba 74fb 0a3e 4b6d 4c3d b4f6 693d
00000050: 0977 76bc 0a78 52bb c91a 2dbd aac0 eabd
00000060: 31b9 203e 0db6 afbc 85a5 0e3d e3d2 a23d
00000070: 6f6d 8fbd dda7 e93d d3a5 8d3d 3310 253e
00000080: c48f a53d 2991 a4bd 2954 7dbc 819c f53d
00000090: ca00 743d 830b cdbc f0e4 a6bd 7243 523d
000000a0: e95f 89bc 70d0 8bbd d255 103e 0e6a c5bd
000000b0: e5dc 8abc 0710 a1bd 388e 823d 843a b8bd
000000c0: f09c 15bd 94d4 2fbd 9a9b 90bb 0843 0c3e
000000d0: e02c a3bb fcd8 683d 5f09 6f3d 32e4 cd3b
000000e0: 6317 e63d bbb8 8b3d 6c54 a7bd 74e2 e7bd
000000f0: e59c b33d c08b 89bd 18db d73d d0d8 a73c
00000100: 0102 4a3d 405c 8d3d 26f9 143d d69b f83c
00000110: 8cd6 adbd 661d 073e b364 d43d d1cd c53d
00000120: 8bf7 b0bd 9486 d83d 9e88 c13c 5173 783c
00000130: 7c7b 13bd 7522 b7bc 95ed e43c 1151 9ebd
00000140: f28e 233d 674f acbd 3a6d 36bd acd9 dcbd
00000150: 7beb f93d efcc bebd f9d3 253c 9abc 303d
00000160: 9b23 dd3d b22c 623d d01c 64bd acdc 8b3d
00000170: d926 dfbd cca9 353d ad08 d03d d797 9c3c
00000180: 4568 973d 306d 3c3d 9258 15be 4ed2 673d
00000190: 4772 8f3b 9fb0 263d 2c0d c23c eaaf 143e
000001a0: 8520 093e 690c 56bd f381 8fbd 374f 683c
000001b0: a0dc c13c 288c f9ba 8e0a d43d 1198 b93b
000001c0: d92c 063e 0e7f 6d3d 9214 c8bc e289 a7bc
000001d0: db77 19be 52ad 063e 55cc c9bd 3848 64bc
000001e0: 983e b13c 70c6 ddbb 1f0f 1cbd f452 a73d
000001f0: ba4d 19be 8cb1 babd 6b55 e4bd 0207 c5bd
00000200: 865a 4b3d 98d3 c3bd 2f6e 10be a92c 2c3e
00000210: ffb3 dabd 2597 6ebd ba16 b9bd 9cee 89bc
00000220: 6c04 00be 1f77 b33b df45 c5bd c8fd 343c
00000230: aeff be3d e7de 7f3d b158 513d 4032 943d
00000240: 92ee 493d bbf2 d63c 29cb b43d a3dc 153d
00000250: 3589 a03b 7bea 863c 70cc 06be 35d6 d1bd
00000260: 41a2 f93d 326f 953d 59ec d7bd 8131 babd
00000270: a398 dc3c 1d28 983d 7c56 d1bd 7343 61bb
00000280: dae4 dabc cb17 633c c899 153e c8f0 dc3d
00000290: 0273 b23d bcb8 28bd 1f5a 99bd 5258 eb3d
000002a0: b96e 9b3d 35c7 03be 98dd cc3d 2044 87bd
000002b0: 0ff3 a73d c218 833d 5f73 78bd 9717 69bd
000002c0: 6a46 b0bb 40e3 7c3d 8c7a 9a3d a321 85bb
000002d0: da0b cf3d ad22 903c 4fdb 1dbd 53e2 0abd
000002e0: 0223 c1bc 14e1 10bc 240e 803d 21fa 853d
000002f0: 528e 03bd d263 423d aca4 563d c798 6fbd
00000300: 99eb bd3d 0cb5 033e eabb ce3d a549 433d
00000310: cd96 e4bd c70e e6bd 3078 e9bd 2a88 c53d
-7.456371e-05 -0.033016957 -0.053736754 -0.0137826605 -0.03774008 -0.14994016 0.04791742 0.015433009
-0.019270973 -0.09556906 0.1156578 -0.051781137 0.08612688 0.14038283 0.156988 0.027152786
-0.00063268066 0.13572484 0.049908917 0.05712004 -0.015043029 -0.0032115006 -0.042261872 -0.11462529
0.15695645 -0.021449113 0.03482582 0.0795038 -0.07003295 0.114089705 0.06916394 0.16119461
0.08084062 -0.080354996 -0.01546196 0.119927414 0.059571065 -0.025029903 -0.08149135 0.051333852
-0.016769366 -0.06826866 0.14095238 -0.09639369 -0.016951034 -0.07864385 0.06374782 -0.08995536
-0.03652662 -0.04292734 -0.0044130804 0.13697445 -0.0049797148 0.056847557 0.058358546 0.0062833065
0.112349294 0.06822344 -0.08170399 -0.113224894 0.0877016 -0.06716108 0.10539836 0.020489126
0.049318317 0.06902361 0.03637042 0.030347746 -0.08488187 0.13194808 0.10370769 0.09658397
-0.08640965 0.10572544 0.023624714 0.015164212 -0.036006436 -0.022355298 0.02794532 -0.07730306
0.039931245 -0.08413582 -0.04453776 -0.10783705 0.122031175 -0.09316432 0.010121339 0.043148614
0.10797807 0.055218406 -0.05569154 0.06829199 -0.108960815 0.044351384 0.10157905 0.019115372
0.07392935 0.046002567 -0.14584568 0.056597047 0.0043776366 0.040695783 0.023687921 0.14520231
0.13391311 -0.05225793 -0.07007208 0.014179043 0.023664773 -0.0019038962 0.10353576 0.0056638797
0.13103046 0.057982497 -0.024423871 -0.02045149 -0.14987127 0.13152054 -0.09853426 -0.013933234
0.021636292 -0.0067680404 -0.038100358 0.08170119 -0.14971057 -0.09115896 -0.11149105 -0.09620477
0.049646877 -0.09561843 -0.14104532 0.16813911 -0.10678863 -0.05824961 -0.09037538 -0.01683741
-0.12501687 0.005476847 -0.096324675 0.011046834 0.09326111 0.062468436 0.051109973 0.07236147
0.049299784 0.02623879 0.08827812 0.03658737 0.004899169 0.01646923 -0.13163924 -0.10245935
0.121891506 0.072965994 -0.105431266 -0.09091473 0.026928252 0.07429526 -0.10221574 -0.0034372478
-0.026720453 0.013860653 0.14609444 0.10788113 0.08713342 -0.0411918 -0.07487892 0.11491455
0.07589478 -0.1286896 0.10003203 -0.06604791 0.082006566 0.064012066 -0.0606569 -0.056907263
-0.0053794878 0.06174016 0.07542905 -0.0040628477 0.101096824 0.01759466 -0.038539227 -0.033907246
-0.023576263 -0.008842725 0.06252697 0.06541849 -0.03211815 0.047458477 0.052403137 -0.05849531
0.09273452 0.12862033 0.100944355 0.047677655 -0.111615755 -0.11233287 -0.11399877 0.09645112

lstm.bias_hh_l1 f4 [200]
00000000: 4353 c6bb 93f0 bfbd 0075 973d 7f6c a6bd
00000010: ff51 3dbc b1a1 dd3d 07e4 be3d add2 083e
00000020: 2a1e aabd d567 1dbd 9f8a e23d bd23 0cbe
00000030: 3b15 2f3d c8e9 0e3e e925 a6bd 1d9b 903d
00000040: 4dc8 333d bc27 883c 0bb3 963d 07dc 0dbe
00000050: 3175 f33c 20b5 af3d 835f e4bd e216 acbc
00000060: 4947 aa3d e14c e03d cdd6 d1bd fadc 943d
00000070: 9fba be3d c940 f43d 0e60 2a3e 4be9 babd
00000080: f66f 5c3d cfc9 2abc 7a8d cfbd a8e3 cfbc
00000090: 0a95 593d 555d b53c b5dd 9cbc caea 453d
000000a0: 0c95 91bd c8c7 ae3d 8eb4 de3d 9f84 aa3d
000000b0: 3d11 dcbc 98c0 9f3c 6aef e13d cee1 d0bd
000000c0: 5849 63bd 03ed 983d cc0d c53d d2dc 88bd
000000d0: bdd9 5f3d 023a b7bc f0d3 c13d 48d8 bbbd
000000e0: 55d6 f5bd 431c a6bd 4934 45bc 821b c83d
000000f0: f107 ca3c e763 bebd be0f 953d 60f3 f6bd
00000100: 0ba5 94bd 5947 7b3d 69ee 233e 907e 013e
00000110: daba 01be 7e28 f23d 8b98 533d 9b6f d03d
00000120: f15a ac3d 17e8 a03d 3363 d23d 70bb ecbd
00000130: 9857 eabd 48bc 83bd eca9 4bbd 352f c93d
00000140: 3766 93bd 69a2 eeba 5c87 af3c 24d1 a03d
00000150: 1df7 073e 2f91 86bc 6d33 aabc 6e12 84bd
00000160: 9210 14bd 972d df3b be26 a63d 40fb a4bd
00000170: 033c e6bd 8a7a 203d b16f 833d f895 5a3d
00000180: 3908 963d 7357 e9bd 6ca7 88bc fbbe 8fbc
00000190: 101d b13d 1483 d63c aae8 133d f635 753d
000001a0: 8524 29bd ab63 a9bc f07a cabd 317e 26bd
000001b0: f138 233e eaa4 e93d 7acd 6a3d 4522 0e3d
000001c0: 6530 003e 82fc e4bd 2c96 debd b27e 0ebc
000001d0: dcc9 0abe de17 33bd 222c 62b9 fa94 213d
000001e0: e5c1 aabd bd7d 74bd 40c9 ccbc e86b f83d
000001f0: e4b2 64bc 9a82 a93d 0d30 0ebe 151c 1c3e
00000200: 6f64 d73d 06e8 3d3d ab13 abbd 6b05 ed3d
00000210: af55 b1bd 3355 2ebd bd43 233e 20a3 be3d
00000220: 0eb1 85bb 4e55 583c 94f3 593c 31c7 3bbd
00000230: 9e9e cbbd c008 34bc ecc0 f03d e7be a6bd
00000240: 96eb b9bd 9fe7 4b3c edc5 503d 744b 18be
00000250: 6b14 99bd ad61 cb3c bcc4 1ebd 534d ec3d
00000260: f7d5 ab3d c572 1d3e bd01 e03d b9b5 813d
00000270: ce55 b13d 730e b63d 428a 17bd f0a8 d13d
00000280: cf91 973d 8377 003e c5d7 103d 729b 163d
00000290: 1654 7e3d d5c4 fcbd 9d55 bfbd bc34 5e3d
000002a0: 201a 343d 30b9 05be bd12 013d 5f28 efbd
000002b0: e0dc 3ebd 52a8 99bd d77e 91bc f140 ccbd
000002c0: 6dd2 ed3c d221 ccbc 93cc ba3d 6e86 95bd
000002d0: 5609 183e 93b1 1e3e af43 2b3d 1134 043e
000002e0: 0de5 883d ebe0 32bd 59ec ce3d a125 813d
000002f0: 491c 653d 1332 d73d 1001 f7bc f408 033e
00000300: c6b4 31bd 4637 2cbc 0a83 91bd 658d 63bd
00000310: 8db1 9cbd be18 21bc 21ab 8dbd 2e31 7d3d
-0.006052406 -0.09372058 0.07395363 -0.08126163 -0.011555194 0.10821856 0.093208365 0.13361616
-0.083065346 -0.0384291 0.11061596 -0.13685508 0.042744856 0.13956368 -0.081126995 0.070608355
0.043892194 0.01662051 0.073583685 -0.13853465 0.029718967 0.08579469 -0.1115103 -0.021007005
0.08314378 0.109521635 -0.10246048 0.072687104 0.09312939 0.11926419 0.16638204 -0.09126528
0.05381771 -0.0104240915 -0.101344064 -0.02537711 0.05312065 0.02213923 -0.019148687 0.048319615
-0.071085066 0.08534199 0.10874282 0.08326077 -0.026863689 0.019501016 0.11031993 -0.10199319
-0.055489868 0.074670814 0.09621772 -0.06682743 0.05465101 -0.022366527 0.09464252 -0.09172112
-0.12003771 -0.08110859 -0.0120363915 0.09770872 0.02466199 -0.092963986 0.07278393 -0.12058139
-0.07258042 0.06134734 0.16008915 0.12645936 -0.12668934 0.118241295 0.05165915 0.10177537
0.08415783 0.078567676 0.10272827 -0.11559188 -0.114424884 -0.06432396 -0.049722597 0.09823457
-0.0719723 -0.0018206361 0.021426849 0.078523904 0.1327786 -0.01642665 -0.020776475 -0.06448828
-0.036148615 0.0068108547 0.08112858 -0.08055735 -0.11241915 0.039179362 0.06417788 0.053365678
0.07325787 -0.11393633 -0.016681395 -0.017547121 0.08648121 0.02618555 0.036110558 0.059865914
-0.041294593 -0.020677408 -0.0988673 -0.04064769 0.1593969 0.11408408 0.057324864 0.03470065
0.12518461 -0.111809745 -0.10868487 -0.008697199 -0.13553566 -0.043723933 -0.0002156948 0.039448716
-0.08337764 -0.059690226 -0.024998307 0.121299565 -0.0139586665 0.082768634 -0.13885517 0.15245087
0.10517203 0.046363853 -0.08353361 0.11573299 -0.08658921 -0.04256172 0.15943809 0.093084574
-0.0040799445 0.013203932 0.013302702 -0.04584426 -0.09942363 -0.010988414 0.11755547 -0.081418805
-0.090781376 0.0124453595 0.050970007 -0.14872533 -0.074745975 0.024826849 -0.03876184 0.11538186
0.0839042 0.15375812 0.109378316 0.06333489 0.08658944 0.08889475 -0.036997087 0.102373004
0.07400858 0.1254559 0.035362024 0.036769338 0.06209191 -0.1234223 -0.09342501 0.05424951
0.043970227 -0.13058925 0.03151201 -0.11677622 -0.04659736 -0.07502808 -0.017760677 -0.09973324
0.029031003 -0.02491847 0.09121051 -0.07301031 0.14847311 0.15497427 0.041812595 0.12910487
0.06684313 -0.04367153 0.101036735 0.06306005 0.055935178 0.10507598 -0.030151874 0.12796384
-0.04338529 -0.010511225 -0.07105072 -0.055554766 -0.076510526 -0.009832559 -0.06917406 0.06181448

fc.weight f4 [1, 50]
00000000: 04fc 5b3c 4b41 e83d d328 833d aebf 933d
00000010: ee89 773d 3aa5 f63d 02c1 083c a6f1 d6bd
00000020: 8396 de3d f84d b03c b864 9e3d 1c1c 5cbd
00000030: e05f 073d 4998 a2bd 844f 39bd 3f95 0bbe
00000040: 2825 d9bd fae0 ff3d d770 e73c 6a15 b23d
00000050: 686f 84bc 9390 d3bd afdf 81bd d35a 073e
00000060: 0860 a5bb 8789 e23c fdc2 86bd 4a51 f63d
00000070: 61f2 223e ad38 02be 752f 8ebd 06be 783d
00000080: 9773 bfbb 35fa fd3d 81fe a23d 5a76 e33d
00000090: 5386 13be 5037 ae3c b965 ce3d 9772 a2bd
000000a0: 2a0f edbd 5356 3f3d 1dc4 8b3d 13ff d73d
000000b0: 24bd 06be 2f21 8dbd ea3e 01be 1539 2fbd
000000c0: 5ca0 5a3d 0064 0c3b
0.013426784 0.11340579 0.06404271 0.072142944 0.060434274 0.12043233 0.008346798 -0.104953095
0.108685516 0.021521553 0.07734054 -0.053737745 0.033050418 -0.07939202 -0.045241848 -0.13631152
-0.1060279 0.12494083 0.028252048 0.08695491 -0.016166404 -0.1033031 -0.063414924 0.1321824
-0.005046848 0.027653469 -0.0658016 0.120272234 0.15912773 -0.12716933 -0.069426455 0.060728095
-0.005842637 0.12401239 0.07958699 0.11106558 -0.1440671 0.02126661 0.10077996 -0.079320125
-0.11575158 0.046713185 0.06824515 0.105466984 -0.13158089 -0.06891095 -0.12621656 -0.042779047
0.053375587 0.002142191
