data/models/AAPL_20251213_145655.pt (torch, 128942 bytes, 9 tensors)

lstm.weight_ih_l0 f4 [200, 1]
000000 3c 12 81 bd 7e a2 17 3e 0f 78 a7 bd fe 10 91 3d
       -0.06302306 0.1480808 -0.08177196 0.07083319
000010 20 c8 4d 3e a1 e6 49 3d 19 77 47 3e 28 c9 c1 3c
       0.20095873 0.04929221 0.19479026 0.02365549
000020 c2 03 ea 3c 57 39 06 3e 24 46 cc 3d 29 40 08 be
       0.028566245 0.13107811 0.09974316 -0.13305725
000030 c0 e1 5d bb 00 c9 22 3e c2 2f c4 3d 32 5a dd bd
       -0.0033856481 0.15896988 0.095794216 -0.10808219
000040 2e d7 af 3b 54 cf 3e 3e 70 26 d9 ba 4a a2 bf 3d
       0.0053662276 0.18633777 -0.0016567241 0.09357126
000050 7f 7a d0 bc d4 fd 16 be 59 0c 9b bd 38 73 ec 3d
       -0.025449036 -0.14745265 -0.075707145 0.11545414
000060 df 93 03 3e 10 e7 a2 3d b4 8d bc bd 03 fa f4 bd
       0.12849377 0.07954228 -0.09206715 -0.119617485
000070 54 c8 d7 3d 6d 38 b7 bd 84 bf 7b bd c6 98 2c bd
       0.105362564 -0.08946309 -0.06146194 -0.042137884
000080 58 fe 57 bd 10 fd 2d 3c e3 ff e8 3d 55 66 29 bd
       -0.052732795 0.010619417 0.113769315 -0.041357357
000090 37 d5 23 3e 3f 62 c5 3d f7 08 90 bc f8 94 41 3c
       0.15999304 0.096378796 -0.0175824 0.011815302
0000a0 b5 80 90 3c c8 3e da bd 9a 32 55 3d b7 10 4f 3d
       0.017639497 -0.10656506 0.05205021 0.05055305
0000b0 cf f3 9a 3d f0 95 24 3e 47 8c 25 be 42 b3 fd bc
       0.07566034 0.16072822 -0.16166793 -0.030969266
0000c0 46 70 84 3c ef 49 18 3c c7 a3 14 3e 30 b3 cd 3d
       0.016166817 0.009294971 0.14515601 0.10043943
0000d0 e7 ae 34 3e ce 84 23 bd 61 4f 12 3e 27 e4 fd 3d
       0.17644845 -0.039921574 0.14288093 0.12397032
0000e0 79 61 96 3d 34 e7 81 bc 2d b4 8f 3d cd 54 b5 bc
       0.0734281 -0.015857317 0.07016788 -0.022135163
0000f0 37 b4 dd 3d 4d d9 86 bd 1b 20 c2 3d 34 ce 9e 3d
       0.10825389 -0.065844156 0.0947878 0.07754174
000100 37 0c 33 3e c9 34 ee 3d d3 4b 05 3e 33 2e 42 3e
       0.17485128 0.11631162 0.13017206 0.18962936
000110 08 87 30 bb da 4c ac 3d 71 41 e7 3d 8a 1d 00 3d
       -0.0026935954 0.08413096 0.11291779 0.03127817
000120 43 ee 1f bd 87 7e e5 3c 50 44 07 3e 17 05 c2 bc
       -0.039045583 0.028014435 0.13209653 -0.023684068
000130 c2 a9 81 3d 18 db 98 bd 85 ce 3e 3e d3 21 8c bd
       0.06331207 -0.07463664 0.18633468 -0.06842389
000140 ac 57 a7 bc 6d 04 b9 3d bc 8f fb 3d 57 21 7c bd
       -0.020427547 0.09034047 0.122832745 -0.061555233
000150 50 2c 0c 3b f8 c1 87 bd 77 c0 e0 3d 77 8a 94 3c
       0.0021388717 -0.066287935 0.1097421 0.018132431
000160 a6 82 8e 3c 31 9b f6 b9 90 04 49 3d 63 ea 05 be
       0.017396282 -0.00047036403 0.049076617 -0.13077693
000170 9c ee 28 bd 92 c6 7e 3c d3 51 80 3d 60 d6 4d 3d
       -0.04124318 0.015550273 0.06265607 0.050253272
000180 a1 80 19 be 7b bc 66 bc 92 76 2b 3e 67 2a d8 3d
       -0.14990474 -0.014083023 0.1674445 0.105549626
000190 1f d4 ff bc be fe ec 3d bd b2 92 bd a9 46 db bd
       -0.031229077 0.11572026 -0.07162998 -0.10706837
0001a0 82 0a 33 be ac 45 4a 3d 8d a1 30 be b0 8a 18 3e
       -0.17484477 0.04938285 -0.17249127 0.14896655
0001b0 f9 94 9a bd 23 17 38 3e f9 52 de bc fe 59 b1 bd
       -0.075479455 0.17977576 -0.027139174 -0.08659743
0001c0 b5 1a 31 3e 05 bb c8 3d 63 9c 08 bd bf 41 c0 bd
       0.17295344 0.09801296 -0.033352267 -0.0938754
0001d0 43 30 e9 bd a6 78 1f be 87 b4 0b 3d 5c cf 9d bd
       -0.11386158 -0.15573367 0.03410771 -0.07705566
0001e0 be 20 ef 3d 8e 1c 93 bd 2f 55 d5 3b 31 12 a7 3c
       0.11676167 -0.07183181 0.006510399 0.020394417
0001f0 9c 85 f2 bd 83 71 cb bd 17 e5 01 3c 37 10 8c 3d
       -0.1184189 -0.0993376 0.007928154 0.0683903
000200 d2 cd 3e be a4 93 dd 3d bb d2 3a 3e f7 f3 11 3e
       -0.18633202 0.10819176 0.1824445 0.14253221
000210 ed db 20 3d a9 6d 32 3e e5 ea 40 be 28 13 09 3d
       0.039272238 0.17424645 -0.18839605 0.033465534
000220 9f be 03 be eb 31 89 bd 7a da 1a be 1f ea 51 3d
       -0.12865685 -0.06698974 -0.15122405 0.051248666
000230 41 9e 97 3d 38 97 2d bc 61 58 8e 3d 6f a3 26 3e
       0.074032314 -0.010595135 0.06950451 0.16273282
000240 f3 ee c2 bc 9c b5 2a be 78 e1 c8 3c 28 eb 21 be
       -0.02379558 -0.16670841 0.024521574 -0.15812361
000250 a1 d0 9e bd c8 d1 4d bd 87 ef 11 3d 45 38 b7 3d
       -0.077546366 -0.05024889 0.03562882 0.089462794
000260 dd f4 70 bb 58 9f ae 3d f2 fb 95 3d 12 c8 48 3d
       -0.0036767044 0.08526486 0.073234454 0.049018927
000270 f3 c4 3d 3e 96 19 e2 3d e6 92 8c 3c 83 0b a4 bb
       0.18532161 0.110400364 0.01715989 -0.005006255
000280 4d 1d 02 3e 9c 97 9a 3c 6c 78 c9 3d 7d 85 45 3e
       0.1270649 0.018871121 0.09837422 0.19289203
000290 af 53 37 3e a1 b9 ac 3c 4e 3f e8 bd 09 d7 85 b9
       0.17903017 0.021084609 -0.113401994 -0.0002552795
0002a0 40 04 f8 3c 2d 47 12 bd 45 6a ff bd f6 62 23 3d
       0.030275464 -0.03571241 -0.12471441 0.0398893
0002b0 f3 21 e8 bb 47 b0 e4 bb b6 4c be bc fa c9 12 3e
       -0.007084125 -0.0069790217 -0.023229938 0.1433486
0002c0 b5 75 98 bd 2d 3f b3 bd a1 0e 3a bd c5 3f d5 3d
       -0.07444326 -0.08752284 -0.045424107 0.10412554
0002d0 d9 8b cb bb 9e 89 35 bd a6 65 96 3b 0f 72 34 3e
       -0.0062117395 -0.044320695 0.004589754 0.17621635
0002e0 a3 48 50 3e 9d 33 28 be 8c e9 86 bc 71 44 ec 3d
       0.20340209 -0.16425939 -0.016468786 0.11536492
0002f0 73 0b 58 bd b3 b5 e2 bb 1a 70 cc 3d 96 8f 0b 3e
       -0.052745294 -0.006918633 0.09982319 0.13628992
000300 84 0d aa 3d 09 11 98 3d 6d b7 71 bd bc fb 1c 3e
       0.08303359 0.07425124 -0.05901282 0.15330404
000310 00 9c 5e 3d af cd 9a bb 8b 5c 69 3d cb bf 06 bd
       0.054347992 -0.0047242264 0.05697302 -0.03289775

lstm.weight_hh_l0 f4 [200, 50]
000000 3b f4 f5 bc a6 4f fa bd 80 44 51 bd b6 27 ac 3c
       -0.030023685 -0.12222223 -0.051090717 0.02101503
000010 a7 03 a5 3d 6f 6d aa bd 87 65 0a be b2 37 d7 3d
       0.08057337 -0.08321654 -0.13515292 0.1050867
000020 56 ea 0f be 53 cf 11 3d f4 3a 10 bd d3 c8 40 bd
       -0.14054236 0.03559811 -0.035212472 -0.04706652
000030 1c d3 87 3d 3a 4c db 3c f7 4b 6c bd df 20 04 be
       0.06632063 0.026769746 -0.057689633 -0.12903164
000040 76 2a 3d bc 4e 39 f8 bd 9e eb 24 bd e3 c5 b1 3d
       -0.011545768 -0.12120305 -0.040263765 0.08680322
000050 b6 d7 e6 3d 98 e9 87 bd e0 d9 85 bd a4 b4 56 3d
       0.11271612 -0.06636351 -0.06535697 0.052418366
000060 27 90 94 bc e7 c3 fd 3d 92 23 80 bd 19 8a dc 3d
       -0.018135143 0.12390881 -0.062567845 0.107685275
000070 2e e7 8e bd e7 73 da 3d 61 95 cd bd ce 30 b5 3c
       -0.06977688 0.10666638 -0.100382574 0.022117998
000080 24 99 04 be 3a 9f 1e bd 46 5b 59 bd 3e 89 18 bd
       -0.12949044 -0.03872607 -0.05306556 -0.03724026
000090 e3 b7 ff bd 9c 72 e6 bc 3c 89 f5 3d 6e b2 31 bd
       -0.124862455 -0.028130822 0.11989066 -0.043383054
0000a0 bc e4 4e bd 6b 85 0a be b3 3a f7 3d 80 4d 0d 3e
       -0.050511107 -0.13527457 0.12071743 0.13799095
0000b0 dc 53 ac 3d 78 36 de bd 3b 17 66 3d ce 58 37 3d
       0.084144324 -0.10850233 0.056174498 0.044762425
0000c0 31 4f 71 bd b4 7d c0 bd 2e 8a d2 3d 9b 6f ef bd
       -0.058913413 -0.09398976 0.10280262 -0.11691209
0000d0 35 4e 3e 3d 75 21 23 be 49 59 8e bd 69 68 2a 3d
       0.046461303 -0.15930732 -0.069506235 0.04160348
0000e0 4c 56 eb 3d 24 6a 2d 3d 6d 8f 01 be ea 6e 46 bd
       0.11491069 0.04233755 -0.12652369 -0.04844562
0000f0 15 94 67 bc 48 ca 77 bc cc e0 f6 3c 28 50 b2 bd
       -0.014134427 -0.015123911 0.030136488 -0.08706695
000100 76 50 03 bd 85 36 dc bd 5f 04 ec bd db 9c 03 be
       -0.032059155 -0.10752586 -0.11524271 -0.12852804
000110 73 68 d8 bd 6e 1f 2c be d2 f8 07 3d f6 4f cb 3c
       -0.10566797 -0.16808864 0.033196278 0.024818402
000120 23 0c 06 3e 9d 03 a2 bc d7 f9 9a 3d 8e 77 47 bb
       0.13090567 -0.019777114 0.075671844 -0.003043625
000130 3a ec a2 bd c7 20 44 3e 99 83 8e bd c7 8b ba 3a
       -0.07955213 0.19153129 -0.06958694 0.0014232331
000140 be 4b 1d 3e 93 ec ae bd 2c 34 77 3d b2 0d ab 3d
       0.15360925 -0.08541217 0.06035249 0.083522215
000150 48 3e 5a 3a 93 0f 39 3c 1e a1 93 3d 97 5c a6 bd
       0.00083253207 0.011295217 0.07208465 -0.08123129
000160 c1 1d 42 3d 7b cb 93 bd 15 28 8f 3d 18 84 8e 3d
       0.047391657 -0.07216545 0.06990067 0.06958789
000170 1f ba a8 bb cf 7b 07 3e 4c 2c 93 3c 95 e1 d9 3d
       -0.0051491405 0.13230823 0.017965458 0.106387295
000180 aa c2 cf 3d f0 4c ec bd e4 75 1e bd c1 a3 c2 3d
       0.10144551 -0.11538112 -0.038686648 0.0950389
000190 48 ce 13 bc 14 bf f8 3b 68 94 90 3c fc 7e dd 3d
       -0.009021349 0.0075911377 0.01764889 0.10815236
0001a0 fc 30 1d bc 9d 80 a1 bd 94 30 25 3d 4c e8 bc 3c
       -0.009594198 -0.07885859 0.04032953 0.023059987
0001b0 56 0d e5 3d c1 3c e6 bb 19 4a cb bd 1e 8a 13 be
       0.11184184 -0.0070262854 -0.099262424 -0.14408156
0001c0 69 7a a3 bd 83 f7 77 3d c5 40 0d 3e ea f9 19 be
       -0.07982332 0.06053878 0.13794239 -0.15036741
0001d0 a1 55 b7 3d 16 8b 38 3d 2f 71 40 bd 01 e7 94 3d
       0.08951879 0.045054518 -0.04698294 0.07270623
0001e0 9a 70 b8 3d 31 c6 74 3c 24 b1 c0 3d fd 44 24 3d
       0.09005852 0.014939831 0.09408787 0.040104855
0001f0 51 22 2c bc b9 97 08 3b e4 7c 00 3e 0f aa e7 3d
       -0.010506229 0.0020842387 0.12547642 0.11311733
000200 b4 fa f1 bd 01 7e 0d 3e 6d 9a 0b 3e fb 00 02 3e
       -0.11815396 0.13817598 0.13633128 0.12695687
000210 dd 56 19 bd 7d 02 fe 3c 20 4a e3 3d f9 d6 84 3d
       -0.037436355 0.031007046 0.110981226 0.06486315
000220 a8 14 e2 bd 69 d5 c0 bd 4b ff ae 3d 7b 78 1c 3d
       -0.11039096 -0.09415705 0.08544787 0.038200837
000230 41 c9 83 bb 70 e6 44 bd 23 88 2e bd e0 6d d5 bd
       -0.004021794 -0.048071325 -0.0426103 -0.104213476
000240 98 0b e9 3d 3d a8 af 3c a4 00 94 3d 34 10 b5 3d
       0.113791645 0.021442527 0.07226685 0.08840981
000250 6b 04 cf 3d 75 86 7f bb 45 09 fa 3c c0 45 ad 3c
       0.101082645 -0.0038990055 0.030521998 0.021151423
000260 de 68 84 bb 04 c8 10 be bb eb d4 3c dd 19 7d 3d
       -0.0040408215 -0.141388 0.025991311 0.061792243
000270 d2 06 b1 bd f1 bb 07 3e 7a f2 aa bd 3b 25 14 3e
       -0.08643879 0.13255288 -0.0834703 0.14467327
000280 dc 95 78 3a 61 1e 7c bb a7 c5 41 3e f6 74 5a bd
       0.000948278 -0.0038470256 0.18923055 -0.0533342
000290 d2 a2 59 3c 87 51 70 3d 4f 60 23 be 9a 95 69 3d
       0.013283448 0.0586715 -0.15954708 0.057027437
0002a0 c4 58 8f bd db a9 28 be b8 ce c0 bc 9f 95 ba bc
       -0.069993526 -0.16471045 -0.023536071 -0.022776423
0002b0 bc 60 ea bd 6f a3 39 3d b3 d6 29 3d 85 4c 97 bc
       -0.11444232 0.045321878 0.04146452 -0.018469105
0002c0 96 58 05 3d 47 5f 62 3d a6 c5 eb bd 87 95 03 3e
       0.032555185 0.055266645 -0.11512308 0.12850009
0002d0 fe 89 a1 bd 9a 7f 96 3d 66 8d 8b 3d 9e 6d a9 bd
       -0.07887648 0.07348557 0.06814079 -0.08272861
0002e0 57 59 d7 3c be a6 24 3d 9b 57 23 be f0 19 7e bd
       0.026287718 0.04019808 -0.15951388 -0.062036455
0002f0 49 c2 8e 3c 09 31 90 3d fc d5 74 bd dd 8b c0 bc
       0.017426627 0.07040603 -0.059774384 -0.023504192
000300 09 88 2c 3e 27 fb 2d 3e 62 3d f8 3d b9 08 0f be
       0.16848768 0.16990338 0.12121083 -0.13968171
000310 0f 5e 55 bd fb 67 d1 bd cb ba 6f bd f8 b9 82 bc
       -0.052091654 -0.10224911 -0.05852775 -0.015957817
000320 58 4c 25 3c 91 03 ac 3d 61 04 5f 3c 40 ea 4a bd
       0.010089003 0.08399118 0.013611884 -0.049539804
000330 52 0d 6b bd 90 d0 1a 3c 40 76 88 3d 7c b8 ee 3d
       -0.05738575 0.009449139 0.066631794 0.11656281
000340 50 80 b8 bd 2f 4e 3d 3e af 09 30 3d 04 dc 08 bd
       -0.09008849 0.18486856 0.042977985 -0.03341295
000350 74 b6 10 3d 01 b8 26 bd 86 27 35 bc 59 f0 8d 3d
       0.03533025 -0.040702824 -0.011056786 0.06930608
000360 69 9f 27 be 6b 1d 56 be 4b d0 ba bd 3a d9 15 be
       -0.16369404 -0.2090966 -0.0912176 -0.14633647
000370 4e 10 9c 3d 3e cf 05 be 88 81 0b be c8 7f 16 3e
       0.07620297 -0.13067338 -0.13623631 0.14697182
000380 7b 84 34 be 82 2a f2 bd 4c 29 1f be 6e 1e 07 3e
       -0.17628662 -0.11824514 -0.15543097 0.13195202
000390 d7 b6 d7 bd 89 aa 21 3d 4b e4 8c bd 3e 40 31 3d
       -0.10532921 0.039469276 -0.06879481 0.043274157
0003a0 5e 6e 8e bd 30 ce b0 3d a9 f1 86 3d 66 9d cf 3c
       -0.069546446 0.08633077 0.06589062 0.025343608
0003b0 4d fe 34 be 92 58 6b 3d de 69 3c be 86 28 f0 3c
       -0.17675133 0.057457514 -0.1839976 0.029316198
0003c0 38 01 53 3d 03 29 46 bd a0 6d 3c 3e ab 5a 53 bd
       0.051514834 -0.048378956 0.18401194 -0.05160014
0003d0 b4 84 44 bd 74 a6 72 3d c7 61 40 3d ca 5c af bd
       -0.047978118 0.059240773 0.046968248 -0.0856262
0003e0 77 71 a4 3d cd b0 54 bd c5 09 87 3d 45 eb ca bd
       0.08029454 -0.051926423 0.0659366 -0.09908155
0003f0 be 88 0d bd da 4b 5c 3c f3 7c 87 3d 9b 5a 36 bd
       -0.034554236 0.013445819 0.06615629 -0.04452

lstm.bias_ih_l0 f4 [200]
000000 01 76 05 3c fa 33 ea bd 47 bf 02 3e ce 42 85 bd
       0.00814581 -0.11435695 0.12768279 -0.065068826
000010 f8 02 ec 3d b8 40 e0 bd 33 68 ca 3d 3b 62 2b 3e
       0.11524004 -0.10949844 0.09883156 0.1673669
000020 3d 0a 6c bd 16 1f 36 3d 39 15 95 3d c4 79 e8 bc
       -0.05762695 0.04446324 0.072794385 -0.028378375
000030 98 06 6a bd 6b 47 f9 3d 66 9c 9d bd cd cb bd 3d
       -0.057135195 0.12171825 -0.07695846 0.092673875
000040 a2 be 54 3d a3 db 4c 3c 94 5e a8 bd 40 5f ee 3d
       0.051939614 0.012503537 -0.08221164 0.11639261
000050 7c df 93 3d ff 39 86 bb cb 4b 7d bd 64 0a 82 3d
       0.07220361 -0.004096269 -0.06183986 0.06349638
000060 60 aa cd 3d f0 a7 92 bd 4b 36 15 3e d3 7b d4 3d
       0.10042262 -0.07160938 0.14571492 0.1037518
000070 4a fd f9 3d a6 f9 98 3d af 44 04 3e 3a 52 db 3c
       0.12206514 0.07469492 0.12916826 0.026772607
000080 90 95 10 3e ed fc 94 3d b7 df 02 bd ac 95 95 3d
       0.14119554 0.07274804 -0.031951632 0.07303938
000090 2b 1e 0b 3e 56 7d f4 bd 84 08 f1 3d d1 82 d1 3d
       0.13585727 -0.119379684 0.11769202 0.102300294
0000a0 c3 7b c0 bd 73 7f 76 bd 25 40 88 3d 22 2e c1 bd
       -0.09398606 -0.06018014 0.066528596 -0.09432627
0000b0 0e 66 0d 3e 71 09 8c bd 50 9a 0c be a8 d0 79 bd
       0.13808462 -0.06837738 -0.1373074 -0.060990006
0000c0 e2 86 8e bd 58 c9 8c bd b4 83 6f bd 26 77 cc 3d
       -0.069593206 -0.06874341 -0.05847521 0.09983663
0000d0 e5 62 ac 3d 66 0b e0 3d 7c 85 5a 3c 80 a0 97 3d
       0.084173 0.10939674 0.013337489 0.0740366
0000e0 d2 2e 6f 3c 5d 4a 9f bc 42 33 45 bd 1a 67 45 3d
       0.014598565 -0.019444639 -0.048144586 0.04819403
0000f0 a3 db a6 3d 07 15 61 3c f8 1b f7 bb f2 a4 0b 3d
       0.08147361 0.0137379235 -0.007541176 0.03409285
000100 06 cf 55 3c 12 b9 c0 bd 09 ea ae 3d bf 5c fd 3d
       0.0130498465 -0.09410299 0.085407324 0.123712055
000110 37 2f 43 bd 71 94 06 bd 74 cf c3 3d 6e 05 e9 3d
       -0.04765245 -0.03285641 0.09561053 0.11377989
000120 79 51 92 3d 72 51 04 be 3c 53 7c 3c c0 f9 0e bc
       0.07144446 -0.12921694 0.015400704 -0.008726537
000130 e9 f2 42 bd 7b 36 7d bc 27 17 f5 bd c5 ba cb bc
       -0.04759494 -0.015454884 -0.119673066 -0.024869332
000140 d6 00 92 bd 21 c0 be 3c 49 dd a0 3c 72 d0 01 be
       -0.07129066 0.023284974 0.019636767 -0.12677172
000150 ab ed 99 bd 3b 50 0d be 8f 10 ea 3d 07 22 14 3e
       -0.07516035 -0.13800137 0.114289396 0.14466105
000160 ce b4 7b ba 5c 8c 07 3d 67 24 db 3d 28 bd a1 bb
       -0.0009601832 0.03309284 0.107003026 -0.0049358793
000170 6d 77 b7 bd dd 47 c0 3d f9 09 c8 3c 93 bc 47 bd
       -0.089583255 0.09388707 0.024418818 -0.048763823
000180 6e 27 d8 3c 0a cc a7 bd a9 4c b9 3c 3d 93 c5 bd
       0.026385989 -0.08193214 0.022619562 -0.09647224
000190 9c c2 71 bd 1e 46 59 bc b5 de 88 3d 30 55 e4 3d
       -0.059023485 -0.013261346 0.06683103 0.11149061
0001a0 55 32 e0 3d 58 8f ec 3c 9e dc b6 bd 5d f6 dc bd
       0.109471 0.028876945 -0.08928798 -0.107891776
0001b0 61 70 c1 3d 82 85 9f 3d d7 db 8e 3d 03 7b cd bd
       0.09445263 0.077891365 0.06975525 -0.10033228
0001c0 a8 50 87 bd 43 27 8a bd 33 82 dd 3d c7 eb 2e bd
       -0.06607181 -0.0674577 0.10815849 -0.042705324
0001d0 93 b5 94 3d 56 be f7 bd db a5 76 3d ed ea 4a bc
       0.07261195 -0.120968506 0.060216766 -0.012385112
0001e0 9b bb b8 3c 3f bf 1b bd e4 bf 0c bd 3d 0c 41 3d
       0.022550395 -0.038024183 -0.03436269 0.047130812
0001f0 b7 52 68 bc 01 4f 06 be a5 12 a7 3c 87 c9 ea bc
       -0.014179877 -0.13116075 0.020394633 -0.028660549
000200 29 4c a4 bd 02 87 b8 bd e1 78 76 bd 93 15 89 3b
       -0.08022339 -0.09010126 -0.060173873 0.00418348
000210 97 db f0 bd 4d 34 00 3e ed c2 75 bd f4 a0 86 bc
       -0.117606334 0.12519951 -0.06000035 -0.01643417
000220 44 c6 03 3d 1d 63 b0 3c 43 3c 90 bd 16 ae 6c 3c
       0.032171503 0.021531636 -0.07042744 0.014445802
000230 b0 5d c5 3d a5 9d 3c bd 69 12 ca 3c 76 57 fd bb
       0.0963701 -0.04604878 0.024666982 -0.0077313734
000240 51 67 5c bd cc 7a 40 bd dd f3 50 3d c7 b8 c0 bc
       -0.053809468 -0.04699211 0.051013816 -0.023525609
000250 a9 b1 03 be 14 87 10 bd 2c ac 0d 3e 51 59 bf 3d
       -0.1286074 -0.03528507 0.1383521 0.09343208
000260 23 b8 b7 3d 14 e6 d2 bd 3a 77 0d 3e f3 88 41 3c
       0.08970668 -0.1029779 0.13815013 0.011812436
000270 3d 68 43 3d 3a 9c 45 3d 8b 74 db bc a1 3d 15 bd
       0.04770683 0.048244692 -0.02678897 -0.036435727
000280 86 a6 a1 bd 74 73 b6 bd 69 ba 42 bd 9f d8 1d 3e
       -0.0789309 -0.0890874 -0.047541056 0.15414666
000290 f8 4b 01 3e 17 a0 d0 bd f2 9a f1 bd 3a dd dd bd
       0.12626636 -0.10186785 -0.117971316 -0.10833211
0002a0 d5 b2 f4 bd ef 79 e2 3d 1e 1f 9a bd 4c 92 1e bd
       -0.11948172 0.11058413 -0.075254664 -0.03871374
0002b0 ea 08 2b bd 5a d2 d6 bc c6 1f b4 3d c1 ce a1 bd
       -0.041756548 -0.02622335 0.08795123 -0.07900763
0002c0 04 66 e4 3d dd df d2 3c 1e d6 02 3e 30 9f e9 3d
       0.111522704 0.025741512 0.12776992 0.11407316
0002d0 76 dd 6a bc 18 b1 2d 3d d5 29 03 be b6 f9 2a 3d
       -0.014335027 0.042405218 -0.12808926 0.04174205
0002e0 ac a4 a1 bd 72 2b 00 3d 7d bc 89 3d f7 e7 99 3d
       -0.07892737 0.031291433 0.067254044 0.07514947
0002f0 8e 7e 18 3e 24 44 a8 3d f1 a3 43 bd a0 ed 03 be
       0.14892027 0.08216122 -0.04776377 -0.12883615
000300 3b d4 64 3d 57 68 97 bd 39 f8 ee bd 43 8d 6b 3c
       0.05586646 -0.07392948 -0.116684385 0.014376941
000310 24 61 c4 bd b9 0d a1 3d 17 fd 26 3d 4d 0e e6 bd
       -0.095888406 0.078639455 0.04076871 -0.112331964

lstm.bias_hh_l0 f4 [200]
000000 43 20 3f bd 25 88 41 bc b1 34 0f 3e 23 0d 65 3d
       -0.046661627 -0.011812245 0.13984944 0.05592073
000010 f7 d6 38 3e 9a 17 bf bd c4 7c ff bd 7d 51 9c 3d
       0.18050753 -0.093306735 -0.12474969 0.0763273
000020 9e 52 98 3d 66 4c 23 3e 06 ff 54 3c 37 00 be 3d
       0.07437633 0.15947112 0.013000255 0.09277385
000030 88 0d c6 3c 7d 34 93 bd 05 86 65 bd da 69 3d bd
       0.024176374 -0.07187746 -0.056036014 -0.046243526
000040 fe 2a 28 3a ac c8 da 3d a8 51 44 bd 59 01 19 bc
       0.0006415098 0.106828064 -0.047929436 -0.0093387
000050 0f 0b cb bd d7 64 be bd a6 fa bb 3c c8 b6 ad bd
       -0.09914219 -0.092965774 0.022946667 -0.084821284
000060 ba 78 e8 bd 35 30 0d 3e e6 51 46 bd da 65 9c 3d
       -0.11351152 0.13787921 -0.04841795 0.07636614
000070 21 8d 4c 3d d9 6b 1b 3e d4 8a 8c 3d aa c3 c3 3b
       0.04993928 0.1517786 0.06862417 0.0059742527
000080 4e bd de 3d 99 a4 7f bd aa 78 01 3e 5f 28 d9 3c
       0.10875951 -0.062412832 0.12643686 0.026508508
000090 64 3a 32 3e 6a c5 ae bd e1 92 1a 3e de 84 fc bd
       0.17405087 -0.085337475 0.15095092 -0.1233003
0000a0 0c 2e 5c 3d 67 6d de bd 70 5a 9d bc 14 2c cf bd
       0.05375485 -0.108607106 -0.019208163 -0.10115829
0000b0 ad c2 82 bd 18 16 81 3d d6 bc 92 3d b5 75 14 bc
       -0.06384788 0.06303042 0.07164924 -0.009061267
0000c0 de 1e d8 bc e0 eb 19 3d 9c 59 f0 3c 80 0e f7 3c
       -0.026381906 0.037578464 0.029339604 0.030158281
0000d0 3d b8 9b bc da 10 df 3d ee 18 8b bd e5 73 07 3e
       -0.01900875 0.10891886 -0.06791864 0.13227804
0000e0 6d 7c 2a 3d da 93 01 3e e2 7a a8 3d da 98 d5 bd
       0.041622568 0.12654057 0.08226563 -0.10429545
0000f0 fb f2 aa bd 50 f8 7d 3c 20 8e b7 3d 7b b0 c5 bd
       -0.08347126 0.015501097 0.08962655 -0.096528016
000100 02 2c dc bd f1 52 6d 3c 34 78 4c 3d f3 83 14 3e
       -0.10750581 0.014485107 0.049919322 0.1450346
000110 ee 88 9c bd ab dd d2 3d 39 bd 06 3e b0 68 08 bd
       -0.07643305 0.10296186 0.1315812 -0.033302963
000120 8f 90 d8 bd a5 9b 99 3d 12 b9 62 3d ce 21 a0 bd
       -0.10574447 0.0750039 0.055352278 -0.07818948
000130 72 d0 d7 3c 1f 86 39 bc 77 7a cb 3d fb 3c 0c 3e
       0.026344512 -0.011323481 0.09935468 0.13695137
000140 5b 80 a6 bd 03 de 12 be 51 46 0a 3e f6 c9 0f 3e
       -0.081299506 -0.14342503 0.13503386 0.14041886
000150 26 e5 4f bd d8 4e b7 b8 fe 5e 35 3c e1 dc ef bd
       -0.050755642 -8.740806e-05 0.011070011 -0.11712051
000160 c4 e2 7f bc 3b 66 69 bd 71 b0 a8 bd bb db 89 3b
       -0.01561803 -0.05698226 -0.082367785 0.004207102
000170 9e c9 ee bd 95 ca ad 3d 50 01 9d 3d c0 9c a7 3d
       -0.11659549 0.08485905 0.07666266 0.081841946
000180 ca c3 81 bd bd 04 e7 bb e0 c3 fa bd 93 c2 50 3d
       -0.06336172 -0.0070501254 -0.122443914 0.05096681
000190 f0 40 80 bd 0a f5 a7 3d 76 89 b1 bd 04 72 1b bd
       -0.06262386 0.08201034 -0.08668797 -0.03795053
0001a0 e6 f4 08 be 46 27 d8 3c 8f 9c 76 bc 23 d7 4d 3d
       -0.13374671 0.026385915 -0.015051975 0.050254
0001b0 66 c3 da bd 28 c0 01 bd cc f7 05 3e 91 23 bb bd
       -0.106818005 -0.031677395 0.13082808 -0.09137643
0001c0 c6 14 7a bc 57 38 a3 3d 67 42 d9 3d a3 0f 27 bd
       -0.015263742 0.0796973 0.10608368 -0.040786397
0001d0 36 46 27 bd 85 7a 14 3e 1b da 03 be e7 74 14 bb
       -0.040838443 0.14499862 -0.1287617 -0.0022652687
0001e0 52 4a ba bd de 46 63 3d 0d 20 fa bc 4f ab 98 3d
       -0.09096207 0.055487506 -0.030532861 0.074545495
0001f0 bc 2b 75 bd 82 d9 8d bc 6b 31 01 be 31 8a 3f bd
       -0.05985616 -0.01731563 -0.12616508 -0.04676265
000200 f7 1f f5 bd 4c 09 d0 bc f1 1d 56 bd 57 76 d0 bd
       -0.119689874 -0.025395058 -0.052274648 -0.101788215
000210 f1 d8 b0 bd 52 a6 cb 3d 81 f2 a8 3d fe 69 8c bd
       -0.08635128 0.099438325 0.08249379 -0.06856154
000220 f3 bb 85 3d b1 ea cd bd e9 da 9c bd 7f cf d1 3d
       0.06529989 -0.100545295 -0.07658941 0.10244655
000230 3e de 80 3d 63 c2 8e bd 10 e5 09 3e 3e 9c 4e bc
       0.06292389 -0.0697067 0.13466287 -0.012610493
000240 be 2b 14 3e 38 b0 77 bc a3 ce c4 3c f9 9b 70 3c
       0.14469811 -0.015117697 0.024024313 0.014685624
000250 56 8e ca bd 4f 1b ea 3d d5 30 f0 bd cf f5 15 3e
       -0.0989043 0.1143099 -0.11728064 0.1464455
000260 85 59 f6 bc af 81 61 bd 60 2e 91 bd 21 2f 51 bb
       -0.030071983 -0.055055317 -0.070889235 -0.003191896
000270 75 e3 43 3d ec e4 6d 3d ad 0e 3e 3d df 82 ec bd
       0.04782434 0.058079645 0.046400715 -0.11548399
000280 dd d3 65 bc 9e b1 47 bd f2 42 13 3d 27 5f 1c 3d
       -0.014027563 -0.048753373 0.035952516 0.03817668
000290 06 f5 e5 3d 81 1f 9d 3d 26 4e a4 3d 5b a6 77 bd
       0.11228375 0.076720245 0.08022718 -0.060461383
0002a0 dc c5 a3 bd 3f e9 8d bd 62 6f bb bd ef 94 e2 3d
       -0.07996723 -0.06929254 -0.09152104 0.11063563
0002b0 72 52 d8 3d 91 c0 a4 bd e7 94 e4 3d bf db 86 3d
       0.105626 -0.080445416 0.11161213 0.06584882
0002c0 b7 1b f4 39 16 b2 b9 bd 77 55 f9 bd 50 cb 79 3d
       0.00046559956 -0.0906717 -0.12174504 0.06098491
0002d0 be c2 56 bd 72 dd 87 bd 1b 01 cc 3b c2 0f b5 bd
       -0.052431814 -0.06634034 0.0062257177 -0.08840896
0002e0 93 13 1e 3e 05 16 25 bc f4 00 7d 3d d2 9a e2 bc
       0.15437154 -0.010076051 0.061768487 -0.027661715
0002f0 b8 1d df 3b 4b 18 8a bc 50 6c 23 bd 97 0b 0c 3d
       0.0068089627 -0.016857287 -0.039898217 0.03419074
000300 90 ec 25 3d 5c a0 df 3d e4 46 5e 3d af e2 1c 3d
       0.040508807 0.10919258 0.054266825 0.03830212
000310 7c bb 6c bc a4 bd 5a bd 2a 0a cb 3d 25 57 88 bc
       -0.014448997 -0.05340351 0.09914048 -0.016643116

lstm.weight_ih_l1 f4 [200, 50]
000000 02 67 6f 3d d6 a0 ba bd 55 bf 81 3d 18 1c 8b bc
       0.058447845 -0.09112708 0.06335322 -0.01698117
000010 da 3b 1a be 62 12 e2 3c 28 6f 99 bd 75 3a 05 3c
       -0.15061894 0.027596656 -0.074919045 0.008131613
000020 91 61 ac bd a9 36 1c 3d c2 58 07 bd 46 05 e4 bb
       -0.08417047 0.038138065 -0.03304363 -0.0069586365
000030 dc 54 f9 bc 57 a8 50 bd a3 a7 08 3e 1d 8d 0a 3e
       -0.030435972 -0.05094179 0.13345198 0.13530393
000040 6f 30 90 3d e7 f1 0e bd 0a a2 08 3e 8d d5 83 bc
       0.07040488 -0.034898665 0.13343063 -0.01609304
000050 cb 2b 60 bd 14 00 d2 3d 2d c9 52 bc 1e bb 1f bc
       -0.054729264 0.10253921 -0.012865347 -0.009749202
000060 ac a8 c6 bd 2d b6 fc bc 55 13 fc 3b 66 04 d7 bc
       -0.0970014 -0.030848587 0.0076927342 -0.026247215
000070 67 0d ea bd a8 81 e0 3d 5c cc 93 3d 86 66 94 3c
       -0.114283375 0.1096223 0.07216713 0.018115293
000080 b8 ea a2 3c 12 4b ac bd bf 38 51 3d 23 95 3e 3d
       0.019887313 -0.08412756 0.051079508 0.046528947
000090 7c 57 a3 bd ad 69 44 3d 92 bd 8b bd dc 2a 0b be
       -0.07975671 0.047952343 -0.06823267 -0.13590568
0000a0 e9 36 03 3e ab 1b a2 3d 52 51 0f bd b5 e9 ad bd
       0.12813915 0.079154335 -0.034989662 -0.08491842
0000b0 9f 76 02 be 94 b2 a2 3c 7c 6d 26 bd 3b a3 18 3d
       -0.12740563 0.019860543 -0.040631756 0.037265044
0000c0 49 07 8a bd f3 84 de bd d9 93 03 3e 35 20 cd bd
       -0.06739671 -0.10865202 0.12849368 -0.10015909
0000d0 6c bf 18 be 42 6c 18 be e9 e2 48 3c cf 66 02 3e
       -0.14916772 -0.14885047 0.012261131 0.12734531
0000e0 f2 bf bc 3d ce a4 ac 3a a1 e7 71 3d 9e 4b b9 bd
       0.09216298 0.0013171674 0.05905879 -0.09047626
0000f0 24 e3 aa bc 35 e5 b9 3d 2d c2 61 3d 7b 40 04 3e
       -0.020860262 0.09076921 0.05511682 0.12915222
000100 55 d3 1a 3d 61 11 6d 3d 8d a7 38 be 87 87 c4 3d
       0.0377992 0.057877902 -0.18032666 0.09596162
000110 a5 69 d8 3d 73 88 16 be 1f ab 66 bb aa 55 fd bd
       0.10567025 -0.14700489 -0.003519721 -0.12369855
000120 b8 57 28 bd c1 38 38 bc e6 23 20 3d 85 57 ad 3b
       -0.04109928 -0.011244 0.039096735 0.005289974
000130 2b d0 1a bd 06 65 2a 3d bf 8a f7 3d ef 5d 09 3d
       -0.03779618 0.04160025 0.120870106 0.033536848
000140 17 36 51 bd 67 bc fb bc 77 ff bc 3d 23 58 d7 3d
       -0.051076975 -0.030729486 0.092284136 0.105148576
000150 a7 a2 18 bd b3 b3 f4 3d 43 a4 2b 3d 06 3d dc 3c
       -0.037264492 0.119483374 0.0419047 0.026884567
000160 d3 ce 0a 3d c4 fd af bd a6 fd 5e 3c b8 6d 7b 3d
       0.03388865 -0.08593324 0.013610279 0.061383933
000170 18 1e c9 3d b4 f2 63 3d 6c b7 a2 bd 2b 5e 06 3d
       0.09820193 0.05565138 -0.07945141 0.03280465
000180 ab be 12 3e 89 4b bf bc a1 c6 60 3d 39 e8 be 3d
       0.14330547 -0.023351448 0.054876927 0.09321637
000190 38 7f ab bd ef 68 06 be b9 48 89 3d a8 7a d6 bd
       -0.083738744 -0.13125966 0.06703324 -0.104726136
0001a0 06 ad 67 3d 96 e3 89 3d 97 6a ee bd e2 b7 eb bd
       0.056561492 0.06732862 -0.11641424 -0.11509682
0001b0 a7 63 13 bd 85 3a e5 3d d2 ff 5f bb 98 a3 17 3d
       -0.035983708 0.11192802 -0.003417958 0.03702125
0001c0 21 98 cb 3d 4b 1e 86 3d de 3a ba 3d 91 83 c3 bc
       0.09941126 0.06548747 0.09093259 -0.023866447
0001d0 67 16 50 3c b2 ff ec 3d 41 53 bb 3d 5e d4 39 3d
       0.012700654 0.115722075 0.09146739 0.045368545
0001e0 a6 91 d6 3d f9 58 12 3e 1a b0 0b 3e 87 a5 7a 3d
       0.10476999 0.14291753 0.13641396 0.061193015
0001f0 f1 d1 92 3d a9 15 80 3d 78 da de bd fe 07 b2 bd
       0.071689494 0.06254131 -0.10881513 -0.08692931
000200 09 49 7d 3d 6a d8 d2 bd d0 01 95 3d 83 fa bc 3d
       0.06183723 -0.10295184 0.07275736 0.09227469
000210 65 0a 5e 3d 4c 21 ed bd d2 3f a7 3d 7d 26 c9 3d
       0.05420913 -0.115786165 0.0816647 0.09821794
000220 14 eb 69 3d f8 9e a3 3d 98 92 01 3e 34 30 94 3d
       0.057108954 0.07989305 0.12653577 0.072357565
000230 bd b9 92 bc ab a0 24 3d e7 70 cd 3d 2a eb e2 3d
       -0.017910833 0.040192287 0.100313 0.1108001
000240 3e 91 1e 3d 9b e0 07 3e 7d a2 8a 3c 6b 62 38 3d
       0.038712732 0.13269274 0.016923184 0.045015734
000250 d0 a3 50 bc 88 df 97 3d 57 60 05 be 83 f7 e1 3d
       -0.012734368 0.07415682 -0.13025032 0.11033537
000260 7a b7 15 3d 23 a8 51 bc 91 fa b2 bd 15 a9 db bd
       0.03655193 -0.012796435 -0.08739198 -0.10725609
000270 13 d4 bd 3c ba 1c a9 bd f9 93 06 be b9 b4 a3 3d
       0.023172414 -0.08257432 -0.13142385 0.079934545
000280 03 7f 47 bd 9b 06 d5 3c 46 ee a3 3d 28 19 cd 3d
       -0.048705112 0.026004126 0.080044314 0.10014564
000290 3d 6d fa bc 86 18 ad bd c4 34 db bc b4 57 88 3d
       -0.030569667 -0.08451943 -0.026758559 0.06657353
0002a0 a2 ea 01 3e 2e d6 21 bb ae ff 3d 3e ea 6b 0f be
       0.12687162 -0.0024694311 0.18554565 -0.1400601
0002b0 11 75 2a 3d 79 98 5e 3d d8 5c 51 bd dc 5b 55 3d
       0.04161555 0.054344628 -0.051113933 0.052089557
0002c0 86 d6 09 3e e8 bc 27 3e fc df 4e 3d 48 2a 2e 3d
       0.1346074 0.16380656 0.050506577 0.04252079
0002d0 5c 57 e5 bc a0 e7 dc 3b 92 ba 05 bd 1c 64 9f 3d
       -0.027995758 0.006741479 -0.03264863 0.07782766
0002e0 d3 0e aa bd 95 31 12 3e ae b6 a1 3d 7c 5d 15 3d
       -0.08303609 0.14276727 0.078961715 0.036466107
0002f0 76 04 f7 3d fa d8 e1 3d b3 57 9e 3c bf b5 7e 3d
       0.12061398 0.11027713 0.019328928 0.062185045
000300 49 1e a3 bd f1 ff 9b 3c ce 86 80 3d 92 77 bf bd
       -0.07964761 0.01904294 0.06275712 -0.09348978
000310 91 30 9f 3c 6b c1 15 be da d2 c7 3d 3c 6b 1f 3d
       0.019432338 -0.14624564 0.097570136 0.038920626
000320 eb e9 a5 3d a7 7a 68 3d f3 33 d0 bd 5f d1 28 bd
       0.08101257 0.056757595 -0.101661585 -0.041215297
000330 b9 fd ca bc d2 8b 93 bd e2 54 f5 bc 7e 11 0e 3e
       -0.024779188 -0.07204403 -0.029947702 0.1387386
000340 f8 93 54 bd 14 fb ff 3d 9e 5f a8 3d b6 b8 a4 3d
       -0.051898926 0.12499061 0.082213625 0.08043043
000350 73 c2 52 3e bb 0e a2 3d f0 c4 1e 3d 73 e5 82 3d
       0.20581989 0.07912966 0.038762033 0.0639142
000360 c1 93 d2 3b 56 a2 5b 3d f3 9d 21 3e 5f 03 ee 3d
       0.006426305 0.053621612 0.15782909 0.11621737
000370 00 08 13 3c 0c 7b 57 bc d6 a0 9c 3c 75 9d cb 3c
       0.008974075 -0.013151895 0.019119661 0.024855355
000380 3d c5 d5 bb ce 8a 3b 3d e5 97 ff b9 76 c0 47 bc
       -0.006523757 0.04578667 -0.0004875056 -0.012191882
000390 a2 42 98 3d 85 29 58 bd ef 59 42 bd 45 99 b7 bc
       0.07434584 -0.05277397 -0.04744905 -0.022411952
0003a0 68 b8 e4 3c cc d6 76 3d 3d 37 5f 3d 8b 15 d5 3c
       0.027919963 0.06026344 0.05449604 0.026011249
0003b0 3d 07 3d be 1b 6e 81 bd dc 46 f2 bd f5 dc 7a 3d
       -0.18459792 -0.06319829 -0.118299216 0.061245877
0003c0 73 f3 a9 bb 75 31 38 3d 24 c4 f7 bd 2b 98 c6 bd
       -0.005186492 0.04496904 -0.12097958 -0.096969925
0003d0 9b 6b f1 3d 8e b4 aa 3d 3d c0 82 bd 28 dd b5 bc
       0.11788102 0.08335219 -0.06384323 -0.022200182
0003e0 12 67 f0 3d f0 b1 2e 3c 7e 85 94 3d 96 18 04 bd
       0.11738409 0.010662541 0.07252024 -0.03225001
0003f0 27 33 fe 3d 19 65 9d 3d b2 36 45 3d d0 3f b7 bb
       0.124121 0.076852985 0.048147865 -0.005592324

lstm.weight_hh_l1 f4 [200, 50]
000000 3d 7b 6d 3d b8 58 58 bd 19 5e 2e bd 5e 1a 51 3d
       0.057978857 -0.052818984 -0.042570207 0.051050536
000010 8d e0 f0 bc fe bf 6b bd ba 8e 56 bb d1 3d a0 bd
       -0.02940395 -0.057556145 -0.003273888 -0.078242905
000020 91 cf 11 3e 4a 4d 7b bd 1c 6c 18 3d 7c 39 db bb
       0.14239337 -0.061353005 0.037212476 -0.0066902023
000030 6a a2 ac 3c f2 73 28 3d 4a f1 0f be 56 9d 8a bd
       0.021073539 0.0411262 -0.14056888 -0.06768291
000040 77 eb b8 bd 85 4d 66 bd ec cb c7 3d 65 5c e6 bb
       -0.09029286 -0.056226272 0.09755692 -0.0070300573
000050 ce 85 03 3e 1e 54 b4 bd a4 25 c6 bd 45 60 06 be
       0.12844011 -0.088051066 -0.09675148 -0.13122661
000060 65 0a 26 3d b1 a0 c7 3c 79 9b a4 3d ce 0d 86 bd
       0.040537257 0.024368616 0.080374666 -0.06545602
000070 d4 ec d5 bd 62 40 e6 bd 75 b7 46 3b 6f 39 c3 bd
       -0.10445562 -0.11242749 0.0030321751 -0.09532439
000080 41 1c c5 bb 41 6f 0c 3d 30 9c bf bd a0 d9 ae bd
       -0.006015331 0.034285787 -0.09355962 -0.085376024
000090 92 da 26 bd 18 89 05 3e 65 ec bd bc 74 9d 56 bd
       -0.04073579 0.13040578 -0.02318401 -0.052396253
0000a0 bc 0d bc bd 32 a7 f3 3d 82 fb 9a 3d 39 52 a9 bd
       -0.09182307 0.11897124 0.075675026 -0.08267636
0000b0 3e e0 68 3d 00 99 14 be 9d 73 3a bd 3e 85 2e 3d
       0.05685448 -0.1451149 -0.045520414 0.04260754
0000c0 33 df 2f 3d d6 6f ac 3d 38 32 91 bd 99 ac 0e 3e
       0.04293747 0.084197685 -0.070896566 0.13933028
0000d0 c4 ed eb bd 98 36 57 3d a7 fa cd 3d 0c 76 15 3e
       -0.115199596 0.0525423 0.10057574 0.14595813
0000e0 1d 5e 99 3d 2b 29 60 3c 8a 31 12 bc c2 f7 b5 bd
       0.07488654 0.01368169 -0.008922944 -0.08885147
0000f0 bd 48 02 be a9 e7 e6 3d ac c1 f0 3d 14 75 86 bd
       -0.1272306 0.112746544 0.1175569 -0.065653
000100 40 aa 0f 3d 1c 55 46 3d 9e 3f 0d 3e 9c f0 6a bd
       0.035074472 0.04842101 0.137938 -0.05735837
000110 e5 20 0d be 74 79 e1 bd 2b 8f 04 be bd a6 8f 3d
       -0.1378208 -0.110094935 -0.12945239 0.07014225
000120 55 33 92 bc de a6 8e bc a4 d7 b6 3d da 8b f5 bd
       -0.017846743 -0.017413553 0.08927849 -0.11989565
000130 68 7f 16 3d 1c f8 cd 3d 13 a1 0c be ca a1 50 bd
       0.036742598 0.10057089 -0.1373332 -0.050935544
000140 98 a6 00 3e 50 a5 bb bc 4a d5 f8 bd 31 41 be bc
       0.1256355 -0.022905976 -0.12150057 -0.023224445
000150 71 35 de bd 59 bc e4 bd b2 6d a2 bd d0 5f 91 3d
       -0.10850037 -0.11168737 -0.07931079 0.07098353
000160 43 9d fb 3d 9d 2c 92 3d 0d d6 5f 3d a6 cd 1d 3c
       0.12285855 0.071374156 0.054647494 0.00963155
000170 7b 2f 21 bc 23 4a 4c bd e5 8f 26 bc 09 4f 08 be
       -0.00983798 -0.04987539 -0.010166143 -0.133114
000180 47 ef 05 bd 27 ca 5b bd 20 c5 f6 bc 79 0f 81 bc
       -0.032698896 -0.053659584 -0.030123293 -0.015754448
000190 d3 72 04 3e 59 cc b6 3c 08 6e 08 bc ec 56 00 be
       0.12934427 0.022314237 -0.008327015 -0.12533158
0001a0 4c ec d5 bd 5c 73 9e 3d d4 8c b1 bc 27 ff 89 bd
       -0.10445461 0.07736847 -0.021673597 -0.067381196
0001b0 c7 bc 23 3e 58 d0 8c 3d f6 7a ea bd 32 54 11 be
       0.15989982 0.06875676 -0.11449234 -0.14192274
0001c0 66 57 6f bd aa 64 c9 bd f4 bf bb 3b 14 e0 19 3e
       -0.05843296 -0.09833653 0.0057296697 0.15026885
0001d0 d2 ba 68 bd 77 8e 83 bc e9 dc dd bd 68 d4 7f bd
       -0.05681879 -0.016059143 -0.10833151 -0.062458426
0001e0 b3 44 06 3e c0 c8 03 3e 37 60 a4 3d 46 21 03 3d
       0.13112144 0.12869549 0.08026164 0.032014154
0001f0 a9 ec 6a bb f8 3a c6 3d 21 04 b7 3d 69 9b 07 bd
       -0.0035846627 0.09679216 0.089363344 -0.033107195
000200 2c a7 5e bc fd 1d b6 3d 81 ef b3 bd 9c f3 32 bd
       -0.013589662 0.088924386 -0.08785916 -0.043689355
000210 27 3e 59 bd ac cf c7 3d e5 34 7a bd 37 7e c8 3d
       -0.05303779 0.09756407 -0.0610856 0.097896986
000220 a2 ae 91 bd ed 9c 00 3e af f8 05 be 40 83 89 bd
       -0.07113387 0.12559862 -0.13083147 -0.06714487
000230 33 01 d5 3d 71 22 b0 3d 16 a6 06 3e c6 be ba bd
       0.10400619 0.08600319 0.13149294 -0.091184184
000240 21 0d cb bd ce 7c c6 bd 79 2d 2a be 48 70 d7 3c
       -0.099146135 -0.09691773 -0.16618909 0.026298657
000250 a4 ef 02 3e 79 b2 04 be 80 4f 21 be db 88 87 bd
       0.12786728 -0.12958707 -0.15752983 -0.066179
000260 c0 3e e0 bb 35 d6 0d 3e dd 10 ae 3d 13 ae 4d bc
       -0.006843418 0.13851245 0.0849931 -0.01255371
000270 64 98 3e bd d2 6b 09 3e ad 24 ef 3d 89 85 fc bc
       -0.04653205 0.13420036 0.11676917 -0.030825393
000280 01 6a f6 bb f0 69 07 be db 1a 39 3d cc 52 81 3d
       -0.007519961 -0.13224006 0.045191627 0.063146204
000290 53 0f 2f 3c 06 f1 07 3e d8 f0 d6 3d d9 83 68 3d
       0.010684806 0.13275537 0.10495156 0.056766365
0002a0 77 50 0c bd 64 45 e7 bd 9c b5 3d 3d 29 b9 9f 3d
       -0.034256425 -0.11292532 0.046315774 0.07798988
0002b0 09 a4 2d 3d ab 1c e2 3d 1b f1 a0 bb 99 a1 e7 bd
       0.042392764 0.11040624 -0.0049115545 -0.11310119
0002c0 34 a7 57 3c 98 a9 87 3c 60 2a 8c 3c 4b 20 e2 3d
       0.013162423 0.01656036 0.01711005 0.11041316
0002d0 f6 20 d4 3c 02 b4 15 be 86 5a 57 bc 61 16 25 bc
       0.025894623 -0.14619449 -0.013144141 -0.010076136
0002e0 c3 ab d6 3c eb c6 c0 3c 3d e2 04 3e e1 17 86 bd
       0.02620495 0.023532351 0.12976928 -0.06547523
0002f0 7c cd 37 3d c9 6f bb bd 2b 43 9b 3d 0d f6 8d bd
       0.0448737 -0.09152181 0.07581171 -0.06931696
000300 41 5e 70 bd f3 35 e8 3d 1b 49 5c 3c ee c5 00 bd
       -0.058683638 0.11338415 0.013445164 -0.03143876
000310 f3 b1 09 3e d9 44 f5 3d 51 eb b9 bd 3f 51 d8 bc
       0.13446788 0.11976022 -0.09078086 -0.026405929
000320 d6 07 0c be 0c c6 11 3d ee f3 db bc 13 67 40 bd
       -0.13674864 0.035589263 -0.026849713 -0.0469733
000330 ec 83 82 bd e8 18 f7 bb 08 a4 18 bc 6d 44 04 be
       -0.06372818 -0.007540811 -0.009316452 -0.12916727
000340 08 79 a1 bd cd 04 7a bc 0e b3 e5 3d 75 75 f2 bd
       -0.07884413 -0.015259934 0.112157926 -0.118388094
000350 53 f2 af bd 58 d9 8d bc ec 09 20 3d e0 d2 d9 bc
       -0.085911416 -0.017315552 0.039071962 -0.02658981
000360 ae 9a 92 bd 72 9a 05 be 72 66 ed 3d db 1a ef bd
       -0.07158409 -0.13047197 0.115918055 -0.11675044
000370 5e 6b 09 be d8 da 34 bc b1 1d c4 3d c8 83 fa bd
       -0.13419864 -0.011038505 0.09575976 -0.122321665
000380 eb 01 f6 3d e4 52 a2 bd 7a 71 a6 bd 5e 53 a3 bd
       0.120120846 -0.079259664 -0.08127113 -0.079748854
000390 1b df 62 3c 1f d2 06 3e 00 71 c8 bc 0a 42 75 3c
       0.013847138 0.13166092 -0.024467945 0.014969358
0003a0 07 c5 81 3c 17 af aa bc af 10 bd bd 9b 96 c1 3b
       0.01584102 -0.020835442 -0.09231698 0.005907846
0003b0 e4 41 e8 bd 6c 2f e7 3d 21 04 bf 3d ee 7e 5d 3d
       -0.11340693 0.11288342 0.093269594 0.054076128
0003c0 ec f2 02 3e 9d 31 0d 3e 22 98 9c 3d ce c7 57 bd
       0.1278798 0.13788457 0.076462045 -0.052680783
0003d0 0e 55 ca bd 43 b1 fd bc d3 1a c2 3c 2b 5a b5 bd
       -0.09879504 -0.030968314 0.023694431 -0.08855089
0003e0 92 ac d3 bb 87 43 5f bd 9b 0a f7 3d fa 14 04 be
       -0.006459781 -0.05450776 0.1206257 -0.12898627
0003f0 2a 90 90 bd dc b1 09 be 20 39 1f 3e d7 2d bd 3d
       -0.07058747 -0.13446754 0.15549135 0.09237259

lstm.bias_ih_l1 f4 [200]
000000 ad 1e 0b 3e 11 fb a9 bd 03 e5 75 bd bc c0 e0 3d
       0.1358592 -0.0829984 -0.060032856 0.10974261
000010 2a a8 ff bd b6 e3 ad bd 21 90 01 3e cc 97 c3 bb
       -0.124832466 -0.08490698 0.12652637 -0.0059690233
000020 da 9c 85 3d c2 0b 0d be 88 e1 99 3c a7 8f 90 bd
       0.06524058 -0.13774016 0.0187843 -0.070586495
000030 3f 51 cb 3c 16 75 fa bd ed 38 19 3e 23 76 58 3c
       0.024819015 -0.122293636 0.14963122 0.01321176
000040 3e e3 01 3d 7f ca f4 3d f6 ec 36 3d be e2 f0 3d
       0.031710856 0.119526856 0.044659577 0.11761998
000050 a6 be 32 3b 2e 50 ed bd 03 e1 ab 3b f3 64 08 3e
       0.002727428 -0.11587559 0.0052453293 0.13319759
000060 06 6b d2 3c 51 7b d8 3d 3b ca af 3c 09 d8 19 3d
       0.025685798 0.10570396 0.021458736 0.037559543
000070 03 c3 b4 3d 00 3c dd bd 4f f6 c4 bd b1 10 3c 3d
       0.08826258 -0.1080246 -0.09617292 0.045914356
000080 be 1e a0 bd 36 20 80 bd eb 6a 04 3d 07 ea 6c 3d
       -0.078183636 -0.06256144 0.032328527 0.057840373
000090 a2 eb 01 3d 82 cf 03 be ca d4 98 bd 54 42 2a bd
       0.031718858 -0.12872127 -0.07462461 -0.04156716
0000a0 96 10 11 3e fe c8 d8 3d 4e d7 e6 3c 30 6e 3e bc
       0.14166483 0.10585211 0.028178837 -0.01162295
0000b0 e6 f3 60 bd c9 ff 33 3d 48 77 1a bd aa 0e d3 bc
       -0.0549201 0.043945108 -0.03771141 -0.025763828
0000c0 0a 33 0e bc ba 7f d0 3d 23 7a 02 3e a6 32 d0 3d
       -0.008679161 0.10180612 0.12741904 0.101659104
0000d0 2b 71 57 3d fc 51 76 3d d6 23 8b bd fa 8d d4 3d
       0.05259816 0.06013678 -0.067939445 0.103786424
0000e0 8a 01 1d be 5c a4 27 bd 0d aa 05 3e fe 10 a0 3d
       -0.15332618 -0.04092823 0.1305315 0.07815741
0000f0 c6 cc 09 3e 9a 13 fd bd 2b 14 bc 3d 5a 2d 26 3d
       0.13457021 -0.12357254 0.09183534 0.040570594
000100 7a be c5 bd 72 c6 8c 3d e1 12 ad bd 8d 96 8e 3c
       -0.09655471 0.06873788 -0.084508665 0.017405773
000110 4e 2a c3 3d 14 25 a0 bc b7 aa 18 3a 52 68 76 bd
       0.09529553 -0.01954893 0.00058237783 -0.06015808
000120 53 30 c9 bd f7 74 2f 3d e0 d0 05 be f3 79 4e bd
       -0.0982367 0.042836156 -0.1306796 -0.05040927
000130 eb 4b 1a be fa 16 8b 3a 42 4d d9 3d dc b5 3d 3b
       -0.15068023 0.0010611706 0.10610439 0.0028947508
000140 40 04 a7 bd 07 74 59 bd bc 04 72 3d 66 3f bc 3b
       -0.081551075 -0.053089168 0.059086546 0.0057448624
000150 55 2b c2 3d 06 ca d3 bc 07 f8 8e 3c a4 61 9c 3d
       0.09480921 -0.025853168 0.017452253 0.07635811
000160 6c 89 08 be 29 91 d7 3d 8f 7c be 3c 75 a5 d0 bd
       -0.13333672 0.10525734 0.023252754 -0.101878084
000170 82 f0 f7 3d 71 2a 82 bd 83 3e 00 bd 5c b9 fc bd
       0.1210642 -0.06355751 -0.031309616 -0.12340042
000180 51 fa eb 3d 10 53 e2 bc 4e d1 8a bd 24 48 a5 bd
       0.115223534 -0.027627498 -0.06778203 -0.080704
000190 ab 2a b0 3d a8 64 d6 3d e6 60 17 bb d8 d8 fd bd
       0.08601888 0.104684174 -0.0023098527 -0.12394875
0001a0 4b 3c cf bc aa af 8f 3d 82 14 07 3d e4 d5 f1 3d
       -0.025297305 0.07015927 0.032978542 0.118083745
0001b0 6b 97 86 bd 79 cb 92 bd 5e 92 c7 bd 7f c0 19 3d
       -0.065718494 -0.071677156 -0.09744714 0.037537094
0001c0 4c 2f eb 3d 65 41 ab bc b2 e4 e8 3c 69 a3 f0 3d
       0.114836305 -0.020905206 0.028429363 0.11749918
0001d0 72 54 83 bc 96 f8 de bd 5e dc cf bc 9d 22 c6 bd
       -0.016031478 -0.10887258 -0.025373634 -0.09674571
0001e0 89 4e 21 3c 1c 23 2a bc b4 bc c7 bd b4 c6 07 be
       0.009845384 -0.010384347 -0.09752789 -0.13259393
0001f0 91 91 f3 3b d8 d0 e0 3d ae ff cf bc b5 a1 98 3a
       0.0074331244 0.10977334 -0.025390472 0.0011644872
000200 65 08 a9 3c 00 dd 06 be f7 7d e6 3d 62 fe 7c 3c
       0.020633886 -0.13170242 0.11254495 0.015441509
000210 ee 50 a7 bd 7f 64 f2 bd c9 fa 6e bc e2 95 4d bd
       -0.08169733 -0.11835574 -0.014586159 -0.050191768
000220 bb 4c f6 bd 98 58 5e bd ae 67 3b bb f5 da 94 bd
       -0.12026354 -0.05428371 -0.0028595733 -0.07268325
000230 f5 32 0b 3e dc 06 c9 3c 02 01 f6 bd 47 16 90 3c
       0.13593657 0.024539404 -0.12011911 0.017588748
000240 dc fd e7 3d 95 f0 63 3d 48 f3 55 bb 2d 16 81 3d
       0.11327717 0.05564936 -0.0032646228 0.06303058
000250 24 ca b0 bd 05 a5 e6 3c 9d f3 d6 bc eb 67 8a 3d
       -0.08632305 0.02815486 -0.02623921 0.06758102
000260 5f 00 dc bd fa 5e 27 bd 6c 24 47 bd d3 12 bb 3c
       -0.10742258 -0.04086206 -0.04861872 0.022836125
000270 d4 7c 01 3e 44 55 c7 bd 17 c5 f9 3c 2b 89 14 bd
       0.12645274 -0.0973306 0.030489488 -0.036263626
000280 ff a4 b3 3c 92 0d 98 3d 56 ec eb bd 8a ff fc bc
       0.021929262 0.07424463 -0.11519687 -0.03088357
000290 bf 80 59 3d 57 89 f0 3d ee 5b 07 be cf f5 bc 3d
       0.053101297 0.117449455 -0.13218662 0.09226572
0002a0 34 55 c2 3d ed b7 91 bd e4 e8 07 3b a6 c9 8b 3d
       0.094889075 -0.07115159 0.002073818 0.06825571
0002b0 52 d5 a4 bb 52 d8 e6 bd 11 52 0b 3d e7 75 08 be
       -0.0050303126 -0.112717286 0.03401381 -0.13326226
0002c0 7f 4f 99 bd eb 78 05 3e 6c 1f 03 bd b6 d6 35 bc
       -0.07485866 0.13034408 -0.032012388 -0.011098554
0002d0 be 05 79 bd a6 97 f2 3d 8a 43 2f bd b1 27 b6 bc
       -0.06079649 0.11845331 -0.04278902 -0.022235723
0002e0 2a 08 17 3e 8e df dd bd db 9d c1 bd ee 47 b0 bd
       0.14749208 -0.10833655 -0.09453937 -0.086074695
0002f0 a7 3c 10 bd 2e 6d 42 bc ce 43 0a 3d 41 ff d6 3d
       -0.035214093 -0.011866851 0.03375607 0.104979046
000300 3a ea 91 3d 4b 47 66 bc 5b 78 3a bd ab 8a 71 bd
       0.07124753 -0.0140550835 -0.045524936 -0.058970135
000310 ff 4a 12 3e 0c ef d9 3d 75 cd d5 bb 68 34 91 bd
       0.14286421 0.10641298 -0.0065247365 -0.07090074

lstm.bias_hh_l1 f4 [200]
000000 83 bf 00 be 8d 41 f6 bd 8f 04 a6 bc 36 95 7a 3d
       -0.12573056 -0.120242216 -0.020265846 0.061177455
000010 9d 72 a7 bb 11 cc ad 3c db 43 09 be be ee ac 3d
       -0.0051100985 0.02121547 -0.13404791 0.08443974
000020 86 79 99 bd 9a 2b dd bd 26 14 a1 bd 0e 10 74 3d
       -0.07493882 -0.10799332 -0.07865171 0.059585623
000030 9f 45 89 bd e5 00 d6 bd 81 f1 f8 3d 1c f3 d7 3d
       -0.06702732 -0.10449389 0.12155438 0.10544416
000040 f5 ae 02 be f9 9e 80 bd 73 da e8 3d bc c6 78 3c
       -0.12762053 -0.06280322 0.11369791 0.015184101
000050 b9 7c 0f 3d 85 cb 3d bd c3 93 25 3d e2 d9 ca 3c
       0.035031054 -0.04633667 0.04042412 0.024762098
000060 b0 06 0e b9 45 7a 0c bd c7 26 ad 3d bf d5 04 be
       -0.00013544667 -0.034296293 0.08454662 -0.12972163
000070 51 03 71 bd c7 ba 13 3d 2b 31 03 3d 33 50 d6 bb
       -0.058841053 0.036066797 0.032029312 -0.006540322
000080 11 be a9 bd b7 9a 00 be 70 b1 15 bd 04 c9 8e bd
       -0.082882054 -0.12559019 -0.03654617 -0.069719344
000090 b8 fd 51 bc 9c 38 d4 3d fe f1 84 bd 19 f0 09 bd
       -0.012816839 0.1036236 -0.06491469 -0.03367624
0000a0 7a 9a fe 3d fc 6f 24 bd 85 43 ca bd 7b 4b b4 bd
       0.12431808 -0.04014586 -0.098761596 -0.08803459
0000b0 51 4d 02 3d c1 07 b4 3c 45 d3 fc bd 01 ad ed bb
       0.031812016 0.021976354 -0.12344984 -0.0072532897
0000c0 4e f9 3f 3c 32 d0 4c 3d 07 a9 01 3d 0d 93 eb bd
       0.011717154 0.050003238 0.031655338 -0.11502657
0000d0 26 72 fc bd c5 3d ec 3c 79 17 02 3d e0 eb 1c be
       -0.123264596 0.028838048 0.031760667 -0.15324354
0000e0 37 88 d9 3d d3 f9 ec 3d 8b c9 4a bd ec 7f 83 bc
       0.10621684 0.11571088 -0.049508613 -0.016052209
0000f0 0c 1f 43 bd 01 39 08 3e 50 8b 79 bc 9e 33 7a bd
       -0.04763703 0.13302995 -0.015230969 -0.061084382
000100 f6 28 e5 3b 29 f0 71 3c 65 a9 ae bd 75 af d2 3d
       0.0069934083 0.014766731 -0.08528403 0.10287372
000110 f8 f7 9b bd f9 90 16 3e ff 76 99 bc a9 1d 9b bc
       -0.07615656 0.1470374 -0.0187335 -0.018935042
000120 86 ca c5 bd 3b db ab bd 8b 4e 80 bd 37 72 a4 3c
       -0.09657769 -0.08391424 -0.06264981 0.020073993
000130 27 dd 1c be 7f a3 51 bd 22 f9 32 3d ce a1 ff 3d
       -0.15318738 -0.051181313 0.043694623 0.12482034
000140 a2 86 17 3e 9b c0 61 3c d3 95 35 bd d7 80 8e bd
       0.14797452 0.013778831 -0.044332337 -0.06958168
000150 3f 7c a0 3d 34 8d a4 3c e6 42 d7 3d 60 a5 88 bd
       0.07836198 0.020086862 0.10510807 -0.06672168
000160 c7 5f 07 bd ae 1d e3 3c 49 1c 4c bd e5 7b e1 3d
       -0.033050325 0.027724113 -0.049831662 0.11009959
000170 4c 0b 46 3d 69 3b 17 3c f5 85 35 bd f1 e7 05 be
       0.048350617 0.009230473 -0.044317205 -0.1307676
000180 9d df 81 bc be 34 ed 3d b6 24 79 3d 40 b0 49 3d
       -0.015853697 0.115823254 0.060826026 0.04924035
000190 4c c6 ca bd 75 b5 c0 bd 0f 86 b3 3d 61 19 04 3e
       -0.099011034 -0.0940961 0.08765804 0.12900306
0001a0 96 ba fb 3d 9d 48 14 3d 54 a2 11 3d f9 8e 8e 3d
       0.12291448 0.036202062 0.0355552 0.069608636
0001b0 05 1e 06 be 75 42 d4 bc e4 0e 88 bc 47 68 e5 3d
       -0.13097389 -0.025910595 -0.016608663 0.1120153
0001c0 a8 c7 8d 3d 6c d1 b2 bd 8e b6 01 3d bc fe 9b bd
       0.06922847 -0.0873135 0.03166824 -0.07616946
0001d0 6d 40 8e 3c 8e f6 94 3d 90 7a 19 bc 09 94 7d 3c
       0.017364705 0.07273589 -0.0093676 0.015477189
0001e0 dc a8 ce 3c 76 70 9d 3d a7 d6 b1 bd 5e 1d 50 3d
       0.025227003 0.07687466 -0.0868352 0.050809257
0001f0 56 04 54 b9 07 3d a2 3d a8 b0 80 bc ae 1f 90 3d
       -0.00020219511 0.07921796 -0.015709236 0.070372924
000200 22 73 7c bc 20 be f8 bd cf fa 37 3d f0 be b4 bd
       -0.015408309 -0.121456385 0.044916924 -0.08825481
000210 63 da 6b 3d f6 c8 24 3d 33 b2 a8 3d d4 5e 51 bd
       0.057581317 0.040230714 0.08237114 -0.051115826
000220 8b b5 11 bd 52 6c a9 bd ba fc 95 bd 9c df 0d be
       -0.035573523 -0.082726136 -0.073235944 -0.13854831
000230 91 3c 7a bd 4c 9b 12 be 43 33 b7 bd 10 90 5f bd
       -0.061092917 -0.14317054 -0.08945324 -0.054580748
000240 e4 cd f4 bd c0 06 fd 3d 73 9f ac bc 0c 7a f9 3d
       -0.11953333 0.12354803 -0.021072125 0.12181482
000250 ce f7 0b 3d e1 c3 37 bd 4c 69 a8 3d 42 a7 ca 3d
       0.03417187 -0.04486454 0.08223209 0.09895183
000260 77 e7 a1 bc 43 c7 6a bd 5a 43 4f 3d 3d 7d db 3d
       -0.019763691 -0.057318937 0.05060134 0.10717247
000270 50 b5 1c be c7 34 fb 3d 93 bf 45 3c 06 4a b2 3d
       -0.1530354 0.12265926 0.012069601 0.08705525
000280 02 7b fe bd aa 51 00 be 82 b0 c8 3d 91 31 ca 3d
       -0.12425806 -0.12531152 0.09799291 0.09872735
000290 be 42 f2 bd 82 a5 e9 bd f6 36 9d 3d 4e 3d 72 3d
       -0.11829136 -0.11408521 0.076764986 0.059140496
0002a0 e0 ae 09 3d f5 6a 83 3d 27 f9 11 3e 26 9c fe bc
       0.03361404 0.06416885 0.142552 -0.031080317
0002b0 48 19 c0 bc f1 5f d0 bd c2 72 22 3c 14 76 f6 bd
       -0.023449555 -0.10174549 0.009915056 -0.1203424
0002c0 2b df bf bd e1 2e f9 3c 12 19 f5 3d 1e 37 36 bd
       -0.09368738 0.030417861 0.119676724 -0.044486158
0002d0 6b 0d 00 3e 83 f5 08 bd 93 5e d4 3d 69 10 92 bc
       0.12505119 -0.033437263 0.10369601 -0.01783009
0002e0 de c2 cc 3d 81 0c 0e 3e 92 37 96 3d 47 6f 14 3e
       0.099981055 0.13871957 0.07334818 0.14495574
0002f0 2b d8 61 bd 80 44 dc 3c c6 91 ba bd 16 05 54 bc
       -0.055137794 0.026888132 -0.09109835 -0.012940666
000300 92 c2 8e 3d 25 12 0e be 3e 33 8f bd 2b 09 b9 bd
       0.06970705 -0.13874109 -0.069921955 -0.09034952
000310 dd b5 e6 bc a4 cc d7 bd 8a ff a3 ba 70 7c cc 3d
       -0.028162891 -0.10537079 -0.001251207 0.09984672

fc.weight f4 [1, 50]
000000 8a d5 bf ba c9 bb bf 3c 5a 5d 03 bd b1 3b 87 3d
       -0.0014635783 0.023404973 -0.03207145 0.06603182
000010 46 46 c3 3d 04 f1 5f bd f1 21 2e bd d9 ca 82 3d
       0.09534888 -0.05467321 -0.042512838 0.06386346
000020 60 a9 93 bd c6 09 5a 3c ab cd 47 bd ec 1c b4 3d
       -0.0721004 0.013307994 -0.048780125 0.08794579
000030 84 f2 b1 3d 13 f7 2f bc 7a 29 d8 3d 01 93 c4 bd
       0.08688834 -0.010740059 0.10554786 -0.09598351
000040 9a 19 19 bd f4 6e c8 3c c0 9b e4 3d 29 64 34 bd
       -0.03737793 0.02446697 0.111625195 -0.044040833
000050 16 c1 6d bd a1 8d 0e 3e 9e 89 83 bd 5c e0 af bd
       -0.05804547 0.13921215 -0.06422733 -0.08587715
000060 e1 c5 71 3d 50 49 60 bd 8b 17 38 3d d2 62 66 3d
       0.059026603 -0.054757416 0.044944327 0.056246586
000070 52 55 21 3d 36 71 85 bb f1 64 d8 3d f4 a2 47 bd
       0.03938801 -0.0040723337 0.10566128 -0.04873939
000080 c8 ea a4 bd fa 3c d9 3d 54 39 cc 3d 54 97 e5 bd
       -0.080525935 0.106073335 0.09971872 -0.11210504
000090 d5 6b fa 3d 03 3b 1c be 6f d2 7f 3d f3 96 9c bd
       0.122275986 -0.15256886 0.062456544 -0.07645979
0000a0 e5 e0 fb 3d ea bb 12 bd e6 d3 05 be e9 5d f1 3d
       0.122987546 -0.03582374 -0.13069114 0.1178549
0000b0 a4 dc 47 3d 95 e3 e9 3d ba c4 71 3d ff b4 fb bd
       0.048794404 0.11420361 0.059025504 -0.12290382
0000c0 f6 68 6f bd 0c 94 54 3d
       -0.058449708 0.051899
