data/models/AAPL_20251216_174435.pt (torch, 131733 bytes, 9 tensors)

lstm.weight_ih_l0 f4 [200, 4]
0	0x3d989ad6	0.074514076
1	0xbdadea1f	-0.08491921
2	0x3bc5e253	0.006038943
3	0x3db1ed8f	0.08687889
4	0xbddd1675	-0.10795299
5	0xbc15aaaf	-0.009134932
6	0x3c7572d3	0.0149809895
7	0x3de44ef1	0.111478694
8	0xbd73a6bc	-0.059485182
9	0x3dd2d406	0.102943465
10	0xbdbfc489	-0.09363658
11	0xbd445143	-0.04792906
12	0xbd5c0fb7	-0.053725924
13	0xbc7dcde1	-0.01549098
14	0x3df19daf	0.11797654
15	0x3d5a3c05	0.053279895
16	0x3cbfbc2f	0.023405163
17	0xbde13be6	-0.10997753
18	0xbd3f6838	-0.04673025
19	0xbd57366c	-0.052542135
20	0xbb435325	-0.0029804197
21	0xbd395106	-0.045243286
22	0xbe0ef084	-0.13958937
23	0x3c1fb4a5	0.009747659
24	0xbd88d18e	-0.066805944
25	0xbc14f6dd	-0.00909206
26	0xbd3bc683	-0.045843612
27	0xbd2ed161	-0.042680148
28	0x3dfdb985	0.12388901
29	0x3c35797c	0.011076327
30	0xbd962b6d	-0.073325016
31	0x3d7acf41	0.06123281
32	0xbda7fabf	-0.08202123
33	0xbd65ef34	-0.056136325
34	0xbd36f095	-0.04466303
35	0x3d760350	0.060061753
36	0xbcc595e4	-0.024119325
37	0xbd2df02e	-0.04246538
38	0x3d324ad2	0.043528385
39	0x3e0321c9	0.12805857
40	0x3dbe30ed	0.092866756
41	0x3d82fb93	0.0639564
42	0xbd13d023	-0.036087167
43	0xbdd0b258	-0.10190266
44	0x3c932972	0.017964099
45	0x3c1edfb4	0.00969689
46	0x3d65759a	0.056020357
47	0x3e0a4a33	0.13504867
48	0xbda9f4e8	-0.08298665
49	0x3de1bdb3	0.110225104
50	0x3dc2c7fb	0.095107995
51	0x3c8e5116	0.01737265
52	0x3d014016	0.031555258
53	0xbd15ca1f	-0.03656971
54	0x3dd44267	0.10364228
55	0xbd922d46	-0.071375415
56	0xbd4abff4	-0.049499467
57	0x3db9dcdf	0.09075331
58	0xbd14beb7	-0.036314692
59	0x3c88d5ab	0.016703447
60	0xbdebe1ac	-0.11517653
61	0xbd703774	-0.058646634
62	0x3d8a97e4	0.06767252
63	0x3d1a398c	0.037652537
64	0x3de468e0	0.11152816
65	0x3da98925	0.08278111
66	0xbd43cc8c	-0.047802493
67	0xbd8b7864	-0.06810072
68	0xbdbee1ad	-0.09320388
69	0x3da75a59	0.08171529
70	0xbdfc56de	-0.12321256
71	0xbdf0987d	-0.11747835
72	0x3dc680e6	0.09692554
73	0xbdc3a6f0	-0.09553325
74	0xbd920cb7	-0.071313314
75	0xbde4cbf2	-0.11171712
76	0xbdd36711	-0.10322393
77	0xbd93e9d8	-0.072223365
78	0x3dd23875	0.102646746
79	0x3e094012	0.13403347
80	0x3d8151aa	0.06314404
81	0x3c418a52	0.011812763
82	0xbb01086d	-0.001968886
83	0x3e1ac3e8	0.15113795
84	0xbd44f60d	-0.048086215
85	0xbda44b22	-0.08022143
86	0x3d1141db	0.035463195
87	0xbd86c1a4	-0.06579903
88	0x3daeb1b1	0.08529986
89	0x3da7ab5f	0.08186983
90	0xbd5154fb	-0.051106434
91	0x3cff7b53	0.031186735
92	0xbd61ac63	-0.05509604
93	0x3d1ec204	0.038759246
94	0x3d7b9c5a	0.061428405
95	0x3d9b867f	0.075940125
96	0xbd967108	-0.07345778
97	0xbd8babd3	-0.06819882
98	0xbc22ac7a	-0.009928817
99	0x3cda2c1c	0.026632361
100	0x3d6182b7	0.0550563
101	0xbdb35ac2	-0.08757545
102	0x3dc21e08	0.09478384
103	0x3dcd3120	0.100191355
104	0x3dfeda60	0.124439955
105	0xbd5aa6af	-0.053381618
106	0x3d4de14c	0.050263688
107	0xbd878bb8	-0.06618446
108	0x3d7f4ec9	0.062330995
109	0x3d8afc2d	0.0678638
110	0x3dcf117a	0.10110755
111	0xbd9e93bd	-0.077430226
112	0xbd30f8b0	-0.043205917
113	0xbdf7c080	-0.12097263
114	0x3c7db28e	0.015484465
115	0xbd893dfe	-0.06701277
116	0xbdabf9a5	-0.08397225
117	0xbc8fcd59	-0.017553972
118	0x3b8ced46	0.004300746
119	0xbde6132e	-0.11234127
120	0xbcfb9597	-0.030710978
121	0xbddd67bc	-0.108108014
122	0x3c7d1d4b	0.0154488785
123	0xbd2107a6	-0.039313935
124	0xbddc073b	-0.107435666
125	0x3deb2976	0.114825174
126	0x3d84f18d	0.06491385
127	0xbd5a4fdc	-0.053298816
128	0x3d9581b0	0.073001266
129	0xbc96c3d4	-0.018403925
130	0x3dfd186c	0.12358174
131	0x3db41d95	0.08794705
132	0xbdd571e7	-0.10422116
133	0xbdf7c8e0	-0.12098861
134	0xbde98eda	-0.114042
135	0x3de088db	0.10963603
136	0x3dc9eed2	0.098600045
137	0x3c8084e6	0.01568837
138	0xbd96720f	-0.07345974
139	0x3a0aa5a0	0.0005288962
140	0xbd3eccf7	-0.04658219
141	0xbde15fbb	-0.11004587
142	0x3e0e01ba	0.13867846
143	0x3dddf41b	0.10837575
144	0xbbf01c7a	-0.0073276134
145	0x3d2f8ab7	0.0428569
146	0x3b08c858	0.0020871367
147	0xbdabb450	-0.08384001
148	0x3dd1e7a0	0.10249257
149	0x3d96569c	0.07340738
150	0x3d6a0d88	0.05714181
151	0x3de27129	0.1105674
152	0x3e0fc698	0.14040601
153	0x3d5509f7	0.052011456
154	0xba19294a	-0.00058426394
155	0x3dde31d8	0.10849351
156	0x3dbecdd8	0.09316605
157	0xbd6e2ccb	-0.058148187
158	0x3e0a17ce	0.13485643
159	0x3ddd60ac	0.10809454
160	0xbddfcffb	-0.10928341
161	0xbd8fb9f9	-0.07017893
162	0xbd6fd2d6	-0.05855068
163	0x3c67acf6	0.014140358
164	0x3e05e868	0.13076937
165	0x3a05cb65	0.00051038555
166	0x3d80146d	0.06253896
167	0xbdf80327	-0.12109976
168	0x3d4c7d88	0.049924403
169	0x3cf02fcf	0.029319672
170	0xbd9d401b	-0.07678243
171	0x3d7a3735	0.061087806
172	0xbdf1bbb0	-0.11803377
173	0xbd88085f	-0.06642222
174	0xbd0ed8d9	-0.03487477
175	0xbc673394	-0.014111418
176	0xbb4e2c3c	-0.0031459471
177	0x3d51111a	0.0510417
178	0xbd8ec6de	-0.06971525
179	0x3db97565	0.09055594
180	0x3d70cde0	0.058790088
181	0x3e13a0fd	0.14416881
182	0x3e065c9c	0.13121265
183	0xbdbad29f	-0.09122204
184	0x3dbd3a7f	0.09239673
185	0xbd889cab	-0.06670507
186	0x3d98e392	0.074652806
187	0xbde40812	-0.11134352
188	0xbdeccba0	-0.11562276
189	0xbdcd6ce8	-0.10030538
190	0x3da7ed7e	0.08199595
191	0xbdb985a5	-0.09058694
192	0x3cff0b6b	0.031133374
193	0xbc6f17ea	-0.014593104
194	0x3d744a48	0.059641153
195	0x3d54c4ae	0.05194538
196	0xbbe50301	-0.0069888835
197	0x3da30716	0.07960336
198	0x3df6d76d	0.12052808
199	0xbcfdef8f	-0.03099802
200	0xbd60d4a2	-0.054890282
201	0xbbc3c71d	-0.005974664
202	0x3e05e2ac	0.1307475
203	0x3ce2c989	0.02768399
204	0xbdba9a20	-0.09111428
205	0x3dfff9cf	0.12498819
206	0xbdf94719	-0.12171764
207	0xbde36e44	-0.11105016
208	0x3d7eddcd	0.062223244
209	0x3cf19a29	0.029492455
210	0x3d551370	0.05202049
211	0x3de6b6ed	0.11265359
212	0x3ddcdc10	0.10784161
213	0x3d64dcc8	0.055874616
214	0xbd57b5f4	-0.05266376
215	0x3b5ff7e3	0.0034174852
216	0xbd9c46d8	-0.076307
217	0x3d4e5584	0.050374523
218	0x3c04005b	0.008056725
219	0xbdd495dd	-0.10380147
220	0xbbd19f37	-0.0063971537
221	0x3d9567ce	0.0729519
222	0xbda54507	-0.080698065
223	0x3da6ef8b	0.08151158
224	0x3c216521	0.009850771
225	0x3dd91aa4	0.106007844
226	0xbd2cba0a	-0.04216961
227	0x3d8529de	0.06502126
228	0x3d9b67fa	0.07588191
229	0x3c13c9c3	0.009020272
230	0xbdb37f1b	-0.08764478
231	0x3d9efb81	0.07762814
232	0x3d7f28c4	0.062294737
233	0xbd2a8fe0	-0.041641116
234	0x3da7d23a	0.081943944
235	0x3d8d4317	0.06897562
236	0xbcbb43db	-0.022859504
237	0xbcdf60dc	-0.027267866
238	0xbc1ac607	-0.009446627
239	0xbd03360f	-0.032033976
240	0x3e037586	0.128378
241	0x3db36811	0.087600835
242	0x3d9e3d9f	0.07726597
243	0xbe01676a	-0.12637106
244	0x3d5ce111	0.053925578
245	0xbcaf6fcf	-0.02141562
246	0x3cce0088	0.025146738
247	0x3d8006dd	0.06251309
248	0x3d020690	0.03174454
249	0x3dd79713	0.10526862
250	0xbdc06d26	-0.093958184
251	0xbdf59c83	-0.11992743
252	0xbdbb7859	-0.09153814
253	0xbe20ec53	-0.1571515
254	0xba90d37f	-0.0011049359
255	0x3d9c89e4	0.07643488

lstm.weight_hh_l0 f4 [200, 50]
0	0xbd919b05	-0.07109646
1	0x3d3e230d	0.046420146
2	0xbdef8015	-0.116943516
3	0xbba61a13	-0.0050690263
4	0xbdf99333	-0.12186279
5	0xbd4fd51b	-0.050740343
6	0x3d363d79	0.04449222
7	0xbd07ddda	-0.03317056
8	0xbcc09ac6	-0.023511302
9	0xbda6731c	-0.08127424
10	0xbddb6dae	-0.10714279
11	0xbde1b8b4	-0.110215575
12	0xbdd6ddd3	-0.10491528
13	0xbd399bbc	-0.045314535
14	0x3da0c5bc	0.07850215
15	0xbdbd5536	-0.09244768
16	0xbd282499	-0.041050527
17	0x3da2a566	0.079417035
18	0xbdf17f46	-0.117918536
19	0x3d29c5dd	0.041448463
20	0xbd0a1df4	-0.03371997
21	0xbdc295a9	-0.09501202
22	0xbbcd83a6	-0.006271797
23	0xbd5e3799	-0.05425224
24	0xbdb31a53	-0.08745255
25	0x3de79b9f	0.11308979
26	0xbdf9a350	-0.121893525
27	0xbd758337	-0.05993959
28	0x3b2188d8	0.0024648216
29	0x3de015cd	0.10941658
30	0xbdf3a221	-0.11896158
31	0x3e0f9a9b	0.14023821
32	0xbcc05142	-0.023476247
33	0xbd61e10b	-0.05514626
34	0xbd8e5b45	-0.06951002
35	0xbe02bbaa	-0.127669
36	0x3d563615	0.05229767
37	0xbd26f6c4	-0.040762678
38	0x3df85bbb	0.12126871
39	0xbd6eb957	-0.058282223
40	0xbe16cdac	-0.14726895
41	0x3c9afd37	0.01891957
42	0xbdf88192	-0.121340886
43	0xbd2525cb	-0.040319245
44	0x3dce50f7	0.100740366
45	0x3d0c58f1	0.03426451
46	0x3d22ae64	0.039717093
47	0xbd803335	-0.06259767
48	0x3dcdc204	0.10046771
49	0xbdb06a82	-0.08614065
50	0x3c98cf95	0.01865367
51	0xbd9ee603	-0.07758715
52	0xbdf696fa	-0.12040515
53	0xbe09880a	-0.13430801
54	0x3ceddfe8	0.02903743
55	0x3cee9d5d	0.029127771
56	0x3d3bfba8	0.045894295
57	0xbded7bc1	-0.1159587
58	0xbd3ee727	-0.046607163
59	0x3d54cf7a	0.051955678
60	0x3dc5fb7b	0.09667107
61	0xbbdb580f	-0.006693847
62	0x3c23d89f	0.010000377
63	0x3de212ca	0.1103874
64	0x3d98c8af	0.07460152
65	0x3b9f408d	0.00485999
66	0x3d22a63a	0.039709307
67	0x3df52caf	0.11971413
68	0xbddc926c	-0.10770115
69	0xbdfdb9d3	-0.12388959
70	0xbe1128dc	-0.14175743
71	0x3d81eb32	0.06343688
72	0x3dff9955	0.12480418
73	0xbdc1d335	-0.09464113
74	0x3d8ff97f	0.070300095
75	0x3e091c1d	0.1338963
76	0xbbdf7591	-0.006819435
77	0x3dc75f57	0.097349815
78	0x3dd1c3ae	0.10242401
79	0x3e03d41d	0.12873884
80	0xbd0252a7	-0.031817105
81	0xbdbc049f	-0.09180569
82	0x3c1ce783	0.009576681
83	0xbdcbc049	-0.09948785
84	0x3bd5dbaa	0.00652643
85	0x3d6a9f3e	0.05728077
86	0xbd17e51e	-0.037083738
87	0x3d7d5195	0.06184538
88	0x3dfbaacf	0.122884385
89	0x3e145982	0.1448727
90	0x3d9fe121	0.07806612
91	0x3e1a097f	0.15042685
92	0x3df87b62	0.121329084
93	0x3d6a247d	0.057163704
94	0xbdc77c38	-0.0974049
95	0xbd064698	-0.032782167
96	0xbe187f28	-0.14892256
97	0x3d9a3676	0.07529919
98	0xbdf95b6e	-0.12175642
99	0xbe0b3d39	-0.13597573
100	0xbb8327f9	-0.004002568
101	0x3d17c41f	0.03705227
102	0x3daf6d0b	0.0856572
103	0x3dc417a8	0.095748246
104	0xbe159468	-0.14607394
105	0x3bd3f636	0.0064685596
106	0xbd20fedc	-0.039305553
107	0xbca03320	-0.019555628
108	0x3df6c2d3	0.120488785
109	0xbd56a21d	-0.052400697
110	0x3dc79056	0.09744327
111	0x3c7636b6	0.015027693
112	0xbd3bfdc0	-0.04589629
113	0xbc7744af	-0.015092059
114	0xbddc2876	-0.10749905
115	0xbdae6e27	-0.08517104
116	0xbd4e6623	-0.050390374
117	0xbdd96f1a	-0.10616894
118	0xbd6d02ab	-0.057863872
119	0x3c8486db	0.016177585
120	0x3db3c2c0	0.0877738
121	0xbd2aa893	-0.04166467
122	0x3db93c43	0.09044697
123	0x3da3d5ce	0.079997644
124	0x3e0f17a9	0.1397387
125	0xbe016a00	-0.12638092
126	0x3d1e2e2a	0.038618244
127	0xbd963ccd	-0.073358156
128	0xbd44eb8e	-0.048076205
129	0xbd23ed43	-0.040021192
130	0xbd7de3e7	-0.061984923
131	0x3dca126f	0.09866797
132	0x3d7a1271	0.061052743
133	0x3c0ace63	0.008472058
134	0xbdcf4510	-0.101205945
135	0x3e0b6d23	0.13615851
136	0xbd8c6a80	-0.06856251
137	0x3e0f029b	0.13965838
138	0xbd733968	-0.05938092
139	0xbdf27dae	-0.11840378
140	0x3da9b885	0.082871474
141	0x3dd5c792	0.10438456
142	0xbd87ada8	-0.06624919
143	0x3df87400	0.121315
144	0x3cf0ad71	0.029379578
145	0x3d4c7f81	0.049926285
146	0xbd9f73e7	-0.077857785
147	0xbd271b4d	-0.04079752
148	0xbc9fa36d	-0.019487107
149	0x3df0ea32	0.11763419
150	0x3dac3310	0.08408177
151	0xbd89ba0c	-0.06724939
152	0x3dde4ebf	0.108548634
153	0x3d8e705d	0.06955025
154	0xbdd5ea6b	-0.10445102
155	0x3b432861	0.0029778706
156	0x3e0278b0	0.12741351
157	0x3e056999	0.13028564
158	0xbe0139a4	-0.12619644
159	0xbb9d1aaf	-0.0047944407
160	0x3c8a5c5f	0.01688975
161	0xbd4b0942	-0.049569376
162	0x3da9b14c	0.0828577
163	0xbd726c10	-0.059185088
164	0xbd4c2b70	-0.049846113
165	0x3d70df61	0.05880678
166	0xbd6e857f	-0.05823278
167	0xbc7eb200	-0.015545368
168	0x3d8a1039	0.067413755
169	0xbddac771	-0.10682572
170	0xbd0d0211	-0.0344258
171	0x3ca6b9ff	0.020352362
172	0x3d859728	0.065229714
173	0x3daf084c	0.085465044
174	0xbd55fe43	-0.052244436
175	0x3d89ecd9	0.06734628
176	0xbdb64fbd	-0.089019276
177	0x3d864673	0.06556406
178	0xbdda6bbe	-0.106650814
179	0xbdb7e382	-0.089789405
180	0x3c8f07ac	0.017459713
181	0x3e03efb5	0.1288441
182	0xbdf2d8e8	-0.11857778
183	0x3d878c8e	0.066186056
184	0xbd9a1165	-0.07522849
185	0x3d816361	0.06317783
186	0xbd5a65a5	-0.053319592
187	0x3ddc9913	0.10771384
188	0xbbac0dce	-0.005250669
189	0x3d8890bd	0.06668232
190	0x3d6e11e3	0.058122527
191	0xbe10bd15	-0.14134629
192	0xbb96cf1e	-0.004602327
193	0xbcf0bb1b	-0.029386094
194	0xbde430c7	-0.11142116
195	0x3ce01453	0.027353441
196	0x3cd42c1c	0.02589994
197	0x3c252a14	0.010080833
198	0x3d27e6d6	0.040991627
199	0x3d18aff5	0.03727718
200	0x3d90f90c	0.07078752
201	0x3e01a84f	0.12661861
202	0xbd854111	-0.06506551
203	0x3de20f1a	0.11038037
204	0x3daf7485	0.08567146
205	0x3d34b36d	0.044116426
206	0x3cd032a0	0.025414765
207	0x3dc05cf6	0.09392731
208	0xbd91d1b7	-0.07120078
209	0xbd44c48b	-0.048039
210	0x3e0c25a4	0.13686234
211	0x3de1e959	0.11030836
212	0x3cd9f3b0	0.026605457
213	0x3cc2f5ba	0.023798812
214	0x3c80fceb	0.0157456
215	0xbdc5d8a3	-0.09660461
216	0xbdb59ea6	-0.088681504
217	0xbd03bd7d	-0.032163132
218	0x3c7c1d14	0.015387792
219	0xbdc5104d	-0.0962225
220	0x3db15b90	0.08660042
221	0x3d0fd55a	0.035115577
222	0x3dcb5481	0.09928227
223	0xbdb5a6cb	-0.08869704
224	0xbcae4cff	-0.021276949
225	0xbd6e538c	-0.058185145
226	0x3dbdc545	0.09266142
227	0x3c71c510	0.014756456
228	0xbdf53103	-0.11972239
229	0x3d283939	0.041070197
230	0xbddae15f	-0.106875174
231	0x3dfb9260	0.12283778
232	0x3c6e1a1b	0.014532591
233	0xbd4e2ea5	-0.050337452
234	0xbd31ecf3	-0.043438863
235	0xbd73dc6d	-0.059536386
236	0x3cff2fa4	0.031150647
237	0x3d7080f9	0.058716748
238	0x3dc7a6a2	0.097485796
239	0xbd51b7cb	-0.05120067
240	0x3d288a13	0.041147303
241	0xbde84250	-0.11340773
242	0xba01ffba	-0.00049590657
243	0x3e047e01	0.12938692
244	0xbd909cd9	-0.07061166
245	0x3de974ac	0.113992065
246	0x3d945056	0.07241885
247	0xbd6be89a	-0.057594873
248	0xbdb46d81	-0.08809949
249	0xbd8e6735	-0.06953279
250	0x3e00894e	0.12552378
251	0xbd70d3ba	-0.05879567
252	0xbdf2f7c4	-0.11863664
253	0x3ceebbe1	0.029142322
254	0xbce44e25	-0.027869293
255	0x3d40f46a	0.04710809

lstm.bias_ih_l0 f4 [200]
0	0x3d1fcabd	0.039011706
1	0x3dc8e830	0.09809911
2	0xbc493e33	-0.012282896
3	0x3d88d6ff	0.06681632
4	0xbdd2247a	-0.102608636
5	0x3d750764	0.0598215
6	0xbdd9bb21	-0.10631395
7	0xbdd79a2b	-0.10527452
8	0xbde07020	-0.10958886
9	0xbcc1ae30	-0.02364263
10	0x3db216cf	0.08695757
11	0x3cfa92be	0.03058755
12	0xbbf2d43f	-0.0074105556
13	0x3d9412a5	0.07230119
14	0x3dc6b98c	0.09703359
15	0x3db9ce51	0.09072555
16	0x3daa3ad2	0.08312
17	0xbd91be74	-0.07116404
18	0x3adc4e97	0.001680809
19	0xbe0bc041	-0.13647558
20	0x3d07c778	0.033149213
21	0xbd925109	-0.071443625
22	0x3dcd6fce	0.10031091
23	0xbdd9ff76	-0.106444284
24	0xbccc06b3	-0.024905538
25	0xbdeb765e	-0.11497186
26	0x3cc9fdd1	0.024657162
27	0xbde06dbd	-0.10958431
28	0xbd60b3e0	-0.054859042
29	0x3cbce406	0.023057949
30	0x3dec5934	0.11540452
31	0x3dd5c3b9	0.10437722
32	0x3d8b478d	0.068007566
33	0x3cf0b2aa	0.029382069
34	0x3e0232d2	0.12714699
35	0x3db590a7	0.08865481
36	0x3cac6dba	0.021048415
37	0x3c6bfd38	0.014403634
38	0x3def2ba0	0.11678243
39	0xbcd7fb4f	-0.02636495
40	0x3ddccf63	0.107817434
41	0xbdea32b2	-0.114354506
42	0x3c88a998	0.016682431
43	0x3daabaca	0.083364084
44	0xbc721708	-0.014775999
45	0xbda0d273	-0.0785264
46	0x3e11fe14	0.1425708
47	0xbd795a4a	-0.060877122
48	0x3d851d46	0.06499724
49	0xbcf7c9be	-0.030247565
50	0x3b901334	0.0043968204
51	0xbe056190	-0.13025498
52	0x3d22c98c	0.03974299
53	0x3da3179c	0.079634875
54	0x3c6bf956	0.014402708
55	0xbd2f55fe	-0.042806618
56	0x3d2f8e40	0.04286027
57	0x3e0bba41	0.13645269
58	0xbd3c035e	-0.04590165
59	0xbde37673	-0.11106577
60	0x3cefee1a	0.02928834
61	0xbc85c17c	-0.016327612
62	0xbdd1c477	-0.10242551
63	0xbde9977b	-0.11405846
64	0x3db8bcf5	0.09020416
65	0x3d0c3a71	0.03423542
66	0x3cd68fba	0.026191581
67	0xbd42b84e	-0.047539048
68	0xbc0e8171	-0.008697853
69	0xbdda8691	-0.10670198
70	0xbd95d605	-0.073162116
71	0xbd167094	-0.036728457
72	0xbc3a040e	-0.011353506
73	0xbc7f9608	-0.015599735
74	0xbd43ca27	-0.04780021
75	0xbd98dd62	-0.074641004
76	0xbcd56f7d	-0.026054138
77	0x3db39124	0.08767918
78	0x3dfaa533	0.122385405
79	0x3d5f2918	0.05448255
80	0xbdb793d3	-0.08963742
81	0x3e05d5ae	0.13069794
82	0xbd57dc4c	-0.052700326
83	0x3dedf638	0.11619228
84	0x3df1607d	0.11785982
85	0xbca1d504	-0.019754894
86	0x3e00f133	0.1259201
87	0xbd904297	-0.07043951
88	0x3b09b44f	0.0021012013
89	0xbde75059	-0.11294622
90	0x3d2d7dd1	0.042356316
91	0xbaa21aae	-0.001236757
92	0x3e1e3b16	0.15452227
93	0xbca565b3	-0.020190096
94	0xbdcebc32	-0.10094489
95	0xbd880a4e	-0.066425905
96	0x3e09afe9	0.1344601
97	0xbd024452	-0.031803437
98	0xbe076f0c	-0.13225955
99	0xbe0c950f	-0.13728736
100	0xbcb72e6c	-0.022361003
101	0x3db43205	0.08798603
102	0x3df86ca6	0.12130098
103	0xbdf9ff4a	-0.12206896
104	0x3dc1364a	0.09434183
105	0xbe143c57	-0.14476143
106	0xbde36cab	-0.11104711
107	0x3e1d0236	0.15332875
108	0xbd5f30d3	-0.05448992
109	0xbdb18dd3	-0.08669629
110	0xbc88a0c2	-0.016678218
111	0xbd13650c	-0.035985038
112	0xbe231eaf	-0.15929674
113	0xbdaa0a24	-0.083027154
114	0xbd84208c	-0.0645152
115	0x3dec2387	0.11530214
116	0xbc8c7155	-0.017143885
117	0xbd1aae1a	-0.037763692
118	0x3d9c059b	0.07618257
119	0xbdcc20a8	-0.09967166
120	0x3e25e0f2	0.16199091
121	0xbda0ec89	-0.078576155
122	0x3d4c1382	0.04982329
123	0xbd8dd62c	-0.06925616
124	0xbe096c56	-0.13420233
125	0xbce2a6fe	-0.027667519
126	0x3dccc50c	0.09998521
127	0x3d26ec0e	0.040752463
128	0x3e053917	0.1301006
129	0xbd348ca5	-0.04407944
130	0xbda00bf7	-0.07814782
131	0x3d16af54	0.0367883
132	0xbdc3f317	-0.0956785
133	0x3ba3b42a	0.0049958425
134	0x3ded4dcf	0.115871064
135	0xbd4c3d2f	-0.049863037
136	0x3caea03f	0.021316646
137	0xbd167b00	-0.036738396
138	0xbcfc413d	-0.030792827
139	0xbe007675	-0.12545188
140	0xbc73a261	-0.014870257
141	0xbdc3e275	-0.095646776
142	0x3df137e6	0.1177824
143	0x3dd14a43	0.102192424
144	0x3de3b077	0.111176424
145	0xbe0178fc	-0.12643808
146	0xbb493eec	-0.003070767
147	0xbd1ffe62	-0.039060958
148	0xbe0c4eb6	-0.13701901
149	0x3dddc63d	0.108288266
150	0xbc2bd434	-0.010487605
151	0x3c5f9526	0.0136464
152	0xbc1d68d6	-0.009607514
153	0x3cc5ab2a	0.024129469
154	0x3e09f4d1	0.13472296
155	0xbd8c6bbb	-0.068564855
156	0xbdb30a41	-0.0874219
157	0x3d915116	0.07095544
158	0x3db1e4f7	0.0868625
159	0xbe03ef0a	-0.12884155
160	0xbc869595	-0.016428748
161	0xbc230ceb	-0.00995181
162	0x3dd2f34b	0.10300311
163	0xbca90b0e	-0.020635154
164	0x3dc40e14	0.09572998
165	0xbdb58bf1	-0.08864582
166	0xbda24ef1	-0.07925213
167	0xbda38c68	-0.07985765
168	0x3d9aee1b	0.07564946
169	0x3e0cc12d	0.13745566
170	0x3d903600	0.0704155
171	0xbdfef04e	-0.12448178
172	0xbdd37f9d	-0.10327075
173	0x3decb139	0.1155724
174	0xbdbca3cd	-0.0921093
175	0x3df93e9a	0.121701434
176	0xbc9917c5	-0.018688092
177	0xbc053d62	-0.008132311
178	0x3bb19c07	0.0054202112
179	0x3d95e447	0.07318931
180	0x3ca3af4d	0.01998105
181	0xbd4dffd8	-0.05029282
182	0xbde6a0d6	-0.11261146
183	0x3e1ba596	0.15199885
184	0x3a892471	0.0010463131
185	0xbd87ddbb	-0.066340886
186	0x3daf4fe5	0.085601605
187	0x3d0c48b6	0.03424903
188	0x3d802a36	0.06258051
189	0xbd1d1a22	-0.038355
190	0x3e07a6d0	0.13247228
191	0x3d828c60	0.06374431
192	0xbd9f0b85	-0.07765869
193	0x3e17c95a	0.14822903
194	0x3d1fe439	0.03903601
195	0x3d66bc6a	0.05633203
196	0xbd14b74e	-0.036307625
197	0xbc0519a9	-0.008123794
198	0xbdec2f7c	-0.115324944
199	0xbd71be38	-0.059019297

lstm.bias_hh_l0 f4 [200]
0	0x3e018dfe	0.12651822
1	0x3d939904	0.0720692
2	0xbe11e34c	-0.14246863
3	0x3e00b6fb	0.12569802
4	0x3e077e52	0.13231781
5	0xbe0a092f	-0.13480066
6	0xbd3cd111	-0.04609782
7	0xbe028369	-0.12745441
8	0xbdd5f32e	-0.104467735
9	0xbdeba7e6	-0.115066335
10	0xbd2860a3	-0.041107785
11	0x3cc6e50f	0.024279146
12	0x3e0a7dbe	0.1352453
13	0x3d92a0c1	0.071595676
14	0xbda11938	-0.07866138
15	0xbc8004c6	-0.015627276
16	0x3dee8c98	0.1164791
17	0x3e089f61	0.13342048
18	0xbc55eeff	-0.013057469
19	0xbd668913	-0.056283068
20	0x3de57116	0.1120321
21	0xbd0f07f3	-0.03491969
22	0x3e031b7c	0.12803453
23	0x3e089a97	0.13340221
24	0x3db659eb	0.08903869
25	0x3e07bc0a	0.13255325
26	0x3d02a434	0.031894878
27	0xbdaeadab	-0.08529218
28	0x3db507db	0.08839389
29	0x3c82262e	0.015887346
30	0xbda263d4	-0.07929197
31	0xbde11bc9	-0.10991628
32	0x3dd3719e	0.10324405
33	0xbcb7e3fc	-0.022447579
34	0x3deeaff5	0.11654655
35	0xbdb4f5cf	-0.08835947
36	0x3e060616	0.13088259
37	0xbe103ae6	-0.14084968
38	0xbc834f2c	-0.016028963
39	0xbd9482d5	-0.07251517
40	0x3cf33c34	0.029691793
41	0x3d82eb6a	0.06392558
42	0x3a21376a	0.000614992
43	0x3e049dc9	0.12950815
44	0x3e11f97e	0.1425533
45	0x3de50365	0.11182288
46	0x3dbf0a69	0.093281575
47	0xbd3ab803	-0.045585644
48	0xbde9f376	-0.114233896
49	0xbd019836	-0.0316393
50	0xbd444997	-0.047921743
51	0x3ca5e5a5	0.020251105
52	0x3bc93b9d	0.0061411397
53	0x3bacbaac	0.0052712765
54	0x3dd2f32f	0.1030029
55	0x3d8bee78	0.06832594
56	0x3d301f8c	0.042998835
57	0x3c9006f7	0.017581446
58	0xbd37ebca	-0.0449026
59	0x3d25b7b4	0.040458396
60	0x3d0c28be	0.034218542
61	0xbd10fdef	-0.03539842
62	0x3dbfb167	0.09360009
63	0xbd1df3e1	-0.03856266
64	0x3df559c3	0.11980011
65	0xbdcbd855	-0.099533714
66	0xbdd13820	-0.10215783
67	0x3deb7453	0.114967965
68	0x3e171863	0.14755397
69	0xbe1099ce	-0.14121172
70	0x3e20dcd8	0.15709245
71	0x3d26b432	0.04069919
72	0x3e0b7da7	0.13622151
73	0xbdda1177	-0.106478624
74	0xbd6962fd	-0.05697917
75	0xbde1426a	-0.109989956
76	0x3d1467f7	0.03623196
77	0x3de91548	0.11381012
78	0xbd853abe	-0.06505345
79	0xbc91d998	-0.017803952
80	0xbdaea231	-0.08527029
81	0x3ddccc51	0.10781158
82	0xbdc50b4b	-0.096212946
83	0x3c2504ed	0.010071975
84	0x3e1d6030	0.15368724
85	0x3dcc090e	0.099626645
86	0x3d712599	0.058873747
87	0x3d6dfea2	0.058104165
88	0xbdd49396	-0.10379712
89	0xbdd2c2e6	-0.1029108
90	0xbdd6c9f9	-0.10487742
91	0x3da3a906	0.07991223
92	0x3cb47933	0.022030449
93	0x39a4de42	0.00031446113
94	0x3e15ba04	0.1462174
95	0x3cd3e9fc	0.025868408
96	0xbdbcfcb8	-0.0922789
97	0xbcc36070	-0.023849696
98	0xbddb3847	-0.107040934
99	0x3c3e7299	0.011624002
100	0x3cce6864	0.025196262
101	0xbddb0095	-0.106934704
102	0x3dd9d5a4	0.10636452
103	0x3ddf1471	0.10892571
104	0xbded5e07	-0.115902
105	0x3bc1078d	0.0058907927
106	0x3a3ac1d4	0.00071242196
107	0xbda03e03	-0.07824328
108	0xbdfec2d4	-0.12439504
109	0x3de60923	0.112322114
110	0x3cde1517	0.027109666
111	0x3c3aedd6	0.011409244
112	0xbdf4562b	-0.11930498
113	0xbca79920	-0.020458758
114	0x3d7306e5	0.059332747
115	0xbd51660a	-0.051122703
116	0x3d111f54	0.035430267
117	0xbb8d158c	-0.004305547
118	0x3e0ad34e	0.13557169
119	0x3d0ce287	0.03439572
120	0x3d7973e6	0.060901545
121	0xbda89fc9	-0.082336016
122	0xbcb1bfbe	-0.021697875
123	0xbb7b6023	-0.0038356862
124	0x3dbdbd84	0.09264663
125	0x3dd54741	0.10413981
126	0xbdb4c930	-0.08827436
127	0x3c93ed04	0.018057354
128	0xbde16f55	-0.11007563
129	0xbd57d013	-0.05268867
130	0xbde1d1d9	-0.110263534
131	0x3dbc8837	0.092056684
132	0xbdc65068	-0.09683305
133	0x3da44e0d	0.080226995
134	0x3c5513c1	0.013005198
135	0xbe05c0de	-0.13061854
136	0xbd2fd1ad	-0.04292457
137	0x3c98acfc	0.018637173
138	0xbe14469b	-0.14480059
139	0x3c5f6f38	0.013637356
140	0x3c84c380	0.016206503
141	0xbca62a08	-0.020283714
142	0x3e1d66bb	0.1537122
143	0x3d9e0c4d	0.0771719
144	0x3df4e985	0.11958603
145	0xbd9a6a66	-0.07539825
146	0x3d0b56b1	0.034018222
147	0xbd37deb0	-0.044890106
148	0x3cff1123	0.031136101
149	0x3d94b12b	0.072603546
150	0xbde76ae1	-0.112996824
151	0xbc18cab9	-0.009325677
152	0xbdb70e90	-0.089383245
153	0x3dc4af1e	0.096037135
154	0x3d8d4cec	0.06899437
155	0xbc7a7eaa	-0.015288988
156	0xbda78be3	-0.08180978
157	0x3e0ad043	0.13556008
158	0xbda982db	-0.08276912
159	0xbde63e7c	-0.11242387
160	0x3cbda1ce	0.023148444
161	0xbd2274f6	-0.039662324
162	0x3cc22ad4	0.023702063
163	0xbdf49041	-0.11941577
164	0x3d7ebfef	0.06219476
165	0xbda425c9	-0.080150194
166	0x3d0f2ca9	0.0349547
167	0xbd0f1e9d	-0.034941304
168	0x3d072668	0.03299561
169	0x3da1dc64	0.07903364
170	0x3dd93f44	0.1060777
171	0xbe10de1f	-0.14147232
172	0xbd87f435	-0.06638376
173	0x3d2f1270	0.042742193
174	0x3cd2bde5	0.025725314
175	0x3e134ae3	0.14384036
176	0xbe0f36db	-0.1398577
177	0x3d997e74	0.07494822
178	0xbdbc072b	-0.09181055
179	0x3dbf56db	0.09342738
180	0x3d966f17	0.073454075
181	0x3dbbdfa3	0.09173515
182	0xbdc225a4	-0.09479836
183	0xbd0ae692	-0.033911295
184	0x3dc7a40c	0.09748086
185	0x3e04c39c	0.12965244
186	0x3e0c4cdc	0.13701195
187	0xbe007fe6	-0.1254879
188	0xbd0d821a	-0.034547903
189	0xbcdd9dd6	-0.027052801
190	0x3e10600a	0.14099136
191	0xbd27642a	-0.04086701
192	0xbdad0245	-0.084476985
193	0xbd6a1cf3	-0.057156514
194	0xbd896d21	-0.06710268
195	0xbae90041	-0.0017776565
196	0x3db9ac2b	0.090660416
197	0xbe030fd6	-0.1279901
198	0xbd3e6d5f	-0.046491023
199	0x3cc73b09	0.024320142

lstm.weight_ih_l1 f4 [200, 50]
0	0xbdc8faf2	-0.09813489
1	0xbd0e018d	-0.034669448
2	0xbe064e8b	-0.131159
3	0xbb3d59d7	-0.002889266
4	0xbdbcfcb1	-0.092278846
5	0x3c53d67e	0.012929557
6	0xbb835133	-0.0040074824
7	0x3cfb0e39	0.03064643
8	0x3de1070e	0.10987674
9	0xbcbae812	-0.022815738
10	0x3e054616	0.13015017
11	0x3d4e2e10	0.050336897
12	0x3dcfb60e	0.10142146
13	0xbde9d060	-0.114166975
14	0x3dfb83b9	0.122809835
15	0xbe19dd55	-0.15025838
16	0xbdc9aade	-0.098470435
17	0xbc081c09	-0.008307465
18	0xbe0e4000	-0.13891602
19	0x3e1274ad	0.14302321
20	0x3d9e710c	0.07736406
21	0x3c226806	0.009912496
22	0x3c3ff3ae	0.011715813
23	0xbd726302	-0.059176452
24	0xbc703c90	-0.014662877
25	0x3d336ad6	0.04380306
26	0x3cab0a29	0.020878868
27	0x3dd74af4	0.10512343
28	0xbc0cc0b5	-0.008590867
29	0x3e112ee3	0.14178042
30	0x3de5f71f	0.11228775
31	0xbd699161	-0.05702341
32	0x3c878ca7	0.01654656
33	0xbe03dd12	-0.128773
34	0xbde4285e	-0.11140512
35	0x3d210849	0.039314542
36	0x3d9da075	0.076966204
37	0xbdbc05a7	-0.091807656
38	0x3d37c6bb	0.04486726
39	0xbd34506a	-0.044022
40	0x3d064bda	0.03278718
41	0xbba4fcec	-0.0050350334
42	0xbda2b4dc	-0.079446524
43	0xbdc96f4d	-0.09835682
44	0xbd8a4ec8	-0.067533076
45	0xbd59a943	-0.053139936
46	0x3d8a5aa3	0.06755569
47	0xbd0d3b43	-0.034480345
48	0xbd864049	-0.0655523
49	0x3d622c73	0.05521817
50	0x3ddb8d12	0.107202664
51	0x3d8b1ab9	0.06792206
52	0x3e0f9b93	0.1402419
53	0x3d768555	0.06018575
54	0xbdffeb5e	-0.124960646
55	0x3cb81e96	0.022475522
56	0xbda2d513	-0.07950797
57	0xbd9ceb27	-0.07662039
58	0xbd326d2a	-0.04356114
59	0xbdee5299	-0.11636848
60	0xbdc3e183	-0.09564497
61	0xbd5efde6	-0.054441355
62	0x3d53e2d6	0.05173
63	0x3c35031c	0.011048105
64	0x3db332ad	0.087499
65	0x3d5bd36a	0.053668417
66	0xbe18f956	-0.14938864
67	0xbdde2845	-0.108475246
68	0x3bb53818	0.0055303685
69	0xbcf7eec7	-0.030265225
70	0xbdae7bbf	-0.085196964
71	0x3d840a58	0.064472854
72	0xbda4be3b	-0.08044096
73	0xbdadab57	-0.08479946
74	0xbdb51467	-0.08841782
75	0x3dfc2b4f	0.12312948
76	0xbcf68b08	-0.030095592
77	0xbd481999	-0.048852537
78	0xbc457218	-0.012051128
79	0x3c3a7fc8	0.0113830045
80	0x3db15899	0.08659477
81	0x3d87d939	0.06633229
82	0x3d254f22	0.04035867
83	0x3ca81979	0.020519959
84	0x3c053698	0.008130692
85	0x3cd7f0e5	0.026359985
86	0x3df2a334	0.11847535
87	0xbdf272a0	-0.11838269
88	0x3dec4ec0	0.11538458
89	0xbd4a0abf	-0.049326655
90	0x3dd1589f	0.10221981
91	0xbd5b0b6d	-0.053477693
92	0xbbb12303	-0.005405785
93	0xbcd1bf40	-0.02560389
94	0x3cf7986c	0.030224048
95	0xbdd02faf	-0.10165345
96	0x3dceccc3	0.10097649
97	0x3de2221b	0.11041661
98	0xbde4c64b	-0.11170634
99	0x3dee45ee	0.11634432
100	0xbdc5f1d3	-0.09665265
101	0xbe08e75f	-0.13369511
102	0xbc9c8036	-0.019104104
103	0xbd6b155f	-0.057393428
104	0x3cbe370f	0.023219613
105	0xbd7ca727	-0.061682846
106	0x3dcda30c	0.10040864
107	0xbc520260	-0.012817949
108	0x3d891018	0.06692523
109	0xbd5a5b01	-0.053309444
110	0xbcf74b6b	-0.03018733
111	0x3d2994b5	0.041401584
112	0x3d52ff77	0.05151316
113	0xbd8b7931	-0.06810225
114	0xbdd3aab4	-0.103352934
115	0x3d504e78	0.050856084
116	0x3b3ec434	0.0029108645
117	0x3ce3aca7	0.027792288
118	0xbda2e0ff	-0.07953071
119	0xbe00a321	-0.12562229
120	0xbd30e35f	-0.043185588
121	0x3d0e226a	0.03470079
122	0xbca0c5c5	-0.019625554
123	0x3dd9a097	0.10626333
124	0xbd1fb97c	-0.03899525
125	0x3d44a05a	0.048004486
126	0x3de12966	0.10994224
127	0xbd8d6df9	-0.06905741
128	0xbcd9a0ec	-0.026565991
129	0xbe0cf42e	-0.13765022
130	0x3e09b610	0.13448358
131	0x3da6748e	0.081277
132	0x3d764447	0.060123708
133	0xbdea724b	-0.11447581
134	0xbe0d9dd7	-0.13829742
135	0xbdd2c944	-0.102922946
136	0x3d8308f2	0.063981906
137	0x3d84c943	0.064837
138	0x3d5bcfc4	0.053664938
139	0xbdb47030	-0.088104606
140	0x3dfd0a71	0.12355507
141	0x3cf86eab	0.030326208
142	0xbe1040be	-0.14087197
143	0xbd32a522	-0.043614514
144	0xbc09ea1e	-0.008417634
145	0xbd766dff	-0.060163494
146	0xbe0f9b78	-0.1402415
147	0x3e0db77f	0.1383953
148	0xbd2a1d49	-0.041531835
149	0x3cf2fed9	0.029662536
150	0xbd01f1c8	-0.03172472
151	0xbda48c1f	-0.080345385
152	0xbbed2516	-0.007237087
153	0x3dec1acf	0.11528551
154	0x3cd633bc	0.026147716
155	0xbdf8b0e1	-0.12143112
156	0xbb7bc21a	-0.0038415254
157	0x3d0d6c58	0.034527153
158	0x3d0bd547	0.034138944
159	0x3da553bc	0.08072612
160	0x3d975357	0.07388943
161	0x3ca6d18a	0.020363588
162	0xbdfeabd9	-0.12435121
163	0x3d054739	0.032538626
164	0xbda18f97	-0.07888716
165	0xbdb7951a	-0.08963986
166	0xbe0996d9	-0.1343645
167	0x3c282596	0.010262867
168	0x3c0ebc1e	0.008711843
169	0x3d74b7d4	0.059745625
170	0x3d0a2ec1	0.033735994
171	0x3db0c702	0.08631708
172	0x3d9dcc95	0.077050366
173	0xbd0e127b	-0.034685593
174	0xbce26927	-0.027638031
175	0x3dc510dd	0.09622357
176	0x3dffbecc	0.124875635
177	0x3d56e55c	0.052464828
178	0xbd415f33	-0.04720993
179	0x3d236e62	0.03990019
180	0x3dc4a599	0.09601898
181	0xbbdee597	-0.0068022716
182	0x3d062444	0.03274943
183	0x3e1075f3	0.14107494
184	0x3c9ceaf1	0.019154998
185	0xbe050bfa	-0.1299285
186	0xbcf2c4bd	-0.029634828
187	0xbdb9dfdd	-0.09075902
188	0xbd98af9d	-0.074553706
189	0xbc920236	-0.01782332
190	0x3c9cdf26	0.019149374
191	0xbd8f42d5	-0.06995169
192	0xbdb12f36	-0.08651583
193	0xbc7f4b75	-0.015581955
194	0x3c89cd91	0.016821655
195	0xbdeca12f	-0.11554181
196	0x3d228e48	0.03968647
197	0x3d3dc5c7	0.046331193
198	0xbe010f84	-0.12603575
199	0x3b446994	0.0029970156
200	0x3d21d8c6	0.039513372
201	0xbdebeb6c	-0.115195125
202	0x3d835581	0.06412793
203	0xbd9d990d	-0.07695208
204	0xbd94880d	-0.07252512
205	0xbdc154f3	-0.09440031
206	0x3dfb0547	0.12256866
207	0x3e0a78e3	0.13522677
208	0x3db3473a	0.0875382
209	0xbd429ab1	-0.047510806
210	0xbde1f521	-0.11033083
211	0xbe0cc87d	-0.13748355
212	0xbd41e19c	-0.0473343
213	0xbc6c34c0	-0.014416873
214	0x3de570dc	0.11203167
215	0xbd833022	-0.06405665
216	0xbc323d23	-0.010878834
217	0xbe0449fd	-0.1291885
218	0x3d6476a0	0.055777192
219	0x3d84eca1	0.06490446
220	0x3cbcde8c	0.023055337
221	0x3d021be3	0.031764876
222	0xbd4d02ae	-0.050051384
223	0x3d37638c	0.04477267
224	0x3d4843c1	0.04889274
225	0x3e052193	0.13001089
226	0x3b961141	0.0045796935
227	0x3dc7018b	0.09717091
228	0x3cd8da76	0.026471358
229	0x3d0a56ad	0.033774067
230	0x3ddec062	0.10876538
231	0xbd6794b8	-0.056538314
232	0xbe164ed9	-0.14678515
233	0x3ddbbcfe	0.10729407
234	0x3cff445b	0.031160524
235	0xbdbc7a38	-0.09202999
236	0xbd62260c	-0.055212066
237	0xbdc56b1e	-0.096395716
238	0xbd69b973	-0.057061624
239	0xbce05013	-0.027381932
240	0x3df94ed2	0.12173237
241	0xbd878f83	-0.066191696
242	0xbcdd6b95	-0.027028838
243	0xbd8ea471	-0.069649585
244	0xbc2c199c	-0.010504153
245	0x3d11d817	0.03560647
246	0x3dfae456	0.12250583
247	0x3d8c7880	0.06858921
248	0xbd774bf5	-0.060375173
249	0x3d7571f3	0.059923124
250	0xbce22b6a	-0.027608592
251	0x3de49a3c	0.1116223
252	0xbe19bdcd	-0.1501381
253	0x3c52db35	0.012869646
254	0x3d9fdc05	0.07805637
255	0xbe0faca3	-0.140307

lstm.weight_hh_l1 f4 [200, 50]
0	0x3d8c325e	0.06845544
1	0xbca4af75	-0.020103196
2	0xbe17202f	-0.14758371
3	0xbdf1ef5a	-0.11813231
4	0xbd97a3b4	-0.07404271
5	0x3e11d606	0.142418
6	0x3df088a9	0.11744816
7	0x3c9cdf57	0.019149465
8	0x3e15fc80	0.14647102
9	0x3d2100c5	0.039307375
10	0xbdcc495e	-0.09974931
11	0xbd2b8449	-0.041874204
12	0xbd2ce15c	-0.042207107
13	0x3c85a457	0.016313715
14	0x3ddecf0f	0.10879337
15	0xbd888ec8	-0.06667858
16	0xbdea6780	-0.11445522
17	0xbe1e5182	-0.1546078
18	0x3b6d249a	0.0036185146
19	0xbe15e6a1	-0.14638759
20	0xbc5b4499	-0.013383054
21	0xbd971b95	-0.07378308
22	0xbdc017ef	-0.09379565
23	0xbe1611d6	-0.14655241
24	0x3d024b20	0.031809926
25	0xbd4ecb9b	-0.050487142
26	0xbdd41565	-0.10355643
27	0x3dd3b74a	0.10337694
28	0xb9cdda93	-0.00039263497
29	0xbd2bb7fe	-0.041923515
30	0x3dac57e6	0.08415203
31	0x3dc9fef6	0.09863083
32	0x3c5489b0	0.01297228
33	0xbc93af35	-0.018027881
34	0xbde09e13	-0.1096765
35	0x3db452a8	0.08804828
36	0xbd39e8c9	-0.045388017
37	0x3cef5a68	0.029217914
38	0xbd767490	-0.060169756
39	0x3d5bf9cd	0.053705025
40	0xbddc69d0	-0.1076237
41	0x3d31fc7e	0.043453686
42	0x3de3c6e3	0.11121919
43	0xbd8740b7	-0.0660414
44	0x3d97a6ed	0.074048854
45	0xbe10b153	-0.14130144
46	0xbd196bcf	-0.03745633
47	0x3dd4ac56	0.10384433
48	0xbda214c4	-0.07914117
49	0xbbe43b32	-0.0069650644
50	0x3c604730	0.013688847
51	0x3cc6e588	0.02427937
52	0xbc859859	-0.016307997
53	0xbd92c4dd	-0.07166455
54	0x3d0267b5	0.031837184
55	0x3da0446e	0.07825552
56	0xbdfa6a47	-0.12227302
57	0x3cb9f40b	0.022699377
58	0xbd22569c	-0.03963338
59	0x3dc80ce2	0.09768082
60	0xbdb8d805	-0.090255775
61	0x3dc5d522	0.096597925
62	0xbd9bc119	-0.0760519
63	0xbdc2eb3d	-0.095175244
64	0xbd9c4b7a	-0.076315835
65	0xba7ad0ee	-0.0009567876
66	0x3da8a068	0.0823372
67	0x3e1cf262	0.15326837
68	0xbe19d245	-0.15021618
69	0xbc1f1f2f	-0.009712025
70	0xbdd80fbd	-0.10549877
71	0xbb4fbabd	-0.0031696998
72	0xbc8a65b8	-0.016894206
73	0x3e04a27d	0.1295261
74	0xbdcc8041	-0.099854
75	0x3d990663	0.07471921
76	0xbe04dca2	-0.1297479
77	0xbdfee32c	-0.12445673
78	0x3cc60e4a	0.024176735
79	0xbc8ee010	-0.017440826
80	0x3df905d4	0.12159315
81	0xbc779aff	-0.015112638
82	0x3c235b21	0.009970457
83	0x3ce79f76	0.02827428
84	0xbd65c60c	-0.056097075
85	0xbd31cdfe	-0.04340934
86	0x3d71e108	0.059052497
87	0x3ddeb867	0.10875016
88	0xbd8db38d	-0.06919012
89	0xbd0d81d2	-0.034547634
90	0x3df7199e	0.12065433
91	0x3db36f8c	0.0876151
92	0xbe094db4	-0.13408548
93	0x3d6aa7f6	0.057289086
94	0xbc2b991f	-0.010473519
95	0xbd5ae136	-0.053437434
96	0x3d9fce64	0.07803038
97	0xbd1eb054	-0.03874238
98	0x3bab0afb	0.005219815
99	0x3d83b148	0.06430298
100	0x3cf6f9d7	0.03014843
101	0xbd41d3b8	-0.04732105
102	0x3d554c1c	0.052074537
103	0x3d7a90f6	0.0611734
104	0x3bc336a0	0.0059574395
105	0xbdacaa1e	-0.08430885
106	0xbd6486d0	-0.05579263
107	0x3de03a51	0.10948623
108	0xbcc6b7bc	-0.024257533
109	0xbdf5da8e	-0.120045766
110	0x3dec46e8	0.11536962
111	0xbde42d96	-0.11141507
112	0xbdacea86	-0.08443169
113	0x3d295480	0.04134035
114	0xbc4737fd	-0.012159345
115	0xbd375d34	-0.04476662
116	0x3dccb70c	0.09995851
117	0x3c0d3389	0.008618244
118	0xbcc21929	-0.023693638
119	0x3cbd77f1	0.023128482
120	0xbda252ba	-0.07925935
121	0xbcbe6676	-0.023242217
122	0xbd63298a	-0.055459537
123	0x3d3bf1e9	0.045885
124	0x3d72459d	0.05914842
125	0xbb3df1da	-0.0028983266
126	0x3e069c92	0.13145664
127	0x3e0d428f	0.13794921
128	0xbc84212f	-0.016129104
129	0x3dde2af9	0.1084804
130	0x3d684efb	0.056715947
131	0xbcd22a8e	-0.025655057
132	0x3cca2125	0.024674008
133	0x3df7e32e	0.12103878
134	0xbdaf44cf	-0.08558046
135	0xbc4247aa	-0.011857906
136	0xbddb57e9	-0.10710127
137	0x3d7fd7bc	0.0624616
138	0x3ce385b5	0.027773717
139	0x3e0a4ed1	0.13506629
140	0x3cbae5e6	0.022814702
141	0x3d211253	0.039324116
142	0xbd90baef	-0.07066905
143	0xbb5ebf78	-0.0033988636
144	0x3bce362c	0.006293079
145	0xbc1f7e44	-0.009734694
146	0x3d3f242d	0.04666536
147	0x3ce8ce5c	0.028418712
148	0x3dd58f9f	0.10427784
149	0x3c8e968c	0.01740577
150	0x3d847109	0.06466872
151	0xbdce1cc8	-0.10064083
152	0x3bae0b59	0.0053114113
153	0x3dae68ee	0.085161075
154	0xbd7fccfb	-0.062451344
155	0x3d32b285	0.04362728
156	0xbe046089	-0.1292745
157	0xbd291daa	-0.041288055
158	0xbcf7b169	-0.030235963
159	0xbbe553d0	-0.0069985166
160	0xbd50bfa4	-0.050964013
161	0xbce586b8	-0.02801834
162	0x3d7b3cbd	0.06133722
163	0x3dc38919	0.09547634
164	0x3d81b004	0.063324004
165	0xbd90b3a2	-0.07065512
166	0x3df3509a	0.11880608
167	0x3df9985c	0.12187263
168	0xbd788f78	-0.060683697
169	0x3ced4e71	0.028968068
170	0x3e11e750	0.14248395
171	0x3bbcbabe	0.005759566
172	0x3de639bc	0.11241481
173	0xbda032a5	-0.0782216
174	0xbde4ae61	-0.11166073
175	0x3db0d473	0.086342715
176	0x3c609dda	0.01370951
177	0x3dbc0886	0.09181313
178	0xbd7d3e20	-0.061826825
179	0x3dd31da6	0.10308389
180	0xbdb07422	-0.086159006
181	0xbc70fa12	-0.014708059
182	0xbdad5649	-0.08463723
183	0xbd3f45d3	-0.04669745
184	0x3df57d50	0.11986792
185	0xbda2c06b	-0.07946857
186	0xbda1a87f	-0.07893466
187	0x3d04ca70	0.032419622
188	0x3d69bf51	0.05706722
189	0x3b6d615d	0.0036221363
190	0x3cee10d0	0.029060751
191	0xba222ef2	-0.0006186805
192	0xbd86146d	-0.06546865
193	0xbd9a722b	-0.07541307
194	0xbe1e09d8	-0.15433443
195	0x3d8df4b4	0.06931439
196	0x3dc838a0	0.09776425
197	0x3ce0c0b0	0.02743563
198	0x3dc4cc33	0.096092604
199	0x3d50b93e	0.05095791
200	0x3df8d371	0.12149704
201	0x3de34860	0.11097789
202	0xbcdd5b36	-0.027021032
203	0x3e005a02	0.12534335
204	0x3e13e4c7	0.1444274
205	0x3de7d938	0.11320728
206	0xbd667085	-0.05625965
207	0xbda87fb5	-0.08227483
208	0x3c937563	0.01800031
209	0xbdf5adcb	-0.11996039
210	0xbcb612f6	-0.022225838
211	0xbdc3aa9f	-0.09554028
212	0xbcb56eac	-0.022147499
213	0x3dca03ee	0.09864031
214	0x3ca3e75c	0.020007782
215	0xbd920942	-0.07130672
216	0x3ca5914e	0.020210888
217	0x3def0835	0.11671487
218	0x3d2de315	0.04245289
219	0x3ce1c650	0.027560383
220	0xbccc67ba	-0.024951804
221	0xbdaa444f	-0.0831381
222	0xbd9106ac	-0.07081351
223	0x3da52ecc	0.080655664
224	0x3d84c9d3	0.064838074
225	0x3c4e4042	0.012588562
226	0xbd318bd5	-0.043346245
227	0xbdd9c7a6	-0.10633783
228	0x3bfd8b0f	0.0077375243
229	0xbda96718	-0.08271617
230	0xba54616a	-0.0008101674
231	0xbd6b4208	-0.05743602
232	0xbd11bc60	-0.03558004
233	0xbdf0dd96	-0.11761014
234	0x3d3fb0f2	0.046799608
235	0x3c8ed13e	0.017433759
236	0x3d9a50a9	0.07534916
237	0xbc90b9f2	-0.01766679
238	0xbda78e6e	-0.08181463
239	0x3e0e9c3f	0.1392679
240	0xbd1b20ad	-0.03787296
241	0x3ce5a4f3	0.028032755
242	0xbc5672b1	-0.013088868
243	0xbdbf8bcd	-0.09352837
244	0xbe08aada	-0.13346425
245	0xbdedcf52	-0.11611809
246	0x3e006477	0.12538324
247	0xbdb307a6	-0.08741693
248	0xbd0f4210	-0.03497511
249	0x3dbcd22e	0.09219776
250	0xbe0ef08e	-0.13958952
251	0xbd8e902e	-0.06961094
252	0x3cfb2881	0.030658962
253	0x3dd6c381	0.10486508
254	0xbd528783	-0.051398765
255	0xbd0edc35	-0.034877975

lstm.bias_ih_l1 f4 [200]
0	0xbd8b85c8	-0.06812626
1	0x3ca7462d	0.020419205
2	0xbd43c0fe	-0.047791474
3	0x3df4b3c7	0.11948352
4	0xbd4d9bd0	-0.050197423
5	0x3da0d8be	0.0785384
6	0xbc03a920	-0.008035928
7	0x3d54fe43	0.052000295
8	0x3da58101	0.08081246
9	0xbdff2e4d	-0.12460003
10	0xbd6b330d	-0.057421733
11	0x3e0a0dea	0.1348187
12	0xbd8d233d	-0.06891487
13	0x3e0f9f7b	0.1402568
14	0xbdd4f701	-0.10398675
15	0xbd44643a	-0.047947146
16	0x3d868c1b	0.06569692
17	0x3c567baa	0.013091007
18	0x3d8c0b42	0.06838085
19	0x3dab67f4	0.08369437
20	0xbdeb4f5f	-0.11489748
21	0x3d854c1a	0.06508656
22	0xbe0f2e70	-0.13982558
23	0x3c913f00	0.017730236
24	0x3c968fbd	0.018379087
25	0xbd768aea	-0.060191073
26	0x3d2c8d4e	0.042126946
27	0xbbad4e6f	-0.005288891
28	0x3da3a4e4	0.07990435
29	0xbe11400d	-0.1418459
30	0xbcf39eff	-0.029738901
31	0xbcaae394	-0.02086047
32	0x3e0f2fd3	0.13983087
33	0xbb84b09e	-0.0040493747
34	0x3ccdbb70	0.025113791
35	0xbe0db293	-0.13837652
36	0x3c7ae341	0.015312971
37	0xbd0f17b4	-0.034934714
38	0x3b5afc17	0.0033414417
39	0x3e1e11dc	0.154365
40	0xbd22ff03	-0.03979398
41	0x3e0bad28	0.13640273
42	0xbddc8d97	-0.107691936
43	0xbd668792	-0.056281634
44	0x3dbc57d1	0.09196437
45	0xbdd1368f	-0.10215484
46	0xbc7744e3	-0.0150921075
47	0xbdcb18ae	-0.09916817
48	0xbd5d9bf4	-0.054103807
49	0x3c6c84ac	0.014435928
50	0x3c3adb94	0.011404891
51	0x3e0fd092	0.14044407
52	0xbe08ca1d	-0.1335835
53	0xbd6ce700	-0.057837486
54	0xbd449475	-0.047993142
55	0xbd75d86d	-0.060020853
56	0x3d30f657	0.043203678
57	0xbd4b3770	-0.049613416
58	0x3e1fa38c	0.15589732
59	0xbcdcaae1	-0.02693695
60	0x3d04d0ed	0.03242581
61	0x3d3030d7	0.043015327
62	0xbbe8cea6	-0.0071047125
63	0x3bd93c76	0.006629522
64	0xbd876e92	-0.066128865
65	0x3d6f7de6	0.058469675
66	0x3d04f0a0	0.03245604
67	0x3d9da5a7	0.07697611
68	0x3d61a21f	0.05508625
69	0x3d8b979a	0.06816025
70	0xbdea18a8	-0.11430484
71	0x3c08acea	0.008342007
72	0xbd5cdfc6	-0.053924344
73	0x3e05fc71	0.1308458
74	0x3dfdcfe0	0.12393165
75	0xbc83a7fe	-0.016071316
76	0xbd89f539	-0.06736226
77	0xbbd3eb5d	-0.0064672665
78	0xbdc0952e	-0.09403454
79	0xbdffb7b0	-0.124862075
80	0xbbf192c9	-0.0073722345
81	0x3e1909b3	0.14945106
82	0x3dad3615	0.08457581
83	0x3de645bc	0.112437695
84	0x3c5ba90a	0.013407001
85	0xbe023d7b	-0.12718765
86	0x3dea3e3d	0.11437652
87	0xbdb73bd8	-0.08946961
88	0xbdd5e0af	-0.104432456
89	0x3da84ea5	0.08218125
90	0xbd70757f	-0.058705803
91	0xbc0b988e	-0.008520259
92	0x3d19d305	0.03755476
93	0xbdc0ae32	-0.09408225
94	0x3d96451b	0.073373996
95	0xbdd2e401	-0.102973945
96	0xbc25121b	-0.010075117
97	0xbc092a17	-0.008371851
98	0xbda4f708	-0.0805493
99	0xbd2736da	-0.040823795
100	0xbdbd1a68	-0.09233552
101	0x3dbf69ed	0.093463756
102	0x3ddee709	0.1088391
103	0xbe2968a7	-0.16543828
104	0x3e0833a0	0.13300943
105	0x3b2f5213	0.00267518
106	0xbd74931d	-0.05971061
107	0xbe0dd7bc	-0.13851827
108	0xbe25a9e9	-0.16178097
109	0xbd3ddb34	-0.046351627
110	0xbd2b5bb0	-0.041835487
111	0xbe077fd8	-0.13232362
112	0x3ddd7a7c	0.10814378
113	0xbcf398ad	-0.029735887
114	0xbe244ddd	-0.16045327
115	0x3d5c7234	0.05381985
116	0xbe1b5361	-0.15168525
117	0x3d55ee1b	0.05222903
118	0xbc930bea	-0.017950017
119	0xbc209c20	-0.009802848
120	0x3b3b1d89	0.002855154
121	0xbcb59dff	-0.022170065
122	0xbdb469a1	-0.088092096
123	0x3e260469	0.1621262
124	0xbb2f8b59	-0.0026785939
125	0xbdda823d	-0.10669372
126	0xbd6b2846	-0.057411455
127	0x3cb1ba99	0.021695422
128	0x3d4868ad	0.04892795
129	0xbbba91a7	-0.0056936326
130	0xbd22d788	-0.039756328
131	0xbe1c6086	-0.15271196
132	0x3d80fa06	0.06297688
133	0x3e054b30	0.13016963
134	0x3d340d1e	0.043957822
135	0xbcd9f7ec	-0.026607476
136	0x3d529e12	0.05142028
137	0xbe031072	-0.12799242
138	0x3d89295e	0.06697343
139	0x3dfdc7a4	0.12391594
140	0x3ddea867	0.10871964
141	0x3d4c2901	0.049843792
142	0xbe0e8cb1	-0.13920857
143	0x3dd50465	0.10401229
144	0xbde31356	-0.110876724
145	0x3d1ce7bc	0.038306937
146	0xbb30556a	-0.002690638
147	0xbdcdf28c	-0.10056028
148	0x3de0eebf	0.10983037
149	0x3c221d18	0.009894632
150	0xbd017d00	-0.03161335
151	0xbe00d9ab	-0.12583034
152	0xbcc02bab	-0.023458323
153	0x3e18357f	0.14864157
154	0x3de27809	0.11058051
155	0x3df3a80b	0.11897286
156	0x3e213179	0.15741529
157	0xbdf03540	-0.11728907
158	0xbdb2f282	-0.08737661
159	0xbd17ae2e	-0.037031345
160	0xbd20e4bc	-0.039280638
161	0xbdd1d9ea	-0.10246642
162	0x3de83e15	0.11339966
163	0xb9257489	-0.00015779039
164	0xbd5c4fbc	-0.053786978
165	0x3ba557dc	0.005045874
166	0x3db7f648	0.08982521
167	0x3a8e739c	0.0010868195
168	0x3d08feea	0.03344623
169	0x3cc43214	0.02394966
170	0xbc6e6f2a	-0.014552871
171	0xbd2f5b3d	-0.04281162
172	0x3d831287	0.06400018
173	0x3d9a71e5	0.07541255
174	0xbd09e9c6	-0.03367021
175	0x3cf0c60f	0.029391317
176	0xbd95ef0b	-0.073209845
177	0x3c05ed4b	0.008174251
178	0x3be25bae	0.0069079017
179	0x3d97665b	0.0739257
180	0xbcd0eaf4	-0.02550266
181	0xbd9fafbd	-0.07797191
182	0xbc8f5bc4	-0.017499812
183	0xbdc29a9e	-0.09502147
184	0x3cb3270f	0.02186921
185	0x3d8a6b17	0.06758707
186	0xbd52d40a	-0.051471747
187	0xbc967b2d	-0.018369282
188	0xbe015583	-0.12630276
189	0xbd1ba29b	-0.03799687
190	0xbcc12f7f	-0.023582218
191	0x3c366b14	0.011133928
192	0xbdd48536	-0.103769705
193	0x3ddd1e7c	0.1079683
194	0xbd2a2a8f	-0.041544493
195	0xbd4cfcc6	-0.05004575
196	0x3df13d9f	0.117793314
197	0x3dce5f83	0.10076811
198	0x3d60a9f6	0.054849587
199	0x3d6034a9	0.05473772

lstm.bias_hh_l1 f4 [200]
0	0x3def0e29	0.11672623
1	0x3cece265	0.028916547
2	0xbd5a165c	-0.05324398
3	0xbd96472c	-0.07337794
4	0xbd15a144	-0.036530748
5	0x3db8b65c	0.09019157
6	0x3dfba51c	0.122873515
7	0x3d8c6287	0.0685473
8	0xbcb7cf00	-0.022437572
9	0xbe06ae04	-0.13152319
10	0x3d24c943	0.040231
11	0x3d450fd5	0.0481108
12	0x3c296533	0.010339069
13	0xbdf758c8	-0.120774806
14	0x3d3bdc01	0.04586411
15	0x3dd9f0cf	0.10641634
16	0x3e145a4e	0.14487574
17	0x3dd97d37	0.10619586
18	0xbd13974f	-0.03603297
19	0xbdd92ba9	-0.10604031
20	0xbb84eb26	-0.004056352
21	0xbbc0af26	-0.0058802543
22	0xbd9e4f51	-0.07729972
23	0xbd4a585a	-0.049400665
24	0xbd8f495c	-0.06996414
25	0x3c2f3525	0.010693823
26	0xbe088106	-0.13330469
27	0x3dd44ce5	0.10366229
28	0x3ddaeb6c	0.106894344
29	0xbc4a512b	-0.0123484535
30	0x3deddada	0.11614008
31	0xbc6be373	-0.01439749
32	0xbd0864a9	-0.033299122
33	0x3deff1b1	0.11716021
34	0x3c288f31	0.010288046
35	0xbd2551df	-0.04036128
36	0xbe00ebc7	-0.12589942
37	0x3e1b9949	0.15195192
38	0xbd60428e	-0.05475097
39	0x3d2c4476	0.042057477
40	0xbdc5a3ba	-0.09650369
41	0xbdfc02c7	-0.12305217
42	0x3e052b30	0.13004756
43	0xbc7e05f8	-0.015504353
44	0x3e06f23f	0.13178347
45	0xbde113cd	-0.10990105
46	0x3e0bb952	0.13644913
47	0xbd912c1e	-0.07088493
48	0x3db09a7e	0.08623217
49	0x3c318a0c	0.010836136
50	0x3d0f2b8a	0.03495363
51	0xbcc74657	-0.024325533
52	0x3d085234	0.03328152
53	0x3c7fd97d	0.015615818
54	0x3e0a9990	0.13535142
55	0x3cfb9125	0.030708859
56	0x3e20c592	0.15700367
57	0xbdd4c8b9	-0.10389847
58	0xbdc2e414	-0.09516159
59	0xbc6951d4	-0.014240701
60	0x3d26687a	0.04062698
61	0xbdea30ec	-0.11435112
62	0xbdd290cd	-0.10281525
63	0xbd7d05da	-0.06177316
64	0x3d404b7b	0.046946984
65	0x3dd67758	0.10471982
66	0xbd40212e	-0.046906643
67	0x3aa252f7	0.0012384345
68	0x3e19ed09	0.15031828
69	0x3e250aab	0.16117351
70	0xbe0140f3	-0.12622432
71	0xbd2f9244	-0.0428641
72	0xbd5d35fe	-0.05400657
73	0xbda45e79	-0.08025832
74	0xbb72bc07	-0.0037038343
75	0xbd3989b0	-0.045297325
76	0xbd65fdf2	-0.056150384
77	0xbde73ae3	-0.112905286
78	0x3dcd99dc	0.10039112
79	0x3de53fee	0.11193834
80	0xbca605d8	-0.020266458
81	0x3e1943e1	0.149673
82	0xbded4c9e	-0.11586879
83	0x3db90b5a	0.09035368
84	0x3e19d330	0.15021968
85	0x3d4b987e	0.049705975
86	0xbe00ea46	-0.12589368
87	0x3dbeafde	0.09310888
88	0x3c3db380	0.011578441
89	0x3e0b6443	0.13612466
90	0x3d80404e	0.06262265
91	0x3d16e3a1	0.036838178
92	0x3de1358d	0.10996542
93	0x3d60876e	0.054816656
94	0xbdbf11dd	-0.09329579
95	0x3c4af60b	0.012387763
96	0x3e20a50d	0.15687962
97	0xbdf87474	-0.12131587
98	0x3d2ab2a9	0.04167429
99	0x3db68e4b	0.08913859
100	0x3b8b48b2	0.0042506093
101	0xbdff0fe0	-0.124542
102	0x3d134def	0.035962995
103	0xbdf994c1	-0.12186576
104	0xbc5cbece	-0.013473226
105	0xbdec02ea	-0.11523993
106	0xbdca48a6	-0.09877138
107	0x3c5b24f8	0.013375513
108	0xbd724e9e	-0.059157006
109	0x3dc2971b	0.09501477
110	0x3c150df6	0.009097567
111	0x3d49f413	0.049305033
112	0xbdf84664	-0.12122801
113	0x3ba75bfa	0.0051074
114	0xbdaf050a	-0.08545883
115	0xbd965ec9	-0.073422976
116	0xbc8c35ae	-0.01711544
117	0x3d4d0a6d	0.05005877
118	0xbe0bc636	-0.1364983
119	0x3e007000	0.12542725
120	0x3d24386d	0.040092874
121	0x3e202afb	0.15641396
122	0x3b227d14	0.002479379
123	0xbd8a1539	-0.06742329
124	0xbe0e4b3f	-0.13895892
125	0x3d8a3d94	0.06750026
126	0xbd916479	-0.07099242
127	0xbe20fe38	-0.15721977
128	0x3e035e29	0.12828888
129	0xbc652e44	-0.013988081
130	0xbce33b41	-0.027738215
131	0xbcdd69f7	-0.027028067
132	0xbdd622b6	-0.10455839
133	0xbdb5d60b	-0.08878716
134	0x3dfa563d	0.1222348
135	0xbd97f41e	-0.074196085
136	0x3bd3a0fb	0.0064583994
137	0xbda874d5	-0.08225409
138	0xbdc0edf4	-0.09420386
139	0x3e1baf21	0.15203525
140	0xbde68f96	-0.112578556
141	0xbd0e483c	-0.034736857
142	0xbde4c767	-0.111708455
143	0xbd897fcb	-0.06713828
144	0xbcbb393a	-0.022854436
145	0x3ac748dd	0.001520421
146	0xbe101c29	-0.14073242
147	0x3ce15bd3	0.027509606
148	0x3b81f3e2	0.0039658407
149	0x3dd6d0e3	0.10489061
150	0x3d838ae1	0.064229734
151	0xbd208f03	-0.039198887
152	0xbd71c627	-0.059026863
153	0x3db009a8	0.08595592
154	0xbcb8271d	-0.022479588
155	0xbe1e9535	-0.15486605
156	0xbdac839e	-0.084235415
157	0xbd8320da	-0.0640275
158	0xbdc0eab3	-0.09419765
159	0xbc9e6ed3	-0.019339954
160	0xbd776952	-0.060403176
161	0x3e0d4072	0.13794115
162	0x3debc4f1	0.11512173
163	0x3df07c65	0.117424764
164	0xbdc8c22e	-0.09802662
165	0x3d9b777f	0.075911514
166	0xbb8a7f0f	-0.0042265723
167	0xbd5fd6f4	-0.054648355
168	0x3e062ce4	0.13103062
169	0xbcf10578	-0.029421553
170	0x3d1a6eb1	0.03770322
171	0x3cff7eee	0.031188454
172	0x3dc917a9	0.09818966
173	0xbb25f73b	-0.0025324363
174	0x3d92a0a7	0.07159548
175	0x3b8aad7a	0.004232106
176	0xbd12e390	-0.03586155
177	0x3ddc80c3	0.10766747
178	0x3d6e48b5	0.058174808
179	0xbe0c2713	-0.1368678
180	0x3e178419	0.14796485
181	0x3d5c9b02	0.053858764
182	0x3da8a512	0.0823461
183	0xbc273d48	-0.010207482
184	0x3ca85a00	0.020550728
185	0x3df2ee24	0.11861828
186	0x3dbd9e5a	0.09258719
187	0x3e0eddb2	0.13951758
188	0x3d6a6d89	0.057233367
189	0xbc998445	-0.018739829
190	0x3db70499	0.08936424
191	0xbe112272	-0.14173296
192	0xbd7c6623	-0.061620843
193	0x3d87d384	0.0663214
194	0x3d0b3a77	0.033991303
195	0xbdadb816	-0.08482377
196	0x3e19daf9	0.15024938
197	0x3d860235	0.0654339
198	0x3bcc6cf1	0.0062385728
199	0xbe064cef	-0.13115285

fc.weight f4 [1, 50]
0	0xbd934b0c	-0.071920484
1	0xbd4ebbb5	-0.05047198
2	0xbcaf7950	-0.021420151
3	0xbdb1404e	-0.08654843
4	0x3d9d8c02	0.0769272
5	0x3dfdff1e	0.12402175
6	0xbd78ab9f	-0.060710546
7	0xbda686a0	-0.081311464
8	0xbdd3a7bc	-0.10334727
9	0x3e05d004	0.13067633
10	0xbd078344	-0.03308417
11	0xbe01562d	-0.1263053
12	0xbdf85328	-0.12125236
13	0xbe139719	-0.14413108
14	0xbc5b53c9	-0.013386675
15	0x3d8a9919	0.06767482
16	0xbd12c52a	-0.03583256
17	0xbde846df	-0.113416426
18	0xbde423c7	-0.111396365
19	0x3dfe42ca	0.12415083
20	0x3c6af4ed	0.014340621
21	0x3d76ec27	0.060283806
22	0x3dc9e4c4	0.09858087
23	0x3d9e49dd	0.07728932
24	0xbc8edf20	-0.017440379
25	0xbd3241fd	-0.043519963
26	0x3e002ffe	0.12518308
27	0xbe1d092a	-0.15335527
28	0x3e0f3afc	0.13987345
29	0x3baef361	0.0053390716
30	0xbdc5c6c0	-0.09657049
31	0xbe198073	-0.14990406
32	0xbd8bcdc0	-0.06826353
33	0x3d9178f7	0.0710315
34	0x3dcedfb2	0.1010126
35	0x3df0709e	0.1174023
36	0xbd772fb1	-0.060348216
37	0xbe022bd4	-0.12712032
38	0x3b3ab85d	0.0028491237
39	0x3d6e36d6	0.058157764
40	0x3df4cfee	0.11953722
41	0xbe05b773	-0.13058262
42	0xbd9ca7a5	-0.07649163
43	0xbde41bee	-0.1113814
44	0xbdadd940	-0.08488703
45	0xbc846ed9	-0.016166138
46	0xbccf8c78	-0.025335535
47	0x3e123080	0.14276314
48	0x3dfcde1c	0.123470515
49	0xbd716dbf	-0.058942553
