data/models/AAPL_20251216_174446.pt (torch, 129173 bytes, 9 tensors)

lstm.weight_ih_l0 f4 [200, 1]
00000000: 0784 f4bd 137a 603d cfd4 abbd 1607 293d
00000010: 08e8 963d b5d4 e53d 2526 693d f9d4 af3d
00000020: 26dd ecbd 34ec 99bd a167 a7bd 8128 b7bb
00000030: 09d4 d1bd ccbf 6f3c 4726 7d3d 8782 113e
00000040: 16c6 b73b 0e51 bb3d 836d 8fbd 2e20 00be
00000050: d2df 69bd 16f9 bcbd 3221 af3c 5db4 2bbd
00000060: 7323 fd3c 7b9e f13d ef43 023d 46fc 4fbd
00000070: 9f50 d93d f3a0 633c edb0 bf3d efc4 493c
00000080: 0e96 f4bd 1535 0abe 66af e1bd 8b1f 8b3d
00000090: c161 8fbd 48c0 0fbe 864d e83c a2f6 bc3d
000000a0: d2c5 82bc 5c88 e43d ede6 0abe 9deb d5bd
000000b0: dd9a 573d 223d 07be f4c6 83bc a471 e5bd
000000c0: 7701 0a3e d638 84bd 95bd 10bc 7c64 913d
000000d0: fba0 ee3d 4415 033c ecb7 6e3d f9d1 15be
000000e0: 8199 873d 5457 053c c131 9f3d 2f58 6cbd
000000f0: 60ab f83c f682 ac3d 2b21 aa3d 2290 fa3c
00000100: 8756 aa3b ea90 a7bd f5ff da3d 5f5c 7f3d
00000110: 0f78 11be 8669 50bd 3885 a2bd 0559 1e3e
00000120: 5137 90bd d391 f03d ce8c fb3c 24ea c2bd
00000130: c082 a0bd 438f 0fbd 045a e3bd 790b b33d
00000140: be2d 733a 774d c93d 18ef 0b3e fdf4 003e
00000150: 8a54 543b a028 603d c256 f6bd aa4a d1bc
00000160: 7ff1 36bc efdb c43d 9803 c9bd bf00 02bd
00000170: 306e c43d 2b8b e4bc 87d5 83bc 2214 47bb
00000180: 5b49 f0bd 8977 193e cdc1 9d3d 4430 16be
00000190: 6f52 f4bd 255f cbbd fee7 823d 5a97 043d
000001a0: 3f76 813c 0c29 9f3d 7dd8 f93c 9bed 173d
000001b0: 254a cd3d 8404 ef3d 29e9 21be 5d43 023d
000001c0: 51da d83d 6bb5 0cbe 6e69 5bbd dabf 713d
000001d0: 64de 11bd 1ef1 96bd f330 f23d 60dc 29bd
000001e0: 1bcc 8c3d 7f5f 8d3d 268b 60bd f8b3 e0bd
000001f0: a61c 0b3e 1df6 fabd 47d2 dcbd 94ab 0e3e
00000200: 4fc7 d33c 1a8f d9bc 3d67 5abd f8f8 083e
00000210: 7006 86bd 31b3 ca3d 69c0 003d 5d50 c43d
00000220: e3d6 c33d eea6 50bd a727 0f3e 39cc 713c
00000230: cfc7 e1bd fd05 bd3d 24f0 b0bc 0002 f73d
00000240: 57ee 6a3d 8cde 923d cf62 023e c3b6 5c3d
00000250: 8dc5 19bd fb21 d23d 84eb 9abd e09c cebd
00000260: 9896 d23d 5721 bbbd 363e 47bd 838f d13d
00000270: 8b91 73bd 8f0d 73bd ae67 843d c23c 5c3d
00000280: 474f 0e3e 2b44 c93d 7348 dfbd 4436 8fbb
00000290: b7bd e1bd 28f5 a2bd eea2 03bd 74d1 84ba
000002a0: f858 c2bd 51df c4bd 1414 e53d a142 d7bd
000002b0: b3e0 c63d 8c56 d63d b8b9 e7bc 7b70 debd
000002c0: 211a 973d 5607 193e 5300 163d e9e1 523d
000002d0: 1628 a83d 1aba dabd c684 b4bd 47dc 0b3e
000002e0: 7d9d dfbd 6039 093e 398c 7b3d 4db5 10be
000002f0: a843 9b3d 6d79 7a3d 69f1 68bd 0726 09bd
00000300: 8bc9 b53c fad0 02be 8a2e c5bd c0a5 553d
00000310: 6323 f33c 28cf 5cb9 e934 20bd 523b 18be
-0.11939245 0.05480392 -0.083901994 0.041266523 0.07368475 0.11222211 0.056921143 0.08585543
-0.11565618 -0.07515755 -0.081740625 -0.0055895452 -0.102455206 0.01463313 0.061804082 0.14209948
0.0056083305 0.09146319 -0.070033096 -0.12512276 -0.057098217 -0.09227197 0.021378133 -0.041920055
0.030900693 0.11797806 0.031803068 -0.050777696 0.106110804 0.013893354 0.09359918 0.012315019
-0.11942683 -0.13496812 -0.11019783 0.06793126 -0.07001067 -0.14038193 0.028357279 0.09226729
-0.015963469 0.11158821 -0.13564654 -0.1044533 0.052637924 -0.13206914 -0.01608608 -0.11203316
0.13477121 -0.06456153 -0.008834262 0.07099244 0.11651798 0.008000676 0.05828087 -0.1463088
0.066210754 0.008138496 0.07773162 -0.057701286 0.030355155 0.08423416 0.083071075 0.030586306
0.005198303 -0.08181937 0.10693351 0.06234395 -0.14205955 -0.050881885 -0.07935566 0.15463646
-0.07041801 0.11746564 0.03070679 -0.09517315 -0.078374386 -0.035048734 -0.111011535 0.087424226
0.00092765305 0.09829228 0.13665426 0.12593456 0.0032399022 0.054726243 -0.120282665 -0.025548298
-0.011165976 0.096122615 -0.098151386 -0.031738993 0.09591329 -0.027898392 -0.016093029 -0.003037699
-0.117327414 0.14987005 0.0770298 -0.1466685 -0.119297855 -0.09930257 0.06391905 0.032370903
0.015803454 0.07771501 0.030498737 0.037091833 0.100239076 0.11670783 -0.158116 0.031802524
0.105885155 -0.1374108 -0.053567342 0.059020855 -0.03561248 -0.07370208 0.118257426 -0.04146993
0.068748675 0.0690298 -0.054820202 -0.10971826 0.13585147 -0.12253974 -0.10782295 0.1393264
0.025851874 -0.026557494 -0.053321112 0.13376224 -0.065441966 0.09897459 0.031433497 0.095856406
0.09562471 -0.050940447 0.1397997 0.014758163 -0.110244386 0.09229658 -0.021598883 0.12060928
0.057356205 0.07171354 0.12733005 0.053885233 -0.037541915 0.102603875 -0.07564452 -0.10088515
0.1028263 -0.091372184 -0.048643313 0.10232451 -0.059464972 -0.059339102 0.06465088 0.05376888
0.1389743 0.09827455 -0.109024905 -0.0043704826 -0.11022513 -0.07956916 -0.032137804 -0.0010133223
-0.09489626 -0.09612907 0.1118547 -0.10510755 0.09710827 0.10465726 -0.0282868 -0.10861298
0.073780306 0.14944205 0.036621403 0.051484976 0.08210771 -0.10680027 -0.08814387 0.13658248
-0.109187104 0.13400793 0.061413024 -0.14131661 0.07581264 0.061150957 -0.05687085 -0.03348353
0.02219083 -0.1277503 -0.09628017 0.052160025 0.02967996 -0.00021058007 -0.03911296 -0.14866379

lstm.weight_hh_l0 f4 [200, 50]
00000000: e8cf ad3d c458 ebbd 2eb7 4abd 390e 00be
00000010: 284c d3bd 6bf1 e93d ec3b 043e 054d 943d
00000020: e049 cabd 6765 b53d 2aa7 af3d 855a 5ebd
00000030: e833 88bc 5eb7 dabd 272b 44bd 4eed b4bd
00000040: 2fac 9cbc a202 723c dd9b 683d 8820 a5bd
00000050: acc5 e4bc 95c4 053d d95e c03c c277 c53b
00000060: b349 6bbd 00fd d33d 6b04 0a3d 6101 14be
00000070: 7411 c9bd 8926 1d3d fc19 23bc 52a6 c03d
00000080: 20f4 12be f3cd e03d d5d9 53ba 4745 b8bd
00000090: 10c2 3cbc bb81 e13d e40a f83d a5f1 fb3d
000000a0: 5f46 0bbe 0827 d43d 6a63 f03d 3c45 8d3d
000000b0: 2329 c63d b980 453c 6e9b 01ba fb9b 863d
000000c0: 940b 32ba 4c0b 91bd 7ecc d7bd 2b34 eabd
000000d0: 286a 01be c8ed 573d 0e9e d0bd 2084 bd3d
000000e0: 442e 89bc 0c96 5d3d 137e 2dbd b173 14bc
000000f0: c4e5 eabd b816 ff3c 02f2 03be 20c4 cebd
00000100: b09f eabd 3812 b9bb 1d3a febd faa5 fdbc
00000110: 3da3 c6bd 866d 743d 8862 0fbe 23ea 8c3d
00000120: 0977 0ebe 68e0 fabd 3835 0fbd 9c0c dabd
00000130: ab2a c3bd b37e 623d 332b 843d 1eb3 cd3d
00000140: 9144 7abd 939d 143b 252d 563d d984 2a3d
00000150: ab35 923d bf1c d0bd 1a66 8b3d 22a7 0bbe
00000160: 273a 883d 8d9b 98bd abe8 20bd 87ab a9bd
00000170: 3334 563d c103 d93d defb 633d d24a e03d
00000180: 5a18 ebbd 3053 ec3d 60da 1b3d 9ed8 c43d
00000190: e939 a53c 47f4 1fbb 0c51 d7bd a04c 07be
000001a0: 4494 fc3d 5963 ad3d 6260 57bd 1410 d43c
000001b0: 7ace 5b3d 07b6 ddbd 474b 643d e54d c93d
000001c0: e741 a6bd d183 db3d 7fc4 d63d 050d 5ebc
000001d0: 6d37 bd3d ec70 e2bb ff4d c93d 3944 553d
000001e0: a5da 66bc 5467 c5bd ca9a cbbd e14c 83bc
000001f0: e758 643d 2b3f a03d 72a5 e4bb 472e e3bd
00000200: 7745 8d3d e15c efbc df01 07bd 8ea4 f039
00000210: 6d90 cebd 4ab1 583d 9482 cf3c 5453 203d
00000220: 01f6 273b fd34 05be 579b 9fbd dbbe e83d
00000230: 7dc7 0a3c e5f6 89bd 5471 70bd 2fbd 95bd
00000240: 8415 d9bd 8b52 7b3b 0267 b6bc e1da 8c3d
00000250: 1271 0a3e 99c1 da3b c80b 693c 40a7 8a3d
00000260: a639 063e 2b97 883c f6bc 3f3d 3ad8 78bd
00000270: eba9 e9bd d731 acbc 0933 c73d f59a 07be
00000280: 7078 c1bd f7dd a93d 9e96 303d 6838 12be
00000290: d337 353d eb3d 07be d81c f33d 9da6 fb3c
000002a0: 3c55 883d bd2c 673d ae92 c73d 3c37 963d
000002b0: 59e5 05be 4d61 7a3c 96cc 5f3c fd85 98bd
000002c0: e38e f4bd ae61 403c 5b20 5f3d f574 7c3c
000002d0: 64ab 0cbd 3091 b23d 273a ad3d 11b7 063e
000002e0: 3ce6 dc3d bf25 01be 2b13 ad3d 7cb9 6e3d
000002f0: 5019 f2bd 7dec 1ebe 540e cf3d 2029 1f3d
00000300: 175d ba3d 0cb9 913c 788a dbbd f1d7 a9bd
00000310: 977e eb3c bea1 b1bc f18a 623d 6172 383d
00000320: 0496 ce3d 821a c3bd 630c d43d 5423 d0bc
00000330: 0681 6ebd 4479 1a3d 4adf 063d 1a2a 71bd
00000340: a3a4 093e f02e 6fbd 80fb 203d d598 0abe
00000350: 6139 103e 9132 5b3d bced cdbd 51aa d23c
00000360: 9749 a83d 17b2 a63b 77be c9bd cb02 96bd
00000370: 686f 803d ce43 c8bd e223 febc ebc2 45bc
00000380: d7d1 ee3d 8ba1 21bd 9177 bebd 84bd 01be
00000390: 4892 fabd aad7 7bbb 0596 b6bb d579 42bd
000003a0: d6bc 86bc 628d dbbc 88f3 f43d a6ba 03be
000003b0: d26c d43d 8c7c cfbd 3a06 9abd 78b6 d7bd
000003c0: 7c7b ee3d 14d0 26bd 2aba 14bd 3925 a1bd
000003d0: dcda 063e 0569 623d be79 8a3c 160b a0bc
000003e0: 3f57 bbbd dcb8 c23d 7ffd 05bd 08d2 f1bd
000003f0: 697a 20be add6 e9bd 268a 773d 566b da3d
0.084869206 -0.1149154 -0.0494911 -0.12505426 -0.1031726 0.11423 0.12913483 0.07241253
-0.09877372 0.088572316 0.08576806 -0.054285545 -0.016626313 -0.10679506 -0.047892716 -0.08834325
-0.019125072 0.0147711355 0.056789268 -0.080628455 -0.027926289 0.03265818 0.023482727 0.006026239
-0.057443332 0.1035099 0.03369562 -0.14453651 -0.09817782 0.038366828 -0.009954926 0.09406723
-0.14350939 0.10976782 -0.0008081471 -0.089975886 -0.0115208775 0.11011072 0.12111452 0.123019494
-0.13601063 0.10359007 0.11737712 0.06897971 0.09675815 0.012054616 -0.00049441203 0.0657272
-0.00067918864 -0.07082233 -0.10537051 -0.114357315 -0.12638152 0.052717 -0.101863965 0.092537165
-0.016745694 0.054098174 -0.042356562 -0.009060786 -0.114696056 0.031138763 -0.12885287 -0.100960016
-0.11456239 -0.005647924 -0.12413428 -0.030962933 -0.09699104 0.059674762 -0.1400243 0.068805955
-0.13912596 -0.12249833 -0.034962863 -0.10646936 -0.09529623 0.05529661 0.06453552 0.100439295
-0.061100546 0.002267693 0.052289147 0.0416306 0.071391426 -0.10161733 0.06806584 -0.13637975
0.06651717 -0.07451544 -0.03928439 -0.08284669 0.052295875 0.10596419 0.05566012 0.10951771
-0.11479254 0.11539304 0.038050056 0.09611629 0.020169215 -0.0024407075 -0.10513505 -0.13212824
0.12332967 0.08466215 -0.052582152 0.025886573 0.05366371 -0.108257346 0.055735853 0.0982931
-0.081180386 0.10718501 0.104866974 -0.013552909 0.09239087 -0.006910434 0.0982933 0.052067015
-0.014090215 -0.09638849 -0.09941633 -0.01602787 0.055748846 0.07824548 -0.0069777304 -0.11092811
0.06898015 -0.029219093 -0.03296077 0.0004589897 -0.10086141 0.05290345 0.02533082 0.039141968
0.0025628807 -0.13008495 -0.077933006 0.11364528 0.008470413 -0.067365445 -0.058701828 -0.073114745
-0.10599807 0.003834876 -0.022265915 0.06877685 0.13519695 0.0066759107 0.014224 0.06770182
0.13107929 0.016673645 0.046811067 -0.060753085 -0.114093624 -0.02101986 0.09726531 -0.13242705
-0.094468 0.082942896 0.04311239 -0.1427933 0.04424269 -0.13207214 0.11870736 0.030719096
0.06656882 0.05643915 0.09744774 0.07334754 -0.1307577 0.015281987 0.013659617 -0.07447431
-0.11941316 0.011742039 0.054474216 0.015408744 -0.03434314 0.087190986 0.08458357 0.13155772
0.10786101 -0.12612055 0.084509216 0.05828236 -0.11821234 -0.155199 0.10110155 0.03885758
0.09099787 0.017788433 -0.1071977 -0.08293141 0.028746886 -0.02168357 0.055308286 0.045030955
0.10087207 -0.0952654 0.10353925 -0.02540747 -0.058228515 0.037713304 0.03292779 -0.05887804
0.1344171 -0.058394372 0.03930235 -0.13534863 0.14084388 0.05351502 -0.1005511 0.025715979
0.08217161 0.005087148 -0.098507814 -0.073247515 0.06271249 -0.09778558 -0.03102297 -0.012070398
0.116611175 -0.0394607 -0.09300149 -0.1266995 -0.12234932 -0.0038428106 -0.005572083 -0.04747947
-0.016447466 -0.026800815 0.119605124 -0.1286417 0.10372318 -0.10131177 -0.07520719 -0.1053285
0.116446465 -0.040725783 -0.036310352 -0.07868428 0.13169426 0.055275936 0.016903754 -0.019536536
-0.091475 0.095079154 -0.032712456 -0.118076384 -0.15671696 -0.11417899 0.060434483 0.10665004

lstm.bias_ih_l0 f4 [200]
00000000: 3c20 9e3d 6c33 8cbd a561 113e 91cb 28bd
00000010: 9ddd e7bd b9e6 543c 0299 b7bd 2ea8 a73c
00000020: 04e2 8f3d 5627 6e3d f82e 59bd 57b0 f23c
00000030: 2bb8 cbbd 389b d13d d6db 753d 6402 5c3d
00000040: 0a49 01bd 7969 17be be7a 39bd cfc4 a2bd
00000050: 08e0 f63d 4c38 e2bd ab5f f33d d69d 4b3d
00000060: 4c78 15be 548c abbd dd95 cc3d 7649 b4bd
00000070: 6655 d6bc 4a96 97bd 7fd3 24bd f1b3 adbd
00000080: f04a e63c 6b3b 5b3d 32e4 0d3e b65e e23a
00000090: 7020 1b3e 5594 893d 0d44 e73d 1e68 ca3d
000000a0: c8eb c5bc 561c 49bd e509 143c 21db 803d
000000b0: 4e5f 0f3e c048 9fbd 2a45 31bd 345e d1bd
000000c0: 3261 fcbd 971c b23d d0d1 96bd a0c0 95bc
000000d0: 64a1 9bbd 2703 c33d 74e2 35bd 68aa cc3c
000000e0: 6e8d dfbd 8452 d43d 5eb9 083e ed65 b83c
000000f0: 93bb 283d 983d 4bbd 28b4 a8bd dcd4 483d
00000100: 8b12 a2bd eabc 913c 1649 b53d 7ce8 933d
00000110: 688a 19be 2305 ac3d 33da e6bc 4aef 90bd
00000120: 8002 c2bd 9b03 96bd 9514 e5bd 62b1 c63d
00000130: f5dd 123e f57d 0fbd 27b7 ad3d c34b 7e3d
00000140: 3cdd e13d a114 31bc 0853 dcbd 6482 a4bd
00000150: 5f97 4abc 5a4a 863c acc5 bd3d b8a0 cfbd
00000160: dae9 083e 4d15 8c3d 6744 44bd 1076 af3d
00000170: cf80 a43d f8a9 f4bc c972 803c 4167 ef3d
00000180: 938a de3d 3ca1 c8bd e54b 40bd 222d bbbd
00000190: 74f1 bfbd c87e 8a3d a1fb 5dbd 8571 edbc
000001a0: 318b c4bd b4bd ab3d c4cf 11bd fb1d ce3d
000001b0: 2ac7 993d 1cde 98bd 935f 16be 907d d1bd
000001c0: b86c 763c 75da 1d3c e96a afbd 7174 ec3d
000001d0: 6aef c83d fa5b 4b3d 2676 5bbc edca dbbd
000001e0: 9c9e 173e f28a e33d 7af3 3fbd d815 e23c
000001f0: 9ac1 e4bd 766e cf3d e6b0 1dbd 6fb9 983d
00000200: 2b83 f6bd 7370 8a3d bfb5 f33d 4d91 5d3d
00000210: d1a3 9c3d 6892 733d 8b2f ab3d f52d 7e3d
00000220: d6a7 8e3d 7b67 bdbc aa01 e63d 2b46 a9bd
00000230: 9c2e c73d 07d1 ff3d 919f cdbd dd71 e0bd
00000240: 55c9 6fbd 2a57 de3d dc32 db3d 7116 bcbd
00000250: 21fb febd a66b 97bc 836e dd3d 42c6 053d
00000260: 30b1 f23d 17af b9bd fd65 ab3d b5b2 3f3d
00000270: f3bf 0abe 8849 c3bd 83e5 1f3e f431 02be
00000280: 3d19 eabd 9a9d a83d 435a e23d 0ae3 02bc
00000290: 9a4b 7bbd b7f6 1cbd 83c2 9a3d 7969 5cbd
000002a0: 9f78 e83d 9c04 56bd 3b24 6ebc 8d58 9a3d
000002b0: 4826 263c 678d 0b3d 21d2 6a3d 4f08 913c
000002c0: 2963 61bd e778 de3d 4857 743c bf0a 153e
000002d0: 01cb 7dbc 241e 96bd 6526 89bd 1ee9 9fbd
000002e0: d552 c8bd 6bea 603d 1be5 d0bd 4cf0 b1bc
000002f0: 7fe1 3cbd ecc8 a1bb 3c01 13be 3992 bd3c
00000300: fb5a 6bbd 4a34 aabd 9422 f8bc 2185 d6ba
00000310: 12cb cbbb e6ab 84bd 7160 763d bf7c 8e3d
0.07720992 -0.068457454 0.14197405 -0.04120976 -0.11321566 0.012994462 -0.08964731 0.020465937
0.07025531 0.058142982 -0.05302331 0.029625101 -0.099472366 0.10234684 0.060024105 0.053713217
-0.031563796 -0.14786328 -0.04528307 -0.079476945 0.12054449 -0.11045894 0.118834816 0.04971107
-0.14596671 -0.08376375 0.09989522 -0.08803074 -0.026163768 -0.07401712 -0.04024076 -0.08481587
0.028111905 0.053523462 0.13856581 0.0017270658 0.15149093 0.06717745 0.112922765 0.0988314
-0.02416028 -0.04909929 0.009035562 0.062917955 0.140012 -0.07777548 -0.04327885 -0.10223046
-0.12323226 0.08696859 -0.07364237 -0.018280327 -0.07599142 0.09522086 -0.044405416 0.0249836
-0.109156474 0.10367301 0.13351962 0.02250954 0.04119451 -0.049619287 -0.08237487 0.049031124
-0.07913693 0.017790277 0.08851831 0.07222077 -0.14994204 0.08399417 -0.028180217 -0.07076891
-0.09473133 -0.073249064 -0.11185566 0.09701802 0.14342482 -0.03503223 0.08482199 0.06208397
0.11028525 -0.010808141 -0.107580245 -0.080326825 -0.012365191 0.016392875 0.092662185 -0.101380765
0.13370457 0.0684 -0.047916796 0.085674405 0.08032381 -0.029866204 0.015679734 0.11689616
0.10866275 -0.09796378 -0.04694738 -0.09139468 -0.093722254 0.06762463 -0.05419505 -0.028984794
-0.09596861 0.083857924 -0.03559853 0.10064312 0.07508691 -0.07464239 -0.14684896 -0.10229027
0.015040569 0.009634604 -0.08565313 0.11545647 0.098112896 0.049648263 -0.013394868 -0.107320644
0.14806598 0.11110486 -0.046863057 0.027598307 -0.11169739 0.101284906 -0.03849878 0.07457244
-0.12036737 0.06759729 0.118999 0.054093648 0.07648433 0.059465796 0.083586775 0.062055547
0.06965606 -0.023120632 0.11230786 -0.082653366 0.09725687 0.12491041 -0.100402005 -0.10959218
-0.058541615 0.10856469 0.1070306 -0.09183968 -0.12450243 -0.018483948 0.10812094 0.032659777
0.11850202 -0.09066599 0.08369062 0.046801288 -0.13549785 -0.09535509 0.15614896 -0.12714368
-0.11430595 0.08233185 0.11052372 -0.007988701 -0.061351396 -0.038321223 0.075566314 -0.053811524
0.11351132 -0.05225049 -0.014535005 0.07536421 0.010140963 0.0340704 0.0573293 0.017704157
-0.055026207 0.10862904 0.014913388 0.1455488 -0.015490294 -0.073299676 -0.06696776 -0.078081354
-0.09781424 0.05491106 -0.101999484 -0.021721028 -0.046113487 -0.004937282 -0.1435594 0.023141013
-0.057459813 -0.083107546 -0.030289926 -0.001636658 -0.006219276 -0.064780995 0.060150567 0.06957387

lstm.bias_hh_l0 f4 [200]
00000000: 8177 55bd dcae d7bd 6e05 b9bc f11a 1bbd
00000010: ad71 8f3d 7612 89bd 4999 12be 3d83 cfbd
00000020: c59c 013e 8abb c83c fecb 54bd 8f00 d33d
00000030: 8328 21bc 5ebc 7cbd ef1b 043e 2d46 86bc
00000040: 2e6e 5fbd 931e a53d 4b54 f53c b1d5 9bbd
00000050: 60fe e0bc 6451 083e fcb1 933d 2f6b 783d
00000060: 86eb 72bd 1f7a 4f3d 894c e03d 3450 50bd
00000070: a6d1 cb3d 9003 e53d a621 d0bd 9597 e7bd
00000080: 412c 1d3d cdff c63d 5cd8 1cbd 70fa 22bb
00000090: 9762 fe3d 8fe6 a7bd a633 acbc 5b5b 7c3d
000000a0: e6a2 023e f655 46bd 70ca eabd ff10 b93c
000000b0: e142 273d 0156 5b3d 3e6d 563d fa0e 0c3e
000000c0: 195b d0bd 2b73 be3d 596c ca3d d3c1 063e
000000d0: bda2 813c f700 9f3d c6cb 283d b192 443c
000000e0: 0bd0 913c 9988 a13a ff4c 543c b92d b8bc
000000f0: 0156 853d a2a9 bdbd 66d5 d83d 17d7 88bd
00000100: 48f0 c2bd 8014 1a3e 7e69 e83d 5cae b9bd
00000110: fa8c 05bd a036 ba3c dfc1 833d 8bae 143e
00000120: 8f4b 363d 0c1c 6e3d f57a 3fbd 64e7 5b3d
00000130: 7ec9 e6bd d9b9 543c d143 a23d 4ea5 5fbd
00000140: bb7e bdbd fa5b 6a3d 7f52 01bd 5017 ffbd
00000150: b3c8 a4bc ebb4 163e c277 b3bd ee7f 9b3d
00000160: c08d dbbc a549 f1bd baa5 abbd 137a 40bd
00000170: 0a4a 00be cfd9 813d d127 203e 0947 d43d
00000180: edc7 753d 30a8 59bc 13b9 673d 20f8 02bd
00000190: 0ffa 013e 3d71 4b3c 7090 df3c acc7 113d
000001a0: a0d9 0a3e 5c82 bbbb 5fd9 9bbd 40a9 103e
000001b0: 8f83 123e 2dea e93d 126b abbd 978a 303d
000001c0: 92f6 163e 2132 273d 9df3 0dbd 4d0d fd3d
000001d0: 4fe9 073e ab35 e5bc a7b5 82bd 7345 d03c
000001e0: 2587 28bd b83f 393c 4c8e e9bc 1fae 80bd
000001f0: 263c fcbd e046 93bd 2168 25be 39c8 eabc
00000200: 841f 0c3e 78ec 1b3e 0e80 d5bd e26e d0bd
00000210: 23e4 a73d b51e 17be a18b f83d e1c7 21bd
00000220: 36d4 433d 9fd9 c7bc 24ce d6bd bb3b d83d
00000230: 1fb8 aa3c 5974 d63d 0502 ef3d 55a7 12be
00000240: 2702 a7bd b7dd 1ebe 6346 9e3c 68d3 7cbc
00000250: d488 2c3d 17c0 853c 4d61 b6bd 644b 7d3d
00000260: 499d cb3d 5a68 763d 743f 003d b1f4 233d
00000270: a0d7 8a3d 4bd3 0d3e aefd 003c 793c 33bd
00000280: 5119 8ebd 0dd0 fbbd 262a b6bc 015f 21bc
00000290: 784a 82bd 390f 02be fa59 123e eb46 03bd
000002a0: a955 bb3d 2b9e 853d bb3a f23d 2e95 0b3e
000002b0: 012d 15be 993f 213e 8499 2dbd c372 25bc
000002c0: 6130 073e d58e e93c a273 08be 4fc1 ec3b
000002d0: ede7 0d3d c0b4 b93c 13fa 9ebd a3f9 df3c
000002e0: eb20 ba3d a529 323c baa7 51bd 74d8 fe3d
000002f0: f815 533b a7b2 d33d ecdc 803c 852a b63d
00000300: 4f09 a83d 259f 89bc 6bb0 edbb 0839 91bd
00000310: 9d44 e13d 1499 1f3e 5092 85bd d741 593d
-0.05211592 -0.10531399 -0.022585597 -0.03786749 0.07004104 -0.06692974 -0.14316286 -0.101324536
0.12657459 0.024503488 -0.051952355 0.10302841 -0.009836319 -0.06170308 0.12901281 -0.016390884
-0.054548435 0.08062472 0.02994742 -0.07609118 -0.027465045 0.13312298 0.07211682 0.060649093
-0.059306644 0.050653573 0.10952098 -0.050857738 0.09952097 0.1118232 -0.10162668 -0.11308209
0.038372282 0.09716759 -0.038292274 -0.002486851 0.12421148 -0.081982724 -0.021020722 0.06161056
0.12757453 -0.048421822 -0.11464393 0.022591112 0.040835265 0.053548817 0.052350275 0.13677588
-0.101736255 0.0929931 0.09883947 0.13159876 0.01582467 0.07763856 0.04120996 0.011997865
0.017799398 0.0012324034 0.01295781 -0.02248274 0.065105446 -0.092608705 0.105875775 -0.0668165
-0.09518486 0.15046883 0.11348246 -0.090664595 -0.03260515 0.022731125 0.06433462 0.14519708
0.044505652 0.058132216 -0.04674812 0.05368747 -0.112689 0.012983763 0.07923091 -0.054601006
-0.092526875 0.057216622 -0.031572815 -0.124556184 -0.020115232 0.14717452 -0.08763076 0.0759276
-0.02680099 -0.11781625 -0.08381219 -0.04699142 -0.12528244 0.06340372 0.15640189 0.103651114
0.060005117 -0.013284728 0.056572985 -0.03197491 0.12693046 0.012417135 0.027290553 0.035590813
0.1355958 -0.005722327 -0.076098196 0.14127064 0.14307998 0.114216186 -0.083700314 0.04310092
0.14742497 0.04081929 -0.034656156 0.123560525 0.13272594 -0.027979692 -0.06382304 0.025423741
-0.04114451 0.011306696 -0.028510235 -0.06283211 -0.1231616 -0.07191253 -0.16153003 -0.028659927
0.13683897 0.15226924 -0.10424815 -0.10177399 0.081978105 -0.14757808 0.12136007 -0.03949726
0.047809802 -0.024395762 -0.10488537 0.10558268 0.020839749 0.1047141 0.11670307 -0.14321645
-0.081547074 -0.15514265 0.019320672 -0.015431263 0.042122677 0.016326947 -0.089052774 0.061839476
0.09942109 0.06015811 0.031310514 0.040028278 0.067794085 0.13850133 0.007872982 -0.043758843
-0.069384225 -0.12295542 -0.022236895 -0.009849311 -0.0636186 -0.1270112 0.14292136 -0.032050055
0.09147198 0.06524309 0.11827608 0.13631126 -0.14567949 0.15746917 -0.042382732 -0.010098162
0.13202049 0.02851049 -0.1332536 0.0072251926 0.03464501 0.022669196 -0.077625416 0.027340716
0.0908831 0.010874187 -0.051185347 0.12443629 0.003220914 0.103368096 0.015730344 0.08894829
0.082049005 -0.016799519 -0.0072536967 -0.07090956 0.10999415 0.15585738 -0.065220475 0.053041305

lstm.weight_ih_l1 f4 [200, 50]
00000000: 4421 ee3d 1d72 1fbc da52 72bc a888 83bb
00000010: ed84 783d 17ec 22bc faab 213d 0224 ac3d
00000020: c440 8abd 30cc 99bd 4ee3 74bb 8cb8 733d
00000030: 9836 b1bd 153c d43d 0ae4 91bc 57f2 a13c
00000040: 7635 f0bd cdc3 533d c952 fcbd df1f d5bd
00000050: 8950 5fbd 075e 94bd c503 0a3e 51aa a3bd
00000060: 6701 f33d 4264 063d 822f 193e 5d72 12be
00000070: 65ee f5bd 17b4 bf3d b08c 8d3d 4b93 cabd
00000080: f072 b33d 2867 0a3d 4a70 ffbd 809a 88bd
00000090: a072 ab3d ad6f 893d 177f 3bbd 4eea 013e
000000a0: 1171 873d 389b 1ebe f908 c5bd 4cf2 eb3d
000000b0: d697 773d 9e5f cfbd b543 edbd a827 8fbc
000000c0: a83b 063e be88 d53d 17ab 7bbc 4cd3 a43d
000000d0: a13c d2bd 9c3c eeb9 261e c7bd 7a77 aabb
000000e0: ace4 b6bd 6f95 8dbd 5666 83bd d503 f9bd
000000f0: 5881 d8bd fca2 233e 673b 12be 215a 5a3d
00000100: d9cf ab3c d62b e13d 3935 e73d a318 f33c
00000110: a34e 76bd e9e9 e5bd c665 9abd 5be1 833d
00000120: f8e2 c63d 7d53 f2bd b6e0 bdbd c027 a33c
00000130: 178b 013e 51d7 8c3d 4ace 663d ed23 a5bd
00000140: ad6d d83c 0dcb a73d 67c0 053d 4159 17bc
00000150: da94 d1bd e7c9 d0bd 3145 d6bd b3fb efbd
00000160: 3179 0ebe b71d f13c be37 e0bd c8dc a7bd
00000170: dbcc 813d b256 98bd 63af 973d 8844 edbc
00000180: 2d4c 8ebd 5494 883b 2a99 dabd 014f 8cbc
00000190: aece 893d 1e6d 61bd 3be2 64bc 90eb 16bd
000001a0: a43a 093d 9ebc 153e 856f cabc 286e f1bc
000001b0: f1f7 253d 7d5a 0fbc 4d43 2b3d 706e 013d
000001c0: 5be2 debc 4d9f a7bd d81f 64bd 314f b23d
000001d0: 184d d4bd e01c 6f3d 4c55 053e 8f2d e03d
000001e0: e2e2 1e3e b5ba 8abd abf3 cf3d 9207 f9bd
000001f0: a1ee a5bd cd69 82bd 1cac 163d 44c3 c73b
00000200: 88e9 20bd 4c1c e73d c4eb 393d 8c91 a9bd
00000210: 5b9b d1bc 1f12 8ebd 98af 87bd 434d ebbc
00000220: f362 fc3b b9a6 b5bd 9bf0 d839 b723 933d
00000230: b8d3 ae3c 3c1f a33d f2ac d9bd 6202 dc3c
00000240: 197e a43d d341 c43c fdd5 b13d a019 04be
00000250: d287 14be ab3a 8fbc 219c 98bd fe87 bfbd
00000260: d6aa 90bd c29c a2bd 12c4 88ba 414e b139
00000270: 5d77 c3bd e66e e23d ee6c d33d ca84 c93d
00000280: 8e9e 7bbc 6bad 873d d4c7 0cbd 1851 bcbd
00000290: 25ff 35bd 3547 31bd 151f 63bd 4edf a13a
000002a0: b44a 24bd 8d86 083e 06e8 28be c0fd 93bd
000002b0: 3c45 2bbb d539 903d 187a 0cbd 13c8 d9bd
000002c0: 6a42 e23d e221 993d 9213 0dbe f952 96bd
000002d0: c425 dbbd 0e8f 8fbd d795 81bd 7b60 15bb
000002e0: 11e2 b53c 4c24 b73d f7bf b4bd f083 e1bc
000002f0: 42b9 da3b dc14 06be ca04 283d 8b40 a5bc
00000300: 2953 c63d a7b5 6d3d 53ad e2bd 4307 273d
00000310: 2f5d 14bd 220d 73bb 9598 d23d 25ff 063d
00000320: 2546 423d e508 07be 7b05 1c3b b800 1abe
00000330: d2b8 873c 4760 5dbd dbe3 503d 9d81 4ebc
00000340: 95c6 cf3d 39ee 2ebd d173 e33d 0649 c03d
00000350: b25c 81bd 2d5b 14bc 7873 d53c 609e 0fbe
00000360: bd12 7f3d 64b3 ab3c 52d9 b83d 5a92 383d
00000370: 4160 2dbd 4c77 04bd ff50 bd3d 8907 b93d
00000380: 8608 013e 4315 1e3e e313 153e c5b8 f6bd
00000390: 5413 123d 4be2 80bd 0419 853d 2e3b bbbd
000003a0: 32fa a63d 0abe 473c 96af 0bbe 3367 b6bd
000003b0: a4a3 8e3d 97f6 8e3d a889 d73d 24e0 c93d
000003c0: 3ee9 87bd 0f5f 7fbd 8fa6 bb3d 1f40 d53d
000003d0: 0239 ce3d c97d 093d 623d 733d ec7e ea3c
000003e0: 3dfd a5bd 1c70 10be e379 fbbd aff8 c53d
000003f0: b782 08bd cdb5 963d acab 7fbd 1d34 eebd
0.11627439 -0.009731797 -0.014790261 -0.0040140934 0.060673643 -0.0099439835 0.03947065 0.084053054
-0.06750634 -0.07509649 -0.003736693 0.05950217 -0.08652991 0.10363022 -0.017808933 0.019768877
-0.11728947 0.051700402 -0.123204775 -0.104064696 -0.054520164 -0.07244497 0.13478 -0.0799147
0.11865502 0.032810457 0.14959529 -0.14301439 -0.12008361 0.09360521 0.069116 -0.09891375
0.08762157 0.033789784 -0.12472589 -0.066700935 0.08371472 0.067107536 -0.0457755 0.12687036
0.066133626 -0.15488899 -0.09620852 0.11520824 0.060447536 -0.101256594 -0.1158518 -0.017474964
0.13108695 0.10426472 -0.015360615 0.08048114 -0.1026547 -0.00045440055 -0.09722547 -0.005202231
-0.089303344 -0.06913268 -0.064160034 -0.12158934 -0.10571545 0.15980142 -0.14280473 0.05330861
0.020973133 0.10994689 0.11289448 0.029674834 -0.060133588 -0.112262554 -0.07538943 0.064394675
0.097112596 -0.118323304 -0.09271376 0.019916415 0.12650715 0.06877006 0.056349076 -0.08063493
0.026419485 0.08193026 0.032654192 -0.009237588 -0.10233469 -0.1019476 -0.10462416 -0.1171793
-0.13913418 0.029433114 -0.10948132 -0.081964076 0.06337901 -0.07438411 0.07406499 -0.028963342
-0.06948123 0.0041680727 -0.10673745 -0.017127516 0.06728874 -0.055035703 -0.013969953 -0.036845744
0.03350319 0.14622733 -0.02471138 -0.029471472 0.04051966 -0.008749601 0.04181223 0.031599462
-0.027207544 -0.08184681 -0.05569443 0.08706511 -0.10366267 0.058377147 0.1302082 0.109461896
0.15516236 -0.06773893 0.10153898 -0.12159647 -0.081021555 -0.06367836 0.03678523 0.0060962755
-0.039285213 0.11284694 0.04539086 -0.08279714 -0.025586775 -0.0693705 -0.06625289 -0.028723365
0.0077022254 -0.088696904 0.00041377996 0.071845464 0.02134119 0.07964942 -0.1062869 0.026856605
0.08031864 0.023957169 0.08683393 -0.129004 -0.14504936 -0.01748403 -0.07451654 -0.0935211
-0.07063834 -0.079400554 -0.001043441 0.00033818375 -0.09544251 0.110563084 0.10323511 0.09839781
-0.015357627 0.06624874 -0.03437026 -0.09195155 -0.044432778 -0.0432808 -0.055449564 0.0012349875
-0.040110305 0.13332577 -0.1649476 -0.07226133 -0.0026133796 0.070422806 -0.034296125 -0.10633864
0.11047824 0.07477166 -0.13776997 -0.073400445 -0.107005626 -0.070097074 -0.06327408 -0.0022793103
0.022202523 0.0894247 -0.08825677 -0.027528733 0.0066749165 -0.13093895 0.041020192 -0.020172378
0.0968383 0.058034565 -0.11068215 0.04077841 -0.03622168 -0.0037086685 0.10283009 0.03295817
0.047430176 -0.13186987 0.0023806978 -0.15039337 0.016567621 -0.054046895 0.05099855 -0.012604144
0.101452984 -0.042707656 0.111060746 0.09388928 -0.06316508 -0.009054941 0.026056036 -0.14025259
0.06227373 0.020959564 0.090258256 0.045061447 -0.042328123 -0.032340333 0.092439644 0.0903464
0.12600908 0.15437798 0.14558367 -0.12046961 0.035662964 -0.06293162 0.06498912 -0.09142147
0.0815319 0.012191305 -0.136412 -0.089064024 0.06964806 0.06980627 0.10524303 0.098572046
-0.06636284 -0.062346514 0.09162628 0.10412621 0.10069467 0.033567224 0.05938471 0.028624974
-0.08104942 -0.14105266 -0.122791074 0.09666573 -0.033327784 0.073588945 -0.06241958 -0.116310336

lstm.weight_hh_l1 f4 [200, 50]
00000000: e55d c3bd f722 27bd 7a96 583d 8bc9 723b
00000010: cf95 b23c ca65 f7bd e1c2 1cbd d848 85bd
00000020: 0272 0e3e b017 3a3d 25bc 8dbc aedf 98bc
00000030: da7b c0bd f9f3 d0bd ec05 d4bd 5dac 653d
00000040: 310f e43d f9fb e2bd e942 b43c da23 0b3e
00000050: f5d5 53bd 50e0 6dbd 055a f7bc d013 d0bb
00000060: 5714 433c 0c63 4e3d 2788 9e3d 98f4 f9bd
00000070: fb1c 15bd cce7 b0bd 7f5b 93bd 85a0 cabc
00000080: 9105 b33d 2350 df3d 470e bf3d b2eb c93d
00000090: 1fef 653d 6618 583d 3f89 c3bc 1bd7 e4bc
000000a0: 2846 ba3d cb39 2cbc 9813 a6bd 4a7d 073e
000000b0: c472 123e 2105 6cbd bd5a c6bc b2a5 8b3d
000000c0: 3301 933c 6dac 25be fb5d 0abd 0cdb d33d
000000d0: 59a6 143b fe41 b13d 1460 aebd f20f eabd
000000e0: 137b c8bb 66ad 8c3d cbe4 55bd 8894 8dbd
000000f0: c8f0 673d fb2f 553c 6e25 a43d 53c9 1e3e
00000100: b299 11bc e01d 3abd 3aa9 ccbc b8ab fd3c
00000110: 1c3d c93d 8285 94bd 6015 703d 71b0 e63b
00000120: ca1c d3bd e67e 623b b78d f13d e03f af3d
00000130: 20de a4bd e363 6a3d cb5c 5a3b 58c5 96bd
00000140: 2f68 afbd e6b6 52bc aea1 00be f4cc f33d
00000150: 00d6 133c cdc4 463d 71b4 4c3d 8eab 73bd
00000160: 9296 083e e003 4f3d 780b e6bc cee8 923d
00000170: 9b0c 1cbc 3b72 133e 1107 953d 70c3 8abc
00000180: de1f f43d 5e34 d0bc c2f0 aebd 59c1 ec3c
00000190: 0941 e8bd f11a b43b 7270 5fbd ff07 b3bd
000001a0: 19b8 cb3c fb44 8dbc 9944 a43c de9c a1bd
000001b0: 5bce adbd 0de6 5539 2621 bfbd 0e5d a3bc
000001c0: 7ea0 ccbd 1ef5 3bbd e1c9 b5bd 6b56 c13d
000001d0: c8dd 1d3e fcfd cf3d 2dc0 dcbc f684 4fbd
000001e0: 5fa7 ab3c 0bdd a83d 559c d83d bcf4 d83c
000001f0: 187e 9abb 4177 e13d 1c04 953d fa5d 073e
00000200: d0cc ea3d 1cbd a4bd e531 0f3d ea20 3a3d
00000210: a565 37bd 5fd6 803d fc4d f13d 8248 8f3c
00000220: 787b dd3d 492d 1ebe 46e3 023e 2a53 c4bd
00000230: 079e 7fbc d694 1a3e 4c64 943c 545d e1bd
00000240: 359d ac3b 09d8 a83d 58c1 d0bd e0a3 85b8
00000250: c9ea 4b3d ad78 66bd 3bca a3bd 0c56 0bbe
00000260: 55dc 473d 8a65 83bd f38c 9b3a 84ef b83d
00000270: 8596 3f3d c9c3 87bd 7eeb a7bd 4b52 cabd
00000280: 1522 1d3e ec2d 28bd c307 39bd c3ff 2f3c
00000290: b2cb 3cbd 4875 f4bc ce96 833c 9d59 103c
000002a0: 6252 d73d d8e8 2bbd fe87 d0bd 9358 053c
000002b0: 5f42 973d a7c0 053d 1dab dbbd 55d7 eabb
000002c0: e3fe 963d d046 8dbd acf4 3d3b ce0c bebd
000002d0: 8f4a 95bd 1172 203e a31d 753d efc5 3b3d
000002e0: dd58 253e 2948 26bd 1254 4b3d 27ae a83d
000002f0: 1ed4 483d f33f a9bd 8374 a8bd 8574 193d
00000300: e66f a93d 597f 03bd baa8 cd3d b2eb 7d3d
00000310: 3fc0 883d cbaa c73d c173 81bd 3d8f e5bd
00000320: bb89 b4bd d417 57bd 3112 65bc 8310 e1bd
00000330: 4675 503b 2d38 d3bd 96b3 cfbd 38b3 353d
00000340: 017a 1e3e 0602 8d3d 05a6 203e e181 4cbd
00000350: a2cf 94bc 3182 d03d c43c dcbd 76e8 5b3d
00000360: 6fd8 243d 5381 833d 5594 babc d9f6 a3bd
00000370: b782 2abd 798d df3c 7307 d53d d0a3 023e
00000380: 9932 d03d 7074 1a3e 87d7 1ebd df84 f33d
00000390: 435c 593d 9446 083e f490 6ebd c3c5 e83d
000003a0: 2220 f1bd 3b36 b33d 5008 ce3d 07c1 333d
000003b0: 58ea fb3d 68e2 8a3c 6fc9 ddba c331 11be
000003c0: fa5f 2fbd 59ac 11be 3a81 cbbd da6c c73c
000003d0: f84a a2bd 871c a2bd 05fa acbd 0f20 0abd
000003e0: 81e0 5cbd fc02 f83c 899b dcbd 4941 04be
000003f0: 7603 0ebe 7913 2d3d 30b9 023b f038 a2bc
-0.09539393 -0.04080483 0.05287788 0.0037046399 0.02179995 -0.120799616 -0.03827179 -0.065080345
0.13910678 0.045432746 -0.017301628 -0.018661346 -0.09398623 -0.10202784 -0.10352692 0.05607258
0.1113571 -0.11083216 0.022004561 0.13587895 -0.051717717 -0.05807525 -0.030194292 -0.006350018
0.011906705 0.050387427 0.07740813 -0.12204856 -0.03640459 -0.08637962 -0.07195186 -0.024734745
0.08741296 0.10903957 0.09328895 0.098594084 0.056136247 0.052757643 -0.023869155 -0.027934602
0.090954125 -0.010511826 -0.08109206 0.13231388 0.14301592 -0.05762208 -0.02421319 0.06818713
0.017944908 -0.16179056 -0.033781033 0.10344514 0.0022682159 0.08655165 -0.08514419 -0.114288226
-0.006118187 0.068690106 -0.052220147 -0.06913096 0.05662611 0.013011928 0.08014952 0.15506487
-0.0088867415 -0.045438647 -0.024983037 0.030965671 0.09826109 -0.07252027 0.058614135 0.0070400764
-0.103082255 0.00345605 0.11794608 0.08557105 -0.080501795 0.057224166 0.003331947 -0.07361859
-0.08564793 -0.012860989 -0.12561676 0.11904326 0.00902319 0.048527528 0.04997677 -0.05948978
0.13338688 0.050540805 -0.02808164 0.0717331 -0.00952449 0.14399044 0.072767384 -0.016938895
0.11920141 -0.025415596 -0.08542015 0.02890079 -0.113405295 0.0054963757 -0.054550596 -0.087417595
0.024868058 -0.017244807 0.020052241 -0.07891248 -0.08486625 0.00020398964 -0.093324944 -0.019941833
-0.09991549 -0.04588806 -0.08876396 0.09440311 0.15416634 0.101558656 -0.026947105 -0.05066391
0.020953832 0.082452856 0.10576693 0.026483886 -0.0047147386 0.11009074 0.072761744 0.13219443
0.11464846 -0.08043882 0.034959693 0.045441546 -0.04477467 0.06290888 0.117824525 0.01749063
0.108145654 -0.15446962 0.1278201 -0.09586175 -0.0156016415 0.15095839 0.018114232 -0.11004129
0.005267764 0.082443304 -0.101931274 -6.372458e-05 0.049784455 -0.05626743 -0.07997557 -0.13607043
0.04879411 -0.064158514 0.0011867568 0.09030059 0.046774406 -0.0662914 -0.081992134 -0.098789774
0.15345033 -0.04105942 -0.045173418 0.010742131 -0.046092696 -0.02984108 0.01606312 0.008810428
0.1051376 -0.041970104 -0.101821885 0.0081387935 0.07385706 0.03265443 -0.10725997 -0.007166783
0.073728345 -0.06898272 0.0028984947 -0.09279786 -0.072896115 0.15668513 0.059842717 0.04584306
0.1614718 -0.04059616 0.049640723 0.08236342 0.049030416 -0.082641505 -0.08225348 0.037464637
0.08273296 -0.03210387 0.10041948 0.061992355 0.06677293 0.09749373 -0.063209064 -0.11208961
-0.088153325 -0.05251296 -0.013981388 -0.109894775 0.0031808182 -0.10313449 -0.10141675 0.04436037
0.15476228 0.068851516 0.15688331 -0.04992855 -0.018165413 0.10181082 -0.107537776 0.05368849
0.04024547 0.06421151 -0.022775808 -0.08006067 -0.041628566 0.02728914 0.104018115 0.12757802
0.10165901 0.1508348 -0.03877976 0.118905775 0.053066503 0.13308173 -0.058243707 0.11365845
-0.11773707 0.08750578 0.10060179 0.043885257 0.12300557 0.016953662 -0.0016920994 -0.14179139
-0.04281614 -0.14225902 -0.099367574 0.024343897 -0.079244554 -0.079155974 -0.08446125 -0.03372198
-0.05392504 0.03027486 -0.107718535 -0.1291553 -0.13868508 0.0422549 0.0019946806 -0.01980254

lstm.bias_ih_l1 f4 [200]
00000000: 5909 d63c 4fd0 5bbb 88e2 13bd 1dc0 53bd
00000010: 76de 16bd 8510 c33d dfe6 193d 5e49 6fbd
00000020: 904d f8bc 1288 283e eb13 61bd eff5 c2bd
00000030: 2427 cc3d 7fc7 aabd 0b45 683d a686 90bd
00000040: c2c8 df3d da6e 6fbc 444f b03d 7383 94bd
00000050: 3f85 0dbc f29c c53d 5128 8d3c 4939 e5bc
00000060: 891d 133d 5f6b d8bd e0ca e6bd 5a10 a43d
00000070: 1b9b 2d3d efe2 8fbd b373 a6bc 4f5e b13d
00000080: a018 8e3c 9554 08bd fc1a 813d 13f1 1dbe
00000090: a066 5b3d 9d67 18bd f7aa a9bd d7cf 29bd
000000a0: 8fab 8d3d 1d43 b7bc c945 75bc 4f4f b63c
000000b0: d62c 403d 0188 b03c b198 f9bc e5f5 12bd
000000c0: ae5f 8c3d 169c b2bc d8dc 08be f5d7 f53b
000000d0: 1ce5 a6bd c008 0bbe 0303 f8bd f1e1 a0bb
000000e0: bde1 e3bd ef55 b9bd a07e b03d a058 c03d
000000f0: 4d2e dabd e660 c53d 0ca5 883d b352 6d3d
00000100: ea75 a4bc f98e 48bd c75e cd3b 0bff 523d
00000110: 7ab4 683d 5635 1d3d cbe4 183e 194e c53d
00000120: 307d e63d c3b8 67bc 532e 8b3c f50b d93d
00000130: 5b68 1a3e b408 a6bd 9fe1 36bd 49ef 923c
00000140: c05f 01be e7ea 043e 84de 65bd be34 bfbd
00000150: 8426 a6bd 57a2 fcbd 2a9f 243d 6552 9d3d
00000160: 6b81 dfbd f381 b8bd 45df 193e 4e10 1a3e
00000170: be7f 00bd 5ba8 223d 3ee5 6f3d 701a d5bb
00000180: fabf cbbd 0189 aa3d bf15 1f3d 3aa4 a93c
00000190: 5bf4 dbbd f35f d6bc 21a4 963d 295c da3c
000001a0: 9ea0 6dbd f44f c03c 79bb 193e 5faa 993d
000001b0: e3d1 fcb9 3ff0 503d 64f9 bebd 6437 693d
000001c0: 846e 7bbd 4c35 aabc 9ac0 053e e88b f0bd
000001d0: 6cf7 023e a735 c83c 91fd 8a3c a81b d2bd
000001e0: 2af2 013e 615b f9bc 054e 833d 05f9 35bd
000001f0: 657f 683d c28b 873c 6c44 c73d 70df 0bbd
00000200: 90c8 163e 144c 26be 2782 4abc 7f7e 16be
00000210: 4ab8 b2bd 5b6e af3d 98ce d9bd be0e f8bc
00000220: 8cfe 233e 8db3 66bd 7546 7fbd 37bd 0c3d
00000230: 196a b3bb 9e52 0f3e 162e e4bd ff9d 6cbd
00000240: cb15 ee3d bb46 9fba 81a6 a73d bd8b fe3d
00000250: 4cf7 c93c bb69 943c 3e50 c7bb cc23 17bd
00000260: 763d 8bbd 20d7 58bd 2167 ef39 06dc 61bc
00000270: 6e1a 47bd 2eb3 bebd 42e1 dcbc a25a cbbd
00000280: 0b17 b43d 7e13 0dbd 33d0 af3c 3d6b 013c
00000290: 79ea b3bd 7439 c63c 2160 b63d 7972 253c
000002a0: 9ebe 1e3e e792 513d f394 96bd ed34 0dbd
000002b0: 7a17 3e3d aa9f 033e 6d62 21be 4c32 a5bd
000002c0: 5384 213e ddb6 86bd 4ad3 a0bc aed8 fdbb
000002d0: 5f25 203d 2a7f fabc b4fc 9b3d 3e55 733d
000002e0: 96b5 84bd 945e f13c d89b 273e 5570 223b
000002f0: fc6e e63b ed6e 963d c9ae 85bd 57ee 06bd
00000300: 9fd9 d33d 12f7 e53c e247 c43d 468d 03be
00000310: 8f78 98bc 91fc 0e3e 1ec8 98bd 7137 69bd
0.026127504 -0.003354091 -0.03610471 -0.051696885 -0.03683325 0.09524635 0.03757369 -0.058419578
-0.030310422 0.16458157 -0.054950636 -0.09519564 0.09968403 -0.08338832 0.05670647 -0.07056932
0.109269634 -0.014613831 0.08608869 -0.072516344 -0.008637725 0.096490756 0.017231138 -0.027981417
0.03591684 -0.105673544 -0.11269164 0.08010931 0.04238425 -0.07025706 -0.020318842 0.08660566
0.017345726 -0.03328379 0.06303975 -0.15423994 0.053564668 -0.03720819 -0.08284562 -0.041457977
0.06917488 -0.02237087 -0.014970251 0.022254614 0.04691776 0.021549227 -0.030468317 -0.035879035
0.06854187 -0.021802943 -0.13365495 0.0075025507 -0.08149168 -0.13577557 -0.121099494 -0.004909747
-0.111270405 -0.09049594 0.08617902 0.09391904 -0.106533624 0.096376225 0.06672105 0.057940196
-0.020075757 -0.048964474 0.006267402 0.05151276 0.05681274 0.038380943 0.14931028 0.096340366
0.11254346 -0.014143172 0.016989863 0.10597984 0.15078871 -0.08107129 -0.044648763 0.017936366
-0.12634182 0.12980233 -0.05612041 -0.09336232 -0.08112815 -0.12335651 0.040190853 0.07681731
-0.109133564 -0.09009161 0.15026577 0.15045282 -0.031371824 0.039711338 0.05856823 -0.0065033957
-0.09948726 0.08326913 0.038839098 0.020708192 -0.107399665 -0.026168799 0.07355524 0.026655274
-0.058014505 0.023475625 0.15012921 0.07503199 -0.00048221563 0.051010367 -0.09324911 0.05693759
-0.061384693 -0.020777367 0.13061753 -0.11745435 0.12789696 0.024439646 0.016966613 -0.10259181
0.12690035 -0.03043908 0.064113654 -0.044426937 0.056762118 0.016546134 0.09729847 -0.034148633
0.14724946 -0.16239959 -0.012360132 -0.14696692 -0.087265566 0.085659705 -0.10635108 -0.030280467
0.1601507 -0.056323577 -0.062323052 0.034360137 -0.0054752943 0.1399636 -0.11141603 -0.057767864
0.116252504 -0.0012151817 0.08186055 0.12428997 0.024654053 0.018116822 -0.0060825637 -0.036899373
-0.06798832 -0.052939534 0.0004566247 -0.013785368 -0.04860919 -0.093115196 -0.02696288 -0.09929396
0.087934576 -0.034442417 0.021461582 0.007899103 -0.087849565 0.024197318 0.08905054 0.010098093
0.15502402 0.051165488 -0.073526286 -0.034474302 0.046409108 0.12853876 -0.15760203 -0.08066234
0.15773134 -0.06577847 -0.019632 -0.0077467775 0.03909814 -0.030578215 0.07616559 0.059407465
-0.06479947 0.029464044 0.16368043 0.0024786193 0.0070322733 0.07345376 -0.06527478 -0.032942142
0.10344242 0.028071914 0.09584023 -0.1284686 -0.018612174 0.13963534 -0.07460044 -0.05693764

lstm.bias_hh_l1 f4 [200]
00000000: b2d5 c93d 8726 5a3d 4bcf c8bd 593f a3bd
00000010: eb36 98bd 0fc1 a83d 7182 debb 84ae d33c
00000020: ac3e 7f3c 1205 0e3d 46e4 89bd cc75 a4bc
00000030: b5d7 8a3c 1a28 863c 4d1d b33d 3f02 b8bd
00000040: 9fce 843c 55df ed3d ac3c fabc 4838 393d
00000050: f2ce 47bd 44f2 d2bd bb18 223e 2570 423c
00000060: 0962 1a3d 74c6 d5bc ccbf 7bbd 7a86 05be
00000070: 2c88 903c e82a 883d 614a 0dbc 1bdd d2bd
00000080: 134a 233d de94 edbc 5f4f c2bd 3d05 283c
00000090: 4566 383d d1a3 793d 180f 653a adc3 c73d
000000a0: 7b19 a6bc b32d 1f3e bf21 95bd afa0 c53c
000000b0: a59f 863d e08c c83c 812f fb3d 2ba3 403d
000000c0: 1e45 213d 3688 a9bd 6677 e1bd e647 a4bc
000000d0: 8270 ebbd f602 1dbe c203 e6bd b0c4 b73d
000000e0: 186e 113e c6d9 153d e7d4 1d3d 6ea2 bb3d
000000f0: 053d fa3d 255f dfbd 5148 243d 5aa5 f23d
00000100: 2270 023e a0f7 643d 03a9 cf3d 9c4f 5fbd
00000110: 19d5 54bd 41c7 8b3c 4813 b53c eaba 053e
00000120: 442c e73a cd65 abbd 87dd 833d dfdf af3d
00000130: 2038 a7bd 9cbc 21bd 7896 9f3d c15a 843c
00000140: 8a6c 19be e10b 343d c962 0abe 8ae3 ffbd
00000150: 3c10 cfbd 33f4 3dba 47d9 983d a78b 5d3d
00000160: 582e 013e ef5c f73d d686 21bd 02bd 94bc
00000170: 2b86 7f3d 1860 d93c 8317 5bbd 1d1a e4bd
00000180: 87b3 05be 3a86 063e a1d9 813c a2ec da3d
00000190: 3434 ae3d c1d7 993d 0dd6 ae3d 877f 983d
000001a0: 1a73 aa3c 4765 113d 3b6f 98bd ec28 563d
000001b0: 0d31 dfbc f337 0b3e 107d bebd b059 1b3e
000001c0: dd00 8abd f821 a1bd 6078 be3d cbf8 e03c
000001d0: e2b4 47bc 7cd9 203e e975 f83c 0001 d9bd
000001e0: b12d c23d 9023 e43d ef86 e73d 8fbf 3d3d
000001f0: 1d91 c93d d93f 7c3c f536 ac3d a9ba a73d
00000200: 57af 6d3d 0ba2 c03d fa1e ffbc 5f23 a1bc
00000210: 5bff 7dbd 322c 26be 3e21 ebbd e9c8 7a3d
00000220: de8d 193e 8c3b 89bd cb76 bcbc ea36 133e
00000230: 8483 ec3d 7000 20bd 9176 cebd 5773 87bc
00000240: f6ce cbbd 8c40 72bc d633 60bd 8b1a 0b3e
00000250: 9f67 853d eaae 07ba 60d9 35bd 24d0 9e3d
00000260: a7cf 953d 4b6e a8bb 6f25 d63c 7bb5 06bd
00000270: bba4 c93c dfdd 1abe 6047 5bbd 3a1f 0b3e
00000280: 6505 3e3d 7f5d 9b3d 2144 4f3d 8fab 56bd
00000290: 7c45 563c bf8d 3d3d ffc9 d73d 09da c03d
000002a0: 69ba bd3d 5802 03bd a6e0 c8bd e797 073e
000002b0: 5c86 973d db3a 883d 7ba3 843d 8c69 e63d
000002c0: d25b 0bbd fb8f eabd 7ec7 86bd 8281 093e
000002d0: e16f d7ba 86f1 a8bd 9828 f73a 20ba 0f3e
000002e0: ad7e e0bd b541 68bd df07 793d 3933 1abe
000002f0: b399 5cbd 52a1 f83d b2e6 08bd 2882 c9bd
00000300: 94aa 913c ccde e6bd d7d2 013e fb6f 263c
00000310: 2d60 d53c 0af3 b73a ef66 79bd 59e1 ea3d
0.09855212 0.0532594 -0.09805163 -0.07971067 -0.0743235 0.08239948 -0.006790452 0.025840051
0.015578907 0.034672804 -0.06732993 -0.020075701 0.01694856 0.016376544 0.08745823 -0.089848034
0.016211806 0.11614863 -0.030546509 0.04521969 -0.048781343 -0.10300115 0.15829746 0.011867558
0.03769115 -0.026095606 -0.06146221 -0.1303958 0.017643057 0.06648809 -0.00862369 -0.10296079
0.039865565 -0.02900165 -0.09487795 0.010255155 0.045019407 0.060947243 0.0008737906 0.09754119
-0.020275822 0.15544777 -0.07281827 0.024124471 0.065734185 0.024481237 0.1226492 0.04703061
0.039372556 -0.08277933 -0.110091016 -0.020053815 -0.114960685 -0.15333161 -0.112311855 0.08973062
0.14202154 0.036584638 0.038533118 0.091618404 0.1221867 -0.10906819 0.04010803 0.118479446
0.12738088 0.055900216 0.10139658 -0.05451928 -0.05196104 0.017062785 0.02210392 0.13059583
0.0017637094 -0.08369026 0.06438737 0.08587622 -0.08165002 -0.039486513 0.077923715 0.016156556
-0.1498281 0.04395664 -0.13514246 -0.124945715 -0.10110518 -0.00072461664 0.07463317 0.05408826
0.12615335 0.120782726 -0.03943523 -0.018156532 0.062383812 0.026535079 -0.05348922 -0.11137793
-0.13056765 0.13137141 0.015850844 0.106896654 0.08506051 0.07511855 0.08536921 0.07446199
0.020806838 0.035496976 -0.074430905 0.05228512 -0.027245069 0.13595562 -0.093011975 0.15170932
-0.06738446 -0.07867807 0.093003035 0.027462384 -0.012189122 0.15707964 0.030329661 -0.10595894
0.09481371 0.111395955 0.113050334 0.046325263 0.09842131 0.015396082 0.0840892 0.081898995
0.058028545 0.09405907 -0.0311427 -0.019670187 -0.062011104 -0.16227797 -0.1148095 0.06122676
0.14995524 -0.06700811 -0.023005864 0.14376417 0.11548522 -0.039062917 -0.100812085 -0.01653449
-0.09951584 -0.014785897 -0.054736935 0.13584344 0.06513905 -0.00051759055 -0.044396758 0.077545434
0.07314997 -0.005140101 0.026140897 -0.032887917 0.024614682 -0.151237 -0.053534865 0.1358613
0.046391863 0.07586192 0.050602082 -0.052409705 0.01307809 0.046277758 0.105365746 0.09416587
0.092640705 -0.031984657 -0.09808473 0.1324154 0.07398674 0.06651851 0.06476494 0.112506
-0.034023114 -0.11453243 -0.06581019 0.1342831 -0.0016436541 -0.08249192 0.0018856702 0.14035845
-0.109616615 -0.056703288 0.060798522 -0.15058602 -0.053857516 0.121401444 -0.033423133 -0.098392785
0.017781533 -0.11272964 0.12678085 0.010158534 0.026046837 0.0014034223 -0.06088918 0.11468763

fc.weight f4 [1, 50]
00000000: 069f b13d bb33 a2bd ac83 943d 0827 0b3b
00000010: fa21 883c efe5 f9bd 3e66 e53d 3f4e cdbd
00000020: d91b 2d3d c720 223e a2af 1f3d 8117 d73d
00000030: 8e8d dbbd 62de 59bd f474 033e c2b3 3c3d
00000040: cd08 bf3d c76d 303d 4656 d83d a0af e5bd
00000050: b822 933d 8412 6fbd 1058 a13d 0972 e4bc
00000060: 065f 9bbd a175 f13d f248 843d f153 633c
00000070: 3278 d83d 75f1 0cbe 2f8d a83d 3e20 04be
00000080: 46c3 fc3d efbc f2bd b7ac a6bd 0cdb 07bd
00000090: 9db6 673d e240 713d f672 2dbd 26f0 0d3e
000000a0: e516 013e 6de6 0f3e 70c2 e5bd c623 b83d
000000b0: fadf c4bd 6dcb cabd 59f5 38bd 3988 813d
000000c0: c4ef b4bd ce1b 923d
0.086729094 -0.07920023 0.07251677 0.0021232981 0.016617764 -0.122020595 0.11201142 -0.1002469
0.042262886 0.15832816 0.038985856 0.1050253 -0.10720359 -0.053190596 0.12837583 0.046069868
0.093278505 0.04307344 0.1056333 -0.112151384 0.071843565 -0.058367267 0.07878125 -0.027886407
-0.07586484 0.11790014 0.06459226 0.013874994 0.105698004 -0.13763984 0.08230054 -0.12902924
0.12341933 -0.118524425 -0.081384115 -0.033167884 0.056570638 0.058899768 -0.042345963 0.1386114
0.1260639 0.14052744 -0.11218727 0.08991198 -0.09613033 -0.09902082 -0.045155857 0.063248105
-0.08834794 0.071342096
