data/models/AAPL_20251229_154332.pt (torch, 128750 bytes, 9 tensors)

lstm.weight_ih_l0 f4 [200, 1]
0	0x3dfcbf78	0.12341207
1	0xbde0f9c5	-0.1098514
2	0x3cc377ee	0.023860898
3	0xbdbc466e	-0.09193121
4	0x3dca410e	0.098756894
5	0x3bdfeded	0.006833783
6	0xbd99c797	-0.07508772
7	0xbddcea79	-0.107869096
8	0xbdda2f46	-0.10653548
9	0x3dfaa8e5	0.12239245
10	0x3d067ff0	0.032836854
11	0x3def6594	0.11689296
12	0x3dc8454e	0.09778844
13	0xbd51f163	-0.051255595
14	0xbba03cb8	-0.0048900507
15	0x3b9b3bff	0.0047373767
16	0xbcf8f179	-0.03038858
17	0xbd8b0bf4	-0.06789389
18	0xbb1a90f0	-0.0023584925
19	0x3ce8d96a	0.028423984
20	0x3bf3d703	0.007441403
21	0x3d7f2420	0.06229031
22	0x3dfbe093	0.122986935
23	0x3da49e8d	0.08038054
24	0xbe062f70	-0.13104033
25	0x3cf793bd	0.030221814
26	0xbd908c09	-0.070579596
27	0xbd294b11	-0.041331355
28	0xbd788e34	-0.06068249
29	0xbc98daca	-0.018659014
30	0xbc55e946	-0.013056105
31	0x3dd7c8cf	0.10536348
32	0x3a9e8a6a	0.0012095694
33	0x3d1835d7	0.03716072
34	0x3da6807f	0.081299774
35	0x3d086853	0.033302616
36	0x3dbd3d81	0.092402466
37	0x3dea6252	0.11444534
38	0xbd695428	-0.056965023
39	0xbd0b0a87	-0.033945587
40	0x3db58fc8	0.08865315
41	0x3de8997f	0.11357402
42	0x3db44474	0.08802119
43	0xbb63e275	-0.003477243
44	0xbca250aa	-0.019813854
45	0xbc16556e	-0.009175641
46	0x3e013e30	0.12621379
47	0xbb9ad0b9	-0.0047245887
48	0x3de32c18	0.110923946
49	0x3e07d55a	0.13264981
50	0x3dc24910	0.09486592
51	0xbd86fdb1	-0.065913565
52	0x3d695473	0.056965303
53	0xbddcce83	-0.107815765
54	0xbdf29c30	-0.11846197
55	0xbbc2514b	-0.005930101
56	0x3d82643d	0.06366775
57	0x3e090278	0.13379848
58	0xbd51d4de	-0.051228397
59	0xbdfa5430	-0.12223089
60	0xbda56f8e	-0.08077918
61	0xbc4f1501	-0.012639285
62	0x3c9463dc	0.018114023
63	0x3dc15267	0.09439545
64	0x3cfab0b5	0.030601839
65	0x3d6df175	0.0580916
66	0xbd4548f8	-0.04816529
67	0xbc62a7ea	-0.013833979
68	0x3dfb4e7d	0.1227083
69	0x3dec6279	0.1154222
70	0x3d9579dd	0.07298634
71	0xbadb7b04	-0.0016745036
72	0x3de198dc	0.11015484
73	0xbcc5c7b0	-0.02414307
74	0x3da1ead8	0.07906121
75	0xbca85190	-0.020546705
76	0xbe0678ab	-0.13131969
77	0xbd10673a	-0.035254695
78	0xbdfc13fc	-0.12308499
79	0xbdcb97fe	-0.099410996
80	0xbdddb044	-0.108246356
81	0x3de96082	0.113953605
82	0xbe051119	-0.12994803
83	0xbd7dcaeb	-0.061961096
84	0xbc316f1b	-0.010829712
85	0xbd72d2ba	-0.059282996
86	0x3c478b3d	0.012179193
87	0xbc3e9840	-0.011632979
88	0xbd72dcdc	-0.05929266
89	0x3d86cd72	0.06582154
90	0xbdff976f	-0.124800555
91	0x3dccf242	0.100071445
92	0xbdbc39c1	-0.09190703
93	0xbe099396	-0.13435206
94	0x3d35729e	0.04429876
95	0x3dd8ca06	0.10585408
96	0x3d979829	0.07402069
97	0x3de4db63	0.11174657
98	0xbb9e642d	-0.004833719
99	0xbdfc4fd3	-0.12319913
100	0xbdfd8926	-0.123796746
101	0xbdce8d9c	-0.100856036
102	0xbdf9de72	-0.12200631
103	0xbb084e74	-0.0020798715
104	0x3d3490c1	0.04408336
105	0xbd451cb7	-0.048123088
106	0x3d9d2f25	0.07675008
107	0x3dc10ece	0.09426652
108	0xbd814ef0	-0.06313884
109	0xbdecdce1	-0.11565567
110	0x3de5a5cc	0.11213264
111	0x3db20bf8	0.08693689
112	0xbbf978e5	-0.0076132887
113	0x3d87f559	0.06638593
114	0xbbfb9849	-0.007678066
115	0xbdb5bf15	-0.08874337
116	0xbdfb8ea1	-0.12283064
117	0xbd883c4d	-0.066521265
118	0x3ddebdf0	0.108760715
119	0x3e062f0e	0.13103887
120	0xbdd0ca36	-0.10194819
121	0xbdc89890	-0.09794724
122	0x3e063eac	0.13109845
123	0xbd97a77c	-0.07404992
124	0x3dc257c7	0.094893984
125	0xbdff3c45	-0.124626674
126	0xbdd99c38	-0.106254995
127	0xbdd779d6	-0.10521285
128	0x3d321fe9	0.043487463
129	0x3c21dfa2	0.009879978
130	0x3d403f75	0.046935517
131	0x3d84a3c9	0.06476552
132	0xbe0054c0	-0.1253233
133	0x3bf01ace	0.007327414
134	0xbca2d257	-0.019875688
135	0xb90a4ff4	-0.0001319049
136	0xbce61b13	-0.028089082
137	0x3d816952	0.063189164
138	0xbc95049b	-0.018190673
139	0x3abc73b7	0.0014377747
140	0x3d208cca	0.039196767
141	0x3ddd1eb6	0.10796873
142	0x3d4195d5	0.04726203
143	0x3d6d597f	0.05794668
144	0x3d8fcb87	0.07021242
145	0xbdd3e69c	-0.103467196
146	0x3d9d6f01	0.07687188
147	0x3d0e21b4	0.03470011
148	0xbd1debaf	-0.038554844
149	0xbde4085b	-0.11134406
150	0x3db6a438	0.08918041
151	0xbdf0da98	-0.117604434
152	0xbdddc2c6	-0.10828166
153	0x3e0984f4	0.13429624
154	0x3deb509a	0.11489983
155	0x3df47f90	0.11938393
156	0x3cd0417e	0.025421854
157	0xbde68ffc	-0.112579316
158	0x3dab1e4a	0.083553866
159	0x3d7343a2	0.05939067
160	0xbd4c6896	-0.04990443
161	0xbe0125df	-0.12612103
162	0xbd48f866	-0.049065016
163	0xbc16b0b1	-0.0091974
164	0x3dfa56ac	0.122235626
165	0xbda1c75f	-0.07899355
166	0xbbafcdba	-0.0053651007
167	0x3d055684	0.03255321
168	0x3d35054f	0.044194516
169	0xbdf3008b	-0.11865338
170	0xbd70ccc0	-0.058789015
171	0x3e0bdc78	0.13658321
172	0xbe0bd5bd	-0.13655753
173	0xbdcce8a8	-0.10005313
174	0xbd9d5915	-0.07683007
175	0x3dcdade4	0.10042933
176	0xbe0a4696	-0.13503489
177	0x3e078cf8	0.13237369
178	0xbe10625f	-0.14100026
179	0xbdad8585	-0.084727325
180	0xbdede107	-0.11615186
181	0xbddf2aac	-0.10896811
182	0x3db6b2c8	0.089208186
183	0xbd477424	-0.048694745
184	0xbe093bf8	-0.13401783
185	0x3e04f16b	0.12982719
186	0x3df9bfd7	0.12194794
187	0x3ca9287a	0.020649184
188	0x3c16b259	0.009197795
189	0xbd135279	-0.035967324
190	0xbda8777f	-0.08225917
191	0x3dd4dc45	0.103935756
192	0xbcf1cd36	-0.029516798
193	0x3ce8a729	0.02840002
194	0xbdd14d26	-0.10219793
195	0xbd9ca3d8	-0.07648438
196	0xbdfa362e	-0.12217365
197	0x3df527b7	0.11970466
198	0x3dd2f07b	0.10299774
199	0x3bb5367c	0.0055301767

lstm.weight_hh_l0 f4 [200, 50]
0	0x3d068604	0.03284265
1	0xbb879a9a	-0.004138303
2	0x3d63de93	0.055632185
3	0x3dbd6ae7	0.09248906
4	0x3cabb81b	0.020961812
5	0x3dcbacf3	0.09945097
6	0x3dd8a2de	0.105779395
7	0xbdc6dc73	-0.09710016
8	0x3de1a85a	0.11018439
9	0x3df8d87a	0.12150665
10	0x3df97164	0.12179831
11	0x3c5a4adf	0.013323515
12	0xbdaffb26	-0.08592825
13	0x3dbcdd24	0.09221867
14	0xbd99e59a	-0.07514496
15	0xbd27ab24	-0.040934697
16	0x3da61ee2	0.08111359
17	0xbcae9b8b	-0.021314403
18	0xbd98ceed	-0.07461343
19	0x3d8fd332	0.07022704
20	0x3dd86264	0.105656415
21	0xbdc5eb8b	-0.09664067
22	0x3d4f178b	0.05055956
23	0xbdfa492e	-0.12220989
24	0xbddbf4b3	-0.10740032
25	0xbd20122e	-0.039079838
26	0x3c528bb4	0.012850691
27	0xbdb71844	-0.08940175
28	0x3e095740	0.1341219
29	0xbd6a079a	-0.057136156
30	0x3b3f0b96	0.0029151193
31	0x3d79681f	0.060890313
32	0x3d1627de	0.036659114
33	0xbdb54031	-0.08850134
34	0xbd463783	-0.048392784
35	0x3d95be45	0.07311682
36	0x3be37c81	0.0069423323
37	0xbda22f31	-0.07919157
38	0x3c2e219e	0.010628132
39	0x3dd6b1c6	0.10483126
40	0x3dd03699	0.10166664
41	0x3dc361f5	0.09540168
42	0x3d649f19	0.05581579
43	0xbdd4ad7f	-0.10384654
44	0xbd424ac2	-0.047434576
45	0x3c800168	0.01562567
46	0xbdb13fe0	-0.08654761
47	0xbe0e961d	-0.13924451
48	0xbcc606b7	-0.024173124
49	0xbd0598ac	-0.032616302
50	0xbd9690a1	-0.073518045
51	0x3da9bdac	0.0828813
52	0x3dc3d327	0.095617585
53	0xbe0c9232	-0.13727644
54	0x3e03b2bf	0.12861155
55	0x3d935d53	0.071955346
56	0x3dc98720	0.09840226
57	0xbcd0521f	-0.025429783
58	0x3daa4ce2	0.083154455
59	0xbdc9a99a	-0.09846802
60	0x3db2d892	0.08732714
61	0xbd2713d3	-0.04079039
62	0xbcb8fe44	-0.02258218
63	0x3dea1ae5	0.11430911
64	0xbd8741d9	-0.06604356
65	0xbe063cc6	-0.1310912
66	0x3d1d637c	0.038424954
67	0xbd48d935	-0.04903527
68	0xbcb608ce	-0.022220995
69	0x3d7d30cb	0.06181411
70	0x3d344b42	0.044017084
71	0xbdb3342f	-0.087501876
72	0x3d1a2d6b	0.03764097
73	0x3dc0e279	0.09418196
74	0x3dd26324	0.10272816
75	0xbd5fd371	-0.054645006
76	0x3d9dfea8	0.077145875
77	0x3dec053b	0.11524435
78	0xbd7bfcbb	-0.06152032
79	0x3e019907	0.12656032
80	0x3d10314d	0.035203267
81	0x3cb7c797	0.022434039
82	0x3cbca4f3	0.023027873
83	0xbdc71634	-0.09721032
84	0xbe11277d	-0.1417522
85	0x3d8b3e12	0.06798948
86	0xbd475dce	-0.048673443
87	0x3dd954c4	0.10611871
88	0xbd203a8a	-0.039118327
89	0x3d823152	0.06357063
90	0x3d86fae1	0.0659082
91	0xbd93cdf0	-0.07217014
92	0x3df2b18d	0.118502714
93	0xbc6fe7b9	-0.014642649
94	0x3d971a7c	0.07378098
95	0x3d8e83ad	0.06958709
96	0x3d4e9446	0.050434373
97	0x3d19f17b	0.03758381
98	0x3d0f2259	0.034944866
99	0xbde75ce6	-0.11297016
100	0xbe12be5d	-0.1433043
101	0x3d6cdcc7	0.057827737
102	0xbd090b85	-0.03345825
103	0x3c8556a5	0.016276667
104	0x3daedf5c	0.08538696
105	0xbde47218	-0.11154574
106	0x3d66e92e	0.05637472
107	0x3d6fe8eb	0.058571737
108	0x3d8ca45e	0.06867288
109	0x3dacdab1	0.084401496
110	0xbc3954eb	-0.01131175
111	0x3bf4b3d3	0.007467726
112	0xbd79ff48	-0.06103447
113	0x3dce6f7b	0.10079857
114	0x3cb74bb1	0.02237496
115	0x3d839f28	0.06426841
116	0xbd19e124	-0.037568226
117	0x3d89c725	0.06727437
118	0x3e0fc1fa	0.1403884
119	0x3d969c2b	0.073540054
120	0xbccc85d2	-0.024966154
121	0xbc9a267f	-0.018817184
122	0x3cc83ce1	0.024443092
123	0x3cfe7c05	0.031064996
124	0xbd2ff912	-0.04296214
125	0x3df46649	0.11933572
126	0xbd565337	-0.052325454
127	0xbdb0c6eb	-0.086316906
128	0x3d8bf4cd	0.068338014
129	0x3daf483f	0.08558702
130	0x3d098ecc	0.033583447
131	0x3c2ab4d3	0.010419088
132	0x3d88b61c	0.066753596
133	0x3d8ea2fb	0.0696468
134	0x3d489666	0.048971556
135	0x3d4661cd	0.048433114
136	0x3d382935	0.044961173
137	0xbe05f5f8	-0.13082111
138	0x3d8be8f4	0.06831542
139	0x3c5bdb10	0.013418928
140	0x3db341b7	0.087527685
141	0x3c392c68	0.011302091
142	0x3bbaf552	0.005705514
143	0xbd8e3a6e	-0.06944738
144	0xbd81dfbd	-0.06341503
145	0x3d9e62f5	0.07733718
146	0x3dbc956b	0.09208187
147	0x3d7891c2	0.06068588
148	0x3ddcdab0	0.10783899
149	0xbd38175e	-0.04494416
150	0x3b90a328	0.004413981
151	0xbda3ddd8	-0.08001298
152	0x3d9e54aa	0.07730992
153	0x3e094a82	0.13407329
154	0xbc4e7919	-0.012602114
155	0xbcc99748	-0.02460827
156	0x3c74d5e7	0.014943576
157	0xbdfbced9	-0.122953124
158	0xbe058e7a	-0.13042632
159	0xbdb11ddc	-0.08648273
160	0x3d03d250	0.03218299
161	0x3d1e0649	0.038580213
162	0xbd5631fb	-0.05229376
163	0x3dd0ba08	0.10191733
164	0x3ddadc39	0.106865354
165	0xbe0a82da	-0.13526478
166	0x3d0a21f5	0.03372379
167	0x3cc56d39	0.024099933
168	0xbd334e17	-0.043775644
169	0xbdd5b1db	-0.10434314
170	0xbdccc23b	-0.09997984
171	0xbde1bf44	-0.11022809
172	0xba6a396d	-0.0008934949
173	0x3d6dd080	0.05806017
174	0xbd979db9	-0.0740313
175	0xbcbee705	-0.023303518
176	0x3c370601	0.011170865
177	0xbd6a9d1b	-0.057278734
178	0xbe1289e5	-0.14310415
179	0x3cbe9077	0.023262246
180	0x3dcb5675	0.099286
181	0xbde6b40e	-0.112648115
182	0xbd3c6a2f	-0.045999702
183	0xbde8ba19	-0.1136362
184	0x3da22ec6	0.079190776
185	0x3dbb9327	0.091589265
186	0xbc969508	-0.01838161
187	0xbd849b86	-0.06474976
188	0xbc54bbd0	-0.012984231
189	0xbcb79b77	-0.022412999
190	0x3d0c30e3	0.03422631
191	0xbdd0cb77	-0.10195058
192	0xbd051d2e	-0.03249853
193	0x3c486936	0.0122321155
194	0x3d27c0d2	0.040955372
195	0x3e0175ab	0.12642543
196	0xbdd0ebef	-0.10201251
197	0xbd6a1c9c	-0.05715619
198	0x3da745b1	0.081675895
199	0xbd56b188	-0.0524154
200	0xbd8d6952	-0.06904854
201	0x3d3d5a39	0.04622862
202	0xbbc02cb9	-0.0058647064
203	0x3e057ba9	0.13035454
204	0x3bf4c8ac	0.007470211
205	0x3d8d7c72	0.06908502
206	0xbd0129f9	-0.03153417
207	0x3d9d29c3	0.07673981
208	0xbe00e0cd	-0.12585755
209	0xbe04e805	-0.12979133
210	0x3de18b47	0.11012893
211	0x3cda03eb	0.026613196
212	0xbdfd98b0	-0.123826385
213	0x3e052841	0.13003637
214	0xbcec04d1	-0.02881089
215	0xbd792be4	-0.060832873
216	0x3cd30385	0.025758514
217	0x3c55d702	0.01305175
218	0x3d288391	0.041141097
219	0x3c555332	0.013020324
220	0xbcac79aa	-0.021054108
221	0xbe08fe4d	-0.13378258
222	0xbe075635	-0.13216479
223	0xbe0700f8	-0.13183963
224	0xbd75486f	-0.05988353
225	0x3d26198a	0.0405517
226	0x3de599a4	0.11210945
227	0x3dbc56d0	0.09196246
228	0x3ce5e2f5	0.028062323
229	0x3dfb6e8c	0.122769445
230	0xbdbf97e9	-0.093551464
231	0x3d633824	0.05547346
232	0x3dd4955c	0.103800505
233	0xbe1538b5	-0.14572413
234	0xbd68293b	-0.056679945
235	0xbc19e131	-0.009392069
236	0x3e07d483	0.1326466
237	0x3de50c17	0.111839466
238	0x3d4881bb	0.048951846
239	0x3d845370	0.06461227
240	0xbdd0c335	-0.10193483
241	0x3de27ed0	0.11059344
242	0x3da3da0d	0.08000574
243	0x3e01e2e8	0.12684214
244	0x3d147c4b	0.036251348
245	0x3e0830a7	0.1329981
246	0xbd7c21ca	-0.06155566
247	0x3dcfb627	0.10142165
248	0xbdc1901b	-0.09451314
249	0x3cf00126	0.029297423
250	0xbb633940	-0.0034671575
251	0xbd34a17f	-0.044099327
252	0x3cf92bf3	0.030416464
253	0xbc9cf860	-0.019161403
254	0x3cefba2a	0.029263575
255	0xbab902ec	-0.0014115251

lstm.bias_ih_l0 f4 [200]
0	0xbdf7f07f	-0.12106418
1	0xbdcb7b5e	-0.0993564
2	0xbddecb73	-0.108786486
3	0xbc2ec5ea	-0.010667304
4	0xbc21da9f	-0.0098787835
5	0x3d456767	0.048194315
6	0x3cf0b6b0	0.029383987
7	0x3d0a53a0	0.033771157
8	0xbd83c36d	-0.06433759
9	0xbd1990cf	-0.037491616
10	0xbd70cef4	-0.058791116
11	0xbce72a96	-0.028218549
12	0x3d976001	0.07391358
13	0x3ce85791	0.028362067
14	0xbd640bba	-0.055675246
15	0xbe0eb7c3	-0.13937287
16	0x3c836f8f	0.016044406
17	0xbda8244f	-0.0821005
18	0x3e012641	0.12612249
19	0xbdcffc94	-0.10155597
20	0x3d401c43	0.046901952
21	0x3d5e1b25	0.054225106
22	0x3e001df2	0.12511423
23	0xbd85a919	-0.065263934
24	0x3cdcee7b	0.026969185
25	0xbbe9a151	-0.007129826
26	0x3d693faa	0.05694548
27	0xbcab24e6	-0.020891618
28	0x3d2796c3	0.040915262
29	0xbd9e2b3c	-0.0772309
30	0xbdc5ef1a	-0.09664746
31	0x3dfbf021	0.1230166
32	0xbd832655	-0.06403796
33	0xbcc53ea8	-0.024077728
34	0x3cbb3c65	0.022855947
35	0xbd29b6a7	-0.041433956
36	0xbdfd0c43	-0.12355854
37	0xbd9ebb98	-0.077506244
38	0x3d971832	0.07377662
39	0x3d8805f7	0.06641763
40	0xbdcfbd5a	-0.10143538
41	0x3d43076b	0.047614496
42	0x3cde3e94	0.027129449
43	0x3c85fa64	0.016354747
44	0xbc613815	-0.013746281
45	0x3e0868fa	0.13321295
46	0x3dc370f6	0.0954303
47	0xbd5444a4	-0.051823273
48	0xbe094acd	-0.1340744
49	0xbcdde9ff	-0.027089117
50	0xbda6a390	-0.08136666
51	0xbdb93170	-0.090426326
52	0x3d80db82	0.06291868
53	0xbcd596b0	-0.02607283
54	0xbbbb114b	-0.0057088486
55	0xbd447fa9	-0.04797331
56	0xbcb04a38	-0.021519765
57	0x3d36e7d5	0.044654686
58	0x3e074ddb	0.13213293
59	0xbdeedc60	-0.11663127
60	0x3d07449d	0.03302442
61	0xbdcb9b00	-0.09941673
62	0xbda3d759	-0.08000059
63	0xbd6bea51	-0.05759651
64	0xbd1e94fe	-0.03871631
65	0xbc8a2e10	-0.016867667
66	0xbca92fb0	-0.020652622
67	0xbcbe0158	-0.023194
68	0xbc83edd0	-0.016104609
69	0x3b96d06c	0.0046024825
70	0x3e0f2fe0	0.13983107
71	0x3d3810a9	0.044937763
72	0xbd17116a	-0.03688184
73	0x3dd2fd16	0.103021786
74	0xbe0d918f	-0.13825057
75	0xbd8c4fa3	-0.06851127
76	0x3d8c6722	0.068556085
77	0xbcb162a5	-0.021653483
78	0xbd166bea	-0.03672401
79	0x3dd0d551	0.10196937
80	0xbdb38ee2	-0.08767487
81	0xbcaf889b	-0.021427443
82	0xbdd682d2	-0.10474171
83	0xbc8c0868	-0.017093852
84	0x3dfe7563	0.124247335
85	0xbe0c13ea	-0.13679472
86	0x3dab38a4	0.08360413
87	0x3df9cf1d	0.12197707
88	0xbc85cd42	-0.016333226
89	0xbc6cd276	-0.014454475
90	0x3e07da32	0.13266829
91	0x3dd2c033	0.10290565
92	0xbdbf4f9f	-0.093413584
93	0x3cf08fb2	0.029365394
94	0xbdf6180f	-0.120163076
95	0xbcc54f78	-0.024085745
96	0xbd87dba7	-0.06633692
97	0xbda1a4e4	-0.078927785
98	0x3b92e695	0.004483054
99	0xbdde24e2	-0.108468786
100	0x3d1d7acd	0.03844719
101	0xbbc89a02	-0.006121875
102	0x3de61082	0.11233617
103	0x3b0addd2	0.0021189344
104	0x3dcbfbaf	0.09960114
105	0xbd672fe9	-0.056442175
106	0x3da30bc1	0.07961226
107	0xbc486dc4	-0.012233201
108	0xbda4e7cd	-0.08052025
109	0x3c00766c	0.007840734
110	0x3d73d77b	0.05953167
111	0xbd8e0a5b	-0.06935569
112	0x3e075368	0.1321541
113	0x3e0c0ec0	0.13677502
114	0xbdb7decf	-0.08978044
115	0x3d002ffe	0.03129577
116	0xbcdb0038	-0.026733503
117	0x3ceadd05	0.028669843
118	0x3de1ecdc	0.110315055
119	0x3def1065	0.11673049
120	0x3d4f5e67	0.05062714
121	0xbd34ff9e	-0.044189088
122	0x3db40c7c	0.08791444
123	0xbe14d6c3	-0.1453505
124	0xbdfb51bf	-0.12271451
125	0xbc33d8a7	-0.010976947
126	0x3da447e4	0.080215245
127	0x3e1183dd	0.14210458
128	0xbcf1c7e7	-0.029514266
129	0x3dedfbd0	0.11620295
130	0x3dc44994	0.095843464
131	0xbdc61777	-0.09672444
132	0xbd91fd9b	-0.071284495
133	0x3dfd396d	0.12364469
134	0xbd09ce92	-0.033644266
135	0x3cb1bcf8	0.021696553
136	0x3cab7fbe	0.020934936
137	0xbe0cb6dd	-0.13741632
138	0xbd9526cd	-0.07282791
139	0x3d1dec73	0.038555574
140	0xbdcbcdf8	-0.09951395
141	0x3d897b85	0.067130126
142	0xbdf86e4b	-0.12130412
143	0x3c304a76	0.01075994
144	0xbe012adb	-0.12614004
145	0x3e0b299a	0.13590088
146	0xbe0bef78	-0.13665569
147	0xbddd6dbe	-0.10811947
148	0x3df2e1d1	0.11859477
149	0xbcaf8462	-0.02142543
150	0xbd9056e2	-0.070478216
151	0x3dc6d1fc	0.0970802
152	0xbda5119f	-0.080600016
153	0xbd5ca817	-0.05387124
154	0xbcec211d	-0.028824383
155	0xbd9ca8db	-0.07649394
156	0xbbaa4b74	-0.005196983
157	0x3bbce8e9	0.0057650697
158	0xbdfc9666	-0.12333374
159	0xbc12e426	-0.008965528
160	0xbdd90e1a	-0.10598393
161	0xbd75ddb0	-0.06002587
162	0x3da33521	0.07969118
163	0x3dd95c13	0.10613265
164	0x3ca48c30	0.020086378
165	0xbd5b8f03	-0.053603183
166	0x3d45dd15	0.048306543
167	0xbd0b2b70	-0.033976972
168	0xbd8bb188	-0.06820971
169	0x3dd37f0d	0.103269674
170	0x3bdb5c30	0.006694339
171	0xbcba8f4c	-0.022773407
172	0xbd2df408	-0.042469054
173	0xbd88d6b2	-0.06681575
174	0xbddc128a	-0.107457235
175	0x3d8815e8	0.06644803
176	0xbc9eaa1f	-0.01936823
177	0x3d4f2216	0.050569616
178	0xbdfb3dbf	-0.122676365
179	0xbddcdfbe	-0.10784863
180	0xbc6d8e80	-0.014499307
181	0x3db0e885	0.086380996
182	0xbe1257c1	-0.14291288
183	0x3cd163e9	0.025560336
184	0x3e0ddd00	0.13853836
185	0x3d34113d	0.043961752
186	0xbe1143ff	-0.14186095
187	0xbccfaec6	-0.025351893
188	0x3d32553d	0.04353832
189	0xbd40db9f	-0.047084447
190	0x3d2a149b	0.041523557
191	0xbdcf2fe3	-0.101165555
192	0xbd5349c3	-0.051584017
193	0x3d806f95	0.062712826
194	0x3d5fd428	0.054645687
195	0xbdb87cb8	-0.09008163
196	0x3dc3b471	0.09555901
197	0xbd800bd5	-0.06252257
198	0x3cd71373	0.026254391
199	0xbc7d0bd9	-0.015444719

lstm.bias_hh_l0 f4 [200]
0	0xbd9d1eed	-0.07671914
1	0xbdd3bd5e	-0.10338853
2	0xbd92a034	-0.071594626
3	0xbbaa1215	-0.005190144
4	0x3dcdf0e0	0.10055709
5	0xbe009d5b	-0.12560026
6	0x3cdea398	0.027177617
7	0x3d66dce8	0.056363016
8	0xbd25bfc9	-0.040466104
9	0x3de31d6f	0.110895984
10	0x3ca587ff	0.02020645
11	0x3d99237d	0.07477472
12	0x3d5168d2	0.051125355
13	0xbdca8466	-0.09888534
14	0xbdfc05d9	-0.12305803
15	0x3d81daf0	0.06340587
16	0x3d5d017d	0.053956497
17	0xbc74f28d	-0.014950407
18	0xbdd41dcf	-0.10357248
19	0xbe06dc57	-0.1316999
20	0x3afb68c4	0.0019181003
21	0xbd9861d1	-0.07440532
22	0xbdcd8b88	-0.10036379
23	0xbdb10859	-0.0864417
24	0xbdd00809	-0.101577826
25	0xbdcb600b	-0.09930428
26	0xbd847383	-0.064673446
27	0xbd62817b	-0.055299263
28	0xbddc041a	-0.1074297
29	0xbd9d5778	-0.07682699
30	0xbdd57aed	-0.10423837
31	0xbdffa623	-0.1248286
32	0x3ddd1325	0.10794667
33	0x3d5db52b	0.054127853
34	0xbe04b764	-0.12960583
35	0x3d935edc	0.07195827
36	0x3b17e310	0.0023176111
37	0x3d8ddf06	0.06927304
38	0xbd750ec2	-0.059828527
39	0x3df1017b	0.117678605
40	0xbc0cecb5	-0.008601357
41	0xbd90bbd6	-0.07067077
42	0xbdba4def	-0.09096896
43	0x3d991650	0.07474959
44	0xbe0ec3da	-0.13941899
45	0x3d43eaef	0.047831472
46	0xbd89c64f	-0.067272775
47	0x3de0f8a9	0.10984928
48	0x3da992f0	0.08279979
49	0xbdbd4949	-0.09242494
50	0xbda31f98	-0.079650104
51	0xbe08b16a	-0.13348928
52	0xbdbc3479	-0.09189696
53	0x3da07384	0.07834533
54	0x3cef2796	0.02919368
55	0xbcb84552	-0.022493992
56	0x3d1c4789	0.03815416
57	0x3d7748b6	0.060372077
58	0x3d399cb1	0.04531545
59	0x3d5409f7	0.051767316
60	0x3c0c8955	0.008577664
61	0xbd91f30a	-0.07126434
62	0x3d5df92e	0.054192714
63	0xbe08c6ac	-0.13357037
64	0xbd367038	-0.044540614
65	0xbb8dacda	-0.004323584
66	0xbd356c7b	-0.04429291
67	0xbd8c1993	-0.068408154
68	0x3d8c66f1	0.06855572
69	0xbdae1d65	-0.085017
70	0x3db24cc4	0.08706048
71	0x3df16713	0.11787238
72	0xbde67b78	-0.112540185
73	0x3dec91e4	0.11551264
74	0xbd62a54e	-0.055333428
75	0xbdcbf064	-0.0995796
76	0xbc6db4cd	-0.014508438
77	0xbcb4cc91	-0.022070201
78	0x3cbe07c7	0.023197068
79	0x3d3c4ec6	0.04597356
80	0xbd9f8362	-0.07788731
81	0xbdface30	-0.122463584
82	0xbcbbedd8	-0.022940561
83	0x3ddb910f	0.10721027
84	0xbc53a9a8	-0.012918867
85	0x3d933db9	0.07189507
86	0xbcf5e30f	-0.030015497
87	0x3db92db9	0.09041924
88	0xbcf8e9ba	-0.030384887
89	0x3da6f23e	0.08151673
90	0x3dfdd764	0.12394598
91	0x3ddd5059	0.10806341
92	0xbd82129e	-0.06351207
93	0xbd2f6bc8	-0.042827398
94	0x3b3ad7ca	0.0028509968
95	0x3c437830	0.01193051
96	0xbd9271b4	-0.071505934
97	0xbda8a486	-0.08234505
98	0x3da429db	0.08015796
99	0xbe07482c	-0.13211125
100	0x3d826042	0.06366016
101	0xbda31990	-0.0796386
102	0xbd170581	-0.036870483
103	0xbcb7a00e	-0.022415187
104	0xbde33551	-0.11094154
105	0x3d49fdcf	0.049314316
106	0xbd740041	-0.059570555
107	0xbdf1aea2	-0.11800887
108	0x3d7f0d85	0.062268753
109	0xbdd700f4	-0.10498229
110	0xbdfde3a2	-0.12396933
111	0xbddc6b41	-0.107626446
112	0xbdfdc22d	-0.12390552
113	0x3d32ad97	0.04362258
114	0xbcfbf90c	-0.030758403
115	0x3dbad00a	0.091217116
116	0xbcecbd94	-0.028898992
117	0xbd0b4358	-0.03399977
118	0xbdc0417c	-0.0938749
119	0xbdcce967	-0.100054555
120	0x3da38c30	0.07985723
121	0xbb82f062	-0.003995941
122	0xbb3268ac	-0.0027223034
123	0x3d7775b2	0.060414977
124	0x3e07bd13	0.1325572
125	0x3e0214d8	0.12703264
126	0x3d31580c	0.04329686
127	0x3d5694a2	0.05238784
128	0x3dc0ecef	0.094201915
129	0xbdf48b5d	-0.11940644
130	0x3cbebb2d	0.023282612
131	0xbe04c803	-0.12966923
132	0xbc1242bf	-0.008927046
133	0x3caf0033	0.0213624
134	0x3d746d56	0.059674583
135	0x3d17698c	0.03696589
136	0x3d94edae	0.07271896
137	0xbd53ceeb	-0.051711004
138	0xbc50588c	-0.012716424
139	0x3dad2d1c	0.084558696
140	0xbddb1fc5	-0.10699419
141	0x3d8f33e3	0.069923185
142	0xbd9ed6df	-0.07755827
143	0x3d6d86f9	0.057990048
144	0xbe083776	-0.13302407
145	0xbdfaa7cc	-0.12239036
146	0xbdb84cac	-0.08998999
147	0xbdb2ead2	-0.08736195
148	0x3d89cff5	0.06729118
149	0x3cfe9041	0.031074645
150	0x3d607044	0.054794565
151	0x3c9218b2	0.017834041
152	0xbde0caa7	-0.10976153
153	0x3e04a75f	0.12954472
154	0x3db1be9c	0.08678934
155	0xbda68179	-0.08130164
156	0x3b5f10d9	0.0034037142
157	0xbe062a6b	-0.13102119
158	0xbb1b5b49	-0.0023705533
159	0xbd945010	-0.07241833
160	0xbd87b4bc	-0.06626269
161	0xbdee847f	-0.116463654
162	0x3d9127e3	0.07087686
163	0x3bfe6153	0.007763067
164	0xbdb97e84	-0.09057334
165	0x3d80225d	0.06256554
166	0xbe015156	-0.12628683
167	0xbc918445	-0.017763266
168	0x3d70cf06	0.058791183
169	0xbd8592f9	-0.065221734
170	0xbcb12f7c	-0.021629088
171	0x3df9a235	0.12189142
172	0xbe015f36	-0.12633976
173	0x3dee96bb	0.11649843
174	0xbca6cdde	-0.020361837
175	0x3db1ad70	0.08675659
176	0x3d5ab88f	0.053398665
177	0xbcddfca6	-0.027098011
178	0x3d417819	0.047233675
179	0x3cbbe83c	0.022937886
180	0x3e08f9b6	0.13376507
181	0xbdcc8161	-0.099856146
182	0xbcc8d39b	-0.024514964
183	0xbdd46e53	-0.10372605
184	0x3e1206b4	0.1426037
185	0xbca4c105	-0.02011157
186	0xbdc8b86b	-0.098008
187	0xbd1310cc	-0.03590469
188	0x3cf477c2	0.029842261
189	0xbe062045	-0.13098247
190	0x3d1ff82f	0.039055046
191	0xbde3b320	-0.1111815
192	0x3ce81a77	0.028332932
193	0x3bf1762b	0.007368823
194	0x3d8fcf40	0.07021952
195	0x3e06f6ac	0.13180035
196	0x3db2e357	0.08734768
197	0x3d1168ed	0.035500456
198	0x3dc9144d	0.09818325
199	0x3ddea2e6	0.10870914

lstm.weight_ih_l1 f4 [200, 50]
0	0xbe02c53d	-0.12770553
1	0xbcb62683	-0.02223516
2	0xbdf40147	-0.11914306
3	0xbd96af86	-0.07357697
4	0x3db186a0	0.08668256
5	0xbdda68d5	-0.106645264
6	0xbd674a80	-0.056467533
7	0x3deb5ba1	0.11492086
8	0x3ddd3823	0.10801723
9	0xbe05ec33	-0.13078384
10	0x3dc2e1dc	0.095157355
11	0xbe14ce4c	-0.14531821
12	0xbd96bc36	-0.07360117
13	0x3d96c23a	0.073612645
14	0xbddd3791	-0.10801614
15	0xbe065dc8	-0.13121712
16	0x3df80d70	0.12111938
17	0x3d087070	0.033310354
18	0x3dc3cd8c	0.09560689
19	0x3de8c66f	0.11365973
20	0x3d9f8b0a	0.077901915
21	0xbb4e7ca6	-0.0031507402
22	0x3dbb4de3	0.09145715
23	0xbd2b34ef	-0.04179853
24	0xbda02c46	-0.078209445
25	0xbd60e81e	-0.054908864
26	0xbded1bf2	-0.11577596
27	0xbc8de02a	-0.017318804
28	0xbd2f312f	-0.042771515
29	0x3d54682c	0.05185716
30	0x3dcb083b	0.09913679
31	0xbdb919c9	-0.09038121
32	0xbe08b281	-0.13349344
33	0xba4fc0d4	-0.0007925157
34	0x3de01608	0.10941702
35	0x3cc464a3	0.023973769
36	0x3dbac1fd	0.091190316
37	0x3c6b293e	0.014353095
38	0xbd2409ef	-0.040048536
39	0x3dfa86d7	0.1223275
40	0x3d4cddf1	0.050016347
41	0xbe071233	-0.13190536
42	0x3ca9e699	0.02073984
43	0x3d415836	0.047203265
44	0x3c95614a	0.018234868
45	0xbd157ed4	-0.036497906
46	0x3de0dcfc	0.109796494
47	0x3d0314ff	0.032002445
48	0xbdd86293	-0.105656765
49	0xbdf4c74d	-0.11952076
50	0x3dc3d0a8	0.095612824
51	0x3d07d3c3	0.033160936
52	0xbd0c8f6b	-0.03431646
53	0xbded284e	-0.11579953
54	0xbd92f893	-0.07176318
55	0x3d2b7965	0.041863818
56	0xbcb474bf	-0.022028325
57	0x3e1215a8	0.14266074
58	0xbda1a208	-0.07892233
59	0x3deef278	0.11667341
60	0xbd8521d1	-0.065005906
61	0xbdaafee8	-0.08349401
62	0x3df10f98	0.117705524
63	0x3df7a042	0.120911136
64	0x3d6ddbf2	0.058071084
65	0x3d849d1c	0.06475279
66	0x3dbd361b	0.092388354
67	0xbdb3c019	-0.08776874
68	0x3e05dd93	0.13072805
69	0xbca14a62	-0.019688789
70	0x3d80c1e0	0.06286979
71	0xbba2745c	-0.004957719
72	0x3c11518f	0.008869543
73	0xbd11c240	-0.03558564
74	0x3c7cd2b2	0.015431093
75	0x3d31eccc	0.043438718
76	0x3d894ea2	0.06704451
77	0x3dba13ed	0.09085832
78	0xbdf32e55	-0.118740715
79	0x3d6a25ec	0.05716507
80	0xbcfd801f	-0.030944882
81	0xbd284783	-0.041083824
82	0x3db8fa6f	0.090321414
83	0x3db0f981	0.08641339
84	0xbcf7b686	-0.030238401
85	0xbc248fbf	-0.010044037
86	0xbe018aec	-0.1265065
87	0xbcf8f5ff	-0.030390738
88	0xbd370e3e	-0.044691317
89	0xbdd2f112	-0.10299887
90	0x3e0f26c0	0.13979626
91	0xbe0541b9	-0.13013352
92	0x3d4dcc39	0.05024359
93	0xbdb98976	-0.09059422
94	0x3d0f4080	0.03497362
95	0xbc629e1a	-0.01383164
96	0x3cca2061	0.024673643
97	0xbd2c0aab	-0.04200236
98	0xbd9ee879	-0.077591844
99	0xbd22fa3a	-0.039789416
100	0xbda75a93	-0.081715725
101	0xbd12c09f	-0.03582823
102	0x3cc4bf39	0.024016963
103	0xbdb2a91d	-0.08723662
104	0xbda095f8	-0.07841104
105	0x3c0e890a	0.008699665
106	0xbd92a3e2	-0.071601644
107	0x3c969b5b	0.018384626
108	0xbdf6279a	-0.12019272
109	0x3c4150a7	0.011799014
110	0xbc7de29a	-0.015495921
111	0x3dd931e8	0.10605222
112	0x3d796eba	0.060896613
113	0x3c98cc90	0.01865223
114	0xbdfba848	-0.122879565
115	0x3dceca02	0.10097124
116	0xbc5fe725	-0.013665949
117	0xbde0de12	-0.109798566
118	0x3d240732	0.040045924
119	0x3e07b57f	0.13252829
120	0x3de7a285	0.11310295
121	0xbe02f4de	-0.12788722
122	0x3dd3a894	0.10334888
123	0x3d50b1db	0.050950866
124	0x3da78201	0.08179093
125	0x3e0946e5	0.1340595
126	0xbd86f1db	-0.06589099
127	0xbaeb3a98	-0.001794654
128	0xbe057753	-0.130338
129	0xbddf4f08	-0.10903746
130	0x3cacc329	0.021089153
131	0xbd2cc693	-0.042181563
132	0x3db4378b	0.087996565
133	0x3de30046	0.110840365
134	0x3a12a0e8	0.0005593435
135	0xbdb82913	-0.08992209
136	0xbda5af21	-0.08090044
137	0x3cc1f8a0	0.023678124
138	0x3c5ba865	0.013406848
139	0x3d40b6b9	0.047049258
140	0x3cd92044	0.026504643
141	0x3c1cc2b7	0.009567908
142	0xbddf2dce	-0.108974084
143	0x3d0aee24	0.033918515
144	0x3b7a3dfe	0.0038183923
145	0xbdfc6512	-0.12323965
146	0xbd570536	-0.052495204
147	0x3e07d530	0.13264918
148	0xbac21e1c	-0.0014809999
149	0xbdcbf59a	-0.09958954
150	0xbb33f63e	-0.0027460004
151	0x3d22c56f	0.03973907
152	0x3db589a9	0.08864147
153	0xbdfa9a65	-0.1223648
154	0x3d418471	0.047245447
155	0x3dd55b7b	0.10417839
156	0x3d9db05e	0.07699655
157	0x3cf1c393	0.029512202
158	0x3d050fa8	0.032485634
159	0xbcfdee51	-0.030997427
160	0xbde98261	-0.11401821
161	0x3ddcb8fd	0.10777471
162	0x3de5c0e4	0.112184316
163	0xbda564e1	-0.08075882
164	0x3cb26e3a	0.021781076
165	0x3d92a08f	0.0715953
166	0xbd1f9be6	-0.038967036
167	0x3de2197b	0.11040016
168	0x3d7eedeb	0.062238615
169	0xbd876346	-0.06610732
170	0xbcedf91e	-0.029049452
171	0xbc8ee759	-0.0174443
172	0xbd5135a9	-0.051076565
173	0xbd60b243	-0.054857504
174	0x3dd6d522	0.104898706
175	0xbcd5648e	-0.026048925
176	0xbc9cb259	-0.019128012
177	0xbda9a274	-0.082829386
178	0xbdd772eb	-0.10519966
179	0xbcf70ef6	-0.030158501
180	0x3d86e04f	0.06585752
181	0x3cf41a9c	0.029797845
182	0x3d181518	0.03712949
183	0x3dba2b24	0.0909026
184	0xbdb74f3a	-0.08950658
185	0x3dfe0d9f	0.12404942
186	0xbd3b334e	-0.045703225
187	0xbcf9c299	-0.0304883
188	0x3e00cc5f	0.12577961
189	0x3cd43c6c	0.025907718
190	0x3d4ce7e3	0.050025832
191	0xbdc207ff	-0.094741814
192	0x3d1801c3	0.037111055
193	0x3d008946	0.031380914
194	0x3bbfa91d	0.0058490173
195	0xbca116f3	-0.019664263
196	0x3d773ce4	0.060360804
197	0x3d2cf69f	0.042227384
198	0xbd82678a	-0.06367405
199	0xbdb25e46	-0.087093875
200	0x3d2f13f0	0.042743623
201	0xbd16ff4f	-0.036864575
202	0x3d51cefc	0.051222786
203	0xbdfda6f4	-0.123853594
204	0x3d166fd9	0.03672776
205	0xbd0d25c8	-0.03445986
206	0x3cbebf9b	0.023284724
207	0x3d85cd72	0.06533326
208	0x3e147ce2	0.14500764
209	0xbcf4c11b	-0.029877236
210	0xbdd76baa	-0.10518582
211	0xbd5ca5ae	-0.053868942
212	0x3d39e618	0.04538545
213	0xbd98e8df	-0.07466292
214	0xbd6208cf	-0.05518418
215	0xbe0308f0	-0.12796378
216	0x3d4aab10	0.049479544
217	0x3d279c3f	0.040920492
218	0x3beb8f93	0.0071887462
219	0xbdfb819d	-0.12280581
220	0x3d8f3560	0.06992602
221	0xbdca5914	-0.098802716
222	0x3e06c754	0.13161975
223	0x3d191a1f	0.037378427
224	0xbd99367b	-0.074810944
225	0xbc01fea3	-0.007934245
226	0xbda8ab7d	-0.08235834
227	0xbddc5b44	-0.10759595
228	0xbcd8bdca	-0.026457686
229	0x3d921441	0.071327694
230	0xbdca4cf8	-0.09877962
231	0x3bfa249d	0.007633759
232	0xbda56079	-0.08075041
233	0xbd871f48	-0.06597763
234	0x3df4b5e0	0.119487524
235	0x3dbbdef1	0.09173382
236	0x3d812e70	0.063076854
237	0x3da5abda	0.08089419
238	0x3e0e8217	0.13916813
239	0x3dba2c9d	0.090905406
240	0x3d410052	0.047119446
241	0xbde86dcb	-0.11349066
242	0xbd59366d	-0.05303042
243	0x3d71f9a0	0.05907595
244	0xbcca8b29	-0.02472456
245	0x3e0ba517	0.13637196
246	0x3c350faf	0.011051103
247	0xbdbdd432	-0.09268989
248	0x3cf4274e	0.029803898
249	0x3d19a149	0.03750733
250	0x3dd21178	0.10257238
251	0x3dfc1763	0.12309148
252	0x3d95b92b	0.073107086
253	0x3dd2ac12	0.10286726
254	0x3cb2f22d	0.021843994
255	0x3c611f4e	0.013740374

lstm.weight_hh_l1 f4 [200, 50]
0	0xbd43253b	-0.047642928
1	0xbe0ff9c0	-0.14060116
2	0x3df1e196	0.11810605
3	0xbda97c59	-0.082756706
4	0x3c80faf7	0.01574467
5	0xbdcd258f	-0.10016929
6	0x3dde5840	0.10856676
7	0x3ddbaafc	0.10725972
8	0xbdb2a444	-0.087227374
9	0x3d2e01cd	0.042482186
10	0xbda35a23	-0.079761766
11	0x3dc9d77a	0.09855552
12	0xbc4da78b	-0.012552152
13	0x3dcf74eb	0.10129722
14	0xbe032e11	-0.12810542
15	0xbe07cdbd	-0.13262077
16	0x3db2c5b4	0.08729115
17	0xb98ad7c0	-0.00026482157
18	0xbdbc1578	-0.09183782
19	0x3dca0659	0.09864492
20	0xbdd09a05	-0.10185627
21	0xbbbcaaaa	-0.0057576494
22	0xbe06ab9a	-0.13151398
23	0x3e14aaf7	0.14518343
24	0xbd9035f9	-0.070415445
25	0x3e04218f	0.12903427
26	0x3d2c47da	0.04206071
27	0x3d247ec6	0.040159963
28	0xbca503ce	-0.020143416
29	0xbd9afe95	-0.07568089
30	0x3db418f3	0.08793821
31	0xbda78b10	-0.08180821
32	0x3dbf3a9d	0.093373515
33	0x3d7a05f9	0.061040852
34	0x3d3f883a	0.046760775
35	0xbd8c69c1	-0.068561085
36	0xbd968e65	-0.07351378
37	0x3d95cc46	0.07314353
38	0x3cef063e	0.029177781
39	0x3dae50c0	0.085114956
40	0xbd08835f	-0.03332841
41	0xbe05e4cb	-0.13075559
42	0xbc9858f2	-0.0185971
43	0x3d1fb437	0.038990226
44	0xbdd0a25b	-0.10187217
45	0x3dac8534	0.08423844
46	0x3d88caab	0.06679281
47	0x3dfc9716	0.12333505
48	0x3d574de7	0.052564528
49	0x3de3710f	0.111055486
50	0xbd41472c	-0.047187015
51	0xbd2dd618	-0.042440504
52	0xbcd1a83b	-0.025592914
53	0xbe0251e2	-0.12726548
54	0x3dcfecbd	0.10152576
55	0x3def2fc3	0.11679032
56	0xbddf83a5	-0.10913781
57	0xbe002722	-0.12514928
58	0xbd8410e2	-0.06448533
59	0x3ce5c0cb	0.028046032
60	0x3dc80897	0.097672634
61	0xbcdded80	-0.027090788
62	0x3d000837	0.031257834
63	0x3d89f8c2	0.067369
64	0x3dc0db03	0.09416773
65	0x3e022a7d	0.1271152
66	0xbd73779e	-0.059440248
67	0xbd1fe422	-0.039035924
68	0xbd96c90a	-0.07362564
69	0xbdc32fea	-0.09530623
70	0xbe01e865	-0.12686308
71	0xbc26cef7	-0.01018118
72	0xbd920779	-0.071303315
73	0xbd2bf85a	-0.041984893
74	0x3e0d3bf8	0.13792408
75	0x3dfb530a	0.12271698
76	0xbbbc9549	-0.005755101
77	0xbe0bac2e	-0.136399
78	0x3b0e57d9	0.0021719842
79	0xbe11f1e7	-0.14252435
80	0x3d8f8c64	0.07009199
81	0x3c053558	0.008130394
82	0x3d20dcb1	0.039272968
83	0x3deeaac8	0.11653668
84	0xbdd41a63	-0.10356595
85	0xbcaa2a8b	-0.02077224
86	0x3df6b018	0.12045306
87	0x3cc246fb	0.023715487
88	0x3d829ae7	0.063772015
89	0xbe06f187	-0.13178073
90	0xbd8359da	-0.06413622
91	0x3d8c48e4	0.0684984
92	0xbdcc6ae0	-0.09981322
93	0xbd2f352c	-0.042775318
94	0xbe061631	-0.13094403
95	0x3d604630	0.054754436
96	0x3d5729e7	0.052530196
97	0xbc96cc15	-0.01840786
98	0xbca22b7f	-0.019796131
99	0xbd35bdb2	-0.04437036
100	0x3da68d08	0.08132368
101	0xbd93bc54	-0.07213655
102	0x3dc03589	0.09385211
103	0x3dbc71a1	0.092013605
104	0xbdc25343	-0.09488537
105	0x3e064681	0.13112833
106	0xbce3b39a	-0.027795602
107	0x3d936080	0.0719614
108	0xbdf40171	-0.119143374
109	0xbdd0ec67	-0.1020134
110	0x3d575d74	0.05257936
111	0x3dae1d54	0.08501688
112	0x3dcfa44f	0.10138761
113	0xbde55cb4	-0.11199322
114	0x3ca8d2f1	0.020608397
115	0x3e0b8e44	0.13628489
116	0xbe0a98ad	-0.13534804
117	0x3d7b3863	0.06133307
118	0xbdbc7d0e	-0.0920354
119	0x3db67fee	0.089111194
120	0xbdeb57ec	-0.11491379
121	0x3df0d929	0.1176017
122	0xbdf2d7ba	-0.11857553
123	0xbc0a0d3b	-0.008426006
124	0xbc842ea4	-0.016135521
125	0x3d3f9106	0.046769165
126	0xbb3dce7a	-0.002896218
127	0x3deb9343	0.11502697
128	0xbdfebd99	-0.12438507
129	0x3d59e4d7	0.053196754
130	0xbd48ac2d	-0.048992325
131	0xbd4f777e	-0.050651066
132	0xbd2c5ea2	-0.042082436
133	0x3e0655ea	0.13118711
134	0x3d91c305	0.07117275
135	0xbded0363	-0.115729116
136	0xbcd39e31	-0.025832267
137	0xbd5513a8	-0.0520207
138	0xbc2addea	-0.010428885
139	0x3c297262	0.010342212
140	0xbd6139bf	-0.05498671
141	0x3ca93941	0.020657184
142	0x3de80d12	0.11330618
143	0x3dc2593c	0.09489676
144	0xbd78632c	-0.060641453
145	0x3dadb2a9	0.08481342
146	0xbd9efb61	-0.077627905
147	0xbcffe889	-0.031238811
148	0xbdbab38f	-0.09116279
149	0xbd98ea98	-0.0746662
150	0xbd93629a	-0.07196541
151	0x3d801a60	0.06255031
152	0xbbb3b7d8	-0.0054845624
153	0xbd071ec4	-0.032988325
154	0x3d982d80	0.074305534
155	0x3e05808c	0.13037318
156	0xbb21e7e4	-0.0024704868
157	0x3deb44c2	0.11487724
158	0x3da905ba	0.082530454
159	0x3d24f932	0.040276714
160	0xbd2ed8a5	-0.042687077
161	0xbd3ab442	-0.045582063
162	0x3bb28ba9	0.0054487777
163	0x3e00c148	0.12573731
164	0x3cc437ce	0.023952391
165	0x3ccd9446	0.025095116
166	0xbd9f7037	-0.07785075
167	0xbda10866	-0.0786293
168	0xbbbd5ab2	-0.005778634
169	0xbcdcb62a	-0.026942331
170	0x3dc5bb3d	0.096548535
171	0xbdecf776	-0.11570637
172	0xbd1dcc46	-0.03852489
173	0x3cb106ae	0.02160963
174	0x3ce1335c	0.02749031
175	0xbd91df62	-0.07122685
176	0xbd756ab2	-0.059916206
177	0x3d15ee11	0.03660399
178	0x3df33a09	0.11876304
179	0xbda4ecb8	-0.08052963
180	0x3dbc473f	0.091932766
181	0xbd0caa5a	-0.034342147
182	0x3d8f5826	0.06999235
183	0x3dcab0a0	0.0989697
184	0x3e0a90cc	0.13531798
185	0xbc30615e	-0.010765402
186	0x3d833835	0.06407205
187	0x3d0a9aa4	0.033838883
188	0xbdd774e9	-0.10520346
189	0xbd7e4813	-0.062080454
190	0xbdcac09d	-0.09900019
191	0xbde5751e	-0.11203979
192	0xbdf2082d	-0.11817966
193	0x3bb4fa7f	0.0055230255
194	0x3cab2737	0.020892723
195	0x3d527dd9	0.05138955
196	0x3d9d3308	0.07675749
197	0xbd3ce6bd	-0.046118487
198	0xbd0f0663	-0.0349182
199	0xbdbeb8f6	-0.09312622
200	0xbd526cb3	-0.051373195
201	0x3c0debad	0.0086621465
202	0xbb128cca	-0.002236175
203	0x3dd1027e	0.102055535
204	0xbe0a7a5a	-0.13523236
205	0xbddac770	-0.10682571
206	0xbc62350d	-0.013806594
207	0xbdaac331	-0.08338011
208	0xbd9bc43d	-0.07605789
209	0xbd21508f	-0.039383467
210	0x3ca234ea	0.019800622
211	0x3d61a33b	0.05508731
212	0x3d396e7e	0.04527139
213	0x3d624edd	0.05525099
214	0x3dcb71d1	0.09933818
215	0x3e034f4d	0.1282322
216	0xbc620515	-0.013795157
217	0xbddbf4ce	-0.10740052
218	0xbd1aec1f	-0.03782284
219	0x3d859dcf	0.0652424
220	0xbdd1e214	-0.10248199
221	0x3e01cd37	0.1267594
222	0xbcaff176	-0.021477442
223	0x3cf8f05e	0.030388054
224	0xbdeb0ad0	-0.11476672
225	0xbac27c42	-0.0014838057
226	0x3d9101b3	0.07080402
227	0xbc59e49a	-0.013299132
228	0xbe13a51e	-0.14418456
229	0x3e01b368	0.12666094
230	0x3dc94e5f	0.09829401
231	0x3dd42b74	0.103598505
232	0x3df957ef	0.12174975
233	0x3d557f17	0.052123155
234	0xbd48ff83	-0.0490718
235	0xbde15f99	-0.11004562
236	0xbd818e20	-0.06325936
237	0x3d91607f	0.07098483
238	0x3d98d567	0.07462578
239	0xbd973dba	-0.0738482
240	0x3d68bc6e	0.056820326
241	0x3e13486a	0.14383093
242	0xbe021b4c	-0.12705725
243	0x3dad2110	0.08453572
244	0xbba47cba	-0.0050197514
245	0x3d8aa4bf	0.06769704
246	0xbd91bbed	-0.07115922
247	0x3d84bf6b	0.064818226
248	0xbe00badc	-0.12571281
249	0xbd4900a1	-0.049072865
250	0xbd12ede3	-0.035871398
251	0x3cdab80b	0.026699087
252	0x3e037c46	0.12840375
253	0x3e045d24	0.12926155
254	0xbd436712	-0.047705717
255	0xbe05f42b	-0.13081424

lstm.bias_ih_l1 f4 [200]
0	0x3e1451a3	0.14484267
1	0x3c108e46	0.008822983
2	0x3d227964	0.03966655
3	0xbc915474	-0.017740466
4	0x3ce542a0	0.02798587
5	0x3e02e681	0.12783243
6	0x3dd47dcf	0.103755586
7	0xbdd62ba0	-0.104575396
8	0xbdfffc6e	-0.12499319
9	0x3de4e177	0.111758165
10	0x3de7010d	0.11279497
11	0xbd880f0f	-0.06643497
12	0x3d2eda7f	0.042688843
13	0xbe0d67d5	-0.1380914
14	0x3d039fd7	0.032134857
15	0x3db3f393	0.087866925
16	0xbd06b10e	-0.032883696
17	0x3d909a57	0.07060688
18	0x3dfc283c	0.123123616
19	0x3c3637e2	0.011121722
20	0x3d804f49	0.062651224
21	0x3e0e77e3	0.1391292
22	0x3e0a28cf	0.1349213
23	0xbdc4d5bc	-0.09611079
24	0x3e138cbc	0.14409155
25	0x3dd7dfb8	0.10540718
26	0xbdf20163	-0.11816671
27	0x3d3d03fa	0.04614637
28	0xbd25b118	-0.040452093
29	0xbd05cbca	-0.03266505
30	0xbd85fc56	-0.0654227
31	0xb951f028	-0.00020021258
32	0xbe0a1b26	-0.13486919
33	0x3df4d9b4	0.11955586
34	0x3d1b7c99	0.037960622
35	0x3c41913f	0.0118144145
36	0x3da51838	0.0806126
37	0xbd9d762f	-0.07688557
38	0x3e0c0922	0.13675359
39	0xbd297fc5	-0.041381616
40	0xbc8b688a	-0.017017622
41	0xbde57ad4	-0.11205068
42	0xbdd9560b	-0.106121145
43	0x3c9cbc7f	0.01913285
44	0xbc95ca2e	-0.018284883
45	0xbcc0a5bd	-0.02351653
46	0xbdf29db3	-0.11846485
47	0xbdb9e67f	-0.09077167
48	0x3d8fd3ff	0.07022857
49	0x3dc5d4f0	0.09659755
50	0x3c4bb70f	0.012433781
51	0xbe11da0d	-0.14243336
52	0xbd27c324	-0.040957585
53	0x3daec9f9	0.08534617
54	0x3d324596	0.043523394
55	0x3b9f79bb	0.0048668063
56	0x3daaff77	0.08349507
57	0x3dc9ee35	0.098598875
58	0x3cc83fbf	0.024444459
59	0xb90ebccc	-0.00013612508
60	0x3d032daa	0.03202597
61	0x3d9d15b3	0.076701544
62	0xbdd66b61	-0.104697
63	0x3d4e9aca	0.050440587
64	0x3d4fdca0	0.050747514
65	0xbd95e9fa	-0.07320018
66	0xbda8388c	-0.082139105
67	0xbdbd4c50	-0.09243071
68	0xbde1719b	-0.11007997
69	0x3c8b475a	0.017001797
70	0x3c671c13	0.0141058145
71	0x3d93431d	0.07190535
72	0xbcb306fe	-0.02185392
73	0xbda90a1e	-0.08253883
74	0xbb5d87c4	-0.0033802846
75	0x3d14a80b	0.03629307
76	0xbd89b71d	-0.06724379
77	0xbd0ebb01	-0.03484631
78	0xbd982f72	-0.074309245
79	0xbda8e1da	-0.08246203
80	0x3c7bc9bb	0.0153679205
81	0x3de0ae00	0.10970688
82	0x3d5bbba2	0.053645737
83	0x3db3a714	0.08772102
84	0xbd8424b3	-0.06452312
85	0xbd6f837d	-0.058475006
86	0x3d5d6c00	0.054058075
87	0xbda2cc28	-0.07949096
88	0xbde99885	-0.11406044
89	0xbdf78fd1	-0.12087978
90	0x3e0b7a6a	0.13620916
91	0xbc696569	-0.0142453695
92	0xbb9534b5	-0.0045534023
93	0x3c34952d	0.011021894
94	0x3db7d144	0.08975461
95	0x3d851af4	0.064992815
96	0xbd6a5ff0	-0.0572204
97	0x3dc54722	0.09632708
98	0xbe091007	-0.1338502
99	0xbddb18fc	-0.10698125
100	0x3da28754	0.07935968
101	0xbdb218b4	-0.08696118
102	0xbd8738a2	-0.06602599
103	0xbd4b9023	-0.049698006
104	0xbc548acb	-0.012972544
105	0xbdcb2916	-0.09919946
106	0x3e0e609d	0.13904043
107	0x3ba51988	0.005038444
108	0xbd807d70	-0.06273925
109	0x3d9be9e5	0.07612971
110	0x3db53670	0.08848274
111	0x3dc1dcd7	0.0946595
112	0xbdf90aa6	-0.12160234
113	0xbe06b38c	-0.13154429
114	0xbd52640c	-0.051364943
115	0xbdf4eb28	-0.11958915
116	0x3c9dac21	0.019247117
117	0xbd6b2f03	-0.05741788
118	0xbdc2576c	-0.09489331
119	0x3ded5f22	0.11590411
120	0x3d47ebdd	0.04880892
121	0xbdea0cab	-0.114281975
122	0x3def1841	0.11674548
123	0x3dfdfc9d	0.12401698
124	0x3d64944e	0.055805497
125	0xbd6d4d22	-0.057934888
126	0x3ddfe5a3	0.109324716
127	0x3dc896fa	0.097944215
128	0x3d9aebe9	0.075645275
129	0x3dc25e94	0.094906956
130	0xbde8c3cd	-0.11365471
131	0xbdc972b4	-0.09836331
132	0xbce3c58f	-0.027804164
133	0x3d8d9054	0.06912294
134	0x3d198ed4	0.037489727
135	0x3df448c9	0.11927945
136	0x3b6b9c24	0.0035951221
137	0xbd6d22d2	-0.057894535
138	0x3d1376c8	0.03600195
139	0xbd11bd13	-0.035580706
140	0xbc550382	-0.013001325
141	0x3b919770	0.0044431016
142	0x3b635802	0.0034689908
143	0xbd76bb50	-0.06023723
144	0x3e0480f3	0.12939815
145	0x3e0bc8b6	0.13650784
146	0xbc081ace	-0.008307172
147	0x3dc0fcdc	0.09423229
148	0x3dd8f76d	0.10594068
149	0x3dbda054	0.09259096
150	0x3dae64ad	0.08515296
151	0xbddf59ce	-0.10905801
152	0xbdd20171	-0.10254181
153	0x3d61119c	0.054948434
154	0xbe0bd29f	-0.13654564
155	0xbe0c036b	-0.13673179
156	0xbe025b88	-0.12730229
157	0x3dc40572	0.09571351
158	0xbd8c684f	-0.06855833
159	0xbc6603b5	-0.01403897
160	0xbda81e62	-0.0820892
161	0x3cee3ddf	0.029082237
162	0xb8870630	-6.438454e-05
163	0x3dc60ebd	0.0967078
164	0xbc73dcc3	-0.014884177
165	0x3c4cfe26	0.012511766
166	0xbcbd88d4	-0.023136534
167	0xbc105bc8	-0.008810945
168	0xbc166d34	-0.0091813095
169	0xbd484cdb	-0.04890142
170	0xbe033efa	-0.12816992
171	0x3dceca50	0.10097182
172	0x3d9011c6	0.0703464
173	0x3d753a60	0.059870124
174	0xbc735ff4	-0.01485442
175	0xbda5cd9e	-0.08095859
176	0x3bbee2a2	0.0058253566
177	0x3d960142	0.07324459
178	0xbe0215f7	-0.12703691
179	0xbdb435cc	-0.087993234
180	0xbbcc0b99	-0.0062269685
181	0x3d8b50b1	0.068025
182	0xbd3fe1e4	-0.046846285
183	0xbdac5abe	-0.08415745
184	0x3d33f611	0.04393584
185	0x3c90384a	0.017604966
186	0xbdedc8a4	-0.11610535
187	0xbdb4601f	-0.08807396
188	0x3dc72eee	0.09725748
189	0x3c6af8ae	0.014341516
190	0x3dc53a4a	0.096302584
191	0x3e126cb7	0.14299284
192	0xbd047f0a	-0.032347716
193	0x3ded0c9e	0.11574672
194	0xbb8b6204	-0.0042536277
195	0x3e0e28dc	0.13882774
196	0xbd1cbeae	-0.038267784
197	0x3dc41e48	0.09576088
198	0xbcd0ab76	-0.025472384
199	0x3c55ebb9	0.013056689

lstm.bias_hh_l1 f4 [200]
0	0x3dfb4486	0.12268929
1	0xbbff2d37	-0.0077873725
2	0xbdaa612b	-0.083193146
3	0xbd0e35dd	-0.034719337
4	0xbdb84a75	-0.089985766
5	0x3cbc0f96	0.02295665
6	0x3dc06acd	0.09395371
7	0xbd89d16c	-0.06729397
8	0xbce9a393	-0.028520381
9	0x3d418872	0.047249265
10	0x3dd76367	0.10517006
11	0x3c2c21a3	0.0105060665
12	0x3b9f00d2	0.0048523927
13	0x3dfafb39	0.12254948
14	0xbdd88dbf	-0.10573911
15	0x3d002a6c	0.031290457
16	0xbdffff9c	-0.124999255
17	0xbdb334a7	-0.08750277
18	0x3aa5ca25	0.0012648745
19	0x3d99f347	0.075171046
20	0x3d9684e5	0.07349566
21	0xbc1ef6d9	-0.009702408
22	0xbd63fc14	-0.055660322
23	0xbbb4b6c9	-0.0055149538
24	0xbd6f9992	-0.058496065
25	0xbe08c4bc	-0.13356298
26	0xb9aac60c	-0.00032572483
27	0xbe123bd3	-0.14280634
28	0xbdc95265	-0.09830169
29	0xbd830e95	-0.06399266
30	0xbdf00323	-0.11719348
31	0x3d1012f0	0.03517431
32	0x3dc5ee8c	0.0966464
33	0x3d6728cb	0.056435388
34	0xbe0ba931	-0.1363876
35	0x3db34f4a	0.087553576
36	0x3d8f2f0a	0.06991394
37	0xbdbc28c3	-0.09187462
38	0xbdba2a75	-0.09090129
39	0x3d565653	0.05232842
40	0xbe01c782	-0.12673762
41	0xbdfbd91c	-0.1229727
42	0x3d943f2f	0.07238614
43	0xbdaf4bbf	-0.08559369
44	0xbc8595fe	-0.016306873
45	0x3dd776c5	0.105207
46	0x3d988ef9	0.07449145
47	0x3b6dd888	0.0036292393
48	0xbdcaa1e3	-0.09894159
49	0xbd995668	-0.07487184
50	0x3da5471f	0.08070206
51	0x3db4fcb4	0.08837262
52	0x3e14c5d1	0.14528586
53	0x3df8a579	0.121409364
54	0x3c35e817	0.011102698
55	0x3db456fb	0.08805653
56	0x3d13778e	0.036002688
57	0xbd2d0c91	-0.042248312
58	0x3c7a214f	0.01526673
59	0xbdb7f000	-0.08981323
60	0xbd78f7ad	-0.060783077
61	0xbcbbf122	-0.02294213
62	0x3e155e03	0.14586644
63	0xbd64a002	-0.055816658
64	0x3bea2980	0.0071460605
65	0x3c838014	0.016052283
66	0x3deaa876	0.114579126
67	0xbdc0765b	-0.093975745
68	0xbc9d0c19	-0.019170808
69	0x3d89ffe0	0.067382574
70	0xbdb74356	-0.0894839
71	0x3e09df5a	0.13464108
72	0x3d98c338	0.0745911
73	0x3d9229f6	0.0713691
74	0x3de40341	0.11133433
75	0xbcfe5f44	-0.031051286
76	0x3e071b32	0.13193968
77	0xbdcd21ca	-0.100162104
78	0xbca130c1	-0.019676568
79	0xbe0d3ead	-0.1379344
80	0x3d3c9620	0.046041608
81	0xbd6c84b5	-0.057743747
82	0xbe05cd0e	-0.13066503
83	0xbe0a6edc	-0.13518852
84	0x3de76524	0.11298588
85	0x3d28e4db	0.04123388
86	0xbc0d14cc	-0.008610915
87	0x3cd0efe5	0.025505016
88	0xbd993d67	-0.07482415
89	0xbca1f468	-0.019769862
90	0x3e04c026	0.12963924
91	0xbddfe488	-0.10932261
92	0x3b4ac958	0.0030942764
93	0x3dbcf3ed	0.09226213
94	0x3e053fc0	0.130126
95	0xbd2970cb	-0.041367333
96	0xbd1aa59a	-0.037755586
97	0x3d77504c	0.06037931
98	0x3d9b142f	0.07572209
99	0x3c18b300	0.009320021
100	0xbc4ae6ce	-0.01238413
101	0xbdeefe63	-0.11669614
102	0xbd150e05	-0.036390323
103	0x3dfdc01b	0.12390157
104	0x3de26d0a	0.11055954
105	0xbcd010d0	-0.025398642
106	0xbde10838	-0.10987896
107	0x3db8cbc2	0.09023239
108	0x3d2518ea	0.040306963
109	0x3de206d9	0.11036462
110	0x3de7464e	0.112927064
111	0x3d8ff4b3	0.070290945
112	0xbde196b9	-0.11015076
113	0x3d304f49	0.043044362
114	0xbdab7d8f	-0.08373558
115	0x3d0492cb	0.032366555
116	0xbe00e194	-0.12586051
117	0x3e0f34e9	0.13985027
118	0xbdf1d407	-0.11808019
119	0xbdd10152	-0.1020533
120	0xbd4c1ac1	-0.049830202
121	0xbbc43a80	-0.005988419
122	0x3e0b4f2c	0.1360442
123	0xbda0d644	-0.07853368
124	0xbd6913da	-0.056903698
125	0xbdb1acee	-0.08675562
126	0x3c228f74	0.009921897
127	0x3977efd8	0.00023645104
128	0x3dc34987	0.095355086
129	0xbdb229f1	-0.08699406
130	0xbdb25e21	-0.0870936
131	0x3de49aaf	0.11162316
132	0xbc41750d	-0.011807692
133	0xbda0de24	-0.0785487
134	0xbcaa2b49	-0.020772593
135	0xbcdf1360	-0.027230918
136	0xbd69d726	-0.057089947
137	0x3dd5530d	0.10416231
138	0x3bed7dd8	0.0072476678
139	0xbde76ff9	-0.11300654
140	0xbd3ca491	-0.04605538
141	0xbdbbbf90	-0.09167397
142	0x3ddb8ef2	0.10720624
143	0xbd5efbb0	-0.054439247
144	0xbd9d9dd9	-0.07696123
145	0x3de21233	0.110386275
146	0x3d2b4684	0.041815296
147	0x3d95ae22	0.07308604
148	0xbd5399ab	-0.05166022
149	0xbd30dbef	-0.043178495
150	0x3db97de1	0.090572126
151	0xbdd47f22	-0.10375811
152	0xbe0265f6	-0.12734208
153	0x3bc7ff23	0.0061034127
154	0xbd3da65a	-0.046301223
155	0x3d712725	0.05887522
156	0xbd0a5134	-0.033768848
157	0xbdd85f8a	-0.10565098
158	0x3cea1a4a	0.028576989
159	0x3db13fc5	0.08654741
160	0x3d38e5b2	0.04514093
161	0xbd363bb1	-0.04449052
162	0xbd15217a	-0.03640888
163	0x3dff1cad	0.12456641
164	0xbdfb2525	-0.12262944
165	0xbd3093b0	-0.043109596
166	0x3d7bee6f	0.061506685
167	0x3aef9347	0.0018278145
168	0xbdeeecba	-0.11666246
169	0xbc9f4ad2	-0.019444857
170	0xbe0ea017	-0.13928257
171	0xbd30515c	-0.04304634
172	0x3e126065	0.14294584
173	0xbdd798ca	-0.10527189
174	0x3defe8b1	0.11714304
175	0xbddd121b	-0.10794469
176	0x3cc0f989	0.023556488
177	0x3e00cb58	0.1257757
178	0xbca54fed	-0.020179713
179	0x3d89eaec	0.06734261
180	0xbb026a31	-0.001989972
181	0x3ca802f9	0.02050923
182	0xbdd565d4	-0.10419813
183	0x3dd0156f	0.10160338
184	0xbdd9c725	-0.10633687
185	0x3ce8fd12	0.028440986
186	0xbe1560f1	-0.14587761
187	0xbdfeac55	-0.124352135
188	0x3e0e89a9	0.139197
189	0xbc559d5a	-0.013038004
190	0x3df8107e	0.12112521
191	0xbde673cf	-0.112525575
192	0x3c0ad8ee	0.008474572
193	0x3c4c74f9	0.01247906
194	0x3e05addb	0.13054602
195	0xbe09bf31	-0.1345184
196	0xbdaf4496	-0.085580036
197	0xbd3e1275	-0.04640432
198	0xbe0f33fa	-0.13984671
199	0xbdc3e82f	-0.0956577

fc.weight f4 [1, 50]
0	0x3e03e487	0.12880145
1	0xbc3e5a27	-0.011618174
2	0xbb42b89e	-0.0029712091
3	0x3d5269ee	0.051370554
4	0xbc1b8b3b	-0.009493644
5	0x3d9a4e00	0.075344086
6	0x3e11855c	0.14211029
7	0x3d66c92e	0.056344204
8	0xbd4a61b6	-0.04940959
9	0xbcdba39c	-0.026811413
10	0x3ddc2aab	0.10750326
11	0xbd73b2e9	-0.059496794
12	0xbdf3fa73	-0.11913004
13	0x3e030c6c	0.12797707
14	0xbdb8d069	-0.09024126
15	0x3cf4b967	0.029873563
16	0xbdc803e8	-0.0976637
17	0x3df86e0a	0.12130363
18	0xbe046392	-0.12928608
19	0xbda59289	-0.0808459
20	0xbd22a15e	-0.039704673
21	0xbe15a35b	-0.14613096
22	0x3c95e8b9	0.018299447
23	0x3dcf229f	0.10114025
24	0xbde37367	-0.111059956
25	0x3d8f545b	0.069985114
26	0x3d8de61b	0.06928655
27	0xbd27bd6e	-0.04095214
28	0x3e0dc0df	0.13843106
29	0xbb8f071d	-0.0043648616
30	0x3da61811	0.08110059
31	0xbdf09299	-0.11746711
32	0x3d383ba6	0.04497876
33	0x3d2a6919	0.041604135
34	0x3d30edfe	0.043195717
35	0xbe0b5849	-0.13607897
36	0x3e005e14	0.12535888
37	0x3d922bf5	0.071372904
38	0x3e0a15cc	0.13484877
39	0xbe0d0aa6	-0.13773593
40	0x3de0c869	0.10975725
41	0x3c54e84d	0.012994838
42	0xbde7eb95	-0.113242306
43	0x3d77f071	0.060532037
44	0xbcae2520	-0.021257937
45	0x3debd2ca	0.11514814
46	0x3e000550	0.12502027
47	0x3d5e1936	0.05422326
48	0xbdf115e9	-0.11771757
49	0xbbc5d556	-0.0060373945
