data/models/AAPL_20251229_153730.pt (torch, 131310 bytes, 9 tensors)

lstm.weight_ih_l0 f4 [200, 4]
0	0x3db2c8ac	0.087296814
1	0x3d293b64	0.041316405
2	0xbdfe0507	-0.12403303
3	0x3c5aa35a	0.01334461
4	0x3c27b318	0.01023557
5	0xbdbba50d	-0.0916234
6	0xbd9ef0d5	-0.07760779
7	0xbe0dab60	-0.13834906
8	0xbdc79d80	-0.097468376
9	0xbc68132e	-0.014164729
10	0x3de36646	0.111034915
11	0xbda02287	-0.078190856
12	0xbe01799e	-0.1264405
13	0x3e0af1b9	0.13568772
14	0x3c2eee17	0.010676882
15	0x3db38500	0.08765602
16	0x3d852a43	0.065022014
17	0x3dbdb5bb	0.09263178
18	0x3d86c654	0.06580797
19	0xbd0338b6	-0.032036506
20	0x3c92380a	0.017848987
21	0xbd074a21	-0.03302968
22	0xbd9552fd	-0.072912194
23	0xbde528d4	-0.11189428
24	0xbe19b4b9	-0.15010346
25	0x3de66fcd	0.11251793
26	0x3d97c91e	0.07411407
27	0x3de99b75	0.11406604
28	0x3dbb6cfd	0.09151647
29	0x3df402b9	0.11914582
30	0xbb689328	-0.0035488103
31	0xbdeb95c5	-0.11503176
32	0xbccf9cdd	-0.025343353
33	0x3c95f643	0.018305903
34	0x3cd3098c	0.025761388
35	0xbd5b6fc5	-0.05357339
36	0x3cf5a013	0.029983556
37	0x3e1102b9	0.14161195
38	0xbb205e12	-0.0024470133
39	0x3dd854f9	0.10563082
40	0x3d334b5c	0.04377304
41	0x3e05c964	0.13065106
42	0x3df9b2da	0.12192316
43	0x3daa57c8	0.08317524
44	0x3dfa5014	0.12222305
45	0xbd7502a8	-0.059816986
46	0xbdfbf602	-0.12302782
47	0x3d66bf52	0.0563348
48	0x3d87ce01	0.06631089
49	0xbd88938b	-0.066687666
50	0xbbf40664	-0.007447051
51	0xbd0b4d42	-0.034009226
52	0x3d6a0a00	0.057138443
53	0xbcee6ea1	-0.029105486
54	0xbda4d886	-0.08049111
55	0xbd89b798	-0.06724471
56	0x3bf20fde	0.0073871454
57	0x3df7e6c8	0.12104565
58	0xbddf4623	-0.109020494
59	0x3df26931	0.1183647
60	0xbd3028eb	-0.043007772
61	0x3d1c8e4e	0.03822165
62	0xbcf2d5b8	-0.029642925
63	0xbce158ba	-0.027508128
64	0xbdddafde	-0.1082456
65	0xbdc9cb4e	-0.098532304
66	0xbd8dc346	-0.06922011
67	0xbdfcc8fb	-0.123430215
68	0x3d16a94a	0.03678254
69	0x3deb1ab4	0.114797026
70	0xbd33f691	-0.043936316
71	0xbc9a4e07	-0.018836034
72	0x3d9b61dc	0.075870246
73	0x3dd144eb	0.10218223
74	0x3d68a9b9	0.056802485
75	0x3dc70c85	0.09719185
76	0x3d815af7	0.06316178
77	0xbd7e47d5	-0.062080223
78	0x3e0a41fc	0.13501734
79	0xbdb1fc6d	-0.086907245
80	0xbde10404	-0.10987094
81	0x3d9524c7	0.07282405
82	0x3c0f744c	0.008755755
83	0xbd9d5453	-0.07682099
84	0x3b77dde9	0.0037821478
85	0x3df4a8b7	0.11946242
86	0xbdc63b22	-0.096792474
87	0x3e013137	0.1261643
88	0x3cc0e699	0.023547458
89	0xbd11efa4	-0.03562893
90	0x3d8541e9	0.06506712
91	0x3d808e08	0.0627709
92	0xbdfc551e	-0.12320922
93	0xbac5ceb3	-0.0015091508
94	0x3d118caa	0.03553454
95	0xbda91b19	-0.082571216
96	0xbe0c06c9	-0.13674463
97	0x3d59a157	0.05313238
98	0xbd897816	-0.06712358
99	0x3caea82d	0.021320427
100	0x3e07dd04	0.13267905
101	0xbde8cd3e	-0.11367272
102	0x3d87ce4d	0.066311456
103	0xbd1939b2	-0.03740854
104	0xbcf81509	-0.030283468
105	0x3c4e20e8	0.012581088
106	0x3d32170a	0.043479003
107	0x3e0021aa	0.12512842
108	0xbdcb35fe	-0.099224076
109	0x3d747d11	0.059689585
110	0x3e07a905	0.1324807
111	0x3db5277c	0.08845422
112	0x3c9ff5f1	0.019526454
113	0x3cda4c17	0.02664761
114	0x3d0fe56e	0.03513091
115	0xbe055f42	-0.13024619
116	0x3cf79503	0.030222422
117	0xbdbcee1b	-0.092251025
118	0xbde0c57a	-0.10975166
119	0xba82a0d0	-0.0009966139
120	0xbdde3d57	-0.108515434
121	0xbdcfab0a	-0.10140045
122	0x3dc17b16	0.09447305
123	0xbdb3a447	-0.08771568
124	0x3d9b808c	0.07592878
125	0x3d8672da	0.06564875
126	0x3d7e8f6c	0.062148497
127	0xbbb21c24	-0.0054354835
128	0x3dc6da6e	0.09709631
129	0xbe1544de	-0.14577052
130	0x3c5eff37	0.013610653
131	0xbe051f48	-0.13000214
132	0x3d6b7bec	0.057491228
133	0xbd9d6313	-0.076849125
134	0xbdf4900b	-0.119415365
135	0x3d4da6d6	0.050207935
136	0x3afb866a	0.0019189839
137	0xbdc3c416	-0.09558885
138	0xbddbf90f	-0.107408635
139	0xbdcae90b	-0.09907731
140	0xbdfd4df8	-0.12368387
141	0x3d57cf9b	0.052688222
142	0xbd2e9d28	-0.042630345
143	0x3d1ff896	0.03905543
144	0xbd33f396	-0.043933474
145	0x3e02b8f7	0.12765871
146	0xbe11ee64	-0.14251095
147	0x3db3741e	0.08762382
148	0xbdfa8762	-0.122328535
149	0x3d5b718e	0.05357509
150	0x39d0d75c	0.00039833307
151	0x3c198ac6	0.009371465
152	0xbdbc38dd	-0.09190533
153	0xbc7da42b	-0.015481035
154	0xbd9f304f	-0.07772886
155	0x3c773d27	0.015090263
156	0xbd4fedd0	-0.050763905
157	0xbda8990c	-0.082323164
158	0x3d930da3	0.071803354
159	0xbca5bee4	-0.020232625
160	0xbce14d11	-0.027502568
161	0xbbc9fe42	-0.006164343
162	0xbcc0229b	-0.023454001
163	0x3c02dadb	0.0079867495
164	0xbd06517e	-0.03279256
165	0x3dc00798	0.093764484
166	0xbd6501fe	-0.055910103
167	0xbca5604d	-0.020187521
168	0xbde9c52f	-0.11414563
169	0x3da1c202	0.07898332
170	0x3c046559	0.008080804
171	0x3a8baf8c	0.0010657175
172	0x3e174ff4	0.14776593
173	0x3e109778	0.1412028
174	0x3d629ffb	0.05532835
175	0xbd46999e	-0.048486345
176	0x3d31d243	0.04341341
177	0xbdf91ae5	-0.12163333
178	0x3d942dd4	0.072353035
179	0xbd86dc7d	-0.065850236
180	0x3dec7847	0.115463786
181	0xbcaeb3dc	-0.021325998
182	0xbd992fcb	-0.07479819
183	0x3dc346d8	0.09534997
184	0xbd4702c2	-0.048586614
185	0x3d02265d	0.031774867
186	0xbc5c7c66	-0.013457393
187	0x3db1a708	0.08674437
188	0x3c0804fe	0.0083019715
189	0xbccda833	-0.025104618
190	0xbd230991	-0.039804045
191	0xbdffa2a0	-0.1248219
192	0x3d82f11a	0.06393643
193	0x3c8ea5ed	0.017413104
194	0x3ca5b5a8	0.020228222
195	0xbd533583	-0.051564705
196	0x3dba1b0c	0.0908719
197	0x3dcc8119	0.09985561
198	0x3d3c28a1	0.045937184
199	0x3db059d5	0.08610884
200	0x3db8b37f	0.09018611
201	0x3d78047a	0.060551144
202	0x3b101b68	0.0021988992
203	0xbda82452	-0.082100525
204	0xbe03b06f	-0.12860273
205	0xbe03d0ef	-0.1287267
206	0x3e0b1c79	0.1358508
207	0x3df218a9	0.1182111
208	0x3d5541c5	0.052064676
209	0x3d525bbb	0.051357012
210	0x3d2b10fe	0.041764252
211	0x3b3dcbe5	0.0028960642
212	0xbd01780c	-0.031608626
213	0xbdbde537	-0.09272235
214	0x3c4b4ab5	0.012407948
215	0xbd0cd859	-0.034386013
216	0xbdc8edc7	-0.098109774
217	0x3ce62900	0.028095722
218	0x3dbd910e	0.092561826
219	0x3df01b13	0.11723914
220	0xbd80eb25	-0.0629485
221	0x3daef26f	0.08542334
222	0x3d9b88e4	0.07594469
223	0x3dd04f47	0.10171371
224	0x3b9cdd58	0.0047871284
225	0x3d3f20c6	0.046662115
226	0xbc823322	-0.015893523
227	0x3c3943f1	0.011307702
228	0x3d4842fc	0.048892006
229	0x3d866ffd	0.06564329
230	0xbdfa8591	-0.12232507
231	0x3da91adb	0.082570754
232	0xbdbd02de	-0.092290625
233	0x3d9b464f	0.0758177
234	0x3cbb786e	0.022884574
235	0x3e091b4f	0.13389324
236	0x3e0639d6	0.13108
237	0xbdf9dea4	-0.122006685
238	0xbd9a53eb	-0.07535537
239	0xbd3efdc9	-0.046628747
240	0xbdae432e	-0.08508907
241	0xbdc35776	-0.09538166
242	0xbdb75ace	-0.089528665
243	0x3dca96fc	0.09892079
244	0xbe11af1e	-0.14226958
245	0xbd4b51fd	-0.049638737
246	0xbde99c1d	-0.11406729
247	0x3b32128e	0.0027171704
248	0x3dc16862	0.094437376
249	0xbe04b0b5	-0.12958033
250	0x3b5a11d2	0.0033274782
251	0xbbf31f0c	-0.0074194726
252	0xbd08f7e7	-0.033439543
253	0xbdb239b7	-0.087024145
254	0x3dd97f1a	0.10619946
255	0x3d2b501a	0.041824438

lstm.weight_hh_l0 f4 [200, 50]
0	0xbdecf9c2	-0.11571075
1	0xbdaa13cb	-0.083045565
2	0xbdc6cad6	-0.09706657
3	0xbdffba84	-0.12486747
4	0x3d620234	0.055177882
5	0x3c3e5f7e	0.011619447
6	0x3d9a6b35	0.07539979
7	0xbd8896da	-0.06669398
8	0x3db8206e	0.089905605
9	0x3d865b91	0.06560434
10	0x3e06d941	0.13168813
11	0x3dd9b4fd	0.10630224
12	0x3de7f682	0.113263145
13	0x3d8b23d5	0.06793944
14	0xbda93705	-0.08262447
15	0x3d980a5d	0.07423852
16	0x3d36f225	0.04466452
17	0x3d3c4394	0.045962885
18	0x3ab7a81f	0.0014011896
19	0x3d93fffb	0.07226559
20	0x3db1e377	0.086859636
21	0xbd3ddc28	-0.046352535
22	0xbb9b30e2	-0.004736052
23	0x3db9529f	0.09048962
24	0x3d48ef6d	0.04905646
25	0x3dd2a436	0.10285227
26	0x3e03c1f0	0.1286695
27	0xbdbad58d	-0.09122763
28	0x3de78115	0.11303917
29	0x3e01fe84	0.12694746
30	0xbd2f3812	-0.042778082
31	0x3dc03bc2	0.09386398
32	0x3d2023b9	0.039096568
33	0x3d4ea14e	0.0504468
34	0xbe0117d8	-0.12606752
35	0x3daab4a1	0.083352335
36	0x3e01a381	0.12660028
37	0xbdd1b576	-0.10239689
38	0xbcae0b12	-0.021245513
39	0x3d76b202	0.060228355
40	0x3d06e81f	0.03293621
41	0x3c5978e2	0.01327345
42	0x3cd799ea	0.02631851
43	0xbaab7086	-0.0013079799
44	0x3dcd69cd	0.100299455
45	0x3d9de8da	0.077104285
46	0xbdffc5d7	-0.12488907
47	0xbd9685ba	-0.07349725
48	0x3d00c262	0.031435378
49	0xbd734720	-0.059394002
50	0x3dbdba22	0.09264018
51	0xbd9b8639	-0.0759396
52	0xbdc32beb	-0.09529861
53	0xbdc1d240	-0.0946393
54	0xbdc408e0	-0.09572005
55	0x3e0bc0ba	0.13647738
56	0x3dfb3ca8	0.12267429
57	0x3d335c56	0.04378923
58	0xbda7cd90	-0.08193505
59	0x3e07a4e8	0.132465
60	0x3db69a6c	0.089161724
61	0x3e084679	0.13308133
62	0x3a5c348a	0.0008400163
63	0xbdd4a23f	-0.103825085
64	0x3ce29568	0.027659133
65	0xbcd2024f	-0.025635866
66	0x3de43ca1	0.111443765
67	0xbd4309c2	-0.047616728
68	0x3cb6b828	0.02230461
69	0x3db7db6a	0.08977397
70	0x3d91076b	0.07081493
71	0x3d929b6f	0.07158553
72	0x3d2de173	0.042451333
73	0xbd8d0872	-0.068863764
74	0x3dd4f43c	0.103981465
75	0x3df47e21	0.1193812
76	0xbc329fc6	-0.010902351
77	0xbd750b1b	-0.059825044
78	0x3daa4e98	0.08315772
79	0x3d326523	0.043553483
80	0x3e0c24c2	0.13685897
81	0xbd6faf42	-0.05851675
82	0x3c6b80d0	0.014373973
83	0xbd9707af	-0.073745124
84	0xbb14a8f2	-0.0022683707
85	0xbdecc899	-0.115616985
86	0xbde0ecc7	-0.10982662
87	0x3c100d20	0.008792192
88	0x3e09b7b3	0.13448982
89	0xbdb50600	-0.08839035
90	0x3df8a73a	0.12141271
91	0x3b08fd58	0.0020902958
92	0xbe008784	-0.12551695
93	0x3bba8602	0.0056922445
94	0x3df989bd	0.121844746
95	0xbd2a2ef7	-0.041548695
96	0x3d95c003	0.07312014
97	0x3d83f522	0.0644324
98	0xbc8919e5	-0.01673598
99	0xbda28224	-0.079349786
100	0xbdc88d6f	-0.09792601
101	0xbdbf01a5	-0.093264855
102	0xbcbdee9a	-0.023185063
103	0x3cc5e07a	0.02415489
104	0xbdda5f02	-0.106626526
105	0x3ddd4a36	0.1080517
106	0xbc324cda	-0.010882581
107	0xbd5b8a74	-0.053598836
108	0x3c8fdce1	0.017561378
109	0x3dac5759	0.08415098
110	0xbcab716a	-0.020928103
111	0xbd8127cb	-0.06306418
112	0x3de2857b	0.11060616
113	0x3d58dbe6	0.052944086
114	0x3dce8746	0.10084395
115	0xbd8f6d82	-0.07003309
116	0xbcbcbf47	-0.023040427
117	0xbe16d532	-0.14729765
118	0xbd3a9969	-0.04555646
119	0xbd0a2ff2	-0.03373713
120	0x3d8cc1ab	0.06872877
121	0x3c5e1624	0.013555083
122	0xbd7037ae	-0.05864685
123	0x3c8347f0	0.016025513
124	0xbc8a7282	-0.016900305
125	0x3dc3b252	0.09555496
126	0x3dfdc42b	0.12390932
127	0xbb12d7e2	-0.0022406508
128	0x3de49fe9	0.11163313
129	0xbe0665bd	-0.13124748
130	0xbd2a6eed	-0.041609693
131	0x3dbe420d	0.09289942
132	0x3df3dacb	0.11906966
133	0xbdf8e885	-0.121537246
134	0xbdb497ce	-0.08818017
135	0xbdd49c98	-0.103814304
136	0xbdfc487d	-0.123185135
137	0x3d77a600	0.060461044
138	0xbd867861	-0.06565929
139	0x3d563439	0.052295897
140	0xbdc9d55d	-0.09855149
141	0xbd837505	-0.06418804
142	0xbd35cef6	-0.044386826
143	0xbcff1b64	-0.03114099
144	0x3dbb24d9	0.091378875
145	0xbd9a3756	-0.07530086
146	0x3d9dfae9	0.07713873
147	0x3d4d0e3b	0.0500624
148	0x3da39d76	0.07989018
149	0xbbe35095	-0.0069370964
150	0xbc49bfe9	-0.012313821
151	0x3c75afda	0.01499554
152	0xbc52f336	-0.012875369
153	0x3d03b078	0.032150716
154	0x3ddd15b6	0.10795157
155	0x3da7abd0	0.081870675
156	0x3db47bde	0.08812688
157	0xbdce839c	-0.10083696
158	0x3dec082e	0.11524998
159	0x3c90da56	0.017682236
160	0xbd98bdb9	-0.07458062
161	0xbd11864f	-0.035528477
162	0xbdf28f9c	-0.118437976
163	0x3db978a0	0.090562105
164	0x3d8bea1a	0.06831761
165	0xbdf6cefc	-0.12051198
166	0x3d5992af	0.053118404
167	0x3c537787	0.0129069155
168	0x3cfc1d3c	0.030775659
169	0xbe047e75	-0.12938865
170	0xbdcdbd3b	-0.100458585
171	0xbd88af40	-0.06674051
172	0xbd85db74	-0.06535998
173	0x3d677be0	0.05651462
174	0xbe09b2f8	-0.13447177
175	0x3c9c8012	0.019104037
176	0xbd3180dc	-0.04333578
177	0xbd6fd745	-0.058554906
178	0x3d2b2e3d	0.041792143
179	0x3e073040	0.13202
180	0x3d5cb331	0.053881828
181	0x3e070211	0.13184382
182	0x3cde15c4	0.027109988
183	0xbc858bf2	-0.016302083
184	0xbd4174f0	-0.04723066
185	0x3dcdd2ad	0.10049949
186	0x3d9aa47d	0.07550905
187	0x3d8dd938	0.06926197
188	0x3db44229	0.088016815
189	0x3d5fc444	0.054630533
190	0xbcf90b3a	-0.030400861
191	0x3d4ca47a	0.049961545
192	0xbca68756	-0.020328205
193	0xbd6fe3a2	-0.058566697
194	0xbdc67639	-0.09690518
195	0x3dc3eec8	0.09567028
196	0xbd7ea20c	-0.06216626
197	0xbdf4970c	-0.119428724
198	0xbd27a233	-0.04092617
199	0xbdd42c59	-0.10360021
200	0xbc0d4a86	-0.008623725
201	0xbdcc4c6e	-0.09975515
202	0x3def8f69	0.11697275
203	0xbd413c79	-0.04717681
204	0xbdf2a557	-0.11847942
205	0x3dac96f5	0.0842723
206	0xbd9f7a72	-0.077870265
207	0x3d753fcc	0.059875295
208	0xbd8d75fb	-0.069072686
209	0xbd437842	-0.04772211
210	0x3da9b4e8	0.08286458
211	0xbdf056b4	-0.11735287
212	0x3b5130f3	0.0031920045
213	0xbd9d2304	-0.07672694
214	0xbe13e255	-0.14441808
215	0xbd0fe388	-0.0351291
216	0xbda53871	-0.08067406
217	0xbe06ca0c	-0.13163012
218	0xbdfd054f	-0.12354528
219	0x3d1ebef3	0.038756322
220	0x3d446496	0.04794749
221	0xbdf13fe6	-0.11779766
222	0x3cdaaf9b	0.026695063
223	0x3d334aaf	0.043772396
224	0xbdf1138c	-0.117713064
225	0xbd6ebeeb	-0.058287542
226	0x3d589b39	0.052882407
227	0x3c4168c3	0.011804762
228	0xbe06f21d	-0.13178296
229	0x3de1ef61	0.11031986
230	0x3e02c8a7	0.12771855
231	0x3da5f837	0.08103984
232	0x3e0f4a68	0.13993227
233	0x3cc8b6f9	0.02450131
234	0x3d558d8f	0.052136954
235	0xbddadd37	-0.10686725
236	0x3d865db4	0.06560841
237	0x3d3481b0	0.044068992
238	0x3d2901f8	0.041261643
239	0x3d554106	0.052063964
240	0xbe08b5b4	-0.13350564
241	0xbb8a458f	-0.004219718
242	0xbc9867b2	-0.018604133
243	0x3df201ef	0.11816775
244	0xbd78c719	-0.06073675
245	0x3d22a64b	0.03970937
246	0xbdd87263	-0.105686925
247	0xbd6f833d	-0.058474768
248	0x3e0de5dc	0.13857216
249	0x3d153ef4	0.03643699
250	0xbdd55459	-0.10416479
251	0x3dd74db2	0.10512866
252	0xbc9f483f	-0.01944363
253	0xbd98b8d0	-0.07457125
254	0x3bb77145	0.0055982196
255	0x3d8ccf0f	0.06875431

lstm.bias_ih_l0 f4 [200]
0	0x3dad6f27	0.08468466
1	0x3b113df0	0.0022162162
2	0xbdaaeb94	-0.08345714
3	0xbda41bb4	-0.080130965
4	0xbcde6bb2	-0.027150963
5	0xbda645a8	-0.081187546
6	0x3d8d3337	0.06894534
7	0x3d97217d	0.07379434
8	0xbd8e12c8	-0.06937176
9	0x3dc735f1	0.097270854
10	0xbdd61790	-0.10453713
11	0xbdaf8539	-0.08570332
12	0xbd1a5b1d	-0.03768455
13	0xbd8c1a3e	-0.06840943
14	0x3e110003	0.1416016
15	0xbce69e63	-0.028151697
16	0x3dee999b	0.11650392
17	0xbdc16e21	-0.094448335
18	0x3d7b6142	0.06137205
19	0x3d198fc4	0.03749062
20	0x3d4f1f67	0.050567057
21	0xbd7475a2	-0.059682496
22	0x3d4a5fa8	0.04940763
23	0xbdf3eed7	-0.119107895
24	0x3d40f15b	0.047105175
25	0xbc005e56	-0.007834991
26	0x3d04fdc6	0.03246858
27	0x3cad1a86	0.021130811
28	0x3c499ed8	0.012305938
29	0xbde0c6f0	-0.10975444
30	0x3dde2287	0.10846429
31	0x3dc347cf	0.09535181
32	0xbdd55a46	-0.10417609
33	0xbdde4a6d	-0.10854039
34	0x3d1f32ff	0.038866993
35	0xbd8cbe8f	-0.06872284
36	0x3d9e8cf3	0.07741728
37	0x3c98f584	0.018671758
38	0x3dc5d5fe	0.096599564
39	0x3db76a30	0.089558005
40	0x3d44755e	0.047963493
41	0xbb92b934	-0.0044776443
42	0xbde46d28	-0.111536324
43	0x3e1a177b	0.1504802
44	0x3c9fcc30	0.019506544
45	0x3c341717	0.010991833
46	0x3de878f5	0.11351196
47	0x3d59b2f8	0.053149194
48	0xbcaaabc6	-0.020833861
49	0xbdb632be	-0.08896397
50	0x3da5c3c3	0.08093979
51	0x3e0201a4	0.12695938
52	0x3de94a69	0.11391146
53	0x3de7b803	0.11314394
54	0x3d8d57d3	0.06901517
55	0x3c83b2a0	0.016076386
56	0xbe074edc	-0.13213676
57	0x3d3996e4	0.045309916
58	0xbd84c8d4	-0.064836174
59	0x3d57d1b2	0.052690215
60	0x3be83858	0.007086795
61	0xbc1ff81a	-0.009763742
62	0xbd7bf8ee	-0.061516695
63	0xbd3a82fd	-0.045535076
64	0xbbab6165	-0.005230116
65	0x3ca58162	0.020203296
66	0x3dd0ba21	0.10191751
67	0x3cce19c2	0.025158767
68	0x3d5a0753	0.05322964
69	0xbdc15c7e	-0.094414696
70	0xbdd0cc71	-0.10195244
71	0xbdbd5bc6	-0.0924602
72	0xbc3a2efb	-0.01136374
73	0x3d5e073d	0.05420612
74	0xbddffce9	-0.10936911
75	0xbd130700	-0.035895348
76	0x3e012ebc	0.12615484
77	0x3d90ced9	0.07070703
78	0xbd73d577	-0.059529748
79	0xbe046df3	-0.12932567
80	0xbda48ac1	-0.08034278
81	0xbd646f67	-0.055770304
82	0x3d828978	0.06373876
83	0x3deaa886	0.114579245
84	0x3cdcb82d	0.02694329
85	0x3de74d30	0.11294019
86	0x3d07066e	0.032965116
87	0x3df87c4f	0.12133085
88	0x378fe790	1.7154758e-05
89	0x3d13cce5	0.036084075
90	0xbcfa761d	-0.030573899
91	0xbbf380dc	-0.0074311327
92	0xbdb3128a	-0.087437704
93	0x3e0c468f	0.13698791
94	0xbe093b34	-0.1340149
95	0x3df9ac6e	0.121910915
96	0xbe17dedd	-0.1483111
97	0x3d2478e5	0.040154357
98	0xbd5bc79c	-0.05365716
99	0x3d3ac2b0	0.045595825
100	0xbd05a4dc	-0.032627925
101	0x3d021dd6	0.031766735
102	0xbd722ff7	-0.059127774
103	0xbdac82dd	-0.08423398
104	0xbc954476	-0.018221121
105	0xbdb4aad4	-0.088216454
106	0xbde33b6a	-0.11095317
107	0x3d993fe8	0.07482892
108	0xbcf241da	-0.029572416
109	0x3e104746	0.14089689
110	0x3df31ba0	0.118705034
111	0x3d83fb95	0.0644447
112	0xbdcad1ba	-0.099032834
113	0x3d81f009	0.06344611
114	0xbe0fba80	-0.14035988
115	0xbba08101	-0.004898191
116	0x3e02bdbd	0.12767692
117	0x3da5307c	0.08065888
118	0x3de33456	0.11093967
119	0xbd31fe42	-0.04345537
120	0xbd80b331	-0.06284178
121	0x3d87c5f7	0.06629556
122	0x3cb874dc	0.02251666
123	0x3d56c729	0.052436028
124	0xbd83f6da	-0.064435676
125	0xbe0e976c	-0.1392495
126	0xbdd1a6fb	-0.10236927
127	0x3e0cf497	0.13765179
128	0xbd376936	-0.04477807
129	0xbd0fe59e	-0.03513109
130	0xbdab2d50	-0.08358252
131	0x3da328fe	0.07966803
132	0x3d99b7b7	0.07505744
133	0x3d788c8a	0.060680903
134	0x3de553e0	0.111976385
135	0xbdb749b9	-0.08949608
136	0x3cb96481	0.022630932
137	0xbd27aaf5	-0.04093452
138	0x3c81bce2	0.015837137
139	0x3d3ddd52	0.046353646
140	0xbdfe5551	-0.124186166
141	0x3d774e91	0.06037766
142	0x3cbacaed	0.02280184
143	0xbdf7701d	-0.12081931
144	0xbddcec68	-0.107872784
145	0xbdfa416c	-0.122195095
146	0xbe1046be	-0.14089486
147	0x3dc3eeab	0.09567007
148	0xbe07504c	-0.13214225
149	0xbd3c156e	-0.045918874
150	0xbd333e71	-0.04376072
151	0x3dd00fea	0.10159285
152	0x3d3dfb4a	0.046382226
153	0x3d9f5c80	0.07781315
154	0xb88699a0	-6.418233e-05
155	0x3dd57b27	0.1042388
156	0xbdacc103	-0.084352516
157	0xbda1fc9e	-0.07909511
158	0x3c57faa3	0.013182315
159	0xbe05bb13	-0.13059644
160	0x3d5d4b4b	0.054026883
161	0xbe104ebc	-0.14092535
162	0x3e128e67	0.14312135
163	0x3dd71a2f	0.10503041
164	0xbdcdb325	-0.10043935
165	0xbdfa6841	-0.12226916
166	0x3d2851e5	0.041093726
167	0xbe0120aa	-0.12610117
168	0x3da97af1	0.08275402
169	0x3ca53b94	0.02017001
170	0x3dbaa87d	0.09114168
171	0xbb6cba27	-0.0036121698
172	0x3d3d079b	0.04614983
173	0x3d29e751	0.041480366
174	0x3d09b0d3	0.0336159
175	0x3dbbdd81	0.09173108
176	0xbb80488e	-0.003914899
177	0xbd371a00	-0.04470253
178	0x3dd85cfa	0.10564609
179	0x3dca1b8f	0.09868538
180	0x3e0e4f90	0.13897538
181	0x3e106ffd	0.1410522
182	0x3dab3d42	0.083612934
183	0x3e0e5f99	0.13903655
184	0x3df03802	0.11729433
185	0xbcf67fd9	-0.03009026
186	0x3d8e09ca	0.06935461
187	0x3dd963b7	0.10614722
188	0x3d016198	0.031587213
189	0xbdd0434b	-0.10169085
190	0x3c0f1d26	0.008734977
191	0x3dd28d06	0.10280804
192	0x3dbf6f84	0.09347442
193	0x3df9e240	0.12201357
194	0x3df7754f	0.12082922
195	0x3e0f7a97	0.14011608
196	0xbda09c39	-0.07842297
197	0x3d529423	0.051410805
198	0x3cdb4598	0.026766583
199	0xbde6df2d	-0.11273036

lstm.bias_hh_l0 f4 [200]
0	0xbda19109	-0.078889914
1	0xbdccceef	-0.10000407
2	0x3d707353	0.05870373
3	0x3dd10dee	0.10207735
4	0x3dcb163a	0.09916349
5	0x3dbdda28	0.09270126
6	0xbd91cf40	-0.07119608
7	0xbdf43a7d	-0.11925218
8	0xbca34479	-0.019930111
9	0x3d2d3626	0.042287968
10	0x3d3b0bee	0.045665674
11	0xbcacac69	-0.021078305
12	0xbdedf8fe	-0.11619757
13	0x3db927ee	0.09040819
14	0xbd5a443e	-0.053287737
15	0xbd98a69c	-0.07453653
16	0x3d910561	0.07081104
17	0xbc65025b	-0.013977612
18	0xbdca9776	-0.0989217
19	0xbe006368	-0.1253792
20	0xbdd2f86f	-0.10301291
21	0xbd772be0	-0.060344577
22	0x3e03a095	0.12854226
23	0x3de5731e	0.112035975
24	0xbdf88538	-0.121347845
25	0x3b452e36	0.0030087358
26	0x3e0cc26f	0.13746046
27	0xbdcc3935	-0.09971849
28	0x3cbc28a4	0.022968598
29	0xbd8af7ca	-0.06785543
30	0x3c53d1d5	0.012928446
31	0x3df21c89	0.11821849
32	0x3d1ecd4f	0.038770016
33	0xbc0c4a8b	-0.008562694
34	0xbc84064b	-0.016116282
35	0xbce02621	-0.027361931
36	0x3dac7db5	0.08422414
37	0x3d5cdc36	0.053920947
38	0xbd8062dd	-0.06268857
39	0xbd890733	-0.06690826
40	0x3e083041	0.13299657
41	0x3dc3518c	0.09537038
42	0xbd8c7c98	-0.06859702
43	0xbd0cc2a3	-0.034365308
44	0x3db76080	0.08953953
45	0xbd4fb144	-0.050706163
46	0x3c74ed50	0.014949158
47	0xbd18103e	-0.037124865
48	0x3cd707ee	0.026248898
49	0xbde633fa	-0.112403825
50	0xbd0a22a5	-0.033724446
51	0xbc18915d	-0.009312001
52	0xbbac0617	-0.0052497494
53	0xbe0c7ae2	-0.13718751
54	0xbe076bcb	-0.13224714
55	0xbdf55b44	-0.11980298
56	0xbc8f0d0f	-0.017462282
57	0xbe116085	-0.14196976
58	0xbd3e18a4	-0.046410218
59	0x3c87562e	0.016520586
60	0xbcc3b161	-0.023888292
61	0xbe16c0e7	-0.14722024
62	0x3cb3af2c	0.021934114
63	0x3e03e6b5	0.12880976
64	0xbd48179c	-0.04885064
65	0xbb9a3c18	-0.0047068708
66	0x3b566a70	0.003271725
67	0xbcc7aa60	-0.024373233
68	0x3dc2b7e4	0.095077306
69	0xbdefb11a	-0.11703701
70	0x3c9881ac	0.01861652
71	0x3d1044ae	0.035221748
72	0xbbf78d3a	-0.0075546773
73	0x3dda7a59	0.10667867
74	0x3d556348	0.052096635
75	0xbdb6b661	-0.08921505
76	0xbd912b19	-0.07088298
77	0xbdc40043	-0.095703624
78	0xbddb3a24	-0.10704449
79	0x3daa53e6	0.083167836
80	0xbc377110	-0.01119639
81	0x3c024883	0.007951858
82	0xbdd25c5e	-0.10271524
83	0x3d44b348	0.04802254
84	0x3dcde7f3	0.100540064
85	0xbd512388	-0.051059276
86	0xbce25f39	-0.027633296
87	0x3dfedf5f	0.124449484
88	0xbe09a78c	-0.1344282
89	0x3d8acdc6	0.067775294
90	0xbd18390c	-0.03716378
91	0xbe030e15	-0.1279834
92	0x3ddf9b2e	0.1091827
93	0xbd6f9a66	-0.058496855
94	0x3df5934d	0.11990986
95	0xbdce0755	-0.10059992
96	0xbc9878b9	-0.018612253
97	0x3d553ccd	0.052059937
98	0x3d384230	0.044984996
99	0x3d51c8d4	0.051216915
100	0xbd2c639c	-0.042087182
101	0xbcecc84b	-0.0289041
102	0xbdd1484f	-0.1021887
103	0xbd03921e	-0.03212177
104	0x3b94835b	0.0045322604
105	0xbd621120	-0.055192113
106	0xbde8d3ea	-0.113685444
107	0x3d1bdbf2	0.038051553
108	0xbde604d1	-0.112313874
109	0x3d69cc99	0.057079885
110	0x3da0fc9c	0.078606814
111	0x3d86d82d	0.06584201
112	0xbde7f1d4	-0.11325422
113	0x3d804d05	0.0626469
114	0xbd0cd7a7	-0.03438535
115	0xbd0b0ae1	-0.03394592
116	0x3c8e0ba9	0.017339544
117	0xbde29662	-0.110638395
118	0xbd7ecbcb	-0.06220607
119	0xbb33cd0e	-0.0027435455
120	0x3df42fcb	0.11923178
121	0xbdb70963	-0.08937337
122	0x3e009265	0.12555845
123	0x3de84deb	0.11342987
124	0xbd8c5a3d	-0.06853149
125	0xbdd81b8b	-0.105521284
126	0xbcd37a9f	-0.025815306
127	0xbcbbdfae	-0.022933807
128	0x3dd68138	0.10473865
129	0xbd801650	-0.06254256
130	0xbd9e7711	-0.07737554
131	0x3e0e6dc3	0.13909058
132	0x3e064970	0.13113952
133	0xbd21155e	-0.039327018
134	0x3bab5728	0.0052288957
135	0xbdefa1f8	-0.11700815
136	0xbd96da8f	-0.073659055
137	0x3dee6909	0.116411276
138	0x3dcae1b1	0.099063285
139	0xbd905e60	-0.070492506
140	0xbd3eb46e	-0.04655879
141	0xbbad93d1	-0.005297162
142	0x3dbcb517	0.09214228
143	0xbe09fb5a	-0.1347479
144	0xbdec3682	-0.11533834
145	0xbe093e3d	-0.13402648
146	0x3dea80bc	0.114503354
147	0x3df72e53	0.120693825
148	0x3cb151cf	0.021645455
149	0xbd3efa7c	-0.0466256
150	0xbe065ef0	-0.13122153
151	0x3da2e3c2	0.079535976
152	0x3c4aa8e6	0.01236937
153	0x3dbd9cb8	0.09258407
154	0xbd42c4d1	-0.04755098
155	0xbe0fc07c	-0.1403827
156	0xbde93f79	-0.113890596
157	0x3d0523e3	0.032504927
158	0x3df4972b	0.119428955
159	0xbd178ac6	-0.03699758
160	0x3d8184a4	0.06324127
161	0x3c68851e	0.014191894
162	0xbda95a9d	-0.08269236
163	0x3ddf8f81	0.10916043
164	0xbd85984d	-0.0652319
165	0xbddb5bcc	-0.10710868
166	0xbcbac45c	-0.02279871
167	0xbd4e88d5	-0.050423462
168	0xbc80f1c6	-0.015740287
169	0x3c242df9	0.010020726
170	0x3c832d9c	0.01601296
171	0x3e00331e	0.125195
172	0xbdf6685f	-0.12031626
173	0xbdbed22e	-0.09317432
174	0x3e034461	0.12819053
175	0x3d2a056d	0.04150908
176	0x3df5029e	0.1196339
177	0x3e078a7b	0.1323642
178	0xbdae7aba	-0.08519502
179	0x3d28d191	0.041215483
180	0x3dddc22f	0.10828053
181	0xbd8bc606	-0.06824879
182	0x3d1fea4d	0.039041806
183	0x3da38f8c	0.07986364
184	0x3dc6647f	0.09687137
185	0xbe00b1bb	-0.12567799
186	0xbe147230	-0.14496684
187	0xbd7b6e63	-0.06138457
188	0xbc7807c1	-0.015138567
189	0xbdd83c80	-0.105584145
190	0xbcb389ea	-0.021916348
191	0x3dad5564	0.084635526
192	0xbd402e05	-0.046918888
193	0xbbd82089	-0.0065956754
194	0x3dc8478f	0.09779274
195	0x3dddc25f	0.10828089
196	0x3cf01eb2	0.029311512
197	0xbda87429	-0.08225281
198	0xbd451f7b	-0.048125725
199	0xbe1069b5	-0.14102824

lstm.weight_ih_l1 f4 [200, 50]
0	0x3e151ebe	0.14562508
1	0x3e05478c	0.13015574
2	0x3cc6d93c	0.024273507
3	0x3b8a8f6b	0.0042285225
4	0xbcac748f	-0.021051673
5	0xbdac795a	-0.084215835
6	0x3d44a106	0.048005126
7	0x3d819870	0.06327903
8	0xbd17f81a	-0.037101842
9	0x3da52397	0.08063429
10	0x3d27452a	0.040837444
11	0xbd3fe85d	-0.04685246
12	0x3d05421a	0.032533742
13	0x3cdf9bd5	0.027295986
14	0xbda15f64	-0.078795224
15	0xbd79268e	-0.060827784
16	0x3d6e6ae4	0.058207408
17	0xbde625a6	-0.112376496
18	0xbd3d1ba1	-0.046168927
19	0xbcb5182c	-0.022106253
20	0xbdde429c	-0.108525485
21	0xbe0c6382	-0.13709834
22	0xbd162467	-0.03665581
23	0x3c7329df	0.014841526
24	0x3db4738b	0.088111006
25	0xbd5a9830	-0.053367794
26	0x3da2f99c	0.079577655
27	0x3d834f02	0.06411554
28	0xbdcf7631	-0.10129965
29	0x3b8b2cf2	0.0042473013
30	0xbe0565e1	-0.13027145
31	0x3ddb3256	0.1070296
32	0x3de68cfb	0.11257359
33	0xbdc6983c	-0.09697005
34	0x3ca630b1	0.02028689
35	0x3df48210	0.1193887
36	0xbdb67b2d	-0.08910213
37	0x3d6aa019	0.057281587
38	0x3e0f39ce	0.13986894
39	0x3dda79a8	0.10667735
40	0xbb831286	-0.004000011
41	0xbd4bdcb0	-0.04977101
42	0xbd80fff8	-0.06298822
43	0x3e0138bb	0.12619297
44	0xbd33b55d	-0.043874133
45	0xbc6ae20d	-0.014336121
46	0xbdfb5e0e	-0.12273799
47	0x3d6cbf85	0.057799835
48	0xbd315b96	-0.043300234
49	0xbdaaa800	-0.08332825
50	0x3cf2305f	0.02956408
51	0xbd3dc439	-0.04632971
52	0xbce715e5	-0.028208682
53	0x3d95ead8	0.073201835
54	0x3d52f57e	0.05150365
55	0xbd79ab0c	-0.06095414
56	0xbdd4753b	-0.103739224
57	0xbe03457b	-0.12819473
58	0x3d7c9cb7	0.061672892
59	0x3d415ed7	0.047209587
60	0x3d20251a	0.039097883
61	0x3e11cc03	0.1423798
62	0x3cda8348	0.026673928
63	0xbc801e6d	-0.015639508
64	0x3dcbd402	0.09952547
65	0xbab06ec7	-0.0013460749
66	0x3dcb6572	0.099314585
67	0xbccaffeb	-0.024780234
68	0xbe0f3360	-0.13984442
69	0x3dd261df	0.10272574
70	0x3d2ada2b	0.041711967
71	0xbdab7159	-0.08371229
72	0x3dd2d7be	0.10295056
73	0x3e119d9d	0.14220281
74	0xbd8e544d	-0.06949673
75	0xbd3e797d	-0.04650258
76	0x3cba73b8	0.022760257
77	0x3d843022	0.06454493
78	0x3d5ae7f1	0.053443853
79	0xbdd70e8a	-0.1050082
80	0xbd624c82	-0.055248745
81	0xbdd5f7ca	-0.10447653
82	0x3dbe0300	0.09277916
83	0xbd9db10b	-0.07699784
84	0x3d193efc	0.037413582
85	0xbcdc0b6a	-0.026860911
86	0xbd75356f	-0.05986541
87	0xbd015350	-0.031573594
88	0xbd9a4902	-0.075334564
89	0xbddcf10d	-0.10788164
90	0x3deae905	0.11470226
91	0x3dfd061d	0.12354682
92	0x3e0af309	0.13569273
93	0xbdb5f5a3	-0.08884742
94	0xbd9154fa	-0.07096286
95	0x3e07284c	0.13198966
96	0xbd087644	-0.033315912
97	0x3dd3d872	0.10344018
98	0xbda6c30f	-0.08142673
99	0xbe16ef64	-0.14739758
100	0xbd4d24f2	-0.050084062
101	0xbdf33bc4	-0.11876634
102	0xbdd19b3e	-0.10234688
103	0x3d9f1c04	0.077690154
104	0x3ddbb772	0.10728349
105	0x3d5f5eeb	0.05453388
106	0x3e04fc70	0.12986922
107	0x3dcb5564	0.09928396
108	0x3bfdb748	0.007742796
109	0xbddf18bd	-0.1089339
110	0xbe18c6bb	-0.1491956
111	0xbc939864	-0.018017001
112	0xbd2afa66	-0.041742705
113	0xbd0a1524	-0.033711568
114	0xbdb58b45	-0.08864454
115	0xbd9fea92	-0.078084126
116	0xbdc632b7	-0.09677642
117	0xbd979c40	-0.07402849
118	0xbdafafc6	-0.08578448
119	0xbdca06f1	-0.09864605
120	0x3dc6dd94	0.097102314
121	0xbda201b2	-0.079104796
122	0x3cf73418	0.030176207
123	0xbbd2b2a6	-0.006429988
124	0x3df128ad	0.117753364
125	0x3ddf50f6	0.10904114
126	0xbdb88835	-0.090103544
127	0x3d3d0077	0.04614302
128	0x3df2c07d	0.118531205
129	0x3cbee8cd	0.023304367
130	0x3cbef3d4	0.023309626
131	0x3d02806d	0.031860758
132	0xbd7e02be	-0.062014334
133	0xbca5446f	-0.020174233
134	0xbe13e413	-0.14442472
135	0x3d0284ed	0.03186505
136	0xbde63c18	-0.11241931
137	0xbb199f88	-0.0023441035
138	0x3e06562d	0.13118811
139	0xbd8dd6dc	-0.06925747
140	0x3deda18e	0.1160308
141	0xbc719a83	-0.014746311
142	0xbcd31677	-0.025767548
143	0xbd3ecfc5	-0.046584863
144	0xbd4ec0f7	-0.050476994
145	0x3cbde65d	0.023181135
146	0xbd77cbd8	-0.060497135
147	0xbdf06a8d	-0.11739073
148	0x3cd02108	0.025406376
149	0x3e01392d	0.12619467
150	0xbe0702af	-0.13184617
151	0x3ce6b5e6	0.028162908
152	0xbe04e787	-0.12978946
153	0xbda36de5	-0.07979945
154	0xbdaf2dc0	-0.08553648
155	0xbd51ee81	-0.051252846
156	0xbce42b07	-0.027852548
157	0xbca84daf	-0.020544855
158	0xbc498fb3	-0.012302327
159	0xbdc02057	-0.09381168
160	0x3e16dc40	0.14732456
161	0x3ddb84a3	0.10718658
162	0xbe12475a	-0.14285031
163	0x3dafa342	0.08576061
164	0xbdc38792	-0.09547342
165	0x3d826c2f	0.06368291
166	0xbd5da451	-0.054111782
167	0x3c2f4d45	0.010699575
168	0x3d29e960	0.04148233
169	0xbdede4dc	-0.11615917
170	0x3d9463fd	0.07245634
171	0xbdf3c770	-0.11903274
172	0x3d8fb1d3	0.07016339
173	0x3ddf7c9b	0.109124385
174	0xbbefe968	-0.0073215254
175	0xbd1498b0	-0.036278427
176	0xbda814f1	-0.08207119
177	0xbdbd2d8c	-0.09237203
178	0x3dac55af	0.0841478
179	0x3d49232f	0.04910582
180	0xbe0b84b3	-0.1362484
181	0x3d24e987	0.04026177
182	0xbc130b60	-0.00897488
183	0x3e0d92f1	0.13825585
184	0x3d49b67d	0.0492463
185	0x3d908c88	0.07058054
186	0x3c213fb4	0.009841848
187	0x3d830e7c	0.06399247
188	0x3de7bd68	0.11315423
189	0xbd540379	-0.051761124
190	0x3c338ddc	0.010959115
191	0xbd715993	-0.058923315
192	0x3e086f19	0.1332363
193	0x3d990ce8	0.07473165
194	0x3df90621	0.12159372
195	0x3dfb53ca	0.12271841
196	0xbdf22a8b	-0.11824521
197	0x3dcb357f	0.09922313
198	0xbc1f2296	-0.009712836
199	0x3d6ed63f	0.05830979
200	0xbd8a8eab	-0.06765493
201	0x3daae943	0.083452724
202	0xbdbe076f	-0.092787616
203	0x3d924f74	0.07144061
204	0x3d9a7f69	0.07543833
205	0xbce114ec	-0.027475797
206	0x3e12271c	0.14272732
207	0xbd94e844	-0.07270864
208	0xbdb5bb2a	-0.08873589
209	0xbdf5ed24	-0.120081216
210	0xba15eacc	-0.00057188864
211	0x3d812ad8	0.06307
212	0xb8e59bbc	-0.00010948579
213	0xbe06f063	-0.13177638
214	0x3d7738a5	0.060356755
215	0xbd37de82	-0.044889934
216	0x3e1081f3	0.14112072
217	0xbdf8747f	-0.12131595
218	0x3d8695b2	0.06571521
219	0xbd8456fd	-0.06461904
220	0xbcd6bc90	-0.02621296
221	0x3d060390	0.03271824
222	0xbc908937	-0.017643554
223	0x3bf33156	0.007421653
224	0x3defab66	0.117026135
225	0x3cd9c78d	0.026584411
226	0xbe062fa1	-0.13104106
227	0xbe168032	-0.1469734
228	0x3cadc57f	0.021212338
229	0xbdfa419c	-0.12219545
230	0xbdb77da0	-0.08959508
231	0x3d02dc4d	0.031948376
232	0xbd454347	-0.048159864
233	0x3da47e16	0.080318615
234	0xbce82fa7	-0.028343035
235	0x3cec60c5	0.028854737
236	0xbe165122	-0.14679387
237	0x3e12c09a	0.14331284
238	0x3ac620e5	0.0015116005
239	0x3da118c9	0.078660555
240	0xbde40ef4	-0.111356646
241	0x3d9f9cc2	0.07793571
242	0xbe02f1ac	-0.12787503
243	0xbd9b5d29	-0.07586128
244	0x3d12e8ea	0.035866655
245	0x3df83ca4	0.12120941
246	0x3de608c1	0.112321384
247	0x3d8f2869	0.069901295
248	0xbd9fcc61	-0.07802654
249	0x3db3b1f2	0.08774175
250	0xbd8fcd02	-0.07021524
251	0xbdb15795	-0.08659283
252	0xbce7ef57	-0.028312368
253	0xbdaf17e7	-0.08549481
254	0xbded993b	-0.11601492
255	0xbd846a6c	-0.06465611

lstm.weight_hh_l1 f4 [200, 50]
0	0x3be3ade3	0.006948219
1	0x3d4808da	0.048836567
2	0x3d8a349f	0.06748318
3	0xbdb5f43c	-0.08884475
4	0xbdcd51df	-0.10025381
5	0x3dfbc69d	0.12293742
6	0x3c27f0a6	0.010250246
7	0x3d79f35d	0.061023105
8	0x3dc83d5b	0.097773276
9	0xbc80ca7d	-0.015721554
10	0x3e00b779	0.1256999
11	0xbcaff662	-0.02147979
12	0xbc9d8648	-0.01922907
13	0xbd56b17b	-0.052415352
14	0x3df9f923	0.12205722
15	0x3cc03f44	0.023467667
16	0xbdc10056	-0.09423892
17	0x3d89d33f	0.06729745
18	0x3b867cd9	0.0041042385
19	0xbdf19116	-0.11795251
20	0xbc894013	-0.016754186
21	0x3dc50cc0	0.096215725
22	0xbd654322	-0.055972226
23	0x3d03360a	0.032033958
24	0xbcf473fa	-0.029840458
25	0x3db3dd40	0.087824345
26	0xbd3f6d3e	-0.04673504
27	0x3cbae835	0.022815803
28	0x3db57c7b	0.088616334
29	0xbdc7e4e1	-0.09760452
30	0x3d8ac05e	0.067749724
31	0x3dab7307	0.08371549
32	0xbe11408b	-0.14184777
33	0x3db24e62	0.087063566
34	0x3dee9983	0.11650374
35	0xbe048ced	-0.12944384
36	0xbd39d646	-0.045370363
37	0xbd9cfef6	-0.076658174
38	0x3c36cedf	0.01115772
39	0xbd4b29ef	-0.049600538
40	0xbd1f8ade	-0.038950793
41	0xbcbf0c40	-0.023321271
42	0x3d584806	0.052803062
43	0x3d85e9a0	0.06538701
44	0x3d7c5c9e	0.061611764
45	0xbd587db9	-0.052854273
46	0xbd43f8fe	-0.04784488
47	0x3c3696f7	0.011144391
48	0xbd156cbb	-0.036480647
49	0xbdcd3e75	-0.10021678
50	0xbce0b496	-0.02742986
51	0x3d9095fb	0.070598565
52	0xbd5094a2	-0.050922997
53	0x3cbe3ca1	0.02322227
54	0xbdbe23fd	-0.09284208
55	0x3d8d53e0	0.069007635
56	0x3df7e466	0.121041104
57	0xbd5f930f	-0.054583605
58	0x3dc8c67c	0.09803483
59	0xbc454906	-0.012041336
60	0x3da06c8e	0.07833205
61	0x3de08f30	0.10964811
62	0xbd1abbd9	-0.0377768
63	0xbda08cfd	-0.078393914
64	0x3df58372	0.11987962
65	0xbd3965c0	-0.045263052
66	0xbcaf6b18	-0.021413371
67	0x3cf1c575	0.0295131
68	0x3dcc55e7	0.09977322
69	0xbd3f4075	-0.04669233
70	0x3e0061cd	0.12537308
71	0xbdff95ae	-0.12479721
72	0x3d6dd356	0.058062874
73	0xbe0765b3	-0.13222389
74	0xbdf27de1	-0.11840416
75	0xbdfb82b0	-0.12280786
76	0xbd4a51f2	-0.049394555
77	0x3db53419	0.088478275
78	0xbdde3ef5	-0.10851852
79	0x3dacadec	0.084316105
80	0xbd8842ad	-0.066533424
81	0x3da2ed29	0.07955391
82	0x3da1e02d	0.07904086
83	0x3dc5ef34	0.09664765
84	0xbde909a1	-0.1137879
85	0x3dbbede5	0.09176234
86	0x3d778f8e	0.06043964
87	0xbd8c9507	-0.06864362
88	0x3cbc1eeb	0.022963962
89	0xbe0db6e7	-0.13839303
90	0x3da81351	0.08206809
91	0x3c54a6fa	0.012979263
92	0x3dda6082	0.10662939
93	0x3d2cf28e	0.042223506
94	0xbe052820	-0.13003588
95	0xbdc672b6	-0.09689848
96	0x3d6b2bdb	0.05741487
97	0x3aceaae1	0.0015767479
98	0x3dac9f5f	0.08428835
99	0x3cc982d2	0.024598513
100	0x3d831d62	0.06402089
101	0xbc88eed3	-0.016715443
102	0x3dc236c3	0.09483101
103	0xbe17242d	-0.14759894
104	0x3dc795ea	0.09745391
105	0x3e013c0d	0.12620564
106	0x3ba6659a	0.00507803
107	0x3d886404	0.066597015
108	0x3d990418	0.07471484
109	0x3dfaaf89	0.12240512
110	0xbdec5a4b	-0.115406595
111	0xbe0652bf	-0.13117503
112	0xbbc08d45	-0.0058762156
113	0xbd1a7e4e	-0.03771811
114	0x3dea7b2c	0.114492744
115	0xbda8fd96	-0.08251493
116	0x3c3f4c5e	0.011675922
117	0xbdbb4a2c	-0.091450065
118	0x3d25d7b6	0.04048892
119	0xbce16ef5	-0.027518729
120	0xbe0b4a1f	-0.13602494
121	0xbda53f28	-0.08068687
122	0x3d62f5c8	0.055410177
123	0x3c92e357	0.01793067
124	0x3d64f036	0.055893146
125	0xbdd8fa17	-0.10594576
126	0xbd9da679	-0.07697768
127	0xbdcaa879	-0.09895415
128	0x3d4b0b80	0.049571514
129	0x3e05ef80	0.13079643
130	0xbe166e19	-0.14690436
131	0x3cf943d9	0.03042786
132	0xbb02f19b	-0.0019980434
133	0x3bf718c1	0.0075407927
134	0xbd4ca76b	-0.04996435
135	0xbd921927	-0.07133704
136	0xbd40edd1	-0.0471018
137	0xbd4198ab	-0.047264736
138	0x3e0efa04	0.13962561
139	0xbd521926	-0.051293515
140	0xbd590c8f	-0.052990492
141	0xbd9073e6	-0.07053356
142	0xbd3abb6c	-0.045588896
143	0xbc7d74b8	-0.015469722
144	0x3d091e4c	0.03347616
145	0x3dbb2fbe	0.091399655
146	0xbc345fa2	-0.011009129
147	0x3deaacd7	0.11458748
148	0x3c9183c8	0.017763034
149	0x3db992ec	0.09061226
150	0x3e039877	0.1285113
151	0xbd9cd2f8	-0.076574266
152	0xbe05575c	-0.13021606
153	0xbdc4d923	-0.09611728
154	0xbe03325d	-0.12812181
155	0x3d1b2c4f	0.037884053
156	0xbdf7f37b	-0.12106987
157	0x3cd19917	0.025585694
158	0x3c025a60	0.007956117
159	0x3dd21392	0.10257639
160	0xbdaa5358	-0.08316678
161	0x3ca96008	0.020675674
162	0xbdce239a	-0.10065384
163	0xbdfbdb59	-0.122976966
164	0x3da525a6	0.080638215
165	0xbd74386d	-0.059624124
166	0xbdab5e2c	-0.08367571
167	0xbdba20a3	-0.09088256
168	0xbcf79de2	-0.030226652
169	0x3df322e3	0.118718885
170	0xbd33d325	-0.043902535
171	0x3dc546ab	0.096326195
172	0x3da43825	0.08018521
173	0xbcc8e8bd	-0.02452504
174	0x3d19f18e	0.03758388
175	0xbdbbd108	-0.09170729
176	0xbd63a866	-0.05558052
177	0xbded1fd6	-0.11578338
178	0xbd9b2df4	-0.07577124
179	0xbd19943c	-0.037494883
180	0xbbcbcb26	-0.0062192855
181	0x3d9ac058	0.07556218
182	0x3e14e041	0.14538671
183	0xbe187a50	-0.14890409
184	0x3dfd8218	0.12378329
185	0xbc425770	-0.011861667
186	0x3cdbcc48	0.026830807
187	0xbc73492d	-0.014848989
188	0x3c3fe9ae	0.011713428
189	0xbdd5e162	-0.10443379
190	0x3df743a2	0.12073447
191	0x3d114549	0.035466466
192	0xbdcd8e18	-0.10036868
193	0x3d9f7111	0.077852376
194	0xbdca0fe3	-0.098663114
195	0x3e11e3fe	0.14247128
196	0xbd8a2d40	-0.06746912
197	0x3d015c82	0.031582363
198	0x3e059c3f	0.13047884
199	0xbde4360e	-0.111431226
200	0x3dd5d768	0.10441476
201	0x3d8ee4fe	0.069772705
202	0xbdf23928	-0.11827308
203	0x3db432ee	0.087987766
204	0xbd7915a4	-0.060811654
205	0xbda58626	-0.080822274
206	0xbca13a67	-0.019681169
207	0x3c158d0b	0.009127866
208	0x3db7e6c5	0.08979563
209	0x3ce0cbb5	0.027440885
210	0x3dd91ff6	0.10601799
211	0xbdf90d4e	-0.12160741
212	0x3e11101b	0.141663
213	0xbdd11c1a	-0.10210438
214	0x3d3b8f8e	0.0457912
215	0xbd0db694	-0.03459795
216	0x3d89a216	0.067203686
217	0x3d5486e8	0.05188647
218	0x3d61e9b3	0.055154514
219	0xbdf53a9c	-0.119740695
220	0x3cafa278	0.021439776
221	0x3bd285c9	0.00642464
222	0x3daa6d30	0.08321607
223	0x3d11896f	0.035531458
224	0xbdb62bc7	-0.088950686
225	0x3df1f0a7	0.11813479
226	0xbe101ab0	-0.1407268
227	0xbc9b870f	-0.0189853
228	0xbe16e371	-0.147352
229	0xbd9ec35f	-0.07752108
230	0xbd0fc245	-0.03509738
231	0xbd558a2b	-0.05213372
232	0xbc93afb8	-0.018028125
233	0xbdb76b19	-0.08955974
234	0xbd93ca94	-0.07216373
235	0xbd64b1a2	-0.055833466
236	0x3d1b4d25	0.037915368
237	0xbdfe07a8	-0.12403804
238	0x3dbbec49	0.09175927
239	0x3d17f160	0.037095428
240	0xbdc4c1b6	-0.0960726
241	0xbd21fe2b	-0.039549034
242	0xbd6f573b	-0.0584328
243	0x3c06fa18	0.008238338
244	0xbdf0d3ec	-0.11759171
245	0xbd9f98d0	-0.077928185
246	0x3d64443c	0.055729136
247	0xbda7f04d	-0.082001306
248	0xbdd167b6	-0.102248594
249	0x3d82bba1	0.063834436
250	0xbdfe8044	-0.124268085
251	0xbdc0e85a	-0.094193175
252	0x3a263dd0	0.0006341608
253	0xbda3b511	-0.0799352
254	0x3c99fb23	0.01879651
255	0xbda238c8	-0.079209864

lstm.bias_ih_l1 f4 [200]
0	0x3da66429	0.08124573
1	0xbd31b319	-0.04338369
2	0xbdf9c378	-0.12195486
3	0x3d25ca93	0.040476393
4	0xbdf2ca8b	-0.11855038
5	0x3db149e7	0.08656674
6	0x3db2358d	0.0870162
7	0xba0b973c	-0.0005324965
8	0xbd0dbb1d	-0.034602273
9	0x3cdd0780	0.026981115
10	0xbd8df827	-0.06932097
11	0x3de737e8	0.1128996
12	0xbd135d51	-0.035977665
13	0x3e0ddcaa	0.13853708
14	0x3deaee2b	0.11471208
15	0xb974ace8	-0.00023334066
16	0xbd3f1582	-0.04665137
17	0xbd638abf	-0.05555224
18	0xbc1d5b54	-0.009604294
19	0xbd07eba7	-0.03318372
20	0x3d241c4b	0.040066045
21	0xbd56fa93	-0.05248506
22	0x3c9caa41	0.019124152
23	0xbd0c503c	-0.034256205
24	0xbda12bd1	-0.078696854
25	0x3d6e45b6	0.05817195
26	0x3da307fe	0.07960509
27	0xbcc48529	-0.023989277
28	0xbde517f0	-0.11186206
29	0x3da724d2	0.0816132
30	0xbd30396f	-0.043023523
31	0x3da8829c	0.08228037
32	0x3db1dfce	0.086852655
33	0x3da576ca	0.08079298
34	0x3da84118	0.08215541
35	0x3d7981c6	0.060914777
36	0xbdda8bf3	-0.106712244
37	0xbd5d8363	-0.05408038
38	0x3c7ad784	0.015310172
39	0x3e162768	0.1466347
40	0x3e08b7da	0.13351384
41	0xbdb07fa3	-0.08618095
42	0x3dfc4a89	0.12318904
43	0x3dd2f5a9	0.10300762
44	0xbb1df20a	-0.0024100565
45	0x3e00bd74	0.1257227
46	0xbde1336d	-0.10996137
47	0xbba9eb11	-0.005185493
48	0x3dfd191f	0.12358307
49	0x3d6ac098	0.057312578
50	0x3d3ef8bf	0.04662394
51	0xbc369192	-0.011143105
52	0xbdd52f5b	-0.10409423
53	0x3defbe21	0.11706186
54	0xbbef4c2b	-0.007302781
55	0xbda4e019	-0.08050556
56	0x3cfaea14	0.030629195
57	0xbdece4c5	-0.11567072
58	0x3d8f1638	0.0698666
59	0xbd131cb7	-0.035916056
60	0xbe139d90	-0.14415574
61	0xbde6f616	-0.11277406
62	0x3de85e03	0.11346056
63	0x3d6c326d	0.057665277
64	0xbc9b02d0	-0.01892224
65	0xbbb5b95c	-0.005545778
66	0x3dc117d9	0.09428377
67	0x3ddcfe9a	0.10790749
68	0x3cd1ff1c	0.025634341
69	0x3d87c07e	0.06628512
70	0x3d895904	0.067064315
71	0x3e153662	0.14571527
72	0x3dad9cce	0.08477174
73	0x3dadaad1	0.08479846
74	0x3d16f86d	0.03685801
75	0x3db4082f	0.087906234
76	0x3dfbf468	0.12302476
77	0xbd57660c	-0.052587554
78	0xbd7b5b6e	-0.06136649
79	0xbcea57b0	-0.028606266
80	0xba883291	-0.0010391047
81	0x3df7d733	0.12101593
82	0xbde80601	-0.1132927
83	0xbdc3cae5	-0.095601834
84	0xbdc74db8	-0.097316206
85	0xbcd93f8a	-0.026519556
86	0x3e0550ac	0.13019055
87	0xbd441638	-0.047872752
88	0xbc0abfbb	-0.008468564
89	0x3df05dd1	0.11736644
90	0xbddd492e	-0.108049735
91	0x3ddc2fea	0.107513264
92	0xbd003022	-0.031295903
93	0xbc87ff6e	-0.01660129
94	0xbb6c0aae	-0.0036017108
95	0x3db4bb3a	0.08824773
96	0x3cc8799e	0.024472054
97	0x3d3ce1db	0.04611383
98	0x3df72ba9	0.120688744
99	0xbcfeb616	-0.031092685
100	0xbdb7317d	-0.08944986
101	0x3dac8b75	0.08425037
102	0x3decbcf6	0.11559479
103	0x3df47c3d	0.11937759
104	0xbc83bcb6	-0.016081195
105	0xbd774bd3	-0.060375046
106	0xbdd0e396	-0.101996586
107	0x3d85bd7c	0.06530282
108	0xbd895d8e	-0.06707297
109	0xbdb56141	-0.0885644
110	0xbdfd6982	-0.1237364
111	0x3ded52a6	0.115880296
112	0xbdede6d2	-0.11616291
113	0x3d8c5659	0.06852407
114	0x3de2d92a	0.11076577
115	0xbdf9401a	-0.121704295
116	0xbd83efa8	-0.06442195
117	0x3b1dc997	0.0024076456
118	0x3cb543c4	0.02212704
119	0x3d0da4aa	0.034580864
120	0xbd3359dd	-0.043786872
121	0xbe0a2b0f	-0.13492988
122	0x3ba577ab	0.005049666
123	0x3ccbe185	0.02488781
124	0xbd4a6e5c	-0.049421653
125	0xbd375d13	-0.044766497
126	0x3df90d94	0.12160793
127	0xbd500e45	-0.05079486
128	0x3dbbbc82	0.091668144
129	0x3d30fcd6	0.043209873
130	0xbd7a7941	-0.061150793
131	0x3dc8f257	0.09811848
132	0xb9981dc4	-0.00029013876
133	0xbd45b3f8	-0.048267335
134	0x3cfa47b4	0.030551769
135	0x3dd9c7bd	0.106338
136	0xbded2061	-0.115784414
137	0x3c827501	0.015924932
138	0xbc6c5b4a	-0.014426062
139	0x3ded12c6	0.115758464
140	0xbcdf41f6	-0.027253132
141	0xbdd330b4	-0.10312024
142	0xbe021e85	-0.12706955
143	0xbdab1717	-0.083540134
144	0x3db5f9c1	0.088855274
145	0x3e0e9920	0.139256
146	0xbde4ce4c	-0.111721605
147	0x3c9ad163	0.018898671
148	0xbd02b2de	-0.031908862
149	0xbdee735a	-0.11643095
150	0xbc3f4deb	-0.011676292
151	0x3c7ac370	0.015305385
152	0xbdce97aa	-0.100875214
153	0xbbb08f8c	-0.005388206
154	0xbd911560	-0.07084155
155	0xbd9338dc	-0.071885794
156	0xbd1e9150	-0.0387128
157	0x3ca6939c	0.020334058
158	0x3c24d096	0.010059496
159	0xbde5545a	-0.111977294
160	0x3c63c4f3	0.013901937
161	0x3d86da18	0.06584567
162	0x3e0731c1	0.13202573
163	0x3d5b5ea0	0.05355704
164	0xbbd5062b	-0.0065009794
165	0xbdab3189	-0.083590575
166	0x3dc182bf	0.09448766
167	0xbc089152	-0.008335428
168	0xbdc16f5d	-0.09445069
169	0xbd3c30d6	-0.04594501
170	0x3e10e0c4	0.14148241
171	0x3d7c6c4e	0.061626725
172	0x3e081d36	0.13292393
173	0xbd017b87	-0.031611945
174	0xbe02860b	-0.12746446
175	0x3e0070a4	0.12542969
176	0xbd8e48e3	-0.06947496
177	0xbcab1354	-0.02088324
178	0xbe06495b	-0.1311392
179	0xbdd14bfe	-0.102195725
180	0xbdd2de07	-0.102962546
181	0xbd999fb9	-0.07501168
182	0x3d659993	0.056054663
183	0x3ddb1eae	0.10699211
184	0x3e00b0c4	0.1256743
185	0xbcf6aa64	-0.030110545
186	0x3dcca3bb	0.099921666
187	0xbd9cfe9c	-0.076657504
188	0x3cddc66d	0.027072156
189	0xbe072d19	-0.13200797
190	0x3bcfa14a	0.006336366
191	0xbd208b77	-0.039195504
192	0x3cb02372	0.021501277
193	0xbd825594	-0.06363979
194	0xbab4a339	-0.0013781554
195	0xbde28cc5	-0.11062006
196	0xbd31cefc	-0.043410286
197	0x3d245e05	0.040128727
198	0x3e0153f6	0.12629685
199	0xbded054d	-0.11573277

lstm.bias_hh_l1 f4 [200]
0	0x3d13ad78	0.036054105
1	0xbcdf839e	-0.02728444
2	0xbcbdf255	-0.023186842
3	0xbd1f15cf	-0.038839158
4	0xbde7589f	-0.112962
5	0x3decb90d	0.11558733
6	0x3e096b56	0.13419852
7	0x3dc61ea4	0.09673813
8	0xbcaa357c	-0.020777456
9	0xbd8ba640	-0.06818819
10	0x3ddf5851	0.10905517
11	0xbdc55746	-0.09635787
12	0x3d8c78fd	0.06859014
13	0x3d46f3c1	0.048572306
14	0xbe043203	-0.12909703
15	0x3dada3b6	0.08478491
16	0xbd96391b	-0.07335111
17	0x3d8c4ba8	0.06850368
18	0x3cd10af6	0.025517922
19	0xbdfde155	-0.12396494
20	0xbbea0bf1	-0.007142537
21	0xbd44cc73	-0.04804654
22	0xbce69743	-0.0281483
23	0xbd9441eb	-0.07239135
24	0xbc9b0d55	-0.018927256
25	0xbd75092a	-0.059823193
26	0x3e060944	0.13089472
27	0xbd5ea19b	-0.054353338
28	0x3ddc4a67	0.107563786
29	0xbe01d69c	-0.12679523
30	0xbe06785a	-0.13131848
31	0x3e01a7f7	0.1266173
32	0x3d50e98e	0.051003985
33	0x3db8f65e	0.09031366
34	0x3e0e8627	0.13918363
35	0x3ded031e	0.1157286
36	0x3e104144	0.14087397
37	0xbd9bcc78	-0.07607359
38	0x3d7bf4b7	0.061512675
39	0x3d36b802	0.044609077
40	0x3e039590	0.12850022
41	0xbda2e34e	-0.07953511
42	0xbd1f073c	-0.03882526
43	0xbc9f3296	-0.019433301
44	0xbd7daaf0	-0.061930597
45	0x3cbd3670	0.023097247
46	0xbcb82c28	-0.022481993
47	0xbdb09e0b	-0.08623894
48	0x3de5243d	0.111885525
49	0x3d903957	0.07042187
50	0x3d2b74c3	0.0418594
51	0x3d3eff6e	0.046630315
52	0x3ad1453b	0.0015966067
53	0x3b7f7b8a	0.0038983547
54	0x3d9ed20d	0.07754908
55	0xbdb0a19f	-0.08624577
56	0x3d3e4a45	0.046457548
57	0xbdc83f95	-0.09777752
58	0x3e0f0b46	0.13969144
59	0xbdbc2b7f	-0.09187984
60	0xbe0e342c	-0.1388709
61	0xbbc1a35b	-0.005909366
62	0x3e03d5b2	0.12874487
63	0x3c1b78a4	0.009489212
64	0xbdb87980	-0.09007549
65	0x3d761791	0.06008107
66	0xbd28137e	-0.041034214
67	0x3dc0f530	0.09421766
68	0xbcfc3467	-0.030786706
69	0x3ce9cce6	0.028540086
70	0x3dd73628	0.10508376
71	0x3d101e23	0.03518499
72	0x3d8039de	0.06261037
73	0xbd85b7f9	-0.065292306
74	0x3df5cc7e	0.120018944
75	0xbd1b0656	-0.03784784
76	0x3dbef618	0.093242824
77	0xbda3348d	-0.07969008
78	0xbd3a3328	-0.045458943
79	0xbd4e5a2b	-0.05037896
80	0x3d329177	0.043595757
81	0x3d6d4268	0.057924658
82	0xbdaa2f7e	-0.0830984
83	0x3dc878e0	0.0978868
84	0x3ceda6ea	0.029010255
85	0xbd6cba21	-0.057794694
86	0xbd87f93d	-0.06639335
87	0x3d3ea832	0.046547122
88	0x3d60bfc6	0.05487039
89	0xbdbe5f41	-0.09295512
90	0x3d6e48f8	0.058175057
91	0x3dd7167a	0.10502334
92	0x3d475498	0.04866466
93	0xbcde7c15	-0.027158776
94	0xbda8e5d4	-0.08246961
95	0x3d93eed6	0.07223289
96	0xbdae5a44	-0.085133106
97	0x3db58193	0.08862605
98	0xbdf59914	-0.11992088
99	0x3d5327d9	0.051551674
100	0x3ccc41d3	0.024933731
101	0xbdea7dd9	-0.11449785
102	0x3d4d24c1	0.05008388
103	0x3c26b901	0.010175944
104	0x3c8c971a	0.017161895
105	0xbcffa39c	-0.031205945
106	0x3d6f560f	0.05843168
107	0xbde7a139	-0.11310048
108	0xbe0b5d3d	-0.13609786
109	0xbd70ee12	-0.05882079
110	0xbd8efbfc	-0.06981656
111	0xbdb85388	-0.09000307
112	0xbce928ac	-0.028461777
113	0x3c802c8b	0.01564624
114	0x3d141deb	0.036161344
115	0xbdc150d4	-0.09439245
116	0x3d6688b1	0.056282703
117	0xbd54a0f3	-0.051911306
118	0xbda02ec3	-0.07821419
119	0x3cdc5a34	0.026898481
120	0x3d11df0b	0.0356131
121	0xbd874168	-0.06604272
122	0xbc125fea	-0.0089340005
123	0xbd7acf31	-0.06123275
124	0x3caae8b3	0.020862913
125	0xbdf67ef7	-0.12035935
126	0xbbce0806	-0.0062875776
127	0x3d8e00c0	0.06933737
128	0x3da52554	0.080637604
129	0xbdbdf495	-0.09275166
130	0x3e10f50e	0.14155981
131	0xbdabdd21	-0.08391786
132	0xbc3627fd	-0.011117932
133	0xbca05ca5	-0.019575426
134	0xbe00a7fe	-0.12564084
135	0x3dfda9bd	0.12385891
136	0xbe04c7c8	-0.12966835
137	0xbdfb750c	-0.12278184
138	0xbd292aba	-0.041300513
139	0xbdfa0afa	-0.12209125
140	0x3e0fbd2f	0.14037012
141	0xbdff38bd	-0.12461994
142	0x3dc13fe7	0.094360165
143	0xbd95147c	-0.07279298
144	0x3d49cfe6	0.049270533
145	0x3dc1bbad	0.094596244
146	0xbdfffd56	-0.12499492
147	0xbcd2eacd	-0.025746727
148	0xbe06465c	-0.13112777
149	0xbd747613	-0.059682917
150	0xba1b7fb0	-0.00059318077
151	0x3e14be7c	0.14525789
152	0x3dc304fe	0.095224366
153	0xbddb298c	-0.10701284
154	0x3d140d26	0.03614535
155	0x3d5e6bd1	0.05430204
156	0x3e03c080	0.12866402
157	0x3c14d3a8	0.009083666
158	0x3decef30	0.11569059
159	0x3d538064	0.051636115
160	0xbe113fe4	-0.14184529
161	0x3decb522	0.11557986
162	0x3dd9e91c	0.10640165
163	0x3dc466b4	0.095899016
164	0xbdcab808	-0.098983824
165	0xbdfe2525	-0.124094285
166	0xbd8591c8	-0.06521946
167	0xbdadd1b8	-0.08487266
168	0x3d946077	0.07244962
169	0xbd273b06	-0.040827774
170	0x3dc9f91c	0.09861967
171	0x3db82d39	0.089930005
172	0x3db5bfa3	0.088744424
173	0x3e06e388	0.13172734
174	0x3dec9668	0.11552125
175	0x3da6946c	0.08133778
176	0xba7164b4	-0.00092084263
177	0x3ba897b2	0.0051450366
178	0x3d761ef0	0.060088098
179	0xbac7c2a0	-0.0015240498
180	0x3e0bffd1	0.13671805
181	0x3d723d9a	0.05914078
182	0xbd23e573	-0.04001374
183	0xbdbe45b4	-0.092906386
184	0xbcf37f4f	-0.029723791
185	0xbd50292b	-0.05082051
186	0xbd9d640d	-0.07685099
187	0x3db67074	0.089081675
188	0xbdd1476d	-0.102187015
189	0xbd3c292d	-0.045937706
190	0x3de1129f	0.1098988
191	0x3da5eef3	0.081022166
192	0x3d958ac7	0.0730186
193	0xbde7412d	-0.11291728
194	0x3d3d45b3	0.04620905
195	0x3d4520a3	0.048126828
196	0xbd22e75e	-0.03977143
197	0xbd39dcc7	-0.045376565
198	0xbd87c18b	-0.06628712
199	0xbdee9700	-0.11649895

fc.weight f4 [1, 50]
0	0x3d5cd859	0.053917263
1	0x3dd253e7	0.10269909
2	0xbdda25c8	-0.106517375
3	0x3d8337e5	0.064071454
4	0xbcae78bc	-0.021297805
5	0xbd7db91c	-0.061944112
6	0xbe0de44f	-0.13856624
7	0x3d9ded1a	0.07711239
8	0xbe088090	-0.13330293
9	0xbcdafc23	-0.026731556
10	0x3d85eaad	0.065389015
11	0x3e0ae00b	0.13562028
12	0x3dbeb95d	0.09312699
13	0x3dff02e0	0.1245172
14	0x3dc7facb	0.09764632
15	0xbd88cfb0	-0.06680238
16	0x3d560989	0.052255187
17	0x3cf9b838	0.03048335
18	0x3de4a1be	0.111636624
19	0x3d264314	0.040591314
20	0x3de44d9c	0.11147615
21	0xbdc24d13	-0.09487357
22	0xbdb609aa	-0.08888562
23	0x3db5cec1	0.08877326
24	0xbdad1792	-0.08451761
25	0xbddc12a7	-0.10745745
26	0x3e02b8e9	0.1276585
27	0x3d2ad43a	0.0417063
28	0xbdea760e	-0.114482984
29	0xbbc372b2	-0.0059646005
30	0xbd38e463	-0.04513968
31	0x3ca4c785	0.02011467
32	0xbdf85245	-0.12125067
33	0xbdc7a3ce	-0.0974804
34	0xbcaddcdb	-0.021223476
35	0x3cc93558	0.02456157
36	0xbca73769	-0.020412164
37	0xbcd7dc13	-0.026350057
38	0x3aad73bc	0.0013233344
39	0xbd5808cd	-0.052742768
40	0xbc7a2f09	-0.015270003
41	0x3dd07b9b	0.10179826
42	0xbe09964b	-0.13436238
43	0x3d87ae7a	0.06625076
44	0xbc388701	-0.011262656
45	0x3d6aee6e	0.05735629
46	0x3dc03ced	0.09386621
47	0xbdd4fabf	-0.103993885
48	0xbd1d3f9d	-0.038390744
49	0xbd8cf8fc	-0.068834275
