data/models/AAPL_20251229_161817.pt (torch, 130222 bytes, 9 tensors)

lstm.weight_ih_l0 f4 [200, 1]
00000000: 739e 983c b418 123e 1280 53bd 15d4 dbbb
00000010: 5bd7 eebd e902 333d c403 d1bd ced2 ea3d
00000020: b081 4b3c 41f6 1fbe 7b0a a1bd d566 ecbd
00000030: 304d 253e c5ee 3e3b 8e03 28be 1ec9 1c3e
00000040: 4ab1 03be 0510 da3d 6617 a03d ac89 3ab8
00000050: 76c8 4b3b c605 c1bc 8563 643d 5cca ad3d
00000060: 0b36 ce3b 55ea ddbd 8454 72bc 5054 603d
00000070: c0d7 c2bd 681d a43d eae3 aa3b a1e9 2e3e
00000080: dd76 713d eb56 12bd b49c 8fbd 6742 183e
00000090: 45c2 91bd 14fe f3bd 4445 0abe e5fb 52bd
000000a0: fa1f 2b3e 20f6 f53d 93a4 c0bd 4b1a 593d
000000b0: a87b 1cbd 404b 803d c87d 8b3d 79fe 093d
000000c0: 7ca0 4fbd 06ca 0dbe 9294 8cbd bc87 ffbc
000000d0: e951 763d b839 143d 1dd6 00be 854c ffbd
000000e0: 0934 0f3d db4f bdbc 3e80 333e d8a6 1f3d
000000f0: 8c9d 153e 741d 9e3c 4d63 f6bc 9d09 033e
00000100: 0e4f 38be 6573 21bd 26b8 083d cbaf ebbb
00000110: 004f 403e 5212 153e 546e e73d 20ad 933d
00000120: 4736 523d 34fc 76bd b1b3 cbbd 6585 9e3b
00000130: cb02 a83d ecdb 2f3e 9bd8 cabd 18c8 22bd
00000140: 2f0c 36bd 794e 1a3e 6d93 113d c3c0 0b3b
00000150: 236d 90bd d720 f63c a726 cebd e574 84bd
00000160: f665 d93c dba0 0dbd 21f3 823b aeff 31bd
00000170: 48ed 893d 0961 163e 4592 983d 7b0f 4fbd
00000180: 80b3 b63d 6a2b 293e 5ab1 a43d feaa 863b
00000190: 4966 02be 1940 fbbd 7987 373e 3033 0fbc
000001a0: 341c f4bc bfd2 2a3e 82ab 1ebe b4bf b13d
000001b0: 5b53 3cbe 5208 0c3e 6419 3ebe 1658 17be
000001c0: 374a afbd 2906 8cbd a21c 083e 5f27 40be
000001d0: 9965 633d 948a 07be 76fa 71bc 6d77 12bd
000001e0: 19b3 a53d a590 103e 634a ce3c 5dc5 9c3c
000001f0: 8630 48bc 313e cfbd 0e7c a7bd 50f9 f0bd
00000200: 68a4 bd3d c950 c8bd 19f2 2f3d 5ab5 1cbe
00000210: 70e5 e2bb 31ce 8abc a16b 083d d8ab e1bd
00000220: bdb4 543d 2169 ffbd 963d 173c ff5d d6bd
00000230: b7b2 f83d 64af df3d 3056 cc3d 0510 8dbd
00000240: 7799 3ebe c889 68bc edb4 16be b35b cdbc
00000250: 6d05 f53d 30e8 be3d e5b6 2a3e 8b30 02bd
00000260: 551d 223e 9477 91bd 2db3 e43d 71b2 29bd
00000270: b0f7 3bbd 5cda 1a3d c950 b5bd 6c6c 693d
00000280: 18b3 afbc 0bb4 b33d 24d8 893d b750 0b3e
00000290: 975f f9bd 076a 373e dcdc d83d 64c7 69bd
000002a0: a21b 0d3e 79d8 0c3d d76a 35bd f4d4 3b3e
000002b0: 75cc 69bd 1ee8 a23a 265b 62bd eda9 f6bd
000002c0: 9851 69bd 4cab a7bc 593d 073e 2702 193c
000002d0: d775 eebd 5d42 a2bd 011d 153e 2cf1 b3bc
000002e0: 45a1 123d a019 573d 4bbf 033e 22e6 533d
000002f0: 8ac9 e13d fa41 95bd ae8c 093e 0fb3 2a3e
00000300: 9771 0cbc de22 b7bd f9c9 fb3d 7a23 e6bc
00000310: 9f0c 82bd b643 3a3e f3c4 543d 2358 203c
0.018630242 0.14267236 -0.05163581 -0.0067086318 -0.116621695 0.043703947 -0.10205796 0.11465989
0.012421057 -0.15621282 -0.07863327 -0.11543051 0.16142726 0.0029134017 -0.16407606 0.15311095
-0.12860599 0.10647587 0.07816963 -4.4474073e-05 0.0031094826 -0.023562323 0.05575897 0.084858626
0.0062930635 -0.10835711 -0.014790658 0.054767907 -0.09513807 0.08013421 0.0052151578 0.1708131
0.058951247 -0.035727423 -0.070123106 0.1486908 -0.07117132 -0.11913696 -0.13502985 -0.051509757
0.16711417 0.12009835 -0.0940639 0.05300359 -0.038203865 0.06264353 0.068111 0.03368995
-0.05069016 -0.13846597 -0.06864275 -0.031192653 0.06013671 0.036187857 -0.12581678 -0.12465767
0.034961734 -0.023109367 0.1752939 0.038977474 0.1461088 0.019301154 -0.030076647 0.12796636
-0.17998907 -0.03941669 0.033378743 -0.007192587 0.18780136 0.1455777 0.1130034 0.07210755
0.051321294 -0.060299113 -0.09946383 0.004837679 0.08203658 0.17173737 -0.099045955 -0.039741606
-0.044445213 0.15068997 0.035540987 0.0021324612 -0.07052066 0.030044956 -0.10065966 -0.06467608
0.026537877 -0.03457723 0.0039962684 -0.043456726 0.06734711 0.14685453 0.07449774 -0.050551873
0.08920956 0.16520467 0.080416396 0.0041097393 -0.12734331 -0.12268085 0.17922772 -0.008740231
-0.029798605 0.16681956 -0.15495113 0.086791426 -0.18391173 0.13675049 -0.18564373 -0.14779696
-0.08559077 -0.068371125 0.13292173 -0.18765019 0.055516813 -0.13236457 -0.014769187 -0.035758425
0.08090801 0.14117678 0.025181955 0.019137079 -0.0122186 -0.10119284 -0.081779584 -0.117663026
0.09259874 -0.097810335 0.04295549 -0.15303555 -0.0069243237 -0.016944023 0.033305768 -0.11019105
0.051930178 -0.124712236 0.009230992 -0.10467147 0.12143462 0.10922125 0.099773765 -0.06887821
-0.1861323 -0.014193006 -0.14717455 -0.02506814 0.119639255 0.0932163 0.16671331 -0.031784575
0.15831502 -0.07102886 0.111669876 -0.04142994 -0.04589051 0.0378059 -0.08853299 0.056988165
-0.021447703 0.08774575 0.06730679 0.13605009 -0.121764354 0.1791154 0.105890006 -0.05707492
0.13780072 0.034386132 -0.044291344 0.18342954 -0.05707975 0.0012428795 -0.055262707 -0.120441295
-0.05696258 -0.020467423 0.13206996 0.009338892 -0.1164357 -0.07922814 0.14561845 -0.021965586
0.03579833 0.052514672 0.12865941 0.051733144 0.11024769 -0.07287975 0.13432571 0.16669868
-0.008572004 -0.08942197 0.122943826 -0.028093088 -0.063500635 0.18189892 0.051945638 0.009786638

lstm.weight_hh_l0 f4 [200, 50]
00000000: 50f5 7b3d 1ccf 17be 6bf3 e13d a1fb a23c
00000010: 3fef 143e a57b 2ebe 4034 2c3e 940b 1cbe
00000020: bef2 ae3d 0621 bdbc e638 813d 9f5c 983b
00000030: e620 873d 564e 8cbd 1f8f a8bd a517 bf3c
00000040: b2eb 1dbe 2878 00be 5588 5abd d91a 38bd
00000050: b41e 9e3d bb63 1ebd ca05 883d 1690 e33c
00000060: 42f2 d3bd 30f6 b43d ef1c ebbc 148e 19be
00000070: 2c27 e9bc 22e1 a63d 12d5 20bd 732f 8dbd
00000080: 42d1 d0bc aae2 42bd 523b 13be 6eac 643c
00000090: e0dd f7bd f719 843d ab1a 263d 0fef 1bbe
000000a0: 4867 2e3d a463 313e 70c6 333e 4144 363a
000000b0: 691c 08be 8cc2 27be c588 a4bd f7f8 62bd
000000c0: ed97 12bd 262a 9cbc 2301 07bc 7c99 20be
000000d0: 10ee 4bbd 54dc 193d c7ee 1c3e c1f6 1a3e
000000e0: f8f0 f4bd f503 7fbd 3605 333d be6b 46bd
000000f0: fe16 a73d 10e8 0b3c fbea 733d 3d72 813c
00000100: f742 653d a60a 95bc cb04 6f3d 6d35 97bd
00000110: e5f1 c7bd 2d55 893d 2d43 26bd 25d3 45bd
00000120: a9bc 083e 47cf f4bd 8c45 193c 352b 463d
00000130: 30b5 01bc 418b a93d 3a96 093d 2edf 0fbd
00000140: e08c 113d 4fdb b6bd 596a 0d3e a9a1 5fbd
00000150: 35c0 82bd 61c0 a9bd 55fd 103d 5860 b8bd
00000160: 6c4c cc3d 6372 ad3d 6760 9cbd a2ca e2ba
00000170: de15 af3d e660 dcbc 2061 b73d 152e c8bd
00000180: 2433 4ebd 0c17 e6bd 9cb3 913d 9b87 283e
00000190: 3d5f 41be f52e 0dbe afcc b83d 5b84 94bc
000001a0: bc1e 87bd 1755 af3d ba44 fe3c 3350 a23d
000001b0: cae6 4abd 5010 983c 1672 d93c ab56 d43d
000001c0: 401b 06be 9220 96bd 7499 4e3e dbce d63d
000001d0: 033d cabc 1fe5 ab3d 7cfb c2bd 4ada 003d
000001e0: ac11 c9bd 2b48 65bd dff7 76bd 2d24 fa3d
000001f0: a2f1 28bd 9f98 cbbd dffa 2c3d 46e2 e9bd
00000200: 88ce 3d3d 21ad 21be ddd7 ee3d 7970 a6bd
00000210: 33f0 47bd 3c35 05be 229b 49bd 043e d93c
00000220: b0c9 1c3d cc47 c9bd fa8e 09bc db68 603c
00000230: 7a45 773d 9520 aa3d 4639 033e 6034 bb3d
00000240: 711d a9bc 484b eebd bc81 88bd 9cf9 bb3d
00000250: cbea fd3c ad88 9bbd 33de c4bd 683f b03d
00000260: 429e c4bd 7c5e 9bbd db9d 31bc 2dd6 e4bd
00000270: 31b4 083e 1f66 9ebb 289b eb3d cdf2 073e
00000280: 0dac b03d 1771 b93d eb9a b53d 7378 173e
00000290: fa47 5ebd 53e2 ed3c 972d 09be 57a1 bf3d
000002a0: a9cf 14bd 8051 bfbd 2a99 ad3d 8f27 ce3d
000002b0: 6bbf 593c 4d91 aa3d fc0d c6bd 2f8d cebc
000002c0: ff19 12be 5abe d03d ef95 07be 9805 c03d
000002d0: 3220 88bd fb17 b6bd bcef 543d 43d9 ef3c
000002e0: b2c5 cb3d 11a3 363d bb7f 173e ec65 223e
000002f0: acb0 f4bb d6cb dbbc b2a6 913c e31d 6abd
00000300: 2fd5 1abe a44e 1a3e 2373 843d 07bd 8bbd
00000310: 0807 9e3c 35ae 23bd e4dd b1bc bcce ffbc
00000320: 447b 333e 29a2 38bd 8f33 a63d 6c08 35bc
00000330: 7f0d fcbc f782 9dbd 65ab c5bd b396 c13d
00000340: 87c8 cdbd f47b 993d 2106 b93d 97d6 32bd
00000350: 3dde 06bb 7830 c93d 659b d63d 9482 243e
00000360: bddd 15bd 43b7 593c b200 be3c bc39 4d3d
00000370: 23e2 b73d 8954 ba3d daea 7d3d 9ea4 0cbe
00000380: c9dd 8bbd 4355 28bd 2f3e 373d 147e 0f3e
00000390: d4df 39bd fc97 003e 14a6 b03d 7cdf 883d
000003a0: 8d7f f4bd 4d7f 0f3d 13e3 ecbd 04ca e8bd
000003b0: 1ebd 093d 93c7 af3d 4839 dabc 6f36 e83c
000003c0: d288 a9bd eec7 45bd eab0 26bc 5c23 833d
000003d0: d7f0 adbd 16b3 0b3e d101 bc3d b790 063e
000003e0: 82b4 f93a 5892 08be 170b 513e c35f 03bd
000003f0: 651c d73d fea6 673e 3679 c93d 2234 13be
0.061513245 -0.148251 0.110327564 0.019895377 0.1454439 -0.17039354 0.16816807 -0.15238792
0.08542393 -0.023087036 0.06309681 0.004649713 0.06598072 -0.06850879 -0.08230423 0.023326704
-0.15421942 -0.12545836 -0.053352673 -0.04494748 0.077207 -0.03866933 0.06641729 0.027778666
-0.103489414 0.08836019 -0.02870032 -0.14995605 -0.028461061 0.081484094 -0.0392657 -0.06893816
-0.025490407 -0.047579445 -0.14378098 0.013957126 -0.12102866 0.06450265 0.040552776 -0.15227912
0.042578965 0.17323166 0.17556167 0.00069529196 -0.13292088 -0.16382807 -0.08033899 -0.055413213
-0.03578942 -0.019063067 -0.008240017 -0.1568355 -0.04978758 0.037563637 0.15325461 0.15133192
-0.11960024 -0.062259633 0.04370614 -0.048442595 0.08158682 0.008539215 0.059550267 0.015801543
0.055972066 -0.018193554 0.05835418 -0.07383237 -0.097629346 0.06705699 -0.040591408 -0.048297066
0.13353218 -0.119535975 0.00935496 0.04838105 -0.007916734 0.08278514 0.033590533 -0.03512495
0.03553474 -0.089285485 0.138101 -0.05459753 -0.06384317 -0.082886465 0.035397846 -0.09002751
0.09975514 0.08469083 -0.07635575 -0.0017302821 0.08549093 -0.026901674 0.08954072 -0.097744144
-0.05034174 -0.112348646 0.07114336 0.1645798 -0.18883987 -0.13787444 0.09023415 -0.018129518
-0.06597659 0.085611515 0.03103863 0.07925453 -0.049536504 0.018562466 0.026543658 0.10368093
-0.13096333 -0.07330431 0.20175725 0.10488673 -0.024687296 0.08393311 -0.09520623 0.031458177
-0.09817824 -0.055977028 -0.060294982 0.12213931 -0.041246064 -0.099412195 0.042231437 -0.11420111
0.04633954 -0.157887 0.116622664 -0.08126921 -0.048813056 -0.13008589 -0.04922021 0.02651883
0.03827828 -0.09828147 -0.008395905 0.0136968745 0.060368992 0.08306996 0.12814817 0.09140849
-0.020643922 -0.116354525 -0.0666537 0.091784686 0.030995747 -0.07594428 -0.09612694 0.08605844
-0.09600498 -0.07586381 -0.010840858 -0.11173663 0.13349988 -0.004833951 0.11504203 0.13276215
0.08626566 0.09054773 0.08867439 0.14792041 -0.05426786 0.029038584 -0.13396297 0.09356945
-0.036330853 -0.09341717 0.08476479 0.10066139 0.0132902665 0.08328495 -0.09670636 -0.025213806
-0.14267729 0.10192557 -0.13240789 0.09376067 -0.06646766 -0.08891293 0.05198644 0.029278403
0.09949817 0.044589106 0.14794819 0.15859193 -0.00746735 -0.026830595 0.017779682 -0.05715741
-0.15120386 0.15069062 0.06467273 -0.068231635 0.019290462 -0.03996106 -0.021712251 -0.031226508
0.17527491 -0.045076523 0.08115303 -0.011049371 -0.030768154 -0.07690995 -0.096518315 0.09452572
-0.10048013 0.07494345 0.09034372 -0.04366168 -0.0020579242 0.09823698 0.10478858 0.16065437
-0.03658842 0.013288322 0.02319369 0.050103888 0.08978679 0.09098155 0.06199155 -0.13734671
-0.068294115 -0.041096937 0.044737037 0.14012939 -0.045379475 0.12557977 0.08625427 0.06683251
-0.11938391 0.035033513 -0.115667485 -0.113666564 0.03362762 0.08582988 -0.026638642 0.028346268
-0.082780495 -0.04828637 -0.010174016 0.06403229 -0.08493202 0.13642535 0.09180034 0.13141142
0.0019050988 -0.13337076 0.20414387 -0.032073747 0.10503463 0.22622296 0.09837572 -0.14375356

lstm.bias_ih_l0 f4 [200]
00000000: 81bf abbc 4039 17bd 04a0 f83d b4df f2bd
00000010: 557d 99b9 a4b2 e73d 02db 6cbc a5df a33d
00000020: c12d 083e 4e58 ff3c 615c c6bc a038 1abe
00000030: 124a a5bd c1a1 a8bc b045 14bd f676 943d
00000040: d74e 06be 15de d23d fcc2 523b de2f 1d3e
00000050: 2c62 2fbd cda9 0f3e cb93 813d fee3 4f3d
00000060: 05b0 02be b39f fbbc 0d70 5d3c 11af acbd
00000070: afae bb3d aa9d c83d eefe 51bd 3a47 7ebc
00000080: 7465 7cbc b115 2ebd 65f5 103e 9a5f d43c
00000090: 177f 0c3e 9d94 94bd 0985 04be 258e d0bb
000000a0: bb60 75bd ec34 b43d bfc6 6f3d e65e 97bd
000000b0: 7a1f 133e 6a02 623d 7187 9a3d 26f3 d83c
000000c0: 4821 123e f0b9 d4bd 4446 883d c93c 0d3e
000000d0: 854b 8b3d fbab dc3b b045 e0bb 4096 97bd
000000e0: e0ce b93d 355a 7abd ea10 cfbd f1d2 a4bb
000000f0: b324 36bd b395 443d 0e84 56bd 85bc 22bd
00000100: 3ba9 18bd 2e92 633c 64fa f1bd a770 7b3c
00000110: c282 f73d 63e8 b53d b586 90bc 3574 c8bc
00000120: 154b 5dbd 6975 06be 2cea cebd 50b3 a8bd
00000130: e89c d93d 8599 85bd 54a0 4cbc ffdd ed3b
00000140: e37c db3d 9a09 08bc 895a bbbd 124e fabd
00000150: 12c2 c3bd 9436 a3ba dbd8 263c 7c67 07be
00000160: 5e30 ba3d b342 02bd a36d 48bc eccf e83d
00000170: 1fc8 c7bd e5c5 1ebd 460f a9bd 2f87 fabd
00000180: 24ad 1bbd 3801 dc3d d639 dfbc 629b c33d
00000190: f2fe 9bbd d83e c2bc 107b 773d 1ca7 d03d
000001a0: 61af 963d c232 4b3c 3164 e63d 1751 e1bd
000001b0: e7cc 33bd c0b9 5ebd 1b3e 913c f60a cebd
000001c0: 7e23 c9ba b8ef adbd 9be8 f13c cbc8 7b3d
000001d0: 7b22 ddbd 4f73 8e3d dbfd fbbd e199 fdbd
000001e0: 9bf8 b43d 9ac0 4bbd 21bf 103e a65e 98bd
000001f0: 7aeb d9bd 93cc a2bd 18dc 6f3d ee12 dc3d
00000200: ef95 aebd 6d87 eebd d67e ec3d 874b ddbd
00000210: 1563 e33c 6612 943d a19b 02be d95d 9d3d
00000220: b1ec 11be 3da0 b33d b5dd 853c 041e bdbd
00000230: 7bce 0ebe 7b24 f83d 398b d43d 5402 f03d
00000240: bf2b 293d c667 21bd e90a c1bd ecfe 313d
00000250: 5b60 ac3d ffa9 c73d 4875 bf3b 2ae5 203e
00000260: 4d1d 92bd 16d0 3dbc 970f 16be 10ae 8abd
00000270: b303 7e3d 7384 c43d 5562 363c 02ae 903d
00000280: fa58 abbd 0779 fd3d c080 4dbd f854 e2bd
00000290: 5454 a9bd 0038 9a3d 175d 843d 144a 1b3e
000002a0: 18b7 edbd aa55 cb3d a319 cabc a61d 53bd
000002b0: e135 163e ce34 cbbd 53a2 bbbd a2db 08be
000002c0: 7939 573d 7d06 763c eb7b a9bd ff7a 32bd
000002d0: 300c 1bbe 8abb 223c 2832 7b3d ff85 afbc
000002e0: d385 f33d fe20 c63d 6f03 6fbc 1021 0fbe
000002f0: d291 9e3d b9ec c83d ac6e 6a3d 2a0c 493d
00000300: 2774 3fbd fb56 d43c 0ce2 02bd 0bbb e8bc
00000310: cb11 29bd bff5 8c3d 0b76 17bd b503 a93c
-0.02096534 -0.036919832 0.121398956 -0.11859074 -0.00029275814 0.1131337 -0.014456512 0.08001641
0.13298704 0.031170037 -0.024213972 -0.15060663 -0.080707684 -0.020584943 -0.03619927 0.072492525
-0.13116013 0.10296265 0.0032159677 0.15350291 -0.042818233 0.14029618 0.063270174 0.05075454
-0.12762459 -0.030715799 0.0135154845 -0.08431829 0.091641776 0.09795697 -0.05126851 -0.015519911
-0.015405048 -0.042501155 0.1415611 0.025924493 0.13720356 -0.07254908 -0.12941374 -0.006364601
-0.059906702 0.087991565 0.05853915 -0.07391147 0.14367476 0.055178083 0.07545365 0.02648313
0.14270508 -0.10387027 0.06654027 0.13792719 0.068015136 0.006734369 -0.006844245 -0.07401705
0.090726614 -0.061121184 -0.10110648 -0.005030029 -0.044468593 0.047994327 -0.05237203 -0.039730567
-0.037270766 0.013889832 -0.11815336 0.015346683 0.12085487 0.08882215 -0.017642358 -0.024469474
-0.054026682 -0.13130726 -0.101032585 -0.08237326 0.106256306 -0.06523422 -0.012489397 0.00725913
0.107171796 -0.00830307 -0.091481276 -0.12221922 -0.095585 -0.0012452179 0.010183538 -0.1322307
0.090912566 -0.03180189 -0.012233171 0.11367783 -0.09754967 -0.038762946 -0.08254866 -0.122328155
-0.038006917 0.1074242 -0.027249258 0.09551121 -0.07616986 -0.023711607 0.060420096 0.101881236
0.073576696 0.012402238 0.11249579 -0.11001795 -0.043896582 -0.054376364 0.01772981 -0.100606844
-0.001534566 -0.08492988 0.02952986 0.061470788 -0.10797592 0.06955587 -0.123042785 -0.12382866
0.0883648 -0.049744226 0.1413541 -0.07439928 -0.10640617 -0.07949176 0.058559507 0.10745798
-0.08524691 -0.11646924 0.115476295 -0.10805421 0.027757207 0.07230072 -0.1275468 0.07683916
-0.14250447 0.087707974 0.01634107 -0.09234241 -0.13945954 0.12116333 0.10378117 0.11719194
0.041301485 -0.039405607 -0.09425909 0.043456003 0.08416816 0.09749221 0.0058428384 0.15712419
-0.07134495 -0.011585256 -0.14654385 -0.06771481 0.062015247 0.09595575 0.011131843 0.07064439
-0.0836658 0.123766 -0.050171614 -0.11051363 -0.082680374 0.075302124 0.06463068 0.15164977
-0.11607188 0.099284485 -0.024670428 -0.051541947 0.1466899 -0.09922181 -0.0916182 -0.13365033
0.052545045 0.015016195 -0.082755886 -0.04357433 -0.15141368 0.009932408 0.06132713 -0.021426199
0.11890759 0.096742615 -0.014588221 -0.13977456 0.07742657 0.09810776 0.05723445 0.049083866
-0.04674163 0.025920382 -0.031953856 -0.028409502 -0.041276734 0.0688281 -0.03697781 0.02063165

lstm.bias_hh_l0 f4 [200]
00000000: 7a55 473c ba93 b23d b2e7 c13d 7116 763d
00000010: 3971 ebbd b6ee 063e b69a e33c ae24 7d3d
00000020: ad37 3f3d 1833 8d3d 06df 853d 67b5 0cbe
00000030: 6b58 eebc 9f12 423d bde0 f13a eafb bc3d
00000040: f36e 24be 8be1 143e edb6 30bd faf0 eb3d
00000050: 7bb4 723c ccb5 abbd 10b9 fb3d 7435 b03d
00000060: a0cf 57bd 0f78 413d 1197 493d e4b7 133b
00000070: e58b 87bd a0dd a8bd dcb0 693d 6369 fc3d
00000080: 8461 21bd 7614 073e eb07 84bd 505f 56bd
00000090: 591b 28bc 2a35 09be fd5e efbd d484 3cbd
000000a0: 2b17 d7bc cc5d 01be 927f 203e 38f6 0d3e
000000b0: bf9b dfbb f984 1cbe a172 a1bd 080f 1b3d
000000c0: 25c9 ca3d 3cae 9e3d a22e e53c 6e9e 34bd
000000d0: bd99 943d 76bb c73c 9b00 9e3d 5aac f8bc
000000e0: 2ac0 58bc bf21 92bd fe4f 79bd 3413 993d
000000f0: 11c3 94bd 592c d5bc e1fa 823d 7544 d8bb
00000100: 5b96 43bc 8f73 2a3e 8359 20be bae6 a8bd
00000110: 22ed adbd 182f 1f3e e988 9e3d 299b 8d3d
00000120: 82b3 d53d 740e 01be 7cf0 023d 32be 883d
00000130: 527d f3bd aa0d 87bc 5070 94bd c14d c7bd
00000140: 5340 80bd 70e9 d03d 523c bf3c 6373 d1bd
00000150: 9478 b4bd d3d1 523c 3140 943d e0b8 963c
00000160: da1c d63d 7bd2 8f3d 088d a9bd f0fc ad3d
00000170: 2e43 c5bd 03d0 bfbd fe53 b73d 7cdf f73d
00000180: 09bc e43d 1c3e b9bd 58be 5abd 064f b3bd
00000190: 4732 1b3e 2cc6 a83c c61d 073e a22e c03d
000001a0: 3105 9c3d 8cc4 f5bd 4b2a a93d b699 2a3d
000001b0: 2127 f3bb 58b0 3c3d 463f cb3c feb8 ccbd
000001c0: dc82 0ebe eaf1 f1bd 1a37 86bd 9d66 ddbd
000001d0: 5272 c6bc ceea 04be 0226 b1bd 8bb2 9bbc
000001e0: 979f d13b cf5a a43d 08e2 713d 6036 703d
000001f0: 30a3 c03d 1304 ce3d 7f49 a93d 58e1 f3bd
00000200: c84a df3d a4bf 4e3b 2441 ddbd 7f79 0dbd
00000210: 1c09 d93d 346e 19bd 070f b63d a7fe f03d
00000220: 2fdf 373d 7987 ea3d 240f be3d 902c ecbd
00000230: de1c 823c cd00 9fbd a963 d23d 360d c5bd
00000240: 5ec7 b2bd 284d e7bd 1bed 5abd 8403 efbd
00000250: a73a 9e3d 43d4 c0bd 99fd ce3d 475a b9bd
00000260: 6938 c5bd 777c 273d 32b1 fe3d d767 0a3d
00000270: 4395 0cbd 1859 173c b5d9 55bc 5482 3dbd
00000280: 1f2e 3c3d 8e5c 1b3d 42cd 48bd 9ca2 d93d
00000290: 44ea e33d c645 b7bd 1cb7 06be f318 353d
000002a0: cac7 e43d f260 8cbd db7d df3d 87bf 213e
000002b0: b647 86bd 958d e53c bb09 f4bd 35a3 b6bd
000002c0: f34b 1a3d 3656 883d 3174 84ba 78d0 cabc
000002d0: 2ca1 ac3c 2019 e43d f2c3 083e eff9 66bd
000002e0: d5d2 97bb 34fd 963d b993 01bc 7d17 fabc
000002f0: 7e33 103b 416c bdbd 0cd0 c83d 9be0 043d
00000300: 7f28 fd3d 0c99 ccbd ea51 8d3d 69c3 b23b
00000310: 6cb4 b43d a3e9 a9bd c1e3 a03d 59ab a3bd
0.012166375 0.08719583 0.094680205 0.060079996 -0.11496205 0.13176998 0.027783733 0.06180256
0.046683956 0.06894511 0.06536679 -0.13741075 -0.029094895 0.04738104 0.0018453818 0.09227736
-0.16057949 0.14539163 -0.0431432 0.11520572 0.014813538 -0.083842844 0.12291157 0.086039454
-0.05268824 0.047233637 0.049216334 0.0022540027 -0.0661848 -0.082453966 0.057053432 0.123247884
-0.03939964 0.13191399 -0.06446823 -0.05233699 -0.010260426 -0.13399187 -0.116880395 -0.046025112
-0.026256165 -0.12633437 0.15673664 0.13863456 -0.0068239863 -0.152851 -0.07883192 0.03785613
0.099016465 0.07748076 0.027976338 -0.044096403 0.07255886 0.02438138 0.07714959 -0.030355621
-0.013229409 -0.07135343 -0.060867302 0.07474366 -0.072637685 -0.026022123 0.063955076 -0.0065999576
-0.011937703 0.16645645 -0.15659146 -0.082471326 -0.08492495 0.15545309 0.07740957 0.0691436
0.10434629 -0.1260317 0.031967625 0.06676902 -0.11889137 -0.016486008 -0.072479844 -0.09731627
-0.06262269 0.10200775 0.023344193 -0.102270864 -0.08812061 0.012867409 0.07238806 0.018398702
0.10454722 0.07022568 -0.08278853 0.084955096 -0.09631954 -0.09365847 0.08951567 0.12103173
0.11168677 -0.090450495 -0.053404182 -0.08755307 0.15155898 0.020602308 0.13194951 0.093838945
0.07618178 -0.12000379 0.0826002 0.041650496 -0.007420436 0.046066612 0.024810445 -0.09996222
-0.13917106 -0.118137196 -0.065534785 -0.108105876 -0.024224434 -0.12980196 -0.086498275 -0.019006034
0.0063971984 0.08025133 0.05905345 0.058645606 0.094061255 0.10059371 0.082659714 -0.11908215
0.10902935 0.0031547332 -0.1080344 -0.034539696 0.105974406 -0.037458614 0.08889585 0.11767321
0.04489058 0.114516206 0.092802316 -0.11531937 0.015882906 -0.077638246 0.10272915 -0.096216604
-0.087294325 -0.11294013 -0.053448778 -0.116705924 0.07726031 -0.09415486 0.10106964 -0.09050422
-0.096299 0.040890183 0.12436141 0.033790436 -0.034322035 0.00923755 -0.013052394 -0.04626687
0.045942422 0.037930064 -0.049023874 0.106267184 0.11128667 -0.08948855 -0.13155788 0.044213247
0.11170919 -0.06854428 0.10912677 0.15795718 -0.065566465 0.028021613 -0.119159184 -0.08917848
0.037670087 0.066570684 -0.0010105429 -0.024757609 0.021072946 0.11137605 0.13355997 -0.0563907
-0.0046332874 0.073725134 -0.007908755 -0.030528778 0.0022003348 -0.092491634 0.09805307 0.032440763
0.1236124 -0.09990129 0.069003895 0.0054554236 0.08823475 -0.08296516 0.078559406 -0.07991666

lstm.weight_ih_l1 f4 [200, 50]
00000000: 965e c63d a941 9dbd f2db 973c 34d7 cabb
00000010: 30cd e33d f7cb e9bd ede9 11be d44d d0bd
00000020: fe83 a43d 261e 1bbe 79d8 c03d 5a91 ea3c
00000030: 8c59 663d 2534 90bd b6cd a7bd 7897 0d3e
00000040: 6f9c 0c3e 2f97 b8bd b109 14bd d7eb 293d
00000050: b221 bcbc 849a 7a3d 5f9a 683d aa38 93bd
00000060: 22e6 c8bc 901d 863d 8c5d 05be 47af 4d3c
00000070: 3aa8 143d c16c 04bd d3cd ffbc d855 f83b
00000080: c493 023e b0ac 823c 9114 883d bda0 dc3d
00000090: da06 7c3d fae8 f13d fe5c e3bd 81e6 a63d
000000a0: 7ba1 e6bc c4f5 973c 3776 58bc 4857 dabb
000000b0: 9664 583c a369 86bd d7e4 963d 5ed0 66bd
000000c0: d9e6 e13d 28cc 803d e24e 1c3d b95a 053e
000000d0: 2e13 00be 0517 acbd 9960 d5bc a5d5 18bb
000000e0: 46cc 34bd a900 ff3d a332 77bb 5145 49bd
000000f0: 98e5 cc3c 73fc a93d 3ae3 acbb d16e 223c
00000100: 4ba7 0dbe 0162 763d d55e 3cbd f03b 94bd
00000110: b6b9 e63d 19ff 67bd 1087 b73d c20e 6c3d
00000120: 55c6 b03d ef89 3dbc 68e9 42bd f04b 133e
00000130: f077 5e3d 6b4b 8e3d 788f 25be ea0a 123e
00000140: 13be 6bbc 94e7 443d 6564 b2bd 2a49 25bd
00000150: 0559 7e3c 3a06 12be bf38 e43c 6e3e 633d
00000160: 1183 46bd ce91 be3d 6671 353d 9f37 593d
00000170: ce7e 8a3d 3188 0e3d 78b5 bcbd d1a1 073e
00000180: 7615 0f3d 65ad a53d 5422 04be 4dfc 6c3d
00000190: f534 00be d96b d63c 35b6 73bd cc51 61bd
000001a0: a74f 52bc fd4b 1f3e e957 cf3d e33f e93d
000001b0: e895 8abd d79f 153e 7948 17be bced d5bc
000001c0: 8b77 bd3d 06c4 19bd 9e4c 0cbd e983 b43d
000001d0: fdb1 553d d799 92bd bdfb 3e3d 1c07 6dbd
000001e0: 8170 fd3c 08ab 093e 8deb 81bc c033 5f3d
000001f0: 210d aabc c71d 3dbd 7d25 cebd 00e6 6e38
00000200: a797 6d3d 1ba4 efbd 8a2e 01bd 87f9 83bd
00000210: f3ab bcbc 3122 aabd 7a0d dc3d 4f1b 503c
00000220: b14d 99bc dd83 cdba da1a b2bc 22ba 323d
00000230: 6443 ac3d 6acb 9f3d b09c 0d3e a2c9 c4bd
00000240: 3ccf 39bd 1195 94bb 76cc 85bc f0da c9bd
00000250: adc4 123e 8ace 233e 2de3 13bd 2e1d 31be
00000260: f989 123d 5953 8a3d 4273 c4bd 4576 de3d
00000270: d7c3 723c 6be3 4c3d f5f4 4fbd 60af f93d
00000280: 6138 2f3d a9e3 ef3d f3f1 7ebd 686a 36bd
00000290: a334 5bbd e0da 85bc e6fc 443d bb2d db3d
000002a0: 586e 0e3d bdbe 86bb 9c96 d2bd 891d 853d
000002b0: 46be 033e 6b2e f1bd 16af f0bd eb63 1bbd
000002c0: f190 a03d 6f73 32bd 7490 303d de1b 10be
000002d0: 190b 86bd 74ca abbd d478 a0bd ee0c bbbd
000002e0: 1fa6 80bd fcf9 69bc 5db6 ebbd 8d34 2ebe
000002f0: a6fa 0e3e 8cd1 46bd 6f12 563d 38a4 d13d
00000300: fa3e 08bd 9906 03bd 2340 01be 3b25 bbbd
00000310: 492a 8abd 6a81 f0bd 7825 0e3d 76dc 1d3d
00000320: 62fd fdbd c183 0bbe 2164 e5bc 09c6 df3d
00000330: 9c4d 03be a2ff 213e 1ec1 013e 337c dc3d
00000340: fa14 94bc cee2 f03c 8e71 22be a987 25be
00000350: e8be 64bd f0d4 aabc ec51 87bc 7316 3b3d
00000360: aa3c 63bc 72bd dbbd 689f 40bd 7d06 d53d
00000370: 9f93 b3bd 92e4 d43d 5ea6 eebd 0236 00bd
00000380: aae6 403d dd9f a63c ff3d 86bc e418 d2bd
00000390: c6c3 2b3c 8c27 cd3c c9d0 133e c0ea b63c
000003a0: 48eb debd cf6c bcbd 2dd2 533d 8437 c9bd
000003b0: c957 b83d 08a3 cfbd 2b3a 083e d99f 803d
000003c0: e0fb e43c 9958 ca3d 7aa0 933d ec10 18be
000003d0: 4290 3abd de50 9cbd 54ca dcbc 8fe2 563c
000003e0: b77d 123e 5f25 8b3c c990 66bc 2a49 b1bd
000003f0: 6326 9c3d c8ee 00be 45ad ecbd 10a2 eb3d
0.096860096 -0.07678539 0.018537495 -0.006190205 0.11123121 -0.11415856 -0.14249392 -0.101710945
0.08032988 -0.1514822 0.09416289 0.028633762 0.056237742 -0.07041196 -0.08193533 0.13827312
0.1373155 -0.09013211 -0.036142055 0.04148468 -0.022965286 0.061182514 0.056787845 -0.07188542
-0.024523798 0.06548607 -0.13023967 0.012553996 0.036293246 -0.03233028 -0.031226074 0.0075785927
0.1275168 0.015951484 0.06644548 0.10772846 0.06152997 0.11812015 -0.11101721 0.08149434
-0.028153172 0.018549807 -0.013211778 -0.0066632368 0.013207575 -0.06563117 0.073678665 -0.05635106
0.11030359 0.0628894 0.038161166 0.13022889 -0.12507316 -0.08402828 -0.026047038 -0.0023320701
-0.044140123 0.12451298 -0.003771939 -0.04913837 0.025011823 0.08300104 -0.005276111 0.009914116
-0.13833348 0.060152058 -0.045988876 -0.07237995 0.1126589 -0.056639764 0.08961308 0.05763126
0.08631579 -0.01156853 -0.047585875 0.14384437 0.0543136 0.069479786 -0.1616801 0.14261976
-0.014388579 0.048072413 -0.08710555 -0.040352978 0.015524154 -0.14260188 0.02785909 0.05547946
-0.04846484 0.09305154 0.0442976 0.05303156 0.06762467 0.03479785 -0.092143 0.13245322
0.034932576 0.08089713 -0.1290372 0.0578578 -0.12520202 0.026174473 -0.059499938 -0.05500965
-0.012836373 0.15556331 0.101241894 0.113891385 -0.067668736 0.14611755 -0.1477374 -0.026114337
0.09251317 -0.03754046 -0.034252755 0.08814222 0.052171696 -0.07158249 0.046626795 -0.05786811
0.030937435 0.1344415 -0.01585939 0.054492712 -0.020758213 -0.046170976 -0.10065744 5.6957826e-05
0.058005955 -0.117012225 -0.031538524 -0.06444078 -0.02303121 -0.08307303 0.10744758 0.012701823
-0.018713804 -0.0015679557 -0.02174132 0.04363454 0.08411291 0.0780247 0.13829303 -0.09608771
-0.04536365 -0.0045343717 -0.016332846 -0.09856212 0.14332838 0.15996757 -0.036105324 -0.17296287
0.035776112 0.067541786 -0.09592296 0.10862402 0.0148172 0.05002157 -0.05077072 0.12191653
0.042778376 0.117133446 -0.06224246 -0.04453507 -0.053516995 -0.01633972 0.048092745 0.10702082
0.0347732 -0.0041120932 -0.10282633 0.06499774 0.12865552 -0.11776432 -0.11752145 -0.037937086
0.078401454 -0.043567117 0.04310651 -0.1407313 -0.065450855 -0.08388224 -0.07835546 -0.091333255
-0.06281685 -0.014280792 -0.115093924 -0.17012234 0.13962802 -0.048539683 0.052263673 0.102364
-0.033263184 -0.031988714 -0.12622122 -0.091379605 -0.067463465 -0.11743434 0.0347037 0.038540326
-0.124018446 -0.13624479 -0.028001847 0.10926444 -0.12822574 0.15820172 0.12671325 0.107658766
-0.018076409 0.029405024 -0.1586363 -0.16165031 -0.055846125 -0.02085349 -0.016518556 0.045675706
-0.013869444 -0.10729493 -0.04702702 0.10401628 -0.08768391 0.10395159 -0.11652826 -0.031301506
0.04709498 0.0203399 -0.016386984 -0.10258654 0.010483688 0.025043271 0.14435114 0.022328734
-0.1088472 -0.09200441 0.05171411 -0.09825042 0.09001119 -0.101385176 0.1330344 0.062804885
0.027952135 0.0988018 0.07208343 -0.14850205 -0.04554773 -0.07632612 -0.026951946 0.013115539
0.14305769 0.016985593 -0.014072605 -0.08656533 0.07624509 -0.12591088 -0.11556486 0.1150552

lstm.weight_hh_l1 f4 [200, 50]
00000000: 00a1 ee3c 0900 213b e714 c53d 3b97 fa3d
00000010: f916 463d c659 023c 26dc de3d d293 c93d
00000020: 1350 2cbc 0867 6d3b 73e7 17be e6d7 3e3d
00000030: da6b 173d f0bf dd3d 23d7 95bd a854 9bbc
00000040: cce9 e2bd af8b ea3d 3476 10be 0247 b1bc
00000050: 797d 0a3e 796e 1cbd 8446 a83d a849 55bd
00000060: 7cde b83c f650 3a3d 71d0 e5bc 3bb8 d43c
00000070: 8e45 943c a32f 86bd dfdc 033e 59f3 0fbe
00000080: d46c 0e3c 6284 8d3c 6b2a 1bbd d168 8ebd
00000090: cce8 96bc 87b9 b83c 24be 093e 925c f2bd
000000a0: f726 dc3d 72ce b2bc 6d45 2eba 35cf e83d
000000b0: 48e1 d5bd 8552 003e dee9 d53d 74e6 5d3d
000000c0: f176 123d e5a2 b2bd 1839 0fbd 0df4 0abe
000000d0: 0e8a b6bc 31c2 a4bd 32fb 123d 51b8 93bd
000000e0: f8cd c9bc d562 7ebd f300 393d 96b7 81bd
000000f0: 6f09 dc3d 3172 ce3d cad4 b93d e36e e03d
00000100: ce71 ccbd b268 d23d 9a8b f13c 7e25 6abc
00000110: 5468 403c d29b 9e3d 0f3d e1bc 640a 493b
00000120: ab66 afbd 20be 1bbe 2ab2 3f3d 6bd6 80bd
00000130: 5c6c 95bd 7ee5 ad3c 03a6 7ebd 1ab0 bd3d
00000140: 638a b0bd 4e88 24be ab86 02be 5960 e13d
00000150: dd40 973d 4970 0a3d 3bb5 f53c 4a25 3fbd
00000160: 7a0e e4bd 2285 8e3d 7641 e2bd 1dd0 1dbe
00000170: 61a2 1d3e 27da f7bb 2780 cbbd 14d3 bdbd
00000180: f5af c43d 36f1 2e3d a9c7 0b3e 3b7a 8fbd
00000190: 26e6 2e3d 64ed 7cbc 7189 703d 3a1b 503d
000001a0: a06b 2a3c da91 bebd 867b 113d 75c1 fe3c
000001b0: 60b3 e03d 1d09 f13d 386f c0bb dea6 1ebd
000001c0: 061b 27bd 55f7 f73d 6cd6 f03d 4dc5 b0bd
000001d0: aadc ce3c b799 eebc a5de b4bd 34fb 873c
000001e0: 6225 943d 8bc8 a9bd bd70 463d 2318 253e
000001f0: 57ec a83d 2839 a73d 57b2 953c a48f 25bd
00000200: 93d3 3e3d 3383 6bbc bdac 08be 77fd 1a3e
00000210: 0203 03bd 3585 373d e75d 8abd 0e1f 81bd
00000220: 6d9a 1a3d 0df3 b93d 54b5 07be cbbe 2abc
00000230: ed52 643d cfd8 9f3d 1c6e 263d ca33 e73c
00000240: 3d21 563c 3b13 06be 4eea 9ebd 9e0a 1dbc
00000250: 2ee6 b5bd dba8 2e3d 6a30 143e 1c80 933d
00000260: 89bd 82bd d2d7 683d d9a4 20be 5c22 0a3e
00000270: 4918 12be 5c24 2ebd d44d 28be 2504 c7bd
00000280: 5928 753d 91cc b93d 391e ebbb d891 f6bd
00000290: 8a52 66bd 4a6c 1d3e 0b00 bd3d f6b5 ccbc
000002a0: 8fee 953d 2aa7 31bc 6ee3 e3bd b1b6 9b3c
000002b0: cd67 a33d 7ffc 663d 2b42 cf3d 931b 42bb
000002c0: 93a1 eb3c fa63 953d cbbc 37bd 497a 1f3e
000002d0: ee89 c83d 0ebb f93d 8127 b7bd 08d7 3fbd
000002e0: 9731 3fbd 5296 0f3c c1e1 003e c0b5 073e
000002f0: 430d da3d c1a9 cdbd 3427 0d3d 4d22 9abb
00000300: 334e dc3d edce 01be 2a5d 57bd 9a52 9c3d
00000310: 3977 ebbd dce5 ecbc 391d 18bd 320c 003e
00000320: f830 f23d e458 fc3d 0fcf 7d3c 15f5 3b3d
00000330: 77be 29bd 36a9 d8bd 35fd c9bd 9fe2 24bd
00000340: 6bbd d8bd 86e9 28bc 2a14 f4bd 7137 523d
00000350: 2eef bf3d 6d58 2cbd b1c0 36bd 68e8 bb3d
00000360: 742c acbc 8a3d 713d 1355 e83d 2474 763d
00000370: d829 aebd 6cf9 2fbd 2f01 7c3b f147 123e
00000380: 5275 8bbc a1cd e0bd c304 02bd eb8a 6a3c
00000390: 3e9c 74bd a512 f43d 869c 39bd c217 013e
000003a0: 9377 8abd ad32 ce3c b300 a63c ccb1 323d
000003b0: bfea 97bd 6be6 d1bd 77dc 95bd 4afc 85bd
000003c0: 3bbd 3e3d 14fd df3d 6c1c 17be 3e45 03bd
000003d0: e635 08bc 3407 9fbd 291e 96bd 0e79 793d
000003e0: c11d 5ebd 33b1 4f3d 2a77 d73d 8970 a2bb
000003f0: b7cf ad3d 58e5 3fba 5342 dcbd 0720 8ebd
0.029129505 0.0024566671 0.096231274 0.12235876 0.048361752 0.007955974 0.10881834 0.098426476
-0.010517138 0.0036224741 -0.14834385 0.046592616 0.03696809 0.10827625 -0.07316425 -0.018961266
-0.110797495 0.11452424 -0.14107591 -0.021640304 0.13524427 -0.038191292 0.08216575 -0.052072197
0.022567026 0.045487367 -0.028053494 0.025966754 0.018099573 -0.06552055 0.12877224 -0.14057674
0.008692939 0.01727504 -0.03788225 -0.06953586 -0.018421553 0.022549404 0.13451439 -0.11834063
0.107496195 -0.021826956 -0.00066479185 0.113676466 -0.104433596 0.12531479 0.10444997 0.054174855
0.035757963 -0.08722476 -0.03496656 -0.1356966 -0.022282626 -0.080448516 0.03588409 -0.0721289
-0.024634346 -0.062105972 0.04516692 -0.06333844 0.10743987 0.10080374 0.090737894 0.1095865
-0.09982644 0.10273875 0.029485513 -0.014291165 0.011743624 0.07744564 -0.027494935 0.003067636
-0.08564504 -0.15209246 0.04680077 -0.06290897 -0.072960585 0.021227594 -0.06217004 0.09262104
-0.08620145 -0.16067621 -0.12746684 0.11004705 0.073854186 0.03379849 0.029993644 -0.04666642
-0.11135574 0.06958987 -0.11047642 -0.1541142 0.15393974 -0.0075638476 -0.099365525 -0.092687756
0.09603874 0.042710505 0.13650383 -0.070057355 0.042699955 -0.015437458 0.058724824 0.050807215
0.010401636 -0.09305163 0.03551819 0.031098107 0.10971713 0.11769316 -0.0058726333 -0.038733356
-0.040797256 0.12107722 0.11759648 -0.08631382 0.025251705 -0.029126031 -0.088315286 0.016599275
0.07233693 -0.08290204 0.04844736 0.16122489 0.08248203 0.081651986 0.018273516 -0.04042019
0.04658849 -0.014374542 -0.13347144 0.15135752 -0.03198529 0.04480477 -0.06756192 -0.06304751
0.03774493 0.090795614 -0.13252765 -0.010421465 0.055743147 0.07805025 0.040632352 0.028222937
0.013069448 -0.13093273 -0.07759534 -0.009585051 -0.08881794 0.042641502 0.14471593 0.07202169
-0.06383807 0.056846447 -0.15687884 0.1348967 -0.14267077 -0.042515144 -0.16435939 -0.097175874
0.05985293 0.09072221 -0.0071752337 -0.12039536 -0.05623106 0.1537334 0.09228524 -0.02498911
0.07320892 -0.010843078 -0.11127363 0.019008012 0.07978783 0.056393143 0.101200424 -0.0029618486
0.028763568 0.0729446 -0.04485778 0.15573992 0.09791933 0.12193881 -0.08943082 -0.04683593
-0.046678152 0.0087638665 0.12586118 0.13252926 0.10647061 -0.100421436 0.034461215 -0.004703796
0.10757103 -0.12676592 -0.052579083 0.076329425 -0.11497349 -0.0289182 -0.037137244 0.12504652
0.11825746 0.12321642 0.015491261 0.045888025 -0.041441407 -0.105791494 -0.098627485 -0.040255185
-0.105830036 -0.010309583 -0.119179085 0.051322404 0.09371792 -0.042076517 -0.04461736 0.09175187
-0.02101729 0.05889658 0.113443516 0.060169354 -0.08504075 -0.042962477 0.0038452854 0.14285256
-0.017023716 -0.109767206 -0.031742822 0.014315347 -0.059719317 0.11917619 -0.045315288 0.12606719
-0.06761088 0.025170648 0.020264005 0.04362659 -0.07417821 -0.10249027 -0.07317441 -0.06542261
0.046567183 0.10936943 -0.14756936 -0.032048456 -0.008313632 -0.07765046 -0.07329971 0.060906462
-0.054227594 0.0507061 0.105207756 -0.004957263 0.08486884 -0.00073202467 -0.10754838 -0.069397025

lstm.bias_ih_l1 f4 [200]
00000000: d07b 4bbc 2fbb f2ba 43f7 163e 172e 9d3c
00000010: 8468 433d b56f ea3d 1c27 8dbc c847 7b3d
00000020: 9128 02be 71d0 73bc a8bc bebd c1a5 08be
00000030: 2e9d 853d 2ccf 943c 0bf0 ae3c 3208 92bd
00000040: db94 fbbb e963 c03d 3b79 26bd 6135 b53d
00000050: 5667 f93c e733 393d e9c8 adbd 3519 023e
00000060: 01ad ecbd 851b de3d 3961 8fbb d37a 833d
00000070: 26b9 c1bc 8ea4 103e 9cf4 313c 5f32 183d
00000080: bfa9 b33c c7ec 853d 9b64 fc3c e19d 7dbd
00000090: 3029 fc3b 5934 0ebe 0a00 eb3c 325f 5b3d
000000a0: 2085 2bbd 8ff2 0b3d cb75 973d 654e 8cbd
000000b0: a99e f4bd bd4a 813c fcda a3bc 754f f33d
000000c0: e91b 09bc da73 1c3e 2e66 7ebc 48fb 8e3c
000000d0: b4ea 083e fd22 1b3e 363f 16bd b03c 4c3c
000000e0: 0970 013d 60d9 b33d fa40 90bd 2b77 393d
000000f0: 7c56 b03c 0f28 b63d 77d2 173d 56cc 04be
00000100: 4a50 323d a4fe 67bd 59e3 743d 2479 eebc
00000110: 70a1 a53d c513 b0bd 8bb3 97bb 6a53 60bd
00000120: 417f 8b3d c092 193e 9a65 eb3c de73 0e3e
00000130: 7eb9 6b3c f8b2 fb3d 76d4 ed3d c7b1 87bb
00000140: 851b 143d 7140 debd 34cd 68bd b5bf 10be
00000150: eec9 30bc 4ca5 91bd e124 c9bd c8cc e43d
00000160: 8b75 b33c 1482 12bb eb7e 6a3d 8d16 a3bd
00000170: bf63 d63b 7d8e c1bd 795d bf3d 4035 a0bd
00000180: 8b78 d1bd 3498 b23d 72fa 12be b719 0e3e
00000190: 4803 54bd c79d 0a3d ead7 853d 9f03 1c3d
000001a0: 5d2d d8bd 9438 0f3d ad8c 06be 265f e2bc
000001b0: fe6f e8bc 1b3d 94bd e368 a8bd 28d2 c8bc
000001c0: 4311 c0bd 3cb5 85bc a26a ca3d 6e48 c73d
000001d0: 601f bbbd a582 0bbe 59f9 eb3d 1be1 dfbd
000001e0: e349 dabd ca73 9e3c 24a2 c93d a87f 183e
000001f0: 4306 c0bd 0e82 1c3d d463 82bd f782 aa3d
00000200: 559c bf3d 2792 943c 2d2f 23bd c885 e2bc
00000210: 58b9 133e 80b8 d73d afc5 d7bd 7325 5e3d
00000220: 1486 ba3d b8d1 bebd 4fb7 1bbd ebf5 b5bd
00000230: a606 bdbc 5f59 1a3d ab2c 60bd bfef a73c
00000240: 6a23 cfbc af2d 903d 389f bfbb 7be6 b8bb
00000250: 7bad d13d 5f92 ec3c e57b 65bd 59d0 e53c
00000260: a635 27bc 3118 363c 4c56 803c 29fb e4bd
00000270: 9fbd aabd fff1 09be a6f4 b53a 1d55 aa3d
00000280: b797 9abd b3aa 103d e829 c63c e7dd 9bbd
00000290: 3ed3 e5bb 5e8e 81bd 444b 223d c107 7fbd
000002a0: d322 fd3d 1624 9f3d 543b 193e 0917 4fbd
000002b0: d833 d2bd 738b 643d ce2a ce3b 68b2 143e
000002c0: 7865 393d 580b 0dbd ebaf 843c 4cd4 de3c
000002d0: f3d0 00be 3ae5 bcbd 1c95 55bd e80c 943d
000002e0: b877 b43d 1441 fb3d 54aa ddbd 06ba bebd
000002f0: 5e0f 6dbc 20d8 093d d21e 91bd cf5e 17bd
00000300: 72c8 77bd 7c25 1c3d 1dab 7fbd 69f9 bf3d
00000310: 535e f63d 043c 00be b788 7cbc 0522 cdbd
-0.012419656 -0.001851892 0.1474276 0.019187016 0.047707096 0.11447088 -0.017230563 0.061347753
-0.12710787 -0.014881239 -0.09313327 -0.1334448 0.0652412 0.018165193 0.021354696 -0.071304694
-0.007677657 0.09394056 -0.040642958 0.08848072 0.030444782 0.045215514 -0.08485586 0.12704928
-0.115564354 0.10845093 -0.0043756035 0.06419911 -0.023647856 0.14125273 0.010861542 0.037157413
0.021931527 0.06539302 0.030809691 -0.061918143 0.0076953396 -0.13887157 0.028686542 0.053557582
-0.041875005 0.03416687 0.07395514 -0.0685089 -0.119443245 0.015782708 -0.02000188 0.118803896
-0.008368471 0.15278569 -0.015527291 0.017453805 0.13370782 0.15150066 -0.036681376 0.012465641
0.031600986 0.08781695 -0.07043643 0.045279663 0.021525614 0.08894359 0.03706595 -0.12968573
0.0435336 -0.05663933 0.059787128 -0.029110499 0.080874324 -0.08597521 -0.0046295575 -0.05476705
0.06811381 0.14997387 0.02873497 0.13911387 0.0143874865 0.12289995 0.11612789 -0.0041410658
0.036159057 -0.10852135 -0.056836322 -0.1413563 -0.010790331 -0.07111606 -0.09821487 0.111718714
0.021906635 -0.0022355365 0.057249945 -0.079632856 0.0065426524 -0.094510056 0.09344 -0.07822657
-0.1022807 0.08720437 -0.1435335 0.13876997 -0.05176094 0.033841874 0.06535323 0.03808939
-0.10555527 0.034966066 -0.13139601 -0.027633261 -0.028373715 -0.072382174 -0.082231306 -0.024514273
-0.093782924 -0.01632177 0.0988362 0.09730612 -0.09136844 -0.13624056 0.11522169 -0.10931607
-0.10658624 0.019342322 0.09845379 0.14892447 -0.09376194 0.038209967 -0.06366697 0.08325761
0.0935599 0.018136097 -0.039839912 -0.027651682 0.14426172 0.105332375 -0.10535752 0.054234933
0.091076046 -0.093173444 -0.038016614 -0.08884796 -0.02307446 0.037682887 -0.0547301 0.020500062
-0.025285441 0.070399635 -0.005847838 -0.00564271 0.10238167 0.028878389 -0.05602636 0.02805345
-0.010205662 0.011114166 0.01566615 -0.111807175 -0.083369486 -0.1347122 0.0013882115 0.08317015
-0.075484686 0.03531904 0.024189904 -0.07610684 -0.0070137074 -0.063259825 0.03962256 -0.062263254
0.12360158 0.07770555 0.14964038 -0.050559077 -0.10263795 0.05579705 0.006291724 0.14521182
0.045262784 -0.034434646 0.016197165 0.02720084 -0.12579708 -0.09223409 -0.052144155 0.07229024
0.08811897 0.12268272 -0.10823503 -0.09312825 -0.014468996 0.03365338 -0.07085957 -0.03695565
-0.060493894 0.038121685 -0.062419046 0.09373743 0.1202971 -0.12522894 -0.015413455 -0.10016254

lstm.bias_hh_l1 f4 [200]
00000000: b794 acbd 498d 15be 2b19 5b3d e2c0 c5bd
00000010: 682d 97bd 0cde 3ebc b492 0dbd a5c9 633d
00000020: d10c 49bd 3edc d7bd 07b4 663c 72cb 01be
00000030: 84e3 ca3d fcc4 8cbb 4e02 173e 7b6f 8fbd
00000040: d413 863d 063f 6db9 d71b 71bd fb82 02bd
00000050: 17ce f3bd 4c81 a13c 01ea 81bc 1bcf f73d
00000060: dd1b 303d d18d adbd e6e1 bf3d 589f f73d
00000070: f698 f03d 2b61 0a3d 2a7e 933d 868e bb3d
00000080: 9c59 77bd 4a58 013e 2ba8 acbc 05e6 fbbc
00000090: 5c0f 4abc aad8 15be 5b09 db3d 10b9 c1bd
000000a0: ee61 2f3d d139 99bd d0bf 0dbe 715a 0bbe
000000b0: 2544 8c3a d9c2 01bc f735 a0bd 1ed3 86bd
000000c0: b91f c43d aec4 a83a 2205 163d 2c3a 36bd
000000d0: e26d 543d 9a18 29bd dd4a b6bd 1f9b d1bd
000000e0: 877e a4bd a8dc 1cbe f06b 1a3d 5d31 ec3d
000000f0: 4061 15be b9bd 933d fbe4 693d 072d cbbd
00000100: d2f4 b43c 1d0c 1abd 995a bebd f041 ddbd
00000110: ba6a 993d f2cb 093e 7460 483a d154 133e
00000120: b372 febd ff45 dcbd 4262 70bd 5324 0dbd
00000130: 0ad1 533d 5f9a 3fbd 0a2e b33d 9a9f 34bd
00000140: fb25 dbbd 7391 25bd 84c4 a7bd 1189 c13c
00000150: f32d e03d 1069 5e3d 2408 0c3d 6b90 40bd
00000160: c1d8 abbd 5f50 cdbd a8da a4bd 186b 40bd
00000170: 81b2 13bd 70cd a4bd 5903 033e 49e1 7ebd
00000180: dd38 11be 0afb 763d 485c 48bb c96e c2bd
00000190: d8f0 2dbd 61b4 df3d 8cd1 0ebe bb0a 91bd
000001a0: f803 783c 4630 a23d 3af5 c1bd 194b 783c
000001b0: 7d6b 323d d984 b23c 1863 b73c 31df f23d
000001c0: 97f0 febd 2e0a d63d e22e a33c b792 9a3c
000001d0: d534 883d 63be 9e3d d1d7 07be 1afe 19bd
000001e0: e257 8f3d 651d b7bd e2d3 763c 9434 07bd
000001f0: aaee ee3c ca6b 053d 62f4 34bd d38b 933d
00000200: 8b2e bcbd 7c10 e93d 3420 113e a06b cc3d
00000210: 7de8 c23a 5d42 50bd 75bc fbbd e681 8b3c
00000220: 64cf 84bd 26ab ccbb 4968 75bd 5634 c0ba
00000230: 87f2 bebd 849f 7f3d 9d06 86bd d0f5 ea3a
00000240: 77cd 1f3d 9f9b 073d ba99 503d c15d d5bd
00000250: 5ec4 e0bd e0ee a43d 1c6c b73d 8ef8 d4bd
00000260: d1af cabc a8ac 9d3c 7ce0 4abd c80c 18be
00000270: 9f1d 213e cc49 80bd ff06 773d 0571 b0bd
00000280: 6dea f6bc e829 89bd da64 c13c 120c ad3d
00000290: 3973 e93c f8ec d93d d3c9 f33d 88c0 dabd
000002a0: 4ec5 c4bc eebc d33d c741 edbd 6de6 a0bd
000002b0: 9cf6 d5bd 7c4a cb3d 2d4f 093d d11b 17bd
000002c0: 1831 fcbd 01aa a2bd b041 5dbd 9290 d5bb
000002d0: 62a9 6c3b 6a57 debd e886 a5bc b887 d73d
000002e0: 7328 653c 5744 03bd 5326 48bd 4b04 943d
000002f0: 5941 ee3d ac6c ba3c 38fb a2bd 3cc3 113e
00000300: d789 1abe 8f8d 92bd 428f 6bbd 97bb 8d3d
00000310: c824 3cbd daa9 97bd d36e a63d d155 cf3d
-0.084268026 -0.14604677 0.0534908 -0.0965593 -0.073817074 -0.01164962 -0.034563735 0.055612225
-0.04908449 -0.10540055 0.014081008 -0.12675264 0.099066764 -0.0042959433 0.14746973 -0.07003685
0.06546751 -0.0002262556 -0.05886444 -0.031863194 -0.11904543 0.019714974 -0.015858652 0.12100049
0.042995322 -0.08474315 0.093692586 0.12090939 0.11747925 0.033784073 0.07201798 0.091580436
-0.060388193 0.12631336 -0.021076282 -0.03074933 -0.0123327635 -0.14633432 0.10695144 -0.09459126
0.042818002 -0.07481731 -0.13842702 -0.1360872 0.0010701461 -0.00791999 -0.07822793 -0.06583236
0.09576363 0.0012875998 0.03662599 -0.04448907 0.051862605 -0.041283228 -0.08900998 -0.10234665
-0.08031946 -0.15318549 0.037700593 0.11532853 -0.14587879 0.07213921 0.05710314 -0.09920698
0.022089396 -0.03760921 -0.09294624 -0.10803592 0.074910596 0.13456705 0.0007643767 0.14387824
-0.12424221 -0.10755538 -0.058687456 -0.03445847 0.051713027 -0.04677808 0.08749016 -0.04409752
-0.107006036 -0.040421914 -0.08191779 0.023624929 0.10946264 0.054299414 0.03418745 -0.047012728
-0.08390952 -0.10025095 -0.08049518 -0.046977133 -0.036058906 -0.080469966 0.12794246 -0.062226567
-0.14181848 0.060298003 -0.0030572582 -0.09493787 -0.042466015 0.109230764 -0.13947123 -0.07082125
0.015137665 0.07919364 -0.094706014 0.015154623 0.04355954 0.021791862 0.022386119 0.11858977
-0.124482326 0.1045116 0.019919816 0.018868787 0.06650702 0.07751157 -0.13265921 -0.037595846
0.06999184 -0.089411534 0.015065165 -0.033009127 0.029166538 0.0325735 -0.044178374 0.07204404
-0.09188565 0.11380097 0.14172441 0.09981465 0.0014870312 -0.05084454 -0.12291805 0.017029714
-0.06484869 -0.0062459884 -0.059913907 -0.0014664035 -0.09323602 0.062407985 -0.0654423 0.0017926041
0.039014306 0.033107396 0.050927855 -0.10418273 -0.10974954 0.08053374 0.08956167 -0.103989705
-0.024742039 0.019247368 -0.04953049 -0.14848626 0.15733956 -0.06264076 0.060309406 -0.08615307
-0.03014108 -0.06697446 0.02360766 0.08449568 0.028497325 0.10640901 0.11903729 -0.10681254
-0.024019863 0.1033877 -0.11584812 -0.0785645 -0.10447428 0.09926316 0.033522774 -0.036891762
-0.123140514 -0.07942582 -0.054017723 -0.0065174783 0.0036111702 -0.10856517 -0.02020593 0.10523933
0.013986695 -0.032047596 -0.048864674 0.07227381 0.11633558 0.022756897 -0.079580724 0.14234632
-0.15091644 -0.071559064 -0.05750967 0.069205455 -0.045933515 -0.074054435 0.08126607 0.1012379

fc.weight f4 [1, 50]
00000000: 249c cb3d 748b 21bd 0f94 84bd f8ab 743d
00000010: bdd4 0cbe a966 9dbd 9950 ffbd 570b cebb
00000020: 8563 d2bd 0c61 bfbd 7a69 ffbd 770a fbbc
00000030: 577d 2b3b 882d a7bd 1293 063e 5150 973d
00000040: e718 8bbd 380c a3bc d1fe abbc b793 e3bd
00000050: 8b84 633d 1499 42bd 9de4 9bbd c51d 073e
00000060: bac2 3fbc 771b e13d 27b0 a0bd a910 693c
00000070: 03c5 b43c d9c0 023e beed 773d f099 6a3d
00000080: b202 333d 2fca 8dbd 3df9 debd 15ef fdbd
00000090: ef43 d7bc 9b40 66bd 8063 ca3d c6fa 863d
000000a0: 88f7 55bd 0309 f43c ddba d03d 549f f4bc
000000b0: 6ae7 163e 22df e1bd 6ce7 443d b93f 04bd
000000c0: 1e43 6d3d 7441 8f3d
0.09941891 -0.039439633 -0.064735524 0.059734315 -0.13753028 -0.076855965 -0.12466545 -0.006287973
-0.10272888 -0.09344682 -0.1247129 -0.030644638 0.0026167238 -0.08162981 0.1314204 0.07388366
-0.06791859 -0.019903287 -0.02099553 -0.11112159 0.055546325 -0.047509268 -0.07611964 0.1319495
-0.011704141 0.10991567 -0.078460984 0.0142251635 0.022066599 0.12768878 0.060529463 0.057275712
0.043703742 -0.06923329 -0.10887382 -0.12399117 -0.02627751 -0.056213956 0.09882259 0.065908
-0.052238017 0.029789453 0.10191891 -0.02986113 0.14736715 -0.11028887 0.048072264 -0.032287333
0.057925336 0.06994906
