data/models/AAPL_20251215_182132.pt (torch, 128853 bytes, 9 tensors)

lstm.weight_ih_l0 f4 [200, 1]
0	0xbe150409	-0.1455232
1	0xbdbb5f49	-0.091490336
2	0xbd8050e0	-0.06265426
3	0xbd17b1a5	-0.03703465
4	0xbd63e6dc	-0.055640087
5	0xbc39a40c	-0.011330616
6	0xbdfbd16f	-0.12295806
7	0xbd5a3c24	-0.05328001
8	0xbd9b7f28	-0.075926125
9	0x3da37047	0.079803996
10	0x3c516c86	0.012782222
11	0x3dfbb5f2	0.12290563
12	0x3b7556eb	0.003743584
13	0x3e1abeae	0.15111801
14	0x3dbd0757	0.092299156
15	0x3d906f3e	0.07052468
16	0xbd72b2fe	-0.05925273
17	0x3cd5f44f	0.026117472
18	0x3e22b0e7	0.15887795
19	0xbdf0c9df	-0.11757254
20	0xbca88647	-0.02057184
21	0xbe015f87	-0.12634097
22	0xbdbb2d8f	-0.09139549
23	0xbd89de0b	-0.067318045
24	0x3de1ab21	0.110189684
25	0x3d859eb5	0.065244116
26	0x3cf8faeb	0.030393085
27	0x3d32430c	0.043520972
28	0x3dad5d4a	0.08465059
29	0xbdac2f2c	-0.08407435
30	0xbe0fdc5c	-0.14048904
31	0x3df1f8c3	0.11815026
32	0xbdaa9928	-0.083299935
33	0x3dfba6d0	0.12287676
34	0x3d7513a2	0.059833176
35	0x3dce606c	0.10076985
36	0xbda58ba9	-0.08083279
37	0x3d3ed437	0.046589103
38	0xbde07b0e	-0.10960971
39	0x3dcb7143	0.09933712
40	0xbc7a3817	-0.015272162
41	0x3da49b9b	0.08037492
42	0x3d957967	0.07298546
43	0xbcc9ce8b	-0.02463462
44	0x3dc6892c	0.09694132
45	0xbd79f191	-0.06102139
46	0xbc000168	-0.007812835
47	0xbd3814e6	-0.044941805
48	0xbdfad7f8	-0.12248224
49	0xbdccd177	-0.1000089
50	0x3d37ee36	0.04490491
51	0xbc97468b	-0.018466255
52	0xbd2a05ff	-0.041509625
53	0xbdc61996	-0.09672849
54	0x3deda9aa	0.116046265
55	0xbdbd67e2	-0.0924833
56	0xbdcef288	-0.10104853
57	0xbd6d2e87	-0.0579057
58	0x3d7f4d1e	0.062329404
59	0xbc48185b	-0.012212838
60	0x3d07868c	0.0330873
61	0x3d23f471	0.04002804
62	0x3d317cbc	0.043331847
63	0xbc3c98c4	-0.011511032
64	0xbaae070c	-0.0013277247
65	0x3e083ae4	0.13303715
66	0x3d9868b9	0.07441849
67	0x3e1b4043	0.15161233
68	0x3d37b6b3	0.04485197
69	0x3dfa0c41	0.122093685
70	0x3da4d6bc	0.0804877
71	0x3dc6b0dc	0.09701702
72	0xbe1e7bd7	-0.15476929
73	0x3ccd12d3	0.02503339
74	0x3dbf071e	0.09327529
75	0x3c89f172	0.016838763
76	0xbcfdaa93	-0.030965125
77	0x3cfc9c87	0.030836357
78	0xbdc66896	-0.09687917
79	0x3dcbb090	0.09945786
80	0x3d2e766a	0.042593397
81	0x3d5f5a84	0.05452968
82	0xbc63a860	-0.013895124
83	0x3d9c2d5c	0.07625839
84	0x3d970b77	0.073752336
85	0x3dd99c57	0.106255226
86	0x3e01c8d5	0.12674268
87	0xbde4c939	-0.11171193
88	0xbd1aa88c	-0.037758395
89	0xbdc91b42	-0.09819652
90	0x3e068a0b	0.13138597
91	0x3d846f5e	0.06466554
92	0xbcc470a0	-0.023979485
93	0x3d379de3	0.044828307
94	0xbdb91e33	-0.09038963
95	0x3dacdb76	0.08440296
96	0xbc52dcbb	-0.012870009
97	0xbdd9d60b	-0.106365286
98	0x3dbae1b8	0.09125084
99	0xbdb60386	-0.08887391
100	0xbd9031df	-0.07040762
101	0x3ddf9824	0.109176904
102	0x3c2fad50	0.010722473
103	0xbc1bb4b3	-0.009503531
104	0x3ceff413	0.029291188
105	0xbdd62674	-0.10456553
106	0xbc9e8de9	-0.019354777
107	0xbdc8d481	-0.09806157
108	0x3db82782	0.089919105
109	0xbdaa3652	-0.08311142
110	0xbbb70f69	-0.005586554
111	0xbd2adb5a	-0.041713096
112	0xbc3ae967	-0.0114081865
113	0xbd741f9e	-0.059600465
114	0x3dd9f41d	0.10642264
115	0xbdf98f14	-0.12185493
116	0x3df901a3	0.12158515
117	0xbe24c453	-0.16090517
118	0xbd9e8a10	-0.07741177
119	0xbd8cf8dc	-0.06883404
120	0x3bde70f8	0.0067883693
121	0xbd9a41f8	-0.07532114
122	0x3dfd8170	0.12378204
123	0xbd634453	-0.05548508
124	0xbcefb82f	-0.02926263
125	0x3dc62d3f	0.09676599
126	0xbc697640	-0.014249384
127	0xbe1a2589	-0.15053381
128	0x3de131a4	0.10995796
129	0x3dd2d041	0.102936275
130	0x3d684553	0.056706738
131	0x3d63222f	0.055452522
132	0xbcff41ec	-0.031159364
133	0xbdb92fd8	-0.090423286
134	0x3dcbdd19	0.099542804
135	0xbd9bcc64	-0.07607344
136	0xbcb2e3e7	-0.021837188
137	0x3dd2c5ae	0.10291611
138	0x3d2ae289	0.041719947
139	0x3d977af9	0.07396502
140	0xbd6dce41	-0.058058027
141	0xbd62ab03	-0.05533887
142	0xba388297	-0.00070385024
143	0x3e101e2a	0.14074007
144	0x3de9bd25	0.114130296
145	0x3c6bbe31	0.014388607
146	0x3d9873c2	0.07443954
147	0x3d918ab5	0.071065344
148	0xbc0a35a4	-0.0084356405
149	0x3e13df26	0.14440593
150	0xbd07b8a9	-0.03313509
151	0x3d678455	0.056522686
152	0x3c16c620	0.00920251
153	0x3df20038	0.11816448
154	0xbe0fcb9b	-0.14042513
155	0x3e02c216	0.1276935
156	0xbc5102ae	-0.012756987
157	0x3e0fa782	0.14028743
158	0x3df5e7c2	0.12007095
159	0x3d8905e5	0.066905774
160	0x3d35dde2	0.044401057
161	0x3ca0456c	0.019564353
162	0x3dc6895f	0.0969417
163	0xbc286514	-0.010278005
164	0xbdcf7606	-0.10129933
165	0x3e27af62	0.16375497
166	0xbda487ad	-0.080336906
167	0x3dd955f3	0.10612097
168	0xbbf541fd	-0.007484673
169	0xbd83c57e	-0.06434153
170	0x3ccf2cb7	0.025289876
171	0xbdee6320	-0.1164
172	0xbd42fd09	-0.047604594
173	0x3dacf02e	0.08444248
174	0x3d0a2415	0.033725817
175	0xbda8f494	-0.082497746
176	0x3e185d69	0.14879383
177	0xbe01482e	-0.1262519
178	0xbdfbecc7	-0.12301021
179	0x3d14a41d	0.036289323
180	0x3ca819a4	0.020520039
181	0x3d8888d6	0.066667244
182	0xbd463d81	-0.0483985
183	0xbd91539a	-0.07096024
184	0x3dad6fa8	0.08468562
185	0xbd506319	-0.050875757
186	0x3c2f6720	0.010705739
187	0x3e17c141	0.14819814
188	0xbd9667c8	-0.073440135
189	0xbcda1c6e	-0.026624884
190	0x3db1bfac	0.08679137
191	0xbda60f73	-0.081084155
192	0x3cfe5482	0.031046156
193	0xbe0cbd75	-0.13744147
194	0x3db69da6	0.08916788
195	0x3e15f75e	0.14645144
196	0x3de64acf	0.11244737
197	0x3d8fb28b	0.07016476
198	0x3d0366fa	0.032080628
199	0xbbc1a95d	-0.0059100823

lstm.weight_hh_l0 f4 [200, 50]
0	0x3b60637a	0.003423898
1	0x3dafb9f8	0.085803926
2	0xbddf339a	-0.10898514
3	0x3c3d1df9	0.011542791
4	0x3c733127	0.014843262
5	0xbd83fc6a	-0.064446285
6	0x3de1b94c	0.11021671
7	0x3dcb7076	0.099335596
8	0x3da7a1e9	0.08185179
9	0xbd75206b	-0.05984537
10	0xbd8f0292	-0.06982912
11	0x3d645811	0.05574805
12	0x3b1d3c92	0.0023992402
13	0xbc72880d	-0.014802945
14	0xbda1927f	-0.0788927
15	0x3d048e97	0.032362547
16	0x3dc4c108	0.0960713
17	0x3e0478f6	0.12936768
18	0xbdbd1759	-0.09232969
19	0x3dc62c75	0.09676448
20	0xbdf48437	-0.119392805
21	0x3cc52dc8	0.024069682
22	0x3cbb6ee8	0.022880033
23	0x3de6bc8c	0.11266431
24	0xbe0d7429	-0.13813843
25	0x3df6e734	0.12055817
26	0x3da62b47	0.08113723
27	0x3bfc0cb6	0.007691945
28	0x3bd5e243	0.0065272166
29	0x3d915608	0.07096487
30	0xbd4c44b5	-0.04987021
31	0x3d716b9e	0.058940522
32	0x3dfdebb0	0.123984694
33	0xbdc71197	-0.09720152
34	0x3cf39cf4	0.029737927
35	0x3c8dbd76	0.017302256
36	0x3dc5cd91	0.09658349
37	0xbe09de5f	-0.13463734
38	0x3e069009	0.13140883
39	0x3df23bb0	0.11827791
40	0x3db4b698	0.088238895
41	0xbd2e0adb	-0.04249082
42	0xbd855c84	-0.065117866
43	0x3bbafc2e	0.0057063317
44	0x3e21a1c2	0.15784362
45	0xbe15f26b	-0.14643256
46	0x3df16120	0.11786103
47	0xbcc09f6c	-0.023513518
48	0xbd8f345d	-0.069924094
49	0x3d25e8cc	0.040505216
50	0xbd99f631	-0.075176604
51	0x3dacc0a6	0.08435182
52	0x3d3c38c7	0.045952585
53	0x3e104f73	0.14092807
54	0x3ddd64c2	0.10810234
55	0x3de80269	0.11328585
56	0x3e140e70	0.14458632
57	0xbd96ff37	-0.07372897
58	0x3d6b1521	0.057393197
59	0xbda4c45f	-0.08045267
60	0x3e0f8bcd	0.14018174
61	0xbe125bed	-0.1429288
62	0xbe10e371	-0.14149262
63	0xbd8ab2ae	-0.06772362
64	0xbd7e32f3	-0.062060308
65	0xbe17fbc9	-0.14842142
66	0x3e1422aa	0.14466348
67	0xbdad1519	-0.0845129
68	0xbdaba49f	-0.08381008
69	0x3df3d631	0.11906088
70	0x3deb8318	0.114996135
71	0xbe0ca701	-0.13735582
72	0xbdfa6b30	-0.12227476
73	0xbc9a20e5	-0.018814513
74	0x3d02cd90	0.03193432
75	0xbdba54f6	-0.09098236
76	0xbd82548c	-0.06363782
77	0xbd9e1792	-0.077193394
78	0x3d170398	0.03686866
79	0xbc681e92	-0.014167445
80	0x3d92e396	0.07172315
81	0xbdd7f419	-0.10544605
82	0x3db6e09e	0.08929561
83	0xbdb3c9f6	-0.08778755
84	0x3dbe3d7e	0.092890725
85	0xbe11d220	-0.14240313
86	0xbd76b28a	-0.060228862
87	0xbd62312e	-0.055222683
88	0x3d545819	0.05184183
89	0x3dc762b1	0.09735621
90	0xbc4ac066	-0.012374973
91	0x3d5ad4c9	0.053425584
92	0xbe0d6573	-0.13808231
93	0x3cbdc859	0.023166822
94	0xbbfd330a	-0.0077270316
95	0x3d9c7722	0.0763991
96	0xbd6674db	-0.056263786
97	0x3da08232	0.07837333
98	0x3da42d32	0.08016433
99	0x3e1247fc	0.14285272
100	0xbe1993f0	-0.1499784
101	0xbd2713d4	-0.040790394
102	0x3cd9e848	0.026600018
103	0x3e108df5	0.14116652
104	0x3cd32fc5	0.025779614
105	0x3d3117bf	0.043235537
106	0x3da5bea6	0.08093004
107	0x3d0d95de	0.034566753
108	0x3c7318b7	0.014837435
109	0x3da31d1f	0.07964539
110	0xbd686cf5	-0.056744535
111	0x3ddbe433	0.10736885
112	0x3d872a44	0.065998584
113	0x3dbe7904	0.09300426
114	0x3db46bbd	0.08809612
115	0x3c0768ce	0.0082647335
116	0xbcf7550e	-0.030191924
117	0x3df70d39	0.12063069
118	0xbc35b629	-0.011090794
119	0xbdda6c7c	-0.10665223
120	0xbe15505f	-0.1458144
121	0xbd9c09ee	-0.076190814
122	0x3b82a99a	0.0039875032
123	0x3d9b2522	0.07575442
124	0xbc479332	-0.01218109
125	0xbdadd0c6	-0.08487086
126	0xbd3205bc	-0.0434625
127	0xbdfaa0bd	-0.1223769
128	0xbdb9c188	-0.09070116
129	0x3c797b92	0.015227215
130	0x3de1a90d	0.11018572
131	0x3dd6f9dc	0.10496876
132	0x3c194371	0.009354458
133	0x3ded125c	0.115757674
134	0xbc43b0e9	-0.011944034
135	0x3dee1039	0.11624188
136	0x3d36d561	0.044637088
137	0xbdac08ce	-0.08400117
138	0xbd6b48d5	-0.057442505
139	0x3cf696a0	0.03010112
140	0xbd85dcb5	-0.06536237
141	0xbc275aa9	-0.010214486
142	0xbd208f84	-0.039199367
143	0x3c97c1c6	0.018525016
144	0x3dd074a0	0.101784945
145	0x3e1ad193	0.15119009
146	0x3b123b06	0.0022313013
147	0x3db29b96	0.08721082
148	0xbd7dca59	-0.061960552
149	0x3d45ecfc	0.04832171
150	0x3e168204	0.14698035
151	0x3db37e30	0.08764303
152	0xbd6f696f	-0.05845016
153	0xbd77df76	-0.060515843
154	0x3cf70664	0.030154414
155	0xbdcf647a	-0.10126586
156	0x3dffcc8c	0.12490186
157	0x3df35363	0.11881139
158	0xbde541fb	-0.111942254
159	0xbc887a32	-0.01665983
160	0x3df51284	0.11966422
161	0x3c8d0604	0.017214783
162	0xbddb46d6	-0.1070687
163	0xbcacb47f	-0.021082161
164	0x3dcedc5a	0.101006225
165	0xbd0e75ad	-0.034780193
166	0x3b7e15e9	0.0038770384
167	0x3d9dbf17	0.07702463
168	0xbcfa6dae	-0.030569877
169	0xbe10d597	-0.14143978
170	0x3decb787	0.115584426
171	0x3dc22739	0.094801374
172	0x3d1123de	0.035434596
173	0xbe048ed1	-0.12945105
174	0xbe144ca4	-0.14482361
175	0xbd9499b1	-0.07255877
176	0xbdd24a8f	-0.10268127
177	0x3d18c13d	0.03729366
178	0xbc8248cf	-0.015903858
179	0xbdec492f	-0.11537396
180	0x3e08b2be	0.13349435
181	0xbe001fb4	-0.12512094
182	0xbd535f32	-0.051604457
183	0x3dfa6942	0.122271076
184	0xbdcacd36	-0.09902422
185	0x3df04dc2	0.11733581
186	0xbba7f5b5	-0.005125726
187	0xbd958dcc	-0.07302436
188	0x3b2bb50d	0.0026200444
189	0xbd9ad0ed	-0.07559381
190	0xbe0414a5	-0.128985
191	0xbc3f692f	-0.011682793
192	0x3de3cb04	0.111227065
193	0x3deb8b4b	0.115011774
194	0x3de00c9b	0.10939904
195	0xbdba8bd6	-0.09108703
196	0x3c372d62	0.011180254
197	0xbe05e58a	-0.13075843
198	0x3d5f1340	0.054461718
199	0xbcf4a5c6	-0.029864203
200	0xbd4ed07a	-0.050491787
201	0x3d2614f3	0.040547322
202	0x3d351f3b	0.044219237
203	0x3d5c5fb7	0.05380222
204	0x3df5cb4b	0.12001666
205	0xbabf01cf	-0.0014572683
206	0x3cdab31e	0.026696738
207	0x3d3b23fb	0.04568861
208	0xbd25b9fa	-0.040460564
209	0xbdb68318	-0.08911723
210	0x3cfc7d36	0.030821424
211	0x3d52930e	0.051409774
212	0xbdf0b27b	-0.117527924
213	0xbdc6a57f	-0.096995346
214	0x3d28b42b	0.041187447
215	0xbd520dbf	-0.05128264
216	0xbd380bd5	-0.04493316
217	0xbdc8e73c	-0.098097295
218	0x3d26db70	0.040736616
219	0xbd0edf03	-0.03488065
220	0x3dd4cd02	0.10390665
221	0x3d63036a	0.055423178
222	0xbdb32a04	-0.08748248
223	0xbdc286ca	-0.09498365
224	0xbcf61d7b	-0.030043354
225	0x3d4e2f5b	0.05033813
226	0xbda7c15e	-0.08191179
227	0x3e0ae499	0.13563766
228	0x3cf7ea96	0.030263226
229	0xbd45acb0	-0.04826039
230	0xbd58d7f5	-0.052940328
231	0xbe187c10	-0.14891076
232	0xbd0d315e	-0.03447091
233	0x3d9b16c4	0.075727016
234	0x3da975d5	0.08274428
235	0x3d6356c5	0.05550267
236	0x3cdc11ad	0.026863897
237	0x3c8bd100	0.017067432
238	0xbd83267c	-0.06403825
239	0x3db2da8f	0.08733093
240	0xbc939140	-0.018013597
241	0xbd10496c	-0.03522627
242	0x3dfb1c4d	0.12261257
243	0xbd268f91	-0.04066426
244	0xbcc1cf87	-0.023658527
245	0xbdfbb76c	-0.12290844
246	0xbce744fa	-0.028231133
247	0xbd99eb8f	-0.07515632
248	0xbd8770f9	-0.06613345
249	0x3cf5a036	0.029983621
250	0x3dd6c3ee	0.10486589
251	0xbd917d23	-0.07103946
252	0xbd3b84bb	-0.04578088
253	0x3d8ca8b1	0.06868113
254	0xbe15aaea	-0.1461598
255	0xbdae5560	-0.08512378

lstm.bias_ih_l0 f4 [200]
0	0xbca25be3	-0.019819206
1	0xbde6621a	-0.1124918
2	0x3d34b026	0.0441133
3	0x3d9b3cd5	0.07579962
4	0x3b6a1f74	0.0035724314
5	0xbdc488c5	-0.09596399
6	0x3d0a3860	0.03374517
7	0x3dac61ba	0.08417077
8	0x3dc0546d	0.09391103
9	0xbc198c93	-0.009371894
10	0x3d59c5a1	0.05316699
11	0xbd283ebc	-0.041075453
12	0xbca721d9	-0.020401882
13	0x3d6b1632	0.057394214
14	0x3d575608	0.05257228
15	0xbddffb20	-0.1093657
16	0xbdae731f	-0.08518051
17	0xbccdc0b9	-0.025116311
18	0xbca426a8	-0.020037964
19	0x3db2e73e	0.08735512
20	0xbe0b2b90	-0.13590837
21	0x3d71793a	0.0589535
22	0xbe0719e0	-0.13193464
23	0x3cd51c03	0.026014334
24	0x3d30bf90	0.04315144
25	0xbce75cf8	-0.028242573
26	0xbdb49001	-0.08816529
27	0x3df4cac4	0.11952737
28	0x3dd881de	0.10571645
29	0x3da50672	0.0805787
30	0x3cbbf90e	0.022945907
31	0x3d92460c	0.07142267
32	0xbc85cb45	-0.016332278
33	0x3db79f1e	0.08965896
34	0x3e0f7793	0.14010458
35	0x3d80927c	0.0627794
36	0xbdf56cc5	-0.11983637
37	0xbd6ed693	-0.058310103
38	0x3d3cd3d3	0.04610045
39	0xbdf37b97	-0.11888807
40	0x3d2b5cdc	0.041836604
41	0x3e1321cc	0.14368361
42	0xbdf5eb04	-0.12007716
43	0x3cef4c51	0.029211195
44	0x3d9e8bf1	0.077415355
45	0x3e19df90	0.15026689
46	0x3c10acc5	0.008830254
47	0xbc43f9f2	-0.011961447
48	0xbde30be2	-0.11086251
49	0x3ca1ea78	0.019765124
50	0xbd7a8c5c	-0.061169013
51	0x3de4bb00	0.1116848
52	0x3bc6b030	0.0060634837
53	0xbd565db0	-0.05233544
54	0xbd6b5200	-0.05745125
55	0x3dbb3826	0.09141569
56	0x3dda5e5f	0.10662531
57	0x3d6e2d8c	0.058148906
58	0xbe0eb577	-0.13936411
59	0x3ba3268d	0.004978961
60	0xbc8f57fb	-0.017498007
61	0xbdf07c0f	-0.11742412
62	0x3c18c655	0.00932463
63	0x3d1d26ed	0.0383672
64	0x3e0256ec	0.1272847
65	0xbd06edd0	-0.03294164
66	0x3c45c252	0.012070255
67	0xbd4999df	-0.04921901
68	0x3e091f26	0.13390788
69	0xbda2e3ae	-0.07953583
70	0x3dc14c1a	0.09438343
71	0x3d08d7f7	0.033409085
72	0x3d9611c0	0.07327604
73	0x3da7a7d5	0.08186308
74	0x3df71db9	0.12066216
75	0xbd692eee	-0.05692952
76	0xbd82eb1a	-0.06392498
77	0x3dfd1e03	0.1235924
78	0x3c2fbcd8	0.010726176
79	0x3d9169e4	0.07100275
80	0xbca0d34f	-0.01963201
81	0xbd6d9a42	-0.05800844
82	0xbc07b669	-0.008283236
83	0xbdea48ee	-0.114396915
84	0x3dc8da52	0.09807266
85	0xbd56f8ba	-0.052483298
86	0xbdedc5dc	-0.11610004
87	0x3d0be362	0.034152396
88	0x3d13c2de	0.03607451
89	0x3d5c665f	0.053808566
90	0xbd8c249c	-0.0684292
91	0xbd03e1a6	-0.032197617
92	0x3dd83951	0.10557807
93	0xbdd07809	-0.10179145
94	0x3de8ea19	0.113727756
95	0xbdbdc6b6	-0.09266417
96	0xbd9f6c3d	-0.07784317
97	0x3d85c89e	0.06532405
98	0xbdc37a1e	-0.095447764
99	0xbdb3c33d	-0.08777473
100	0x3dbb1832	0.09135474
101	0x3e0320e6	0.12805519
102	0xbd668eda	-0.056288578
103	0x3d761a1f	0.060083505
104	0xbc7e468b	-0.015519748
105	0xbdb6802d	-0.08911166
106	0x3d9aec9e	0.075646624
107	0x3e1c99be	0.15293023
108	0xbe041f45	-0.12902553
109	0xbe125fec	-0.14294404
110	0x3db81f8c	0.08990392
111	0x3c296b93	0.010340589
112	0xbe242cf6	-0.16032776
113	0xbd00acc7	-0.031414773
114	0x3cb120b4	0.02162204
115	0xbe156594	-0.1458953
116	0x3cea2f84	0.02858711
117	0xbd440bb3	-0.04786272
118	0xbe106f77	-0.1410502
119	0x3d58397f	0.052789208
120	0xbd0c093c	-0.034188494
121	0xbdfd46fd	-0.123670556
122	0x3a9b844f	0.0011864993
123	0x3e27eb22	0.1639829
124	0x3cc04509	0.023470419
125	0xbd80a9f2	-0.062824145
126	0xbdf369fa	-0.11885448
127	0x3d67894f	0.056527432
128	0xba85b4c4	-0.0010200967
129	0x3ca526c8	0.020160094
130	0x3c1cd76d	0.009572846
131	0xbcb41121	-0.021980824
132	0xbce38d5e	-0.02777737
133	0x3dec89b5	0.11549703
134	0xbd576682	-0.052587993
135	0xbe18fb50	-0.14939618
136	0xbdf9b1a1	-0.12192083
137	0x3ce72ce3	0.028219646
138	0xbde2bb74	-0.1107091
139	0x3c41080f	0.0117817065
140	0x3d5405e6	0.051763438
141	0xbe1d74a4	-0.15376526
142	0x3e0f0425	0.13966425
143	0xbd0dc98b	-0.034616034
144	0xbe0906ba	-0.13381472
145	0x3dadd5af	0.084880225
146	0xbd9ae686	-0.075635
147	0x3df17d22	0.11791445
148	0xbcd69146	-0.026192319
149	0x3e14c972	0.1452997
150	0xbdcc4e98	-0.09975928
151	0x3e191403	0.1494904
152	0x3d552540	0.052037477
153	0xbda86371	-0.08222092
154	0xbdb53c10	-0.08849347
155	0xbe00c1f9	-0.12573995
156	0x3db4987a	0.08818145
157	0x3d71ea74	0.059061483
158	0x3e041485	0.12898453
159	0xbdb6ad0d	-0.089197256
160	0x3d706096	0.05868586
161	0x3dd1e067	0.102478795
162	0x3e15d9d7	0.1463388
163	0xbdf3e154	-0.11908212
164	0x3b896853	0.0041933446
165	0xbd1fea61	-0.03904188
166	0x3dc0b489	0.09409434
167	0x3e114b85	0.14188965
168	0xbd1259bf	-0.03573012
169	0x3d48e8d3	0.049050163
170	0xbcaedf79	-0.021346794
171	0x3d57febd	0.05273317
172	0xbdf8a074	-0.12139979
173	0xbc411cf0	-0.011786684
174	0xbd2815e9	-0.04103652
175	0xbc849fbc	-0.016189449
176	0x3e10b270	0.14130569
177	0x3c10c1cb	0.008835266
178	0x3dad990a	0.084764555
179	0x3d1fc337	0.03900453
180	0x3d1c2c62	0.038128264
181	0xbdcde8c7	-0.100541644
182	0x3c9d7025	0.019218514
183	0x3d3c91c7	0.04603746
184	0xbdb9d7eb	-0.09074386
185	0x3db19a65	0.086720265
186	0x3da4967b	0.08036514
187	0xbcf355af	-0.029703943
188	0x3d11fa19	0.035638902
189	0xbdba56e2	-0.09098603
190	0x3c3cc0d5	0.011520584
191	0x3d3374f9	0.043812726
192	0xbcccea3e	-0.02501404
193	0x3d127fc5	0.03576638
194	0x3dae60fe	0.085145935
195	0x3e02c070	0.12768722
196	0x3d69e55f	0.05710351
197	0x3dbc899c	0.092059344
198	0xbdd1fb12	-0.10252966
199	0x3e141e57	0.14464699

lstm.bias_hh_l0 f4 [200]
0	0x3ca5a5b0	0.020220608
1	0x3d0f7523	0.03502382
2	0xbdd98840	-0.10621691
3	0xbdebd411	-0.11515058
4	0xbdc8b3e0	-0.097999334
5	0xbd97f32d	-0.07419429
6	0xbdf471a1	-0.119357355
7	0x3e0ae3a7	0.13563405
8	0xbe028edb	-0.12749808
9	0xbc932039	-0.0179597
10	0xbd634307	-0.055483844
11	0xbda72b45	-0.0816255
12	0xbd940e00	-0.07229233
13	0xbc089dd7	-0.008338413
14	0x3dae6d12	0.08516897
15	0xbdd0eb18	-0.102010906
16	0x3e103c25	0.14085443
17	0xbb116578	-0.0022185724
18	0x3b0100ea	0.0019684383
19	0x3e0ab329	0.13544907
20	0x3ca8dca3	0.02061302
21	0x3c9355fc	0.017985336
22	0x3d6ce36e	0.05783408
23	0x3d91e3a0	0.07123494
24	0x3e0d6f55	0.13812001
25	0x3de43dee	0.11144625
26	0xbdad2b5f	-0.08455538
27	0xbdaee386	-0.085394904
28	0xbdd29972	-0.102831736
29	0x3defa8d4	0.11702123
30	0xbd87ffb5	-0.06640569
31	0xbd8430f0	-0.064546466
32	0xbd89d572	-0.067301646
33	0x3d9b39ba	0.0757937
34	0xbd088774	-0.033332303
35	0x3ddfbf29	0.10925133
36	0xbe1367d5	-0.14395078
37	0x3d2613c9	0.040546212
38	0x3d292127	0.041291382
39	0xbdc724d4	-0.09723821
40	0x3b8768fe	0.004132389
41	0x3d1e4b27	0.03864589
42	0xbe1fea3a	-0.15616694
43	0xbdc6543c	-0.09684035
44	0x3de679cd	0.112537004
45	0x3dd7264b	0.10505351
46	0xbda9e98c	-0.08296499
47	0x3d15c812	0.036567755
48	0xbd868b86	-0.06569581
49	0x3dbcdb96	0.0922157
50	0xbe19a53e	-0.15004441
51	0xbdeafda2	-0.11474158
52	0xbd8a0b1a	-0.06740399
53	0xbd8391f6	-0.06424324
54	0xbd36d382	-0.044635303
55	0xbe158c09	-0.146042
56	0x3e13589c	0.1438927
57	0xbdbdbf33	-0.09264984
58	0xbd87c2a9	-0.06628925
59	0xbde79c9f	-0.1130917
60	0x3e0840d3	0.13305978
61	0x3d8598ed	0.06523309
62	0xbc7bc5d6	-0.015366992
63	0x3dcd788b	0.10032757
64	0x3d69f299	0.057116125
65	0xbdebf1d3	-0.11520734
66	0x3deab60d	0.11460505
67	0xbd80abdf	-0.06282782
68	0x3e09a824	0.13443047
69	0xbdb7d80f	-0.08976757
70	0x3df23264	0.118260175
71	0x3d35414f	0.044251736
72	0xbdddaf1a	-0.108244136
73	0x3de5bbe9	0.11217482
74	0xbdbae04d	-0.09124813
75	0xbb85a4a3	-0.004078464
76	0x3df63947	0.120226435
77	0x3dda39a8	0.10655528
78	0x3d0d3828	0.034477383
79	0xbd4675c5	-0.048452158
80	0xbe0b517c	-0.13605303
81	0xbdaaa4ba	-0.083322
82	0xbd22cb7c	-0.03974484
83	0x3df25fd4	0.11834684
84	0x3ccd5c3f	0.0250684
85	0xbd12f54c	-0.035878465
86	0x3d536ca4	0.05161728
87	0x3d19df2a	0.03756634
88	0x3cf12053	0.029434359
89	0x3dcad18e	0.09903251
90	0x39df5cb1	0.00042602935
91	0x3dae0c87	0.08498483
92	0x3d8a3c4f	0.06749784
93	0xbe0109fa	-0.12601462
94	0xbdbd9ec3	-0.09258797
95	0x3dd30174	0.103030115
96	0xbe066763	-0.13125376
97	0xbdc94a78	-0.09828657
98	0xbc8ba853	-0.017048037
99	0x3dba1ddb	0.09087726
100	0xbcfc8f9c	-0.030830197
101	0xbb928d9f	-0.004472449
102	0xbdeb87ee	-0.11500536
103	0xbb960245	-0.0045779073
104	0x3de1b227	0.11020308
105	0x3cbe6cdf	0.023245273
106	0x3e142a7f	0.14469336
107	0x3e127784	0.14303404
108	0xba1e8b8e	-0.0006048017
109	0x3db2b571	0.087260135
110	0x3c87b45d	0.016565496
111	0xbdf75881	-0.12077428
112	0xbd07f9f7	-0.03319737
113	0xba9d85a7	-0.0012017981
114	0xbdef2b71	-0.11678208
115	0xbd44287f	-0.047890183
116	0x3e18de8a	0.14928642
117	0xbd5768b2	-0.05259008
118	0xbd1139af	-0.035455402
119	0x3d8b148b	0.06791028
120	0xbe0efa41	-0.13962652
121	0xbc9753b4	-0.01847253
122	0xbd1534a0	-0.03642714
123	0x3c4983f2	0.012299525
124	0x3e02ed37	0.12785803
125	0xbd3c3683	-0.045950424
126	0xbe130b12	-0.14359692
127	0xbe0b78ff	-0.13620375
128	0x3d0197b8	0.03163883
129	0x3d8988d5	0.06715552
130	0xbd744e9c	-0.05964528
131	0x3e0323c3	0.12806611
132	0xbe1638bd	-0.14670081
133	0x3d591123	0.05299486
134	0x3cfd38e2	0.030910913
135	0x3dc726c9	0.097241946
136	0xbd9fff33	-0.07812347
137	0x3de86609	0.11347587
138	0xbdc76e14	-0.097377926
139	0x3d3e1379	0.04640529
140	0xbdd2fb28	-0.103018105
141	0xbe25ec98	-0.16203535
142	0xbd8e480c	-0.069473356
143	0xbcd4ca1f	-0.025975285
144	0xbdc6afbd	-0.09701488
145	0x3dc4c5af	0.09608018
146	0x3da799d8	0.0818364
147	0x3df58048	0.11987358
148	0x3ddb1f23	0.10699298
149	0xbdc5119f	-0.096225016
150	0xbdcf594e	-0.101244554
151	0x3cd47f3c	0.025939576
152	0x3dfc4dcc	0.12319526
153	0xbe038d96	-0.1284698
154	0xbd854d7f	-0.06508922
155	0xbdbb5048	-0.09146172
156	0x3cccb75e	0.02498978
157	0xbd7ffb3a	-0.062495448
158	0xbe1215d7	-0.14266144
159	0xbe037b9e	-0.12840125
160	0xbd5141c6	-0.051088117
161	0xbd8b7b8b	-0.06810673
162	0xbc975cbe	-0.01847684
163	0xbd9d7db9	-0.07689995
164	0xbdabcfca	-0.08389242
165	0x3d504095	0.05084284
166	0xbc640117	-0.013916275
167	0x3d16c6ad	0.036810566
168	0x3e068e53	0.1314023
169	0xbc04f75a	-0.008115614
170	0xb9695566	-0.00022252425
171	0xbd252b59	-0.040324543
172	0x3d524ec5	0.05134465
173	0x3d442726	0.047888897
174	0xbd02e084	-0.031952396
175	0x3dc33450	0.09531462
176	0xbd19034c	-0.03735666
177	0x3d861d97	0.065486126
178	0x3b281b75	0.0025651131
179	0xbd3b30b9	-0.045700762
180	0xbdf889d3	-0.12135663
181	0x3dbc2549	0.09186799
182	0xbcb7153f	-0.022348998
183	0x3dcce000	0.10003662
184	0xbdcd99e5	-0.10039119
185	0xbcd2f8e5	-0.025753448
186	0xbd13e185	-0.036103744
187	0x3d102773	0.03519387
188	0x3c422711	0.0118501345
189	0x3dd4c8cc	0.103898615
190	0x3d0ccb3c	0.034373507
191	0xbd1ce2dd	-0.03830229
192	0x3c14272b	0.0090425415
193	0xbe04b960	-0.1296134
194	0x3e1385b9	0.1440648
195	0x3c7d1579	0.015447014
196	0xbe0e24c5	-0.13881214
197	0xbd3a26d5	-0.04544719
198	0xbd884708	-0.06654173
199	0x3d89a4fa	0.0672092

lstm.weight_ih_l1 f4 [200, 50]
0	0x3df36c3f	0.11885881
1	0x3d27e806	0.04099276
2	0x3e22a407	0.15882884
3	0xbd9db9cd	-0.07701454
4	0xbe0e39dd	-0.1388926
5	0xbd9952cd	-0.07486496
6	0xbc8f75b4	-0.01751218
7	0x3df03692	0.117291585
8	0x3d407f6a	0.04699651
9	0xbd338d5d	-0.043835986
10	0xbd1c3869	-0.038139734
11	0xbd6c9f69	-0.057769213
12	0x3d34216c	0.043977186
13	0x3dbd7439	0.09250683
14	0x3d9cd58c	0.07657918
15	0x3e09f0ff	0.13470839
16	0x39d894dd	0.00041309642
17	0x3d9e47fb	0.07728573
18	0x3df86f1a	0.12130566
19	0x3bbd76fe	0.0057820072
20	0x3d9c996e	0.07646452
21	0xbdbb0da6	-0.091334626
22	0xbcb9da6f	-0.022687165
23	0x3def7a1d	0.11693213
24	0x3ccb6aa6	0.024831127
25	0xbdb30a51	-0.08742202
26	0xbd752dfc	-0.059858307
27	0x3d1c43f7	0.038150754
28	0xbb95aecd	-0.004567957
29	0xbd978d82	-0.07400037
30	0x3d375ba3	0.044765126
31	0x3dd54c3f	0.104149334
32	0xbda5138f	-0.08060371
33	0xbdf04a36	-0.117329046
34	0xbda16f69	-0.07882578
35	0xbd42f9b2	-0.04760141
36	0x3dcc3386	0.09970765
37	0x3c87c925	0.016575405
38	0xbd163161	-0.036668185
39	0xbbea5410	-0.0071511343
40	0x3defcd40	0.1170907
41	0xbd0a66ad	-0.033789326
42	0xbd76d253	-0.060259175
43	0x3dd3679c	0.10322496
44	0x3e281a31	0.16416241
45	0xbe04a858	-0.12954843
46	0x3d7bf6e5	0.061514754
47	0xbe09e011	-0.13464381
48	0xbdeac98d	-0.11464224
49	0xbe139fcc	-0.14416426
50	0xbd331644	-0.043722406
51	0x3d6ec0cb	0.05828933
52	0x3e0036ee	0.12520954
53	0xbd353f87	-0.044250038
54	0x3d2a3616	0.041555487
55	0xbd93d655	-0.07218615
56	0xbd6ef4ac	-0.058338806
57	0x3d3fe49d	0.046848882
58	0xbcace21f	-0.021103917
59	0x3d43cc21	0.047802094
60	0xbd2dd792	-0.042441912
61	0xbe15e00f	-0.14636253
62	0xbdcd29d4	-0.10017744
63	0xbd23962c	-0.039938137
64	0x3de4f563	0.11179616
65	0x3ddea53b	0.10871359
66	0xbd0ada41	-0.03389955
67	0xbd9b83b8	-0.07593483
68	0xbe0430d8	-0.12909257
69	0xbc8818de	-0.01661342
70	0xbba87b04	-0.0051416177
71	0x3ce99f6e	0.028518405
72	0x3dc01404	0.09378818
73	0x3e0d5395	0.13801415
74	0xbdf0ad78	-0.117518365
75	0xbdf1e73a	-0.11811681
76	0xbe1a2645	-0.15053661
77	0xbdb5e363	-0.08881261
78	0x3d5183e6	0.05115118
79	0x3d580073	0.052734803
80	0x3dd1ef66	0.1025074
81	0xbdc44284	-0.09582999
82	0x3ded1c9c	0.115777224
83	0xbd961e25	-0.07329968
84	0x3e1b431d	0.1516232
85	0xbd16053a	-0.03662608
86	0xbddefaa5	-0.108876504
87	0x3ddd5f71	0.1080922
88	0xbdde46f8	-0.1085338
89	0x3dd9e1db	0.10638782
90	0xbd7cca91	-0.06171662
91	0xbe0728db	-0.13199179
92	0x3de7c636	0.113171026
93	0x3d36e430	0.04465121
94	0x3c4339d2	0.011915641
95	0xbd8b930d	-0.06815157
96	0x3ddc38f4	0.107530504
97	0x3df738a4	0.1207135
98	0x3d5821d8	0.05276665
99	0xbd59ba2e	-0.05315607
100	0xbdbc2cda	-0.09188242
101	0x3d83bc8a	0.06432445
102	0x3d879b37	0.06621402
103	0xbccf210e	-0.025284316
104	0x3df84699	0.121228404
105	0xbe1ce89c	-0.15323108
106	0xbd83bd0f	-0.064325444
107	0xbda45569	-0.08024103
108	0xbddba824	-0.1072543
109	0xbdc6a0bc	-0.096986264
110	0xbdd58fde	-0.10427831
111	0xbda3945b	-0.07987281
112	0xbd16f798	-0.036857218
113	0xbddd85ac	-0.108165115
114	0xbda35d9b	-0.07976838
115	0x3d5d3d20	0.05401337
116	0xbda1c844	-0.07899526
117	0xbdb40f97	-0.08792036
118	0xbe1ec144	-0.15503412
119	0x3cfc8946	0.030827176
120	0xbd110632	-0.0354063
121	0xbdc7681f	-0.097366564
122	0xbde7de75	-0.11321727
123	0x3dc760f1	0.09735287
124	0x3d9b0892	0.07569994
125	0x3c98e6bf	0.018664716
126	0xbdf65a62	-0.12028958
127	0xbde2e63f	-0.11079072
128	0xbd928166	-0.07153587
129	0xbceb5a1a	-0.028729487
130	0xbda37e05	-0.07983021
131	0x3cb181ab	0.021668276
132	0x3d95d32e	0.0731567
133	0xbdb6834f	-0.08911764
134	0x3b7784c0	0.0037768334
135	0x3df71de8	0.12066251
136	0xbc7e3594	-0.015515704
137	0x3dd052d0	0.10172045
138	0xbd46ffb2	-0.048583694
139	0x3d9c9a17	0.07646578
140	0xbddf9e2e	-0.10918842
141	0xbdcd575a	-0.100264266
142	0xbbc78b5d	-0.0060896114
143	0xbddd3b55	-0.10802332
144	0xbd83a749	-0.064283915
145	0xbdbe4f21	-0.092924364
146	0xbd3356a2	-0.04378379
147	0x3e04edfe	0.12981412
148	0xbde239ee	-0.110462055
149	0xbd103ab5	-0.035212237
150	0xbd47544f	-0.048664387
151	0x3d875cd4	0.066095024
152	0xbe07182d	-0.13192816
153	0xbdf9d84a	-0.12199457
154	0x3cb1f5d4	0.021723665
155	0x3ce61bdd	0.028089458
156	0xbb2db964	-0.0026508207
157	0x3ddeb6cd	0.1087471
158	0xbd42c6ed	-0.04755299
159	0x3d45a74d	0.048255254
160	0xbdb954a6	-0.090493485
161	0xbe0ea5c0	-0.13930416
162	0xbdbf6a43	-0.0934644
163	0x3d6f791d	0.058465112
164	0x3e0aa91e	0.13541076
165	0xbcaff59f	-0.021479426
166	0x3dc40ad1	0.095723756
167	0x3c5af6ac	0.013364475
168	0x3c593995	0.0132583575
169	0xbe035ed2	-0.1282914
170	0x3db3c043	0.087769054
171	0xbdbbeb24	-0.09175709
172	0x3c6237ca	0.013807246
173	0x3dc9970a	0.098432615
174	0xbdb8ac23	-0.090172075
175	0xbc85c22f	-0.016327946
176	0xbdd057b4	-0.10172978
177	0xbe0d4106	-0.13794336
178	0xbd2206e1	-0.03955734
179	0xbe03b9b4	-0.12863809
180	0xbdad12e7	-0.08450871
181	0xbc825c6e	-0.015913215
182	0x3df1d763	0.1180866
183	0x3dc29146	0.09500365
184	0x3d927598	0.071513355
185	0xbda6e779	-0.08149619
186	0xbd2f1e1e	-0.04275333
187	0x3d9393a6	0.07205896
188	0x3c687188	0.014187224
189	0x3d3a687f	0.04550981
190	0xbe02c7d6	-0.12771544
191	0x3dc1af0c	0.09457216
192	0x3c17860f	0.009248271
193	0x3ddbb56b	0.10727962
194	0x3d86efa8	0.065886796
195	0xbda60300	-0.08106041
196	0x3cab61dd	0.020920688
197	0x3e13f220	0.14447832
198	0x3db83207	0.08993917
199	0x3de86be2	0.11348702
200	0x3da9aeb3	0.08285274
201	0x3dae67bb	0.08515879
202	0xbe2be0f2	-0.16785029
203	0xbdab285b	-0.083573066
204	0x3d2a251e	0.041539304
205	0xbdc6f994	-0.09715572
206	0x3e29545a	0.16536084
207	0x3d61891f	0.05506241
208	0xbe038578	-0.12843883
209	0x3d24fbfc	0.040279374
210	0xbcc28e15	-0.02374939
211	0x3d929895	0.07158009
212	0xbda9834a	-0.082769945
213	0xbd2d4f70	-0.042312086
214	0xbdb40aec	-0.08791146
215	0xbdeaa6df	-0.114576094
216	0x3e104b9f	0.14091347
217	0x3ca1230b	0.01967003
218	0xbe11b449	-0.1422893
219	0x3debcd0e	0.115137205
220	0xbd7993ae	-0.060931854
221	0x3da69bc3	0.08135178
222	0x3e205807	0.1565858
223	0xbdb3e827	-0.08784514
224	0x3e22e5e2	0.15908006
225	0xbe071e2d	-0.13195105
226	0x3d0910a8	0.03346315
227	0x3c6b4f68	0.014362194
228	0x3bf4a501	0.007465959
229	0x3e17a027	0.14807187
230	0x3d1079ee	0.03527253
231	0xbb349fc5	-0.002756105
232	0x3cfb7a95	0.0306981
233	0xbc05b9d9	-0.008161985
234	0xbda32b55	-0.07967249
235	0x3d6833ba	0.056689955
236	0xbda3bfd7	-0.07995575
237	0x3e175aa9	0.14780678
238	0xbe10a746	-0.1412631
239	0x3d83263d	0.06403778
240	0xbdc82dc9	-0.09774358
241	0xbe23871a	-0.15969506
242	0xbdfed0cc	-0.124421686
243	0xbd9907e4	-0.07472208
244	0xbdf0a2e8	-0.11749822
245	0x3de0f88a	0.10984905
246	0x3d846856	0.06465213
247	0xbb530a2e	-0.0032202112
248	0x3d9e997c	0.077441186
249	0xbc8ae5d7	-0.0169553
250	0x3df85cfa	0.12127109
251	0x3d132c1b	0.035930734
252	0x3d552efc	0.05204676
253	0xbd5f2257	-0.05447611
254	0x3d62abb7	0.05533954
255	0x3ad4402b	0.001619344

lstm.weight_hh_l1 f4 [200, 50]
0	0xbca589b9	-0.020207273
1	0x3d669f6f	0.05630439
2	0xbdd4ee9d	-0.10397074
3	0x3e0980ad	0.13427992
4	0xbb5cb1b9	-0.0033675267
5	0x3ac6f77a	0.0015179955
6	0xbdbacd62	-0.09121205
7	0x3e1790f2	0.14801386
8	0x3ac2423a	0.0014820762
9	0xbce1e816	-0.027576488
10	0x3d22ebc2	0.039775617
11	0x3de4d0f4	0.11172667
12	0x3df7a963	0.12092855
13	0xbd6cfd5b	-0.057858806
14	0xbdf46424	-0.11933163
15	0xbd8ce4d2	-0.068795815
16	0xbcfe6257	-0.031052751
17	0x3db01499	0.08597679
18	0xbd05af71	-0.032638017
19	0xbe10fa95	-0.1415809
20	0xbdebb79c	-0.1150963
21	0xbdc33105	-0.09530834
22	0xbcc39191	-0.023873122
23	0x3de613d5	0.112342514
24	0x3cd719cc	0.026257418
25	0x3dd6bbe6	0.104850575
26	0xbd782ba4	-0.060588494
27	0xbdd973ae	-0.10617767
28	0xbd84d23a	-0.0648541
29	0x3d1b6e00	0.0379467
30	0xbdb95b43	-0.0905061
31	0x3e2583be	0.16163537
32	0xbdbc3f26	-0.09191732
33	0x3db8fb84	0.09032348
34	0xbe1a7692	-0.15084293
35	0x3d280e09	0.04102901
36	0x3c050adb	0.008120264
37	0x3da9974f	0.08280813
38	0xbc6b2036	-0.014350941
39	0x3deaf7cd	0.114730455
40	0x3d749020	0.05970776
41	0xbdb3b6a0	-0.08775067
42	0x3e025c8b	0.12730615
43	0xbcbc290b	-0.02296879
44	0xbd058b66	-0.032603644
45	0xbdcacbb6	-0.09902136
46	0xbdebc406	-0.11511998
47	0xbe0f75c2	-0.14009765
48	0xbcc6a96c	-0.024250709
49	0xbda3e3df	-0.08002447
50	0x3c8c8228	0.017151907
51	0xbde7b4eb	-0.11313804
52	0x3de3beae	0.11120354
53	0xbe08f699	-0.1337532
54	0xbaf550b7	-0.0018716071
55	0xbdd49c6e	-0.10381399
56	0x3ce6ddc7	0.028181924
57	0xba44bf8d	-0.000750535
58	0x3d84daea	0.06487067
59	0x3d62ffa9	0.055419598
60	0xbdd9bc7d	-0.106316544
61	0x3dd11885	0.10209755
62	0xbdd82e2d	-0.10555682
63	0xbd35d2b2	-0.044390388
64	0xbd96771a	-0.073469356
65	0xbda86633	-0.08222618
66	0x3c62cd36	0.013842871
67	0x3e0390d0	0.1284821
68	0xbdbc10ae	-0.09182869
69	0xbd96624b	-0.07342967
70	0x3dbfaa30	0.093586326
71	0x3d8594e7	0.065225415
72	0x3e0d0314	0.13770705
73	0xbc89558b	-0.016764423
74	0x3dee6ed2	0.11642231
75	0xbd866124	-0.06561497
76	0x3e03f12b	0.12884967
77	0xbdc3444f	-0.09534513
78	0x3dc2c3aa	0.09509976
79	0xbdde1848	-0.10844475
80	0x3d4fcc40	0.050731897
81	0xbc478a84	-0.012179021
82	0xbd9ea55d	-0.07746384
83	0x3d0e869d	0.034796346
84	0x3dd37f0a	0.10326965
85	0xbdc0a169	-0.094057865
86	0x3dffa700	0.124830246
87	0xbd111c9f	-0.035427686
88	0xbe082237	-0.13294302
89	0xbda633fb	-0.08115383
90	0x3c8cbf8e	0.017181184
91	0xbdfc09fe	-0.12306593
92	0xbcbab3ef	-0.022790877
93	0xbdc8f314	-0.098119885
94	0x3e1387f1	0.14407326
95	0x3e12599a	0.14291993
96	0x3e16b651	0.14717986
97	0xbc2d6d61	-0.01058516
98	0xbcd3f5f2	-0.025874112
99	0x3d42d40c	0.047565505
100	0x3e212a72	0.15738848
101	0x3e0d74db	0.13814108
102	0x3d9a6bc7	0.07540088
103	0xbe054701	-0.13015367
104	0x3d010e38	0.0315077
105	0x3d903cc7	0.07042842
106	0x3d0dfd6c	0.03466551
107	0x3d22e13b	0.039765578
108	0x3da88a74	0.08229533
109	0x3e0f6a16	0.14005312
110	0x3d1cf916	0.038323484
111	0xbd7c00fe	-0.061524384
112	0xbc0b70ba	-0.008510763
113	0x3bbe2f46	0.0058039753
114	0x3d84f558	0.06492108
115	0xbdc99521	-0.09842897
116	0xbdaed4db	-0.08536693
117	0xbd9ece2f	-0.0775417
118	0x3d7944d3	0.06085665
119	0x3d6f1eb1	0.05837888
120	0xbdca7a2a	-0.09886582
121	0x3de3e554	0.11127725
122	0x3d3a613a	0.04550288
123	0xbd3b9ebd	-0.04580568
124	0xbd989503	-0.07450297
125	0x3db16643	0.08662083
126	0x3db3185d	0.08744881
127	0x3c3c806d	0.0115052285
128	0x3c867a11	0.016415628
129	0xbe01ad77	-0.12663828
130	0x3e0f5744	0.13998133
131	0xbd97adc7	-0.07406192
132	0xbe000fe5	-0.12506063
133	0xbe19f375	-0.15034278
134	0x3e0692dc	0.1314196
135	0xbd32c490	-0.043644488
136	0xbd8ca045	-0.068665065
137	0xbd9ee5da	-0.077586845
138	0xbe0ad288	-0.13556874
139	0xbde976eb	-0.11399635
140	0xbd6e6344	-0.058200136
141	0xbd8e437d	-0.06946466
142	0xbe02335f	-0.12714909
143	0x3e0e8adc	0.13920158
144	0x3e1d9e9d	0.15392537
145	0x3dc53c66	0.09630661
146	0xbd18091b	-0.03711806
147	0x3df0a62b	0.11750444
148	0xbdcf3cc1	-0.1011901
149	0xbd49dc0b	-0.049282115
150	0xbdb15ae1	-0.08659912
151	0xbe096f9c	-0.13421482
152	0x3da4f063	0.08053663
153	0xbdc7ff77	-0.09765523
154	0x3d752660	0.05985105
155	0x3d52a0f8	0.051423043
156	0x3e0e6410	0.13905358
157	0xbdd72c5a	-0.10506506
158	0xbdf526d7	-0.11970299
159	0xbd9a3d4a	-0.07531221
160	0x3cf3f4b5	0.029779771
161	0x3cd4b660	0.02596587
162	0x3dc77203	0.09738543
163	0xbde1e414	-0.110298306
164	0x3e0a0d14	0.13481551
165	0x3b24b24e	0.0025130692
166	0xbcb0e9e4	-0.021595903
167	0x3c72deac	0.014823597
168	0xbde3e1b2	-0.11127032
169	0x3ccf48ff	0.025303362
170	0x3d4303da	0.047611095
171	0xbd58333d	-0.05278324
172	0xbd83f3aa	-0.064429596
173	0xbe0ca5cc	-0.13735121
174	0x3d7444c5	0.059635896
175	0x3dc6d14c	0.09707889
176	0xbde07f67	-0.109618
177	0x3e038ccd	0.1284668
178	0xbdf061a8	-0.117373765
179	0xbd3cb030	-0.046066463
180	0x3dcc3fa3	0.09973075
181	0x3dbfa78a	0.093581274
182	0xbd1d6f94	-0.038436487
183	0xbd6f8b45	-0.058482427
184	0x3d6d32b0	0.057909667
185	0xbd2ad520	-0.041707158
186	0x3da66333	0.081243895
187	0xbdea54cc	-0.11441955
188	0xbc30f3b1	-0.010800288
189	0x3dc66962	0.09688069
190	0xbd622552	-0.055211373
191	0xbe0a0285	-0.13477524
192	0x3d3c172f	0.045920547
193	0xbe0415e8	-0.12898982
194	0x3d9ecda2	0.07754065
195	0xbba60a91	-0.0050671776
196	0x3dcb021e	0.09912513
197	0xbdad4e5d	-0.08462212
198	0xbdd4a260	-0.10382533
199	0xbc82d7bd	-0.015972013
200	0xbdd9d553	-0.106363915
201	0x3d3df864	0.046379462
202	0x3e0c144c	0.13679618
203	0x3cf4360e	0.029810932
204	0x3dba6674	0.09101573
205	0x3d988be7	0.07448559
206	0x3e0c976d	0.1372964
207	0xbde5ced9	-0.11221094
208	0xbc3112c7	-0.0108076995
209	0xbd706139	-0.05868647
210	0x3c4b2a34	0.012400199
211	0x3b722a15	0.0036951352
212	0x3d5f7c6c	0.054562017
213	0x3e05724e	0.13031885
214	0xbdc2b2d8	-0.09506768
215	0xbddeb78d	-0.10874853
216	0xbc624aad	-0.013811749
217	0xbdb8823f	-0.090092175
218	0xbd23d04d	-0.039993573
219	0xbdb33958	-0.08751172
220	0xbd990d9a	-0.074732974
221	0x3e0d7315	0.13813432
222	0xbc4561df	-0.01204726
223	0xbd85abbe	-0.06526898
224	0x3d3a03fe	0.045413963
225	0xbda1fac6	-0.07909159
226	0x3dcfe70b	0.1015149
227	0xbd89a1dc	-0.06720325
228	0x3dbfbdf4	0.093624026
229	0xbe060743	-0.13088708
230	0xbd9bcb1d	-0.076071
231	0xbe0f52f8	-0.13996494
232	0xbc74f6de	-0.014951436
233	0xbd8793ec	-0.06620011
234	0xbdeb05c6	-0.114757106
235	0xbd0787c7	-0.03308847
236	0x3d0c23f5	0.03421398
237	0x3d5b2c4e	0.05350905
238	0x3d3c2276	0.045931302
239	0x3d8661c9	0.0656162
240	0xbbc2c550	-0.0059439316
241	0xbe0bdf8d	-0.13659497
242	0x3c92982d	0.017894829
243	0xbe0597c6	-0.13046178
244	0x3e148742	0.14504722
245	0x3e108948	0.14114869
246	0xbd3e5afd	-0.046473492
247	0xbd2f9aec	-0.042872354
248	0x3db69fc9	0.08917195
249	0xbbcfab07	-0.0063375267
250	0x3d8e87f7	0.06959527
251	0xbd44d585	-0.04805519
252	0x3d04ad2d	0.032391716
253	0xbc9b9e36	-0.01899634
254	0xbd011602	-0.03151513
255	0xbcad2850	-0.021137387

lstm.bias_ih_l1 f4 [200]
0	0x3d099108	0.03358558
1	0xbdd49195	-0.1037933
2	0x3be543a6	0.0069965897
3	0xbd549ded	-0.051908422
4	0x3caa8c76	0.02081893
5	0xbd9e5067	-0.07730179
6	0x3c631f15	0.013862391
7	0x3d8513b6	0.064979
8	0xbd66b6e1	-0.05632675
9	0xbd82bd47	-0.06383758
10	0xbc8cb8a1	-0.017177882
11	0x3dd50294	0.10400882
12	0xbdddeace	-0.10835801
13	0xbd097aa5	-0.03356423
14	0x3de45437	0.11148875
15	0xbb23c9c4	-0.0024992088
16	0xbd118865	-0.035530467
17	0x3df1b647	0.11802345
18	0x3e28d601	0.16487886
19	0xbda30c0b	-0.079612814
20	0x3cae162b	0.021250805
21	0x3cc10237	0.023560626
22	0x3dcbc187	0.09949022
23	0xbca71ebf	-0.020400403
24	0xbcd2eea4	-0.025748558
25	0xbdd93a36	-0.10606806
26	0xbd434529	-0.04767338
27	0xbdfd570d	-0.12370119
28	0xbd4d65b5	-0.050145824
29	0x3d4654dd	0.048420776
30	0xbdaf7c74	-0.085686594
31	0xbde6238e	-0.1123725
32	0x3db0b770	0.08628738
33	0xbdad70c2	-0.084687725
34	0x3de33324	0.11093739
35	0x3b12ac71	0.0022380615
36	0x3e02b318	0.12763631
37	0xbc6d3673	-0.014478314
38	0xbd242f76	-0.040084325
39	0x3dbfbc30	0.09362066
40	0xbdc3c2a8	-0.09558612
41	0x3d8358d0	0.06413424
42	0xbd10b2bb	-0.0353267
43	0x3d4917df	0.04909503
44	0x3c679161	0.014133782
45	0xbcf75d2e	-0.030195799
46	0xbd826c74	-0.06368342
47	0xbe082937	-0.13296972
48	0xbdbd3638	-0.09238857
49	0xbdfc4e3e	-0.12319611
50	0x3badef68	0.0053080805
51	0xbc52cec8	-0.012866683
52	0xbd8162c1	-0.06317664
53	0x3e09080b	0.13381974
54	0x3d3a5dfd	0.04549979
55	0xbd94187d	-0.07231233
56	0xbd7c3bbf	-0.061580416
57	0x3e0c50a8	0.13702643
58	0x3d27b862	0.040947326
59	0xbc921f8a	-0.017837305
60	0xbdd8eb81	-0.10591794
61	0x3e1d1124	0.1533857
62	0x3d17abde	0.03702914
63	0xbe120751	-0.14260603
64	0x3bbb245c	0.0057111215
65	0xbd85090e	-0.06495868
66	0xbca0f99e	-0.019650277
67	0xbd73b9a6	-0.05950322
68	0x3df7dcc6	0.12102656
69	0xbd16e5c2	-0.036840208
70	0xbd70a093	-0.058746886
71	0xbdc6b2ce	-0.09702073
72	0x3da378dc	0.079820365
73	0x3de8eb7a	0.113730386
74	0xbd014cb3	-0.031567287
75	0xbdee7dc8	-0.116450846
76	0x3cdcbd3f	0.026945708
77	0xbd73bb92	-0.059505053
78	0xbd95b7da	-0.073104575
79	0x3df153b0	0.1178354
80	0x3d7802ed	0.060549665
81	0xbd65551f	-0.05598938
82	0x3de609e4	0.11232355
83	0xba9e9b9a	-0.0012100816
84	0x3da58f7d	0.08084009
85	0x3de47634	0.11155358
86	0x3e01b61e	0.12667128
87	0xbb8284ba	-0.0039831074
88	0x3d235245	0.03987338
89	0x3c1bcacc	0.0095088
90	0x3d6e4982	0.05817557
91	0x3cebdfdf	0.028793273
92	0x3c75256f	0.014962538
93	0x3de06287	0.109562926
94	0xbd1e1239	-0.038591597
95	0x3e136f6c	0.14397973
96	0x3e245227	0.16046964
97	0x3d32f7d9	0.043693397
98	0x3ddabf5b	0.106810294
99	0xbbdd14c7	-0.0067468616
100	0x3dd3a1e1	0.1033361
101	0xbbafde71	-0.0053670933
102	0x3df3a65e	0.118969664
103	0x3c1d8a86	0.009615546
104	0x3dcd909f	0.1003735
105	0xbd30bbf0	-0.04314798
106	0x3d46d96c	0.048547193
107	0xbd5ba887	-0.053627517
108	0x3d5336e6	0.051566027
109	0x3dc42616	0.09577577
110	0x3e15b4e1	0.14619781
111	0x3d95217e	0.07281779
112	0xbde84d0e	-0.11342822
113	0x3dd65adc	0.10466549
114	0x3e0c50c8	0.1370269
115	0x3b81d921	0.0039626514
116	0x3dcce4aa	0.10004552
117	0x3db9bfeb	0.090698086
118	0x3db63f5a	0.08898802
119	0x3df4bcea	0.11950095
120	0x3d623c7d	0.055233467
121	0xbcade6aa	-0.021228153
122	0xbc59565c	-0.013265219
123	0x3e15b9ab	0.14621608
124	0xbdf98439	-0.121834226
125	0x3d34d306	0.04414656
126	0x3db8f13d	0.090303876
127	0xbda013d0	-0.07816279
128	0x3e14f93d	0.14548202
129	0xbdbf1adb	-0.09331294
130	0xbde52207	-0.11188131
131	0xbd14e703	-0.036353122
132	0xbde22fcd	-0.110442735
133	0xbdbc45b8	-0.09192985
134	0x3d91fbae	0.07128082
135	0x3cbb7e11	0.022887262
136	0x3dbb9eab	0.09161123
137	0xbd5fdebd	-0.05465578
138	0xbe12ce8c	-0.14336604
139	0x3dd6efea	0.10494979
140	0xbe298d2c	-0.16557759
141	0xbe1b3214	-0.15155822
142	0xbd11548b	-0.035481017
143	0xbdb9b984	-0.090685874
144	0x3c8aa9a2	0.01692659
145	0x3d952cc9	0.07283933
146	0x3dc3fed3	0.09570088
147	0x3d4f7f5b	0.050658565
148	0x3c8cbe9e	0.017180737
149	0xbc58e7b3	-0.013238835
150	0x3da6494c	0.08119449
151	0x3e004416	0.12525973
152	0xbd956b13	-0.072958134
153	0xbce61b58	-0.02808921
154	0x3e12a8ac	0.14322156
155	0xbccc01aa	-0.024903137
156	0xbe197baf	-0.14988588
157	0x3de3b17a	0.11117835
158	0xbd1276fd	-0.035758007
159	0xbccd68be	-0.025074359
160	0x3c7b0251	0.0153203765
161	0x3dbc63c7	0.091987185
162	0xbddf2967	-0.10896569
163	0xbe06b13a	-0.13153544
164	0xbddf02b0	-0.108891845
165	0xba9c2387	-0.0011912443
166	0x3da23e05	0.079219855
167	0x3e0cf4bf	0.13765238
168	0xbdbd5be5	-0.09246043
169	0x3b272f7d	0.0025510483
170	0xba540447	-0.00080877956
171	0x3d18365c	0.037161216
172	0x3e08883f	0.13333224
173	0x3da38879	0.079850145
174	0x3db59f1a	0.08868237
175	0x3df068a1	0.117387064
176	0x3d4343d3	0.047672104
177	0x3e023b5e	0.1271796
178	0xbd9c8f61	-0.07644535
179	0xbe016048	-0.12634385
180	0x3e1649b1	0.14676549
181	0x3daea751	0.08528007
182	0xbdae270b	-0.085035406
183	0xbc8af137	-0.016960723
184	0xbdea07b5	-0.11427251
185	0x3da74f90	0.08169472
186	0xbc4fb015	-0.012676259
187	0xbd4ce4ff	-0.050023075
188	0x3e22f790	0.1591475
189	0x3d7040c8	0.05865553
190	0x3c23193a	0.009954745
191	0x3bb3cc28	0.005486984
192	0x3d38bd98	0.045102686
193	0x3de0477e	0.10951136
194	0x3d91ac60	0.07112956
195	0x3dd1a078	0.10235685
196	0x3d67797f	0.056512352
197	0xbd401c89	-0.046902213
198	0x3d6ee738	0.058325976
199	0xbdb23159	-0.087008186

lstm.bias_hh_l1 f4 [200]
0	0xbd8917ad	-0.06693969
1	0xbcfe276c	-0.031024657
2	0xbd833016	-0.06405656
3	0xbc2781e4	-0.010223839
4	0x3dd53910	0.104112744
5	0xbd773b58	-0.06035933
6	0x3d8b2d52	0.067957535
7	0x3d0e3e2a	0.034727253
8	0xbcb377c4	-0.021907695
9	0x3d932753	0.07185235
10	0x3e1447ac	0.14480466
11	0xbc597761	-0.013273091
12	0x3d7664f6	0.060154878
13	0x3cbedd83	0.023298984
14	0xbd5293f3	-0.051410627
15	0xbd388a4f	-0.045053776
16	0xbdcb9f44	-0.09942487
17	0x3a4cd4b3	0.0007813677
18	0xbd98df82	-0.07464506
19	0xbda3a5f6	-0.07990639
20	0x3da88e3e	0.082302555
21	0x3dde2fdf	0.108489744
22	0x3da721fb	0.08160778
23	0x3c8fc1b2	0.017548416
24	0x3e04c8ca	0.1296722
25	0xbe092f94	-0.13397056
26	0xbdf60a98	-0.12013739
27	0x3db4f4ef	0.0883578
28	0xbd2e1f6d	-0.04251044
29	0x3dbfae45	0.09359411
30	0xbcc4a4e3	-0.024004405
31	0x3e2334e8	0.15938151
32	0x3d291a4d	0.041284848
33	0x3d0175bf	0.031606432
34	0x3e157944	0.1459704
35	0xbc8fd861	-0.017559232
36	0x3d09d3d5	0.033649284
37	0xbcd15f3b	-0.025558105
38	0xbc37264e	-0.011178566
39	0x3de495f4	0.11161414
40	0xbb8c69fb	-0.004285095
41	0xbdc5d5cc	-0.09659919
42	0x3d9227b4	0.07136479
43	0xbda7cfb1	-0.08193911
44	0xbd63a8f8	-0.055581063
45	0xbc1d504f	-0.009601667
46	0xbdc03ea0	-0.09386945
47	0x3dadaed6	0.08480613
48	0xbd7fd60b	-0.062459987
49	0x3c68c6ba	0.014207536
50	0xbd910049	-0.070801325
51	0xbdcdb20a	-0.10043724
52	0x3d1a7e1f	0.037717935
53	0x3d7395cb	0.059469026
54	0x3e210c28	0.15727293
55	0x3d9d7351	0.076880105
56	0x3cd8f7d0	0.026485354
57	0x3e074638	0.1321038
58	0x3e19f548	0.15034974
59	0x3e2d3d84	0.16917998
60	0x3e1741fd	0.14771266
61	0xbdf28aa8	-0.11842853
62	0xbd1792af	-0.037005123
63	0x3d9d8ba6	0.076926515
64	0xbd8a0aff	-0.067403786
65	0x3d3c54e4	0.045979396
66	0x3dd69c72	0.10479058
67	0x3d94dec2	0.0726905
68	0x3d8f126d	0.06985936
69	0x3db38a5b	0.087666236
70	0x3dd8cc84	0.10585883
71	0x3d62a192	0.055329867
72	0xbdb78da4	-0.08962563
73	0x3e19c679	0.15017118
74	0x3de35f3e	0.111021504
75	0xbd2fb256	-0.042894684
76	0xbd2b92a0	-0.04188788
77	0x3cb23ba6	0.021756958
78	0x3cf4ee29	0.02989872
79	0xbe1c0a4e	-0.15238306
80	0xbcb97095	-0.022636691
81	0x3e145abb	0.14487736
82	0xbe0a7d85	-0.13524444
83	0x3e1dab00	0.15397263
84	0xbde1bd51	-0.11022437
85	0x3d93ebed	0.07222734
86	0x3d930dd5	0.071803726
87	0xbda84d96	-0.08217923
88	0x3d684875	0.056709725
89	0xbd677d3e	-0.056515925
90	0x3b32db91	0.0027291516
91	0x3bd8f565	0.00662105
92	0x3d119b44	0.035548463
93	0x3c845545	0.01615394
94	0xb67bbae8	-3.7510708e-06
95	0xbc85dd6d	-0.016340936
96	0xbdaca782	-0.08430387
97	0xbe05993e	-0.13046739
98	0x3e1a2351	0.15052535
99	0xbd716ef3	-0.0589437
100	0x3dc1ba71	0.09459389
101	0x3d62f78d	0.055411864
102	0x3c4d0b8a	0.012514958
103	0xbde1d540	-0.11027002
104	0x3d9fd88b	0.07804974
105	0x3e04fb97	0.12986599
106	0x3e075c2f	0.13218759
107	0xbe1520d0	-0.14563298
108	0x3d929749	0.071577616
109	0x3dcc4534	0.09974137
110	0xbda380ec	-0.07983574
111	0xbda90cf0	-0.08254421
112	0x3c69e720	0.014276296
113	0x3cee6e80	0.029105425
114	0xbd190aea	-0.037363924
115	0xbe13eaf1	-0.14445092
116	0x3d81bf51	0.06335319
117	0x3e1077ee	0.1410825
118	0x3c61524c	0.013752531
119	0xbbd9cc58	-0.006646674
120	0x3ccdbadf	0.025113521
121	0x3da0dfff	0.07855224
122	0x3e0640ec	0.13110703
123	0xbb8b578f	-0.004252381
124	0xbda1c413	-0.07898726
125	0xbde6fc4e	-0.11278592
126	0x3d11714d	0.035508443
127	0xbe07cf7d	-0.13262744
128	0xbc1381c5	-0.009003107
129	0xbca67862	-0.020321075
130	0x3e07fc0c	0.13279742
131	0xbe1f7f2c	-0.15575856
132	0x3d071743	0.03298117
133	0xbdb78593	-0.08961024
134	0xbd9621ee	-0.0733069
135	0xbd95c36d	-0.07312665
136	0xbdc83c18	-0.09777087
137	0xbdd7596f	-0.10515105
138	0x3d3d3bcd	0.04619961
139	0x3e01d224	0.12677819
140	0x3d83c07b	0.06433197
141	0x3d3a1156	0.04542669
142	0x3c86604c	0.01640334
143	0x3debfcc4	0.115228206
144	0x3e23d563	0.1599937
145	0xbd25ff96	-0.04052695
146	0x3d705ff0	0.058685243
147	0x3da77e0f	0.08178341
148	0x3ddbed38	0.10738605
149	0x3dfda1e5	0.123843946
150	0xbe04350c	-0.12910861
151	0xbd2d620b	-0.04232983
152	0x3ba7df9d	0.0051230923
153	0xbded3f30	-0.11584318
154	0x3d9ba5a4	0.07599953
155	0x3de33bd2	0.11095394
156	0x3c836029	0.016037064
157	0x3c1c2637	0.0095305955
158	0x3e1c8c4a	0.15287891
159	0x3d30dbfd	0.043178547
160	0x3d155b5c	0.03646408
161	0xbd6cede2	-0.05784405
162	0xbe1c8d3a	-0.15288249
163	0xbdcea724	-0.10090473
164	0xbdb3071e	-0.08741592
165	0x3d994777	0.07484334
166	0xbda4ce5b	-0.08047172
167	0x3dcf942b	0.10135683
168	0xbc4a6d5c	-0.012355175
169	0xbd251a3e	-0.04030823
170	0x3a798f27	0.00095199276
171	0xbd99ff16	-0.07519357
172	0x3e150c58	0.1455549
173	0x3db21e98	0.086972415
174	0x3e05c5a8	0.13063681
175	0xbdb72827	-0.08943205
176	0xbdaec3e5	-0.08533458
177	0xbe0ba4b7	-0.13637052
178	0xbd43ca22	-0.04780019
179	0x3dea4b37	0.11440127
180	0xbc7f32fd	-0.015576121
181	0xbcdf5529	-0.027262287
182	0xbdc82647	-0.09772926
183	0xbc661999	-0.014044189
184	0xbd6eb907	-0.058281925
185	0x3d4106d9	0.04712567
186	0x3de73fbe	0.11291455
187	0x3d84f60a	0.06492241
188	0xbd847641	-0.06467868
189	0xbd24e616	-0.04025849
190	0xbdb8c137	-0.09021228
191	0xbc29dd23	-0.0103676645
192	0x3d643f3c	0.055724367
193	0xbd023d0d	-0.031796504
194	0x3d0c2bcb	0.03422145
195	0xbdf9e872	-0.122025385
196	0x3dce7390	0.100806355
197	0x3d27da86	0.040979885
198	0x3e010eeb	0.12603347
199	0x3de76492	0.11298479

fc.weight f4 [1, 50]
0	0xbdc93f17	-0.098264866
1	0x3d460c8b	0.048351806
2	0x3d73c33b	0.05951236
3	0xbd75d1b5	-0.060014445
4	0x3da35dd8	0.07976884
5	0x3e128a08	0.14310467
6	0xbc8f1c2d	-0.01746949
7	0xbd78f9af	-0.06078499
8	0x3d8a601e	0.06756614
9	0x3c870f18	0.01648669
10	0x3d871703	0.06596186
11	0xbd2b14dc	-0.04176794
12	0x3bd3b7d9	0.0064611253
13	0xbda31067	-0.07962113
14	0x3dbf70c6	0.09347682
15	0xbd376f74	-0.044784024
16	0x3e03b4c0	0.1286192
17	0x3d2ab18d	0.041673232
18	0x3d076f2a	0.033065
19	0x3d911b47	0.07085281
20	0x3d068cd7	0.03284916
21	0x3d913172	0.07089509
22	0x3d884b90	0.066550374
23	0x3db6233f	0.088934414
24	0xbd28491b	-0.041085344
25	0xbd4a0450	-0.04932052
26	0xbdc19202	-0.09451677
27	0xbd43a438	-0.047764033
28	0x3c92c0b1	0.017914148
29	0x3cbe27e6	0.023212384
30	0x3e045b7d	0.12925525
31	0xbe0e0e5b	-0.13872664
32	0x3d13f273	0.03611989
33	0xbd86c22f	-0.06580006
34	0x3e0851b9	0.13312425
35	0xbcb15969	-0.02164908
36	0xbdf8c996	-0.121478245
37	0x3ce44507	0.027864946
38	0xbd3800c2	-0.044922598
39	0x3e07c187	0.13257419
40	0xbe041825	-0.12899835
41	0xbd97ed8e	-0.07418357
42	0x3d388f52	0.045058556
43	0xbdba7e54	-0.091061264
44	0x3e0d24aa	0.13783517
45	0x3dcf0ead	0.10110221
46	0x3d38831d	0.045046914
47	0xbc7a1542	-0.015263857
48	0x3e028053	0.12744264
49	0xba11650c	-0.0005546368
