data/models/AAPL_20251215_182214.pt (torch, 128853 bytes, 9 tensors)

lstm.weight_ih_l0 f4 [200, 1]
-0.09172976 0.041434262 0.1108406 -0.12025538 0.0025189847 0.044650123 0.11166202 0.010297539
-0.011455554 -0.0059257434 0.03958384 0.084065154 0.08006254 0.015950039 -0.024718521 0.08583389
-0.06706636 0.092526816 -0.1412688 0.10586305 0.15902688 0.09947336 0.13371944 -0.10716703
-0.054786056 0.13328353 -0.13439752 -0.121498734 0.11415459 -0.11965859 0.07941571 0.09343106
0.035869036 -0.0048020226 0.02245988 -0.1322835 -0.08152178 -0.035849124 0.026346548 -0.01299781
-0.05264748 0.1031126 0.13164386 0.017359352 -0.040824 -0.09250664 0.089076094 0.00724806
-0.11166317 0.055412788 0.06037116 0.10073992 -0.0585713 0.09371436 -0.09208787 -0.11932658
-0.054759357 -0.063566834 -0.082316965 -0.075019725 0.15124086 -0.009297767 0.028479869 -0.13634709
0.07042331 0.13620353 0.13708617 0.019367298 -0.014535948 0.015549114 -0.09074235 0.12155491
0.07750026 -0.06398805 -0.024137352 -0.06713688 0.041119564 0.060029164 0.044425014 0.09591635
-0.12987211 -0.12040497 0.057973873 0.11593184 -0.09770075 0.08736733 -0.022853574 0.15920317
-0.086290136 -0.10193184 0.01621747 -0.05673242 -0.11790023 -0.11077855 -0.03790435 -0.1348883
0.00820095 -0.108600214 0.057860844 -0.13003507 0.08128019 0.1534653 0.10472972 0.015447931
-0.030457975 -0.14297932 0.0027327056 0.13043289 0.04626224 0.0751635 0.0846915 -0.10659652
-0.012474845 -0.037369456 -0.077504784 -0.13510358 -0.053129666 0.033414245 0.124143094 -0.053084455
-0.015875176 -0.010698511 0.008926316 0.033104114 -0.11662744 0.14285198 0.06198092 -0.09656021
-0.06828714 -0.05360529 -0.0377275 0.09142012 -0.010873247 0.0694243 0.094015874 -0.11313981
-0.022087675 0.050193045 0.100538686 -0.049599722 0.100082844 -0.101308174 -0.019206565 -0.14183794
-0.08832979 0.12737937 0.13118659 0.089300625 0.012508724 0.09949034 0.10577525 0.11251297
-0.06829356 -0.0909547 -0.08446959 0.06626304 0.1306984 -0.023769988 0.13425873 0.049378566
0.12239001 -0.057938267 -0.07968822 0.09636259 -0.114022285 -0.030631363 -0.11597063 0.05238137
-0.08696792 -0.043103337 -0.047730017 0.022177523 0.046164986 -0.060840692 -0.022031546 0.015068215
-0.12025169 -0.12090339 0.04932092 0.07384194 -0.15131359 0.10997215 0.0797328 -0.04865614
-0.038289327 -0.12622947 0.06264908 0.14385624 -0.00475873 0.1536622 -0.13381219 0.12960811
-0.091192596 -0.10651423 -0.1007941 -0.13790952 0.026727282 0.0930971 -0.12857875 -0.012412301
00000000: d0dc bbbd f9b6 293d 6600 e33d 7448 f6bd
00000010: 8d15 253b 0ce3 363d 0faf e43d 02b7 283c
00000020: 13b0 3bbc bd2c c2bb aa22 223d 5a2a ac3d
00000030: d4f7 a33d a8a9 823c 7f7e cabc aec9 af3d
00000040: 165a 89bd b37e bd3d c5a8 10be bace d83d
00000050: f1d7 223e b0b8 cb3d c0ed 083e 637a dbbd
00000060: 5867 60bd 7a7b 083e 819f 09be 54d4 f8bd
00000070: e2c9 e93d 900f f5bd b4a4 a23d c958 bf3d
00000080: 69eb 123d 495a 9dbb c8fd b73c 5375 07be
00000090: e4f4 a6bd 88d6 12bd b7d4 d73c c4f4 54bc
000000a0: e2a4 57bd b32c d33d a6cd 063e 3335 8e3c
000000b0: 1137 27bd 1f74 bdbd 876d b63d 2281 ed3b
000000c0: a9af e4bd 85f8 623d c047 773d bb50 ce3d
000000d0: 76e8 6fbd 50ed bf3d 9198 bcbd 7e61 f4bd
000000e0: 594b 60bd 542f 82bd cc95 a8bd f1a3 99bd
000000f0: e2de 1a3e a955 18bc 9d4e e93c 929e 0bbe
00000100: 193a 903d f078 0b3e 5160 0c3e 2ba8 9e3c
00000110: 2f28 6ebc b6c1 7e3c 20d7 b9bd c8f1 f83d
00000120: 75b8 9e3d 2b0c 83bd b2bb c5bc 0f7f 89bd
00000130: fd6c 283d 24e1 753d 01f7 353d cb6f c43d
00000140: 32fd 04be e296 f6bd 0376 6d3d ac6d ed3d
00000150: 5517 c8bd a5ed b23d 6b37 bbbc 2806 233e
00000160: e2b8 b0bd a4c1 d0bd 80da 843c 4160 68bd
00000170: ad75 f1bd dddf e2bd 9741 1bbd 2920 0abe
00000180: 475d 063c ca69 debd 7eff 6c3d ea27 05be
00000190: 3a76 a63d 0226 1d3e 897c d63d 5219 7d3c
000001a0: 0183 f9bc 2c69 12be 3117 333b 3390 053e
000001b0: 797d 3d3d 52ef 993d bd72 ad3d 474f dabd
000001c0: 4b63 4cbc b710 19bd d4ba 9ebd 9858 0abe
000001d0: 7e9e 59bd 60dd 083d bc3e fe3d 166f 59bd
000001e0: a80c 82bc cf48 2fbc af3f 123c 2e98 073d
000001f0: 5eda eebd ca47 123e b5df 7d3d 5cc1 c5bd
00000200: 21da 8bbd 3891 5bbd 2788 1abd 793a bb3d
00000210: b425 32bc 542e 8e3d 658b c03d d8b5 e7bd
00000220: 36f1 b4bc 3997 4d3d 3ae7 cd3d 1429 4bbd
00000230: 3cf8 cc3d a97a cfbd 1657 9dbc f73d 11be
00000240: 40e6 b4bd bd6f 023e c755 063e 3fe3 b63d
00000250: 64f1 4c3c 97c1 cb3d b2a0 d83d 336d e63d
00000260: 7edd 8bbd 7546 babd 64fe acbd ebb4 873d
00000270: cdd5 053e 47b9 c2bc 1f7b 093e 2e41 4a3d
00000280: 9da7 fa3d ad50 6dbd 9433 a3bd c059 c53d
00000290: 8484 e9bd a0ee fabc 0282 edbd d98d 563d
000002a0: 3d1c b2bd 208d 30bd 8d80 43bd a3ad b53c
000002b0: 7f17 3d3d 1734 79bd 807b b4bc ade0 763c
000002c0: 8546 f6bd 329c f7bd bc04 4a3d 713a 973d
000002d0: f3f1 1abe 1439 e13d f34a a33d a94b 47bd
000002e0: 45d5 1cbd 4c42 01be 294e 803d 0d4f 133e
000002f0: 1fef 9bbb a059 1d3e 1006 09be fdb7 043e
00000300: 2fc3 babd 2224 dabd 236d cebd 2738 0dbe
00000310: 2cf3 da3c b1a9 be3d 26aa 03be f75c 4bbc

lstm.weight_hh_l0 f4 [200, 50]
0.13552427 -0.033853922 -0.07225864 0.1222502 -0.04057837 -0.077068344 0.053366367 0.13373989
-0.12720554 0.07091311 -0.028724484 -0.10130107 0.013154679 0.07430571 0.09470762 0.13579178
0.054691143 -0.020711748 0.02096705 -0.12134259 -0.020971589 -0.12601586 -0.09841467 0.12630278
-0.11885443 0.09179997 0.12243353 -0.022053959 -0.0022625562 -0.06652387 0.08416286 0.11413699
-0.08117096 0.066589825 0.056816604 0.061892077 0.0047123334 0.08358679 -0.13544929 0.06952713
-0.08468861 -0.13527781 -0.13923776 0.026670868 -0.13048616 -0.101548746 0.08089093 -0.06189295
0.055570744 -0.13084 -0.023968322 0.14428508 0.12585351 0.14244843 -0.050404478 -0.09116128
-0.08394713 0.0396981 0.0112972995 0.082511745 -0.058993097 -0.067573875 0.13803391 -0.05214168
-0.09819288 -0.059007734 0.050407838 -0.027574563 0.06119229 -0.13035552 -0.07095102 0.09987764
0.06535555 0.032953937 -0.030512368 0.13206859 0.11724052 0.0731325 0.105518654 -0.019049302
-0.14511551 -0.049961302 -0.056079276 0.1225712 -0.037524033 0.0674386 0.09783918 -0.122955404
-0.0018552046 -0.010217084 0.05479953 0.07487759 -0.14740694 -0.122367114 -0.027712004 0.09230236
-0.04313441 0.0501497 0.064984165 0.15398833 0.053123113 0.12591867 0.030669246 0.11600672
-0.09706663 -0.08840028 0.041076157 -0.009315742 -0.09988836 0.073544 0.099354915 0.10519199
-0.12338514 -0.10351925 -0.14793576 -0.010302062 -0.034635223 -0.0058507267 -0.095542856 0.05103847
-0.1122828 -0.07112106 -0.101240605 -0.08569511 -0.123546794 0.052029207 0.119967744 -0.14753842
-0.03874312 0.024966132 0.033032134 -0.009665585 -0.10658936 0.120402604 -0.026498009 0.03339232
-0.12639661 0.08881466 0.12333755 -0.05145153 -0.09019085 0.0649688 -0.106593214 -2.5072644e-05
-0.09309696 0.024940178 0.09470719 0.063123964 0.0061829938 -0.07071279 0.0009240264 0.025490662
-0.0751817 0.09323401 -0.11823575 0.028605418 0.07813546 -0.10110078 -0.15504283 0.09849614
0.10428963 0.14138272 -0.12260266 -0.098760754 0.11755618 0.040067594 -0.028323451 -0.082762174
-0.110191174 -0.049514346 -0.033512473 0.07369276 -0.09735246 -0.10502853 -0.07169499 -0.044826146
-0.014495136 -0.09782368 0.06330546 -0.033763777 -0.08884886 0.041236002 -0.12213656 -0.10321537
-0.15686499 0.102519326 -0.05221965 -0.06508394 -0.16184494 -0.13409622 0.14609358 -0.15163966
-0.115158185 -0.088580534 -0.033365138 0.0063067693 -0.11255169 0.0700254 -0.07994286 -0.07271936
0.13942553 -0.08199619 -0.029043175 0.049912665 0.035278976 0.046771776 0.016357794 0.045325916
0.11372155 0.06939696 -0.11244045 0.029092915 0.009187855 -0.019499974 -0.09562537 -0.053810984
-0.015495413 -0.09885271 -0.104530804 -0.12679084 0.008340835 -0.12156963 -0.13087012 -0.059263483
-0.019420868 0.10710768 -0.010178492 -0.06855975 -0.04920565 -0.07370999 0.10096317 0.060506545
0.017507356 -0.0039704954 0.05529819 0.028714418 0.035360407 0.07853926 0.14129075 0.084891826
0.015461652 -0.124265134 -0.10338244 -0.08877651 -0.09847157 0.07401572 -0.12159378 0.07680241
-0.009657974 0.031300157 -0.095115595 -0.01442685 0.05257317 0.10215121 0.10087667 0.12753592
00000000: e0c6 0a3e 69aa 0abd 56fc 93bd 505e fa3d
00000010: 8135 26bd 02d6 9dbd b196 5a3d 1cf3 083e
00000020: 2b42 02be e53a 913d 9c4f ebbc ef76 cfbd
00000030: b986 573c 982d 983d 12f6 c13d 000d 0b3e
00000040: d203 603d afab a9bc 17c3 ab3c 7782 f8bd
00000050: 9ccc abbc 4d0a 01be a18d c9bd 8455 013e
00000060: f469 f3bd 9f01 bc3d 6ebe fa3d 81aa b4bc
00000070: 6547 14bb ab3d 88bd 945d ac3d a7c0 e93d
00000080: f63c a6bd 3f60 883d 87b8 683d 8c82 7d3d
00000090: eb69 9a3b 8d2f ab3d 38b3 0abe 3d64 8e3d
000000a0: 3971 adbd 4486 0abe 5894 0ebe dd7c da3c
000000b0: 2a9e 05be caf8 cfbd 25aa a53d 7683 7dbd
000000c0: 269e 633d ecfa 05be 3759 c4bc 78bf 133e
000000d0: bedf 003e 00de 113e ed74 4ebd c4b2 babd
000000e0: 79ec abbd 7a9a 223d 4f18 393c ebfb a83d
000000f0: bfa2 71bd 2c64 8abd c358 0d3e 8492 55bd
00000100: 5919 c9bd 18b2 71bd 7378 4e3d 0de4 e1bc
00000110: c4a4 7a3d eb7b 05be c54e 91bd a68c cc3d
00000120: 21d9 853d b5fa 063d 13f5 f9bc fd3c 073e
00000130: cc1b f03d 7ec6 953d 2a1a d83d 480d 9cbc
00000140: 2999 14be 39a4 4cbd 62b3 65bd 9c06 fb3d
00000150: cdb2 19bd 401d 8a3d e85f c83d 0bd0 fbbd
00000160: 562a f3ba 8e65 27bc 7975 603d 6c59 993d
00000170: d8f1 16be 9c9b fabd 4904 e3bc 0509 bd3d
00000180: b5ad 30bd c669 4d3d 6b16 853d 1eaf 1d3e
00000190: 9f97 593d d3f0 003e 123e fb3c ee94 ed3d
000001a0: dfca c6bd 350b b5bd 793f 283d 0ea1 18bc
000001b0: 4592 ccbd 3d9e 963d 977a cb3d e66e d73d
000001c0: 59b1 fcbd e701 d4bd 797c 17be fbc9 28bc
000001d0: aadd 0dbd 74b7 bfbb f9ab c3bd b70d 513d
000001e0: 86f4 e5bd eba7 91bd 3c57 cfbd eb80 afbd
000001f0: 1a06 fdbd 941c 553d a6b1 f53d 5014 17be
00000200: 1bb1 1ebd c685 cc3c b44c 073d 675c 1ebc
00000210: 864b dabd a495 f63d 5a12 d9bc 63c6 083d
00000220: 1d6e 01be 76e4 b53d 6698 fc3d d7be 52bd
00000230: fbb5 b8bd 5d0e 853d 8b4d dabd 1853 d2b7
00000240: 9ea9 bebd 584f cc3c d8f5 c13d 2347 813d
00000250: b69a ca3b ded1 90bd 5d3a 723a cbd1 d03c
00000260: ddf8 99bd 79f1 be3d 9625 f2bd e955 ea3c
00000270: 7c05 a03d ed0d cfbd 8cc3 1ebe 58b8 c93d
00000280: cd95 d53d a2c6 103e 1a17 fbbd 1443 cabd
00000290: 4bc1 f03d eb1d 243d 9506 e8bc 377f a9bd
000002a0: e9ab e1bd 8ecf 4abd 6044 09bd 3bec 963d
000002b0: ba60 c7bd 3319 d7bd d3d4 92bd 9f9b 37bd
000002c0: 027d 6dbc c857 c8bd 4ba6 813d e34b 0abd
000002d0: 64f6 b5bd 15e7 283d bc22 fabd 9462 d3bd
000002e0: 37a1 20be a7f5 d13d 46e4 55bd bb4a 85bd
000002f0: aeba 25be 8550 09be 8e99 153e 6d47 1bbe
00000300: 0ed8 ebbd b669 b5bd e2a9 08bd 04a9 ce3b
00000310: 8081 e6bd 7a69 8f3d 15b9 a3bd e3ed 94bd
00000320: 91c5 0e3e 9eed a7bd f4eb edbc 3971 4c3d
00000330: b080 103d c393 3f3d c800 863c aba7 393d
00000340: d8e6 e83d fe1f 8e3d 2e47 e6bd 4454 ee3c
00000350: a888 163c 69be 9fbc 3cd7 c3bd e868 5cbd
00000360: 79e0 7dbc 4a73 cabd 3f14 d6bd 75d5 01be
00000370: ffa7 083c 80f9 f8bd d102 06be 44be 72bd
00000380: 8318 9fbc 455b db3d b1c3 26bc 0e69 8cbd
00000390: dd8b 49bd 43f5 96bd c7c5 ce3d b6d5 773d
000003a0: 966b 8f3c ee1a 82bb 5b80 623d 803a eb3c
000003b0: 13d6 103d 31d9 a03d 86ae 103e c4db ad3d
000003c0: de52 7d3c b87e febd 2cba d3bd 75d0 b5bd
000003d0: 76ab c9bd 8e95 973d 2906 f9bd 954a 9d3d
000003e0: 7b3c 1ebc 9834 003d f7cb c2bd 985e 6cbc
000003f0: f756 573d a734 d13d 6d98 ce3d c798 023e

lstm.bias_ih_l0 f4 [200]
-0.009881653 -0.042098608 0.099190734 0.0712509 -0.10875456 0.045275178 -0.026946463 0.06646969
-0.115474045 0.12032009 -0.060764264 0.14232567 0.046092 0.01858539 -0.13114135 -0.12311005
0.15454994 -0.118648626 -0.088625565 -0.031967107 0.006798565 -0.10446436 -0.100807875 -0.077155225
-0.079410516 -0.029388068 -0.055819217 -0.12525836 0.07876099 0.05290605 -0.064221464 0.09335871
0.15217759 -0.04194586 0.045956273 -0.012736442 -0.09222215 -0.033256046 -0.067044444 0.016472807
0.09557193 0.023494672 0.059502196 -0.04298624 -0.15104349 0.12089503 -0.028275982 -0.13508095
-0.102945365 -0.11796629 -0.022994014 0.050639123 0.04758677 0.054824267 -0.078432 0.08772358
0.12649013 -0.1138959 0.061548553 -0.12787579 0.10305354 0.13678671 -0.09427537 -0.043153692
-0.103259705 0.11030904 0.00020552363 0.09747927 0.07589238 -0.12230958 -0.06042108 0.124790095
0.12819476 0.14110953 0.10939277 0.06806767 -0.14579782 -0.033793792 0.1433506 -0.02929379
0.05579746 -0.04663616 -0.105223514 -0.031233946 0.07757426 0.13139863 -0.07258472 0.091024026
0.026398234 -0.105702214 0.12885468 -0.008066516 0.024547013 0.15108554 -0.049844604 -0.08270182
-0.00020009298 -0.055233162 0.03989377 -0.02894539 -0.066607535 0.049380038 0.08986839 0.033990763
0.15650965 -0.09993454 -0.1548756 -0.08390253 -0.0057442514 0.121314935 -0.07642448 -0.058979914
0.038260188 -0.031024374 0.13238463 -0.1042533 0.068536416 -0.10762469 -0.02103775 0.01301012
0.10632838 -0.094565146 -0.0418255 0.040134348 -0.043754634 0.01968271 0.1066554 0.016148282
0.006920499 -0.064850934 0.12441954 0.06318374 0.034536265 0.039228287 0.15193833 0.15514114
-0.14900735 -0.14464095 0.016402636 0.02406561 -0.082736954 0.091701515 0.061423402 -0.04117415
-0.06631359 0.0074703945 0.0047408887 0.044049095 0.050278027 0.13512711 0.11363013 -0.06749687
0.12837669 0.11795051 0.008993454 0.04913165 -0.12071688 0.110279426 -0.13416812 -0.01752494
-0.049534902 0.06969759 -0.11982852 0.11024498 -0.07029461 -0.051715862 0.13840397 -0.07735889
0.009883 -0.011322647 0.042824626 -0.09004719 -0.029230736 -0.04410151 0.08473075 0.07834565
-0.054825 -0.06686296 -0.038771216 0.044104528 -0.14764434 0.08222747 0.061412588 -0.0721062
0.05423342 -0.10142938 -0.07268467 -0.020491771 -0.06196174 -0.0024040062 -0.006259858 0.008621274
0.054784797 -0.03310909 -0.01728664 0.09302305 0.016612576 -0.09339636 -0.06940346 -0.12072594
00000000: a8e6 21bc 976f 2cbd 8324 cb3d feeb 913d
00000010: b6ba debd 7772 393d d4be dcbc 4321 883d
00000020: a87d ecbd 616a f63d f3e3 78bd d2bd 113e
00000030: f7ca 3c3d 6340 983c eb49 06be 1f21 fcbd
00000040: 5742 1e3e 0dfe f2bd 5281 b5bd f1ef 02bd
00000050: 7fc6 de3b 69f1 d5bd 5c74 cebd 8f03 9ebd
00000060: fba1 a2bd 3fbf f0bc b1a2 64bd ba43 00be
00000070: 714d a13d 04b4 583d 8b86 83bd da32 bf3d
00000080: 71d4 1b3e 6ccf 2bbd a53c 3c3d 82ac 50bc
00000090: f7de bcbd 7e37 08bd 994e 89bd fbf1 863c
000000a0: 37bb c33d e677 c03c 93b8 733d 5712 30bd
000000b0: 25ab 1abe d097 f73d 08a3 e7bc a952 0abe
000000c0: 05d5 d2bd 4f98 f1bd f15d bcbc f86a 4f3d
000000d0: 58ea 423d 698f 603d f5a0 a0bd 6ca8 b33d
000000e0: a186 013e 4142 e9bd 561a 7c3d dff1 02be
000000f0: bc0d d33d d111 0c3e 7213 c1bd edc1 30bd
00000100: d379 d3bd b5e9 e13d d481 5739 36a3 c73d
00000110: 776d 9b3d 727d fabd 187c 77bd f391 ff3d
00000120: 7d45 033e 047f 103e 5109 e03d 1067 8b3d
00000130: 064c 15be 5c6b 0abd 80ca 123e 88f9 efbc
00000140: e18b 643d 8f05 3fbd 6d7f d7bd 55de ffbc
00000150: 41df 9e3d 5d8d 063e 4ca7 94bd ce6a ba3d
00000160: 1c41 d83c 677a d8bd 7bf2 033e 6c29 04bc
00000170: d116 c93c 2bb6 1a3e db29 4cbd 925f a9bd
00000180: 0dd0 51b9 2b3c 62bd a667 233d e21e edbc
00000190: 8869 88bd b942 4a3d eb0c b83d e639 0b3d
000001a0: 1144 203e 7baa ccbd b697 1ebe 17d5 abbd
000001b0: 463a bcbb f773 f83d 7084 9cbd ec94 71bd
000001c0: b7b6 1c3d d426 febc d68f 073e c182 d5bd
000001d0: d25c 8c3d 556a dcbd 5c57 acbc 6628 553c
000001e0: b2c2 d93d 5fab c1bd 3751 2bbd ea63 243d
000001f0: 0f38 33bd a23d a13c 256e da3d 6749 843c
00000200: 5ac5 e23b 91d0 84bd accf fe3d 7a66 813d
00000210: e675 0d3d d7ad 203d b995 1b3e 52dd 1e3e
00000220: 6295 18be c21c 14be d25e 863c 3e25 c53c
00000230: fe71 a9bd 01ce bb3d 1b97 7b3d 3aa6 28bd
00000240: 6bcf 87bd 36ca f43b 7559 9b3b d36c 343d
00000250: 55f0 4d3d c35e 0a3e eab6 e83d cd3b 8abd
00000260: 2e75 033e 0990 f13d 4859 133c 453e 493d
00000270: 693a f7bd 2eda e13d 5e63 09be 7790 8fbc
00000280: 1ce5 4abd 9cbd 8e3d a868 f5bd 1fc8 e13d
00000290: 9ff6 8fbd 03d4 53bd c5b9 0d3e 566e 9ebd
000002a0: 4eec 213c a082 39bc e068 2f3d a96a b8bd
000002b0: 4c75 efbc c9a3 34bd 5187 ad3d af73 a03d
000002c0: 2e90 60bd 73ef 88bd 91ce 1ebd f3a6 343d
000002d0: 1430 17be e066 a83d c48b 7b3d 6aac 93bd
000002e0: dd23 5e3d 35ba cfbd b3db 94bd 5cde a7bc
000002f0: 98cb 7dbd 888c 1dbb 7f1f cdbb 3e40 0d3c
00000300: 0666 603d 669d 07bd b69c 8dbc de82 be3d
00000310: 1917 883c 9746 bfbd 6723 8ebd 293f f7bd

lstm.bias_hh_l0 f4 [200]
0.14087442 -0.09772344 -0.044360083 -0.13802789 0.12643598 0.0032376496 -0.111867204 0.028049678
0.049746923 -0.09144565 -0.1201744 0.061962835 0.13037223 -0.07544544 -0.16688105 0.14497396
0.07602705 0.09007143 -0.14954261 0.0052031693 -0.014465454 0.11889588 -0.124749154 0.06590005
0.11146854 0.018274326 -0.15103424 -0.03111164 0.11650268 0.10787009 0.052072905 0.10312685
0.13538645 0.084058814 -0.09754028 -0.07455356 -0.016260555 0.04008539 -0.13577391 -0.09993273
0.038575325 0.0010378229 0.054959398 0.0714242 -0.15071276 -0.0018914728 -0.12680626 0.117973454
0.05563615 0.091627344 -0.014290187 0.022231236 -0.07286891 -0.03182017 -0.032622486 -0.046171427
-0.024321416 0.042675495 0.053384405 0.042289652 -0.0882297 0.03531573 0.13514034 0.116178095
-0.15323599 0.0072346833 0.018515347 -0.014137422 -0.0335889 -0.06694948 -0.07981266 0.017883915
0.06605683 0.086587034 -0.021496471 -0.017566575 -0.017614568 -0.081023805 -0.0813543 0.04149798
-0.07339186 0.08905477 0.03843288 -0.107266285 0.131689 -0.024837663 -0.052009586 -0.094427615
0.029399714 0.070482925 0.06657194 -0.055117514 -0.07557915 -0.11021811 -0.10119432 0.11637223
-0.053970564 0.046038803 0.0077887336 -0.05227824 0.078747466 0.1528247 -0.005403926 -0.0757723
0.11884538 0.055813573 -0.09245819 0.06449055 0.075893246 0.027086336 -0.12840226 -0.027655058
-0.033295784 0.13076401 -0.005102215 -0.13648853 -0.12571079 0.1139068 0.10864979 -0.07430571
0.13040844 -0.08144667 -0.04075293 0.113753274 0.12050397 -0.07730514 0.018891266 -0.018051792
-0.12225942 -0.06722204 -0.080717936 -0.08569287 0.040438883 0.02122809 -0.11985897 -0.007742711
0.030245017 -0.08324088 0.034847464 0.08714799 -0.13214183 0.093940996 -0.14056115 -0.117628284
-0.072980374 -0.07830754 0.051960953 0.04792292 -0.036376238 -0.061534185 0.108066484 0.054572795
-0.026905032 -0.052606143 0.022102136 0.13947062 0.035730083 -0.09957729 -0.09749956 0.12819216
0.09243406 0.14622255 -0.08595827 -0.035038628 0.035390418 -0.09430693 -0.0077967355 0.0114171095
0.0057701143 0.03288853 0.15514447 0.110578395 0.07886744 -0.11038306 -0.047148652 -0.059440024
0.035882697 0.12655173 -0.11460502 -0.020373408 0.12514232 -0.04573221 0.039630525 0.054179076
-0.015134551 -0.059146717 -0.046337914 0.14865841 -0.0076501714 -0.016056348 0.08215873 0.06257812
-0.101385966 0.05349456 -0.106608965 -0.03164845 -0.01939447 0.0036233102 0.051595703 0.11490888
00000000: 6241 103e 3a23 c8bd ebb2 35bd 2f57 0dbe
00000010: 6f78 013e bf2e 543b a21a e5bd 70c8 e53c
00000020: 6ec3 4b3d db47 bbbd ff1d f6bd becc 7d3d
00000030: 4c80 053e 2483 9abd dee2 2abe 0e74 143e
00000040: 12b4 9b3d 5f77 b83d b321 19be 597f aa3b
00000050: 8300 6dbc af7f f33d 7c7c ffbd 9bf6 863d
00000060: 9e49 e43d 0ab4 953c b8a8 1abe d7dd febc
00000070: f598 ee3d feea dc3d 664a 553d 2c34 d33d
00000080: bfa2 0a3e 0727 ac3d 33c3 c7bd 89af 98bd
00000090: db34 85bc 9430 243d 5108 0bbe 88a9 ccbd
000000a0: 2901 1e3d 8f07 883a 1b1d 613d da46 923d
000000b0: 7254 1abe 4ceb f7ba 80d9 01be 119c f13d
000000c0: bbe2 633d 1ea7 bb3d 6321 6abc 481e b63c
000000d0: 4c3c 95bd de55 02bd 289f 05bd 401e 3dbd
000000e0: b53d c7bc 80cc 2e3d 9ba9 5a3d ea37 2d3d
000000f0: c6b1 b4bd 3aa7 103d 3b62 0a3e c8ee ed3d
00000100: e5e9 1cbe ec10 ed3b 7fad 973c a5a0 67bc
00000110: 8494 09bd cf1c 89bd d274 a3bd 4a81 923c
00000120: ce48 873d 8b54 b13d 5e19 b0bc c7e7 8fbc
00000130: 6d4c 90bc cfef a5bd 159d a6bd c9f9 293d
00000140: 794e 96bd 5962 b63d cc6b 1d3d 6dae dbbd
00000150: 7bd9 063e 5b78 cbbc 0108 55bd 4463 c1bd
00000160: abd7 f03c 5a59 903d df56 883d e7c2 61bd
00000170: 3ec9 9abd 08ba e1bd f83e cfbd 9054 ee3d
00000180: 3d10 5dbd 2f93 3c3d a238 ff3b b521 56bd
00000190: 5a46 a13d 147e 1c3e 6b13 b1bb 822e 9bbd
000001a0: 3565 f33d c69c 643d b85a bdbd 9f13 843d
000001b0: eb6d 9b3d 2ae4 dd3c e27b 03be dc8c e2bc
000001c0: 2961 08bd 00e7 053e 7b30 a7bb a6c3 0bbe
000001d0: 54ba 00be f847 e93d c883 de3d 982d 98bd
000001e0: ca89 053e 83cd a6bd 8bec 26bd 7af7 e83d
000001f0: c9ca f63d 2852 9ebd dbc1 9a3c 5ae1 93bc
00000200: 2663 fabd b5ab 89bd 724f a5bd be7f afbd
00000210: 3ea3 253d 88e6 ad3c 9f78 f5bd 91b6 fdbb
00000220: 66c4 f73c 327a aabd 37bc 0e3d a57a b23d
00000230: 3050 07be 2364 c03d 43ef 0fbe 19e7 f0bd
00000240: bc76 95bd b45f a0bd 02d5 543d d34a 443d
00000250: 40ff 14bd 450b 7cbd f651 dd3d b987 5f3d
00000260: f167 dcbc 8a79 57bd 8a0f b53c 63d1 0e3e
00000270: b559 123d 2eef cbbd d9ad c7bd ce44 033e
00000280: 124e bd3d 5dbb 153e e40a b0bd aa84 0fbd
00000290: 8bf5 103d fe23 c1bd c27b ffbb d40e 3b3c
000002a0: 3a13 bd3b 20b6 063d 31de 1e3e ed76 e23d
000002b0: 4185 a13d 8410 e2bd f21e 41bd 6277 73bd
000002c0: bcf9 123d c796 013e 09b6 eabd 22e6 a6bc
000002d0: 4f25 003e b351 3bbd 9e53 223d e1ea 5d3d
000002e0: e8f6 77bc d443 72bd d3cc 3dbd e939 183e
000002f0: 4aae fabb 9a88 83bc d642 a83d f528 803d
00000300: 72a3 cfbd 1d1d 5b3d cd55 dabd cea1 01bd
00000310: 27e1 9ebc 0f75 6d3b 0456 533d 5955 eb3d

lstm.weight_ih_l1 f4 [200, 50]
0.0035461767 -0.0134136295 -0.074741036 0.0750489 0.036661938 0.0069066067 -0.0158536 0.021157382
0.05221212 -0.04295981 0.0032655383 0.1039665 0.009617589 0.028929979 -0.068013854 0.020491686
0.014994832 -0.12817103 -0.12311108 0.09301708 0.07102335 -0.14597346 0.0020044846 0.019538054
-0.1370127 0.059929196 -0.044750176 -0.0536629 -0.020834228 0.116839945 -0.08798662 -0.114178225
0.0197759 0.11588214 0.08736879 0.07010031 0.036507703 0.05386006 -0.09320793 -0.06357665
0.09470873 -0.043287344 -0.012694919 0.0721781 0.0026823133 -0.0037810064 0.06658036 -0.07937542
0.092411235 -0.070698805 -0.058641326 -0.034414295 -0.06325434 -0.0065399376 -0.06874215 -0.014066036
-0.039272696 -0.008292647 -0.029929804 -0.055138122 -0.10103674 -0.09817061 0.11771542 -0.0018030148
-0.025716668 -0.06356529 0.15648273 -0.012972091 0.05425182 0.0073327636 -0.1447989 0.049756583
0.13522276 -0.010437725 -0.0552961 0.11740863 0.0025413395 0.07510216 -0.014639893 -0.08658754
0.016868422 -0.14759725 -0.08015766 0.08337036 0.05372835 -0.09240026 0.0014343701 0.13096663
0.0758628 0.06634619 -0.066705465 0.049038544 -0.11634133 -0.101744734 -0.039138183 0.07369521
-0.09890822 0.003917413 -0.039213408 -0.052433938 0.03809089 -0.065672204 0.05127173 0.06258608
-0.03526146 0.026610626 -0.10311986 0.11673787 -0.09164788 -0.08932407 -0.11891286 -0.12065938
0.09999432 -0.09354919 -0.11969859 0.12873815 -0.0015537064 -0.07854529 -0.09050519 0.038418464
-0.1432413 -0.023391996 -0.06899786 -0.111865334 0.044523295 -0.07646791 0.0016064376 -0.11038054
-0.05053065 0.0121821845 0.08374277 0.082900375 0.05852657 0.033032425 -0.14484946 -0.10195711
0.06882793 0.08578154 0.075628094 -0.039066736 -0.07105429 0.0011507078 0.1369529 -0.10617994
0.07926201 0.025167167 0.084653 0.022904364 0.10346415 -0.06023225 -0.089710586 -0.084630184
0.06998903 0.09136621 -0.081918925 0.14022705 0.060496055 0.06721913 0.055580337 0.0871784
-0.052120466 -0.06323262 -0.0649608 -0.0570143 0.02564037 0.14434683 -0.112936065 -0.0011175732
0.045684535 -0.082444675 0.06950916 -0.019439872 0.0706123 0.032083143 -0.005448286 0.01022925
0.04376773 0.030116212 0.15459245 0.098801084 -0.120275654 0.09400284 0.061780225 0.11767642
0.08348819 -0.062985756 -0.03260696 -0.07145458 -0.12873639 -0.15840678 -0.030470375 -0.06961167
0.05336638 -0.029407281 -0.048106425 -0.11801475 0.04186408 0.09554208 -0.011651031 0.06254522
0.14944574 0.049837586 0.05804002 0.034987867 -0.040644016 0.0693134 0.02645104 0.10176151
0.0234891 0.15527558 -0.08837086 0.051778775 -0.12841283 0.009268819 0.12169998 0.07930584
-0.029997842 -0.11761875 0.13899212 -0.06466277 -0.08899363 -0.03910602 0.030342894 -0.11390503
-0.013867897 -0.09071366 -0.10559698 -0.103974074 0.11171209 -0.08552278 0.06271239 0.14292388
0.11002521 0.14513057 -0.05951035 -0.03295383 -0.11955182 -0.07846413 0.1519325 0.03773915
0.12421804 -0.009480461 0.079626575 -0.122698806 0.121213645 -0.038318574 -0.041213848 -0.087217145
0.068012066 -0.013593323 -0.116986565 0.09959636 -0.03802333 -0.04389554 -0.09918931 0.104143694
00000000: f966 683b d7c4 5bbc d411 99bd 3db3 993d
00000010: d42a 163d d150 e23b 69df 81bc 3f52 ad3c
00000020: 60dc 553d a0f6 2fbd a402 563b 63ec d43d
00000030: 1893 1d3c 90fe ec3c d94a 8bbd 2ede a73c
00000040: e2ac 753c 443f 03be a921 fcbd bd7f be3d
00000050: b174 913d 117a 15be ac5d 033b 450e a03c
00000060: 0f4d 0cbe 5178 753d f64b 37bd a1cd 5bbd
00000070: 8bac aabc c849 ef3d 5432 b4bd 46d6 e9bd
00000080: 1101 a23c 9e53 ed3d 68ee b23d c090 8f3d
00000090: 1a89 153d 5e9c 5c3d cde3 bebd 7a34 82bd
000000a0: a7f6 c13d 124e 31bd 59fe 4fbc 1dd2 933d
000000b0: c0c9 2f3b c3ca 77bb 495b 883d 958f a2bd
000000c0: 1a42 bd3d 89ca 90bd e331 70bd 01f6 0cbd
000000d0: 7e8b 81bd f94c d6bb afc8 8cbd 3b75 66bc
000000e0: 68dc 20bd e2dd 07bc 592f f5bc 83d8 61bd
000000f0: 5aec cebd ac0d c9bd c814 f13d 2353 ecba
00000100: c3ab d2bc 852e 82bd 023d 203e e588 54bc
00000110: 2837 5e3d ae47 f03b 2a46 14be 8fcd 4b3d
00000120: d677 0a3e fe02 2bbc 2a7e 62bd f073 f03d
00000130: 9a8c 263b 29cf 993d 29dc 6fbc cf54 b1bd
00000140: a52f 8a3c bc23 17be b329 a4bd 14be aa3d
00000150: 4212 5c3d 593c bdbd 7901 bc3a 1e1c 063e
00000160: f55d 9b3d 83e0 873d e09c 88bd a4dc 483d
00000170: 5d44 eebd 8b5f d0bd 5c4f 20bd 84ed 963d
00000180: 6590 cabd a45d 803b 3d9e 20bd f8c4 56bd
00000190: 3105 1c3d 267f 86bd 4e02 523d 212d 803d
000001a0: 526e 10bd 87fe d93c 8130 d3bd 4414 ef3d
000001b0: e2b1 bbbd 8aef b6bd 9688 f3bd 441c f7bd
000001c0: d2c9 cc3d b896 bfbd 8924 f5bd efd3 033e
000001d0: bca5 cbba 5adc a0bd c95a b9bd ae5c 1d3d
000001e0: d9ad 12be 92a0 bfbc c04e 8dbd a719 e5bd
000001f0: 0f5e 363d 359b 9cbd 1a8f d23a 310f e2bd
00000200: 3af9 4ebd c997 473c 5481 ab3d acc7 a93d
00000210: 8fb9 6f3d 024d 073d 6b53 14be e4ce d0bd
00000220: a8f5 8c3d 3bae af3d e7e2 9a3d 7104 20bd
00000230: e984 91bd 59d3 963a 623d 0c3e de74 d9bd
00000240: 1f54 a23d 602b ce3c 8d5e ad3d efa1 bb3c
00000250: 03e5 d33d 17b6 76bd 2fba b7bd 9752 adbd
00000260: 6956 8f3d 351e bb3d 1cc5 a7bd ae97 0f3e
00000270: b6ca 773d 2faa 893d 35a8 633d 978a b23d
00000280: 457c 55bd 1b80 81bd 2b0a 85bd d487 69bd
00000290: c10b d23c a8cf 133e 064b e7bd 897b 92ba
000002a0: b51f 3b3d c1d8 a8bd d25a 8e3d 5e40 9fbc
000002b0: 2e9d 903d 9d69 033d 8987 b2bb 9698 273c
000002c0: cb45 333d 46b6 f63c 7c4d 1e3e 3958 ca3d
000002d0: 1553 f6bd 9084 c03d 430d 7d3d 5600 f13d
000002e0: dbfb aa3d adfe 80bd e08e 05bd c756 92bd
000002f0: 79d3 03be 6335 22be 029d f9bc 9090 8ebd
00000300: b596 5a3d 8ae7 f0bc 3e0b 45bd b8b1 f1bd
00000310: ab79 2b3d 91ab c33d f7e3 3ebc b517 803d
00000320: 4e08 193e 7f22 4c3d 5fbb 6d3d 704f 0f3d
00000330: 577a 26bd 2ff4 8d3d daaf d83c 5768 d03d
00000340: 376c c03c 9000 1f3e c8fb b4bd fb15 543d
00000350: a77e 03be 3fdc 173c d73d f93d 1a6b a23d
00000360: 09be f5bc 19e2 f0bd f353 0e3e ea6d 84bd
00000370: 4b42 b6bd a22d 20bd a991 f83c 0a47 e9bd
00000380: 2d36 63bc 15c8 b9bd 3b43 d8bd 5cf0 d4bd
00000390: 4fc9 e43d 9126 afbd 5b6f 803d a35a 123e
000003a0: e654 e13d 1c9d 143e 20c1 73bd 98fa 06bd
000003b0: 96d7 f4bd cdb1 a0bd 3194 1b3e 5e94 1a3d
000003c0: 0766 fe3d ef53 1bbc 4213 a33d 8349 fbbd
000003d0: dc3e f83d f0f3 1cbd dacf 28bd e79e b2bd
000003e0: e949 8b3d 87b6 5ebc a796 efbd 2df9 cb3d
000003f0: 5abe 1bbd cfcb 33bd c423 cbbd 4a49 d53d

lstm.weight_hh_l1 f4 [200, 50]
0.112824015 -0.07769211 0.05604163 -0.1537612 -0.088834845 0.06698353 -0.0006519656 -0.1063749
0.021320699 -0.03144091 -0.12084078 0.045006454 -0.063958056 -0.118965186 0.11540363 -0.06994261
0.009692812 -0.11067255 -0.111043535 0.0577644 -0.13357678 -0.11012029 -0.0013782522 -0.062453
-0.13101369 -0.090698965 -0.08456125 -0.09688478 0.12779127 -0.13392913 0.096360184 0.0146122025
-0.048221428 -0.112051986 0.103710264 -0.078275025 0.09145598 -0.047589507 0.08006416 0.06463879
0.12487902 -0.117201716 0.11200747 0.051147707 -0.10333595 -0.04798618 -0.045542076 0.10936219
-0.1014878 0.029880388 0.06586138 0.11886122 0.073261686 0.1499636 0.10007392 0.10480293
0.05071603 -0.10835927 -0.01810285 0.10940658 0.05762012 -0.11731594 0.018780842 0.09636446
0.13153079 -0.07718334 0.05074285 -0.090115644 -0.055404443 0.09462119 0.1266855 -0.025735974
-0.074420966 -0.054640587 -0.07531613 0.023833223 -0.14456081 -0.031372942 0.044072777 0.061419003
0.095007464 -0.1254354 0.079394825 -0.1281392 -0.13067196 0.13332316 -0.06748225 0.0075292913
-0.08293106 0.15337136 -0.062090445 -0.047852986 0.044530693 -0.10558845 0.083453245 0.052609798
-0.01189642 0.049865264 -0.040667675 -0.02561157 -0.04869228 -0.008759452 -0.033907432 -0.03751731
0.07877705 0.12243977 -0.13113734 0.021347381 -0.07608128 0.14286512 -0.044118717 -0.031531945
-0.02555622 0.046513338 -0.105708316 0.13248983 0.08164532 -0.10706745 -0.06434688 -0.018553205
0.026278028 -0.024862742 -0.040998753 -0.14797309 -0.12068014 -0.13736482 0.10911711 -0.0757286
-0.027976194 -0.0069702594 0.10683367 -0.10298702 -0.11971853 -0.018902969 0.049565647 0.065613315
-0.106501915 -0.07496098 0.062251303 -0.04000693 0.12728375 -0.010346843 0.03189504 0.13952473
0.027438357 0.101915084 0.03285737 -0.124142416 -0.11000373 0.1567674 0.024375834 -0.10172665
-0.08729472 -0.12759463 0.023861265 -0.036473636 0.064173825 0.15366673 -0.074141674 0.12841763
0.10381851 -0.080508105 0.09806968 0.111543596 0.042425252 -0.1460311 0.03817423 0.15031965
0.0032350826 0.06774525 0.008666017 0.024137769 0.045568153 -0.0729234 -0.047318164 0.09249202
0.11553246 -0.0033865655 0.08675205 -0.09156039 -0.10866771 0.07320121 0.11206949 0.038653534
-0.15271981 0.14708214 0.0434929 0.120041214 0.09345631 0.12815394 -0.036034446 -0.026795033
0.09944413 -0.017938174 -0.1574281 0.0934565 -0.05836448 0.003865259 0.05496543 0.039072696
-0.14539811 0.03798586 -0.07025038 0.001549284 -0.12958111 0.1409885 0.10052671 0.120101064
0.023929652 0.09342659 -0.06445699 0.11118261 -0.058523245 -0.11856943 -0.04654791 -0.060013525
-0.047005314 -0.018753562 -0.08075047 0.072598636 -0.042961862 0.1634926 0.0017446337 0.019307176
0.11883434 0.08674985 -0.06255807 0.03923424 0.13211921 -0.041082457 0.10602485 0.13584557
-0.019157145 -0.06609877 -0.05549471 -0.057386845 0.10378545 0.090755336 0.08583583 -0.1013548
0.03944609 0.08729481 -0.13227783 -0.05622051 0.042117298 -0.11357461 -0.0868029 -0.014362164
0.13945158 -0.005622799 -0.089995675 -0.02370525 -0.035640497 -0.0681353 -0.023001362 0.11817542
00000000: 4710 e73d 0a1d 9fbd e98b 653d 9373 1dbe
00000010: 0bef b5bd a92e 893d ace8 2aba 15db d9bd
00000020: bfa8 ae3c 2fc8 00bd 5f7b f7bd b058 383d
00000030: 71fc 82bd 05a4 f3bd bd58 ec3d 123e 8fbd
00000040: 9ace 1e3c 4aa8 e2bd cb6a e3bd 5d9a 6c3d
00000050: 5ac8 08be bf86 e1bd 78a6 b4ba b8ce 7fbd
00000060: 7428 06be 61c0 b9bd 732e adbd 876b c6bd
00000070: b7db 023e b824 09be 7d58 c53d 0568 6f3c
00000080: d583 45bd 837b e5bd 0c66 d43d a84e a0bd
00000090: 464d bb3d 37ed 42bd aef8 a33d 5861 843d
000000a0: 92c0 ff3d 7407 f0bd 2c64 e53d 4280 513d
000000b0: cca1 d3bd 288d 44bd 548a 3abd 49f9 df3d
000000c0: d6d8 cfbd b7c7 f43c 55e2 863d 836d f33d
000000d0: 390a 963d 0f90 193e 8ef3 cc3d eba2 d63d
000000e0: 9dbb 4f3d 77eb ddbd 6e4c 94bc 8f10 e03d
000000f0: 1303 6c3d 5743 f0bd 48da 993c bb5a c53d
00000100: 02b0 063e 4d12 9ebd bcd7 4f3d 8d8e b8bd
00000110: c5ef 62bd c1c8 c13d d8b9 013e 40d4 d2bc
00000120: 056a 98bd cfce 5fbd 583f 9abd e43d c33c
00000130: c007 14be ea80 00bd a885 343d 7e92 7b3d
00000140: 4693 c23d 2372 00be c199 a23d ec36 03be
00000150: dfce 05be de85 083e 2234 8abd 46b8 f63b
00000160: c2d7 a9bd 620d 1d3e 8d52 7ebd 7e01 44bd
00000170: d165 363d c23e d8bd 89e9 aa3d 5f7d 573d
00000180: 34e9 42bc 853f 4c3d 2693 26bd 5bcf d1bc
00000190: 8e71 47bd ce83 0fbc 85e2 0abd c0ab 19bd
000001a0: dd55 a13d b4c1 fa3d de48 06be b4e0 ae3c
000001b0: 81d0 9bbd 3c4b 123e d4b5 34bd a427 01bd
000001c0: 475b d1bc c584 3e3d 9a7d d8bd 6aab 073e
000001d0: a935 a73d 2e46 dbbd 4cc8 83bd e4fc 97bc
000001e0: 0545 d73c f3ac cbbc 4fee 27bd 4286 17be
000001f0: 2627 f7bd 5da9 0cbe cb78 df3d 9917 9bbd
00000200: 552e e5bc c666 e4bb 9ccb da3d dcea d2bd
00000210: fd2e f5bd 66da 9abc 5905 4b3d 4660 863d
00000220: ad1d dabd 2485 99bd 39fb 7e3d 4ede 23bd
00000230: ac56 023e ce85 29bc 60a4 023d 92df 0e3e
00000240: 68c6 e03c dbb8 d03d 7395 063d 613e febd
00000250: a349 e1bd a287 203e d4af c73c 1056 d0bd
00000260: 93c7 b2bd 2ba8 02be b378 c33c 6165 15bd
00000270: 916d 833d d05a 1d3e 97d7 97bd e97f 033e
00000280: cd9e d43d 6fe1 a4bd c2d8 c83d f870 e43d
00000290: 1ac6 2d3d 2d89 15be 955c 1c3d 65ed 193e
000002a0: ae03 543b 06be 8a3d e9fb 0d3c 92bc c53c
000002b0: aca5 3a3d dd58 95bd b1d0 41bd 756c bd3d
000002c0: 489c ec3d 24f1 5dbb 0fab b13d 0484 bbbd
000002d0: 2d8d debd 84ea 953d b084 e53d 2b53 1e3d
000002e0: 9562 1cbe b39c 163e 9c25 323d 2bd8 f53d
000002f0: 0666 bf3d c93a 033e db98 13bd 4281 dbbc
00000300: 5da9 cb3d 14f3 92bc d534 21be 1f66 bf3d
00000310: 980f 6fbd 4950 7d3b 6e23 613d b10a 203d
00000320: 3ee3 14be 1097 1b3d 6edf 8fbd 5811 cb3a
00000330: e9b0 04be 4a5f 103e f3e0 cd3d 8cf7 f53d
00000340: 1e08 c43c 7156 bf3d 0702 84bd b5b3 e33d
00000350: 12b6 6fbd 88d4 f2bd 05a9 3ebd bed0 75bd
00000360: a588 40bd 12a1 99bc 8160 a5bd 98ae 943d
00000370: c7f8 2fbd 9b6a 273e 31ac e43a 152a 9e3c
00000380: 6b5f f33d e8a9 b13d 721e 80bd 15b4 203d
00000390: 424a 073e 1446 28bd 8e23 d93d 1a1b 0b3e
000003a0: 72ef 9cbc cb5e 87bd 6c4e 63bd 780e 6bbd
000003b0: 778d d43d efdd b93d b2ca af3d 1b93 cfbd
000003c0: 3992 213d 9fc7 b23d d773 07be 7a47 66bd
000003d0: 3083 2c3d ce99 e8bd b8c5 b1bd 484f 6bbc
000003e0: 65cc 0e3e 753f b8bb a74f b8bd 8331 c2bc
000003f0: c5fb 11bd 858a 8bbd 5a6d bcbc f405 f23d

lstm.bias_ih_l1 f4 [200]
-0.052819144 0.018805256 0.047621388 0.06136587 -0.082028985 0.0548103 0.06977624 -0.1088612
0.13222821 -0.1467298 -0.11273189 -0.0063965847 -0.090665326 -0.07066493 0.0506969 0.05692461
-0.049945276 0.012200083 0.054274023 -0.0877735 -0.01941797 -0.027982201 0.0026241504 -0.08323611
-0.022338687 -0.01284031 0.025475262 -0.14189476 -0.1218512 0.0485073 -0.11846502 0.08964807
0.048767935 0.15563773 -0.119595006 -0.05927003 0.09930038 0.08549073 -0.03610891 0.13920188
-0.10923708 -0.15578903 -0.10937686 -0.117825285 -0.053641133 -0.095664576 -0.01607287 0.06169919
0.10418407 -0.14513972 -0.112707436 -0.11991106 -0.0133631155 0.037888803 0.049150757 0.11321177
-0.10618412 0.12872054 0.10109768 0.07652337 -0.028799653 -0.100940295 -0.10231721 -0.10630482
-0.042749003 0.12124665 0.041268446 0.15542358 -0.041052073 -0.0770866 0.13015506 -0.013649378
-0.057403572 0.05627681 -0.11953144 -0.090057075 0.09465614 -0.07203565 0.07179352 0.09682404
-0.04736241 0.13427313 0.082113385 0.043965157 0.07495919 0.09234158 -0.019669667 -0.10496775
0.01446202 0.11117659 0.09918919 0.0898425 -0.13690266 -0.15457752 -0.082819335 -0.056750603
-0.054567084 0.063109815 0.15474504 -0.005256393 0.08173482 -0.1153352 0.08693946 0.0072913473
0.15624064 0.06062778 -0.05458151 -0.105759345 -0.05524368 -0.10200654 0.03485051 0.016650172
0.0640519 0.0847384 -0.112248786 0.1379568 0.15940213 -0.14664735 0.07713521 0.1198361
0.04043822 -0.02049402 0.017136753 -0.0113947205 -0.0068555567 0.087478526 0.15362728 0.0030015204
0.030355718 0.08759242 0.034493722 0.04885715 0.16147913 0.024320673 0.13236406 -0.11709997
0.042575046 0.13469048 0.100686476 -0.14324881 0.018976338 0.005773717 0.018836869 -0.0025589152
0.12898785 0.15744299 0.036793165 -0.13980226 0.03316174 -0.018061955 -0.08012703 -0.084736995
-0.13031316 -0.054017115 -0.018977875 -0.08065932 0.018733623 0.026288718 0.11768208 0.08124969
0.10619237 0.088333994 -0.07809779 0.053947367 -0.0018681982 0.07892942 -0.03535492 0.14479814
-0.064299256 -0.052361295 0.04930692 -0.07322747 0.1212692 0.08414885 0.07967802 0.12324503
0.11327408 -0.13253836 0.05273838 -0.020075181 0.13625023 -0.052184753 0.035259772 0.15646023
0.088415496 0.011076882 -0.081394576 0.046737283 0.05301753 -0.0053909724 0.08392421 0.0297351
-0.13378012 -0.107158564 -0.0819894 0.005043221 0.023726182 -0.1071987 0.067533664 -0.12558183
00000000: e358 58bd 7b0d 9a3c a50e 433d c75a 7b3d
00000010: d0fe a7bd c480 603d d8e6 8e3d 9ff2 debd
00000020: d566 073e 5640 16be fadf e6bd 719a d1bb
00000030: beae b9bd c6b8 90bd 8da7 4f3d c829 693d
00000040: 6b93 4cbd dbe2 473c 704e 5e3d 98c2 b3bd
00000050: 6f12 9fbc ee3a e5bc f0f9 2b3b b277 aabd
00000060: 9fff b6bc 2a60 52bc 7fb1 d03c dc4c 11be
00000070: 1f8d f9bd 97af 463d ca9d f2bd 6899 b73d
00000080: e3c0 473d 7f5f 1f3e 3aee f4bd 22c5 72bd
00000090: ff5d cb3d c415 af3d f0e6 13bd f08a 0e3e
000000a0: b1b7 dfbd 2987 1fbe fa00 e0bd 624e f1bd
000000b0: ceb6 5bbd caeb c3bd 40ab 83bc 4ab8 7c3d
000000c0: 755e d53d 829f 14be 28d3 e6bd ee93 f5bd
000000d0: f8f0 5abc 4a31 1b3d 4e52 493d 93db e73d
000000e0: 0f77 d9bd 51cf 033e 4d0c cf3d 49b8 9c3d
000000f0: 40ed ebbc c9b9 cebd af8b d1bd 57b6 d9bd
00000100: 9419 2fbd 2a50 f83d 1a09 293d 5c27 1f3e
00000110: 3826 28bd 94df 9dbd 5e47 053e a4a1 5fbc
00000120: 0220 6bbd 8382 663d e6cc f4bd d86f b8bd
00000130: 14db c13d 6d87 93bd 7b08 933d af4b c63d
00000140: 16ff 41bd e57e 093e 102b a83d cf14 343d
00000150: 3484 993d 951d bd3d 4822 a1bc 55f9 d6bd
00000160: 1cf2 6c3c 8db0 e33d b423 cb3d 58ff b73d
00000170: 3630 0cbe 9249 1ebe 2f9d a9bd 5273 68bd
00000180: bc81 5fbd b83f 813d 7c75 1e3e d23d acbb
00000190: 9664 a73d dd34 ecbd 510d b23d 41ec ee3b
000001a0: 8cfd 1f3e d654 783d dd90 5fbd 5b98 d8bd
000001b0: 3247 62bd cee8 d0bd 69bf 0e3d f165 883c
000001c0: a42d 833d 548b ad3d b1e2 e5bd 8c44 0d3e
000001d0: 503a 233e b92a 16be 11f9 9d3d a16c f53d
000001e0: 8ca2 253d 13e3 a7bc 6062 8c3c ecb0 3abc
000001f0: 94a4 e0bb f127 b33d 7850 1d3e 28b5 443b
00000200: 8eac f83c a863 b33d 4a49 0d3d 6f1e 483d
00000210: c95a 253e 263c c73c 728a 073e 1cd2 efbd
00000220: 2c63 2e3d 4dec 093e b634 ce3d d1af 12be
00000230: 4474 9b3c 7331 bd3b c74f 9a3c 79b3 27bb
00000240: 6415 043e bc38 213e 6eb4 163d 5328 0fbe
00000250: 9bd4 073d aaf6 93bc a419 a4bd 978a adbd
00000260: d070 05be 0d41 5dbd 7d77 9bbc b730 a5bd
00000270: 4177 993c 705b d73c 4d03 f13d 3d66 a63d
00000280: 637b d93d 74e8 b43d bcf1 9fbd eaf7 5c3d
00000290: 54de f4ba bfa5 a13d 52d0 10bd f745 143e
000002a0: 54af 83bd cc78 56bd 0ef6 493d 49f8 95bd
000002b0: fd5b f83d 3b56 ac3d 3b2e a33d e467 fc3d
000002c0: 3efc e73d 23b8 07be 3304 583d b574 a4bc
000002d0: 2e85 0b3e aebf 55bd 8d6c 103d 1c37 203e
000002e0: 2f13 b53d cf7b 353c 33b2 a6bd 986f 3f3d
000002f0: e928 593d c1a6 b0bb 75e0 ab3d 0697 f33c
00000300: a8fd 08be f375 dbbd 0fea a7bd 9b41 a53b
00000310: 695d c23c fe8a dbbd 174f 8a3d 8698 00be

lstm.bias_hh_l1 f4 [200]
0.07407665 -0.15063931 -0.047366675 0.06481169 0.05337993 -0.003506124 -0.10503759 -0.094550386
-0.016475663 -0.14682807 -0.109214395 0.008745824 0.15151796 0.026582599 0.12104141 0.019135458
0.100650065 0.053234994 0.009803352 0.05920992 -0.11368483 0.007841974 -0.025870023 -0.14864238
-0.028980214 0.0033620147 -0.019745583 -0.117747635 0.13222325 -0.08270057 0.086740926 -0.08836512
-0.06451399 -0.0964002 -0.0731166 0.018242376 0.06624101 -0.0078370925 -0.09352216 -0.060205672
0.08219304 0.036763184 0.023291389 0.0043320335 -0.033628844 0.026575089 -0.09785253 0.120144844
-0.083314516 -0.12418473 0.030834733 0.10777271 0.11435041 0.013173658 0.10710872 0.069096096
-0.090223424 -0.068795465 0.07608724 -0.058062933 -0.042559832 -0.090711504 0.056313988 0.025251603
-0.0044893236 0.103965916 0.11448134 -0.102641635 -0.018733507 -0.049583673 -0.05121464 -0.08386
0.10844032 0.051413976 0.008014195 0.13868284 0.043220665 -0.0639579 0.028467862 0.07629294
0.11779562 0.100291364 0.06386551 -0.05529241 0.090281025 0.02751583 -0.059883878 0.018724196
0.0779676 -0.050080474 0.15631531 0.06708093 0.006965579 0.06151599 -0.04794863 0.055970896
-0.113622196 0.15214466 -0.09596406 0.03643229 -0.09847681 0.07994561 -0.023546584 -0.03661713
-0.048122868 -0.036139026 0.095440835 -0.05520065 -0.1559757 -0.015358776 -0.049731676 0.10546173
0.06368871 -0.051911198 -0.09825942 -0.08537371 -0.08337654 0.07394457 -0.10370395 -0.075174026
0.031512555 0.0699921 0.11977344 -0.008676611 0.15949684 -0.010150028 0.077711925 -0.072558366
-0.11485593 -0.054077484 -0.15554257 0.031628113 0.1156813 0.1032399 0.12492405 0.001693194
0.124366656 -0.10513658 0.07297103 -0.010136387 0.0244801 0.020887425 -0.035080366 -0.029025804
0.040996213 -0.06370922 0.10960844 -0.119040675 0.08858138 -0.03638219 0.016326988 0.04969572
0.085950874 -0.1158818 -0.015961628 0.15838076 0.01725112 0.033976045 0.035415486 0.11269485
-0.047394257 -0.097757146 -0.10492395 0.055289857 -0.100439444 -0.12714234 0.0068034222 0.06983873
0.11665285 0.04104492 0.033620678 -0.11173623 0.036183406 -0.11261108 -0.07910412 -0.048006658
0.07976434 -0.076706715 0.0049820277 -0.044356562 -0.0013203834 -0.06347972 0.16188721 -0.11926444
0.106256954 -0.041488886 -0.0332236 0.13426408 -0.076154634 0.15982333 0.1573734 -0.08500958
0.09059893 0.09328949 0.08612534 -0.039294157 0.030048834 -0.013999727 0.011077569 -0.022597885
00000000: 80b5 973d 3141 1abe 8f03 42bd febb 843d
00000010: eaa4 5a3d 00c7 65bb f31d d7bd a2a3 c1bd
00000020: f8f7 86bc 195a 16be ccab dfbd a54a 0f3c
00000030: 8627 1b3e c0c3 d93c 8fe4 f73d f7c1 9c3c
00000040: 9f21 ce3d f00c 5a3d 3d9e 203c 1a86 723d
00000050: 98d3 e8bd 9f7b 003c 5fed d3bc b535 18be
00000060: ea67 edbc 3f55 5c3b 7dc1 a1bc ac25 f1bd
00000070: 8865 073e eb5e a9bd 3aa5 b13d c6f8 b4bd
00000080: e91f 84bd 786d c5bd 28be 95bd 0971 953c
00000090: 5ea9 873d 2667 00bc 8c88 bfbd 399a 76bd
000000a0: d354 a83d fe94 163d 95cd be3c bbf3 8d3b
000000b0: 66be 09bd 00b4 d93c e866 c8bd 800e f63d
000000c0: cda0 aabd 9054 febd 1f99 fc3c f0b7 dc3d
000000d0: 8c30 ea3d 54d6 573c d15b db3d 4182 8d3d
000000e0: 0fc7 b8bd a3e4 8cbd a0d3 9b3d 66d3 6dbd
000000f0: 3853 2ebd f4c6 b9bd 7fa9 663d 73dc ce3c
00000100: 2d1b 93bb 15ec d43d 3175 ea3d c735 d2bd
00000110: 0377 99bc 4018 4bbd 71c6 51bd cbbe abbd
00000120: f515 de3d 7697 523d f84d 033c e002 0e3e
00000130: 2708 313d 5cfc 82bd 6f35 e93c 793f 9c3d
00000140: d43e f13d 8f65 cd3d eccb 823d 4b7a 62bd
00000150: 42e5 b83d e168 e13c cc48 75bd 7c63 993c
00000160: 7aad 9f3d 2f21 4dbd 1f11 203e ba61 893d
00000170: 833f e43b 31f8 7b3d c865 44bd bd41 653d
00000180: c1b2 e8bd cfcb 1b3e ce88 c4bd 063a 153d
00000190: 36ae c9bd 86ba a33d c4e4 c0bc d8fb 15bd
000001a0: 7c1c 45bd 8406 14bd 7c76 c33d 141a 62bd
000001b0: 18b8 1fbe 60a3 7bbc 71b3 4bbd 52fc d73d
000001c0: 3a6f 823d d6a0 54bd 3c3c c9bd 69d8 aebd
000001d0: 52c1 aabd 4070 973d bd62 d4bd d7f4 99bd
000001e0: 4f13 013d 0558 8f3d c74b f53d 5828 0ebc
000001f0: 2453 233e 4e4c 26bc 6e27 9f3d 7b99 94bd
00000200: 9639 ebbd 5a80 5dbd 8d46 1fbe 7b8c 013d
00000210: 51ea ec3d 716f d33d 2ed8 ff3d 2aee dd3a
00000220: f2b3 fe3d d951 d7bd d671 953d 1713 26bc
00000230: 7e8a c83c 1b1c ab3c 6eb0 0fbd 86c7 edbc
00000240: a5eb 273d fb79 82bd 647a e03d 99cb f3bd
00000250: 286a b53d 7e05 15bd 2dc0 853c bd8d 4b3d
00000260: 0307 b03d 7053 edbd f6c1 82bc 912e 223e
00000270: 3952 8d3c 772a 0b3d d40f 113d 8fcc e63d
00000280: 7b20 42bd e634 c8bd 5ee2 d6bd 9e77 623d
00000290: 32b3 cdbd 9a31 02be 3eef de3b 9c07 8f3d
000002a0: b0e7 ee3d b81e 283d d6b5 093d f7d5 e4bd
000002b0: 0d35 143d a3a0 e6bd 5701 a2bd a1a2 44bd
000002c0: 7c5b a33d 6918 9dbd 4740 a33b 3aaf 35bd
000002d0: b710 adba a801 82bd c3c5 253e ea40 f4bd
000002e0: 3f9d d93d 40f0 29bd 7815 08bd 867c 093e
000002f0: f6f6 9bbd baa8 233e 7e26 213e 8119 aebd
00000300: ef8b b93d 8f0e bf3d 7b62 b03d e9f2 20bd
00000310: f928 f63c 1c5f 65bc b17e 353c 331f b9bc

fc.weight f4 [1, 50]
-0.11449881 0.08180102 -0.09586738 0.074124396 0.096749626 0.062167626 0.10999652 -0.029677251
-0.1008308 0.092764616 0.11149302 -0.1238873 0.15494484 0.099360585 -0.082043454 0.044610173
0.096772455 -0.14028852 -0.08051929 0.115416534 0.12136189 -0.03014946 0.1339702 -0.10915907
0.1276927 0.14560226 0.0734517 0.045614332 -0.021232707 0.079963826 -0.11891541 -0.01595325
0.13311012 0.10487664 0.040176623 -0.012931949 0.01867332 0.08914506 0.12301435 -0.105466135
0.09122583 -0.07673781 -0.08122013 -0.030007694 0.08528488 0.11694015 0.059101935 -0.04566929
0.0427694 0.013362965
00000000: 5a7e eabd 4b87 a73d 1e56 c4bd 88ce 973d
00000010: ab24 c63d 7ba3 7e3d db45 e13d b51d f3bc
00000020: 6180 cebd 60fb bd3d 7456 e43d a0b8 fdbd
00000030: dca9 1e3e 907d cb3d 6606 a8bd 28b9 363d
00000040: a330 c63d cba7 0fbe 4ce7 a4bd 815f ec3d
00000050: 958c f83d 00fc f6bc 7c2f 093e ca8e dfbd
00000060: e0c1 023e c218 153e d86d 963d 18d6 3a3d
00000070: 37f0 adbc 13c4 a33d ec89 f3bd 64b0 82bc
00000080: 054e 083e 90c9 d63d 3e90 243d 87e0 53bc
00000090: caf8 983c af91 b63d f3ee fb3d a1fe d7bd
000000a0: 9cd4 ba3d b728 9dbd bd56 a6bd b2d2 f5bc
000000b0: d7a9 ae3d 517e ef3d df14 723d b90f 3bbd
000000c0: f72e 2f3d 56f0 5a3c
