data/models/DIS_20251215_165836.pt (torch, 128837 bytes, 9 tensors)

lstm.weight_ih_l0 f4 [200, 1]
0	0xbe0569d6	-0.13028654
1	0x3da6cb78	0.08144277
2	0x3df6f835	0.120590605
3	0xbdee0651	-0.116222985
4	0xbd6a1122	-0.057145245
5	0xbe02c06f	-0.1276872
6	0x3d3451b4	0.04402323
7	0xbda15404	-0.07877353
8	0x3c933fe0	0.017974794
9	0xbe05259d	-0.1300263
10	0xbe0622c2	-0.13099197
11	0x3d8e1240	0.06937075
12	0x3da1c172	0.07898225
13	0xbda494a8	-0.080361664
14	0x3caa08e7	0.020756198
15	0x3dbc9b6b	0.09209331
16	0xbdb59edc	-0.08868191
17	0xbd8fdf36	-0.07024996
18	0xbce959c3	-0.028485185
19	0xbcac3873	-0.02102301
20	0xbd5dd0e3	-0.054154288
21	0xbd2c58ce	-0.04207688
22	0x3b8e7865	0.0043478482
23	0xbde7df33	-0.11321869
24	0xbd197009	-0.03746036
25	0xbdee72f8	-0.11643022
26	0xbda6c33e	-0.08142708
27	0xbd922432	-0.0713581
28	0x3d529645	0.05141284
29	0xbcf42177	-0.029801114
30	0x3c326d02	0.010890247
31	0x3d7b2fcc	0.06132488
32	0x3d2305c1	0.03980041
33	0x3d949c7e	0.07256411
34	0x3df134cf	0.117776506
35	0x3deb1620	0.114788294
36	0xbd8968a1	-0.067094095
37	0x3dd24179	0.10266394
38	0x3dbc5875	0.09196559
39	0x3da61669	0.08109743
40	0xbe0ff8bf	-0.14059733
41	0x3dd3ff9b	0.10351487
42	0xbb50b318	-0.003184503
43	0xbde5bd97	-0.11217802
44	0x3db26982	0.0871153
45	0xbdb4bf9f	-0.08825611
46	0x3e0371e3	0.12836413
47	0x3d918669	0.07105715
48	0x3deafbcd	0.114738084
49	0xbdcb17b8	-0.09916633
50	0x3c5aa351	0.013344602
51	0xbca42292	-0.020036016
52	0xbdab7f24	-0.083738595
53	0xbbe84646	-0.0070884554
54	0x3e03431b	0.12818567
55	0xbd8e0d0c	-0.06936082
56	0x3defcd1f	0.117090456
57	0x3d30b5bf	0.043142077
58	0x3dba9203	0.09109881
59	0x3d507535	0.050893027
60	0xbd19a3dd	-0.037509788
61	0x3de120ce	0.10992585
62	0x3b673bd8	0.0035283472
63	0xbd9db7be	-0.07701062
64	0xbdeb310e	-0.11483966
65	0x3e0bd044	0.13653666
66	0x3da4d82d	0.08049045
67	0x3d72c89c	0.059273347
68	0xbde38fd4	-0.111114174
69	0x3da07698	0.0783512
70	0xbdec37b8	-0.11534065
71	0xbcaf3154	-0.021385826
72	0x3db706dd	0.08936856
73	0xbda40855	-0.08009402
74	0xbd603450	-0.05473739
75	0xbd415205	-0.04719736
76	0x3dc13a30	0.094349265
77	0xbcd50a70	-0.026005954
78	0xbd5a1beb	-0.05324928
79	0x3d1a3243	0.03764559
80	0xbce8ba8e	-0.028409269
81	0x3d6289c0	0.05530715
82	0xbdea41d5	-0.11438338
83	0x3c53d655	0.012929519
84	0xbdf405f4	-0.11915198
85	0xbdb0df7c	-0.08636376
86	0xbe0c8266	-0.13721618
87	0x3d5fc104	0.054627433
88	0xbd285975	-0.041100938
89	0xbdbcee58	-0.09225148
90	0x3d512cbd	0.051068056
91	0x3deb739a	0.114966586
92	0xbdb61b11	-0.08891881
93	0xbe129707	-0.14315425
94	0xbe0ac58a	-0.13551918
95	0x3daf1e89	0.08550746
96	0xbdbfc780	-0.093642235
97	0x3c7e3b63	0.015517089
98	0xbd2eb132	-0.042649455
99	0x3e078e9f	0.13238
100	0xbdec63e4	-0.1154249
101	0x3c3506bc	0.011048969
102	0x3dfab1a4	0.122409135
103	0x3df05296	0.11734502
104	0x3dba15e8	0.090862095
105	0xbe035ae6	-0.12827644
106	0x3ccdfed6	0.02514593
107	0xbd59a1b5	-0.05313273
108	0x3d630524	0.055424824
109	0xbe06f5ec	-0.13179749
110	0xbc8af593	-0.016962802
111	0xbd69e97c	-0.057107434
112	0x3dbb192b	0.0913566
113	0x3d896935	0.0670952
114	0x3d114a2f	0.035471138
115	0xbdd241f1	-0.102664836
116	0xbd2f940b	-0.042865794
117	0xbcaa0deb	-0.02075859
118	0x3d5781d3	0.052614044
119	0x3dba7e65	0.09106139
120	0x3dc3bd0c	0.09557542
121	0xbdd6c3fb	-0.10486599
122	0xbd504731	-0.050849143
123	0x3d8f0583	0.06983473
124	0x3ddf41a4	0.10901192
125	0x3dbb7de2	0.091548696
126	0x3b2be9e6	0.0026231944
127	0xbda93439	-0.08261914
128	0xbd81ae6b	-0.06332096
129	0xbdb97722	-0.09055926
130	0x3cabc21d	0.020966584
131	0x3bedf40d	0.007261759
132	0x3d39c397	0.045352545
133	0xbd954b77	-0.072897844
134	0x3dd44eda	0.10366602
135	0xbdd98309	-0.10620696
136	0x3df90ea0	0.121609926
137	0x3d3a43ea	0.045474924
138	0xbd5db578	-0.05412814
139	0x3dc86c4e	0.097862825
140	0xbda3bea9	-0.0799535
141	0x3d7ebc89	0.06219152
142	0x3b4c4486	0.0031168773
143	0x3d0b08de	0.033944003
144	0x3cbd50a0	0.023109734
145	0x3d171b28	0.036891133
146	0xbc9cf9f2	-0.019162152
147	0xbd60e1f2	-0.05490298
148	0x3d2e5de3	0.042570006
149	0xbd46f1f9	-0.048570607
150	0xbc4d8cb5	-0.012545754
151	0x3e05dcc2	0.13072494
152	0x3c0e95a3	0.008702668
153	0x3d762280	0.060091496
154	0x3d3d0a88	0.04615262
155	0x3e0f431f	0.13990448
156	0xbe09a260	-0.13440847
157	0x3ded4474	0.11585322
158	0xbe0dc2e5	-0.13843878
159	0xbc672b59	-0.014109456
160	0x3c366fd0	0.011135057
161	0x3d6c45ac	0.05768363
162	0x3e03654f	0.12831615
163	0xbd95d785	-0.07316498
164	0x3d9f5f3d	0.07781837
165	0x3daefdca	0.085445
166	0x3d36e12b	0.04464833
167	0xbdf82663	-0.12116697
168	0xbd421b3c	-0.047389254
169	0xbdc63776	-0.09678547
170	0xbdc4be26	-0.096065804
171	0xbd0358aa	-0.03206698
172	0x3d8e709b	0.069550715
173	0xbd4d5dd7	-0.05013832
174	0x3a48c102	0.0007658155
175	0xbcf4b794	-0.029872693
176	0xbcea54c0	-0.028604865
177	0xbd9b5a41	-0.07585574
178	0xbddf6a56	-0.10908954
179	0x3dc874e9	0.09787924
180	0x3b25a210	0.0025273599
181	0xbe0a4c9f	-0.13505791
182	0xbcf61402	-0.030038837
183	0xbd86b55a	-0.06577559
184	0x3dc9bc05	0.09850315
185	0xbe045f4c	-0.12926978
186	0x3e045bf3	0.12925701
187	0x3e0d2c45	0.13786419
188	0xbda0e596	-0.0785629
189	0xbdea7a74	-0.11449137
190	0xbd93e86e	-0.07222067
191	0xbdcc0f05	-0.09963802
192	0xbd9f2ac0	-0.07771826
193	0xbc2c6c8c	-0.0105239265
194	0x3d4359be	0.047693007
195	0xbdd1799d	-0.10228274
196	0xbd6cb0cf	-0.057785805
197	0x3dbd67c6	0.09248309
198	0x3956a560	0.00020470237
199	0x3ddba62a	0.10725053

lstm.weight_hh_l0 f4 [200, 50]
0	0xbcce6d15	-0.025198499
1	0x3db6aad8	0.089193046
2	0x3dfefda3	0.12450721
3	0x3d9819e6	0.07426815
4	0xbd2cef03	-0.042220127
5	0xbca9b9b8	-0.02071844
6	0xbcbb760e	-0.022883441
7	0xbd71eb95	-0.05906256
8	0x3e110688	0.14162648
9	0x3cea2747	0.028583182
10	0x3c61cb85	0.013781433
11	0xbd251ba7	-0.040309574
12	0xbcebd7c3	-0.028789407
13	0x3dc405a7	0.095713906
14	0x3b75892e	0.0037465799
15	0x3d2ff145	0.042954702
16	0xbcba0e7a	-0.022711981
17	0x3cac4b15	0.021031896
18	0x3e0a583c	0.13510221
19	0xbbdbe18c	-0.006710237
20	0xbcf6e059	-0.030136274
21	0x3d5043e2	0.050845988
22	0xbd8cd6d7	-0.06876915
23	0x3dcd93f7	0.10037988
24	0xbdcf8780	-0.101332664
25	0x3ded1df7	0.11577981
26	0x3da42c00	0.08016205
27	0x3dff8e63	0.1247833
28	0xbc970e83	-0.018439537
29	0xbdfa7dfd	-0.122310616
30	0xbe0652ea	-0.13117567
31	0x3d5b02db	0.05346952
32	0xbd2a987e	-0.041649334
33	0x3d4034db	0.046925407
34	0x3df7836f	0.12085616
35	0xbd9d200a	-0.076721266
36	0x3d37a03c	0.044830546
37	0x3de96680	0.113965034
38	0xbdb9249c	-0.09040186
39	0x3d8d0fd8	0.068877876
40	0xbc9eb11e	-0.019371565
41	0x3d227043	0.039657842
42	0xbd5b9e40	-0.053617716
43	0xbca57ab0	-0.020200104
44	0x3e012ae2	0.12614015
45	0xbcc758e4	-0.024334379
46	0xbcb91cf7	-0.02259682
47	0x3cd98d12	0.026556525
48	0x3d4bce1f	0.04975712
49	0xbd3ad75a	-0.04561553
50	0xbb7302e0	-0.003708057
51	0x3c59ddc6	0.013297504
52	0x3d88ec27	0.066856675
53	0x3cab4a12	0.020909343
54	0xbdab409d	-0.083619334
55	0xbd9b3250	-0.07577956
56	0x3d2205fb	0.039556485
57	0xbd9b5bed	-0.07585893
58	0x3d6765b6	0.056493483
59	0x3cc1c165	0.023651788
60	0x3c222cf3	0.009898412
61	0x3d049ec6	0.03237798
62	0x3dc89af1	0.09795178
63	0xbc0ba9aa	-0.008524338
64	0x3d039771	0.032126848
65	0x3c95470b	0.018222352
66	0x3dc29a5e	0.095020995
67	0x3d8f81a0	0.07007146
68	0x3b738344	0.0037157098
69	0xbd1b31b0	-0.037889183
70	0x3db42f38	0.08798069
71	0xbd7682db	-0.060183387
72	0x3e035abb	0.1282758
73	0x3ca69379	0.020333992
74	0x3d2f6911	0.04282481
75	0x3da4aaa1	0.080403574
76	0x3db9abb6	0.090659544
77	0xbd95f7b9	-0.0732264
78	0x3dab1fa3	0.083556436
79	0x3e109312	0.14118603
80	0xbcefbe9d	-0.029265696
81	0x3e0900fd	0.13379283
82	0xbe10d1c5	-0.1414252
83	0x3db25baf	0.087088935
84	0xbd5a7bbe	-0.053340666
85	0x3de0cca8	0.10976535
86	0x3e068fe4	0.13140827
87	0xbdc88232	-0.09790458
88	0xbd8b3a2f	-0.06798207
89	0x3a756264	0.00093606696
90	0x3d023452	0.031788178
91	0xbda11431	-0.07865179
92	0xbde96861	-0.11396862
93	0x3dbd9ab7	0.09258025
94	0xbd32869d	-0.04358541
95	0x3da0ad5d	0.078455664
96	0xbdd81f21	-0.10552812
97	0xbce53445	-0.027979026
98	0x3d4ad3e7	0.049518492
99	0xbcb680c2	-0.022278193
100	0x3d48024a	0.048830308
101	0xbdf94604	-0.121715575
102	0xbc541e2e	-0.0129466485
103	0x3c432f32	0.011913108
104	0xbd6c1cbf	-0.057644602
105	0x3dd22367	0.10260659
106	0x3dad2392	0.0845405
107	0x3e04b683	0.12960248
108	0x3da43605	0.08018116
109	0x3db56644	0.08857396
110	0xbc58fcd6	-0.013243875
111	0x3d841363	0.0644901
112	0xbd35f11d	-0.044419397
113	0x3e11641e	0.14198348
114	0xbd588b46	-0.052867197
115	0x3ca93595	0.020655433
116	0xba9bd15a	-0.0011887953
117	0x3d38a281	0.04507685
118	0x3d9a168d	0.075238325
119	0x3c66bf64	0.014083717
120	0x3cba2d61	0.022726716
121	0x3d523580	0.051320553
122	0x3b7de537	0.003874136
123	0xbc5de845	-0.013544147
124	0x3da57fce	0.080810174
125	0xbc9542ca	-0.018220324
126	0x3d5c4941	0.053780798
127	0x3d1e393b	0.038628798
128	0xbdfe9f13	-0.12432685
129	0x3d9b5d21	0.07586122
130	0xbd561fce	-0.052276425
131	0x3e031298	0.12800062
132	0x3d1a3302	0.0376463
133	0x3d4f4693	0.050604414
134	0x3d5deac3	0.054178964
135	0x3dfdd472	0.12394036
136	0xbdddd949	-0.108324595
137	0x3d167d51	0.036740605
138	0xbe0fcecf	-0.14043735
139	0xbd55f664	-0.05223693
140	0x3de0a5ec	0.10969147
141	0x3cbaa084	0.022781618
142	0x3dd43b36	0.10362856
143	0x3dfae1bf	0.12250089
144	0x3ce35867	0.027752114
145	0xbd3f50a1	-0.046707753
146	0x3d017cc9	0.031613145
147	0x3e03e017	0.12878452
148	0xbd984a9b	-0.07436105
149	0xbe04a60c	-0.12953967
150	0x3de1fda7	0.110347085
151	0x3de1fad2	0.11034168
152	0xbd6ba501	-0.057530407
153	0x3cbddea1	0.023177447
154	0x3d568a0f	0.052377757
155	0xbd80a80e	-0.06282054
156	0xbcc0c69f	-0.02353221
157	0x3deb0afd	0.11476705
158	0xbc232e77	-0.009959809
159	0xbd1f0c94	-0.038830355
160	0xbd032e2d	-0.03202646
161	0x3d41821a	0.047243215
162	0x3d3c67a5	0.04599728
163	0x3d2e30cd	0.04252701
164	0xbda30b4e	-0.079611406
165	0xbde30674	-0.11085215
166	0xbd7a765b	-0.06114803
167	0xbd99455d	-0.07483933
168	0x3e0a6d43	0.13518243
169	0x3dede245	0.11615423
170	0xbcef8e5d	-0.029242689
171	0x3cc5f2f7	0.024163706
172	0xbe0c733d	-0.13715835
173	0x3d318849	0.043342862
174	0xbdd014ba	-0.10160203
175	0x3dd3e3f3	0.10346212
176	0xbd28e584	-0.04123451
177	0x3dbc93ae	0.09207855
178	0x3cf8e680	0.030383348
179	0xbd1d4a2e	-0.03840082
180	0x3cee17dc	0.029064111
181	0x3e01795b	0.1264395
182	0xbe123cff	-0.1428108
183	0xbd05a486	-0.032627605
184	0x3dc2cdb8	0.09511894
185	0xbd85f23b	-0.065403424
186	0xbd30ee5b	-0.043196063
187	0xbdf6218d	-0.12018118
188	0xbdf5bc4f	-0.11998808
189	0xbdb17980	-0.086657524
190	0x3d6589c5	0.05603959
191	0x3d89687f	0.06709384
192	0x3ce6b8d2	0.028164301
193	0x3d28ec40	0.04124093
194	0x3dc62c89	0.09676463
195	0x3c1b0ba5	0.0094632255
196	0xbc5f8dd4	-0.013644654
197	0x3d9759f9	0.07390208
198	0xbd768e22	-0.060194142
199	0x3dbd0d79	0.09231085
200	0xbc48f085	-0.012264376
201	0x39db522a	0.00041832152
202	0xbbb3f40e	-0.00549174
203	0xbd1336bb	-0.035940867
204	0x3cc47e35	0.023985961
205	0x3e029b21	0.1275449
206	0x3d0dbdbb	0.03460477
207	0x3dba85fb	0.09107586
208	0x3e06c430	0.13160777
209	0xbccd79ce	-0.025082495
210	0xbe12d578	-0.14339244
211	0x3d9dde9e	0.077084765
212	0x3d854786	0.06507783
213	0xbdc4ee2e	-0.09615742
214	0xbdbc370d	-0.091901876
215	0xbdfb9be6	-0.12285595
216	0xbd0746df	-0.033026572
217	0xbc9ac7dc	-0.018894129
218	0x3da8b828	0.0823825
219	0xbdee2c00	-0.11629486
220	0x3d7c6ae2	0.06162537
221	0x3d8648c1	0.065568455
222	0xbd62a66c	-0.055334494
223	0x3da233b4	0.07920018
224	0x3db933e3	0.090431
225	0xbe09072f	-0.13381647
226	0x3de9b8e1	0.11412216
227	0x3dcc1ac7	0.09966045
228	0xbe011b6f	-0.12608121
229	0xbdf9d66e	-0.12199102
230	0xbe073c75	-0.13206656
231	0x3df40d12	0.119165555
232	0xbdaebf99	-0.08532638
233	0x3df2b922	0.118517175
234	0xbd7fedeb	-0.062482756
235	0xbccce09d	-0.025009448
236	0xbbe0caa0	-0.0068600923
237	0xbdc9b114	-0.09848228
238	0xbd613979	-0.05498645
239	0xbd3f7928	-0.046746403
240	0xbd5a9617	-0.053365793
241	0x3d8461cd	0.064639665
242	0x3d6e0ab5	0.05811568
243	0xbad33ec1	-0.0016116725
244	0xbdbc8b38	-0.09206241
245	0xbe134260	-0.14380789
246	0xbdec016f	-0.11523711
247	0x3c92c340	0.017915368
248	0x3ce362fa	0.027757157
249	0x3ce93dda	0.028471876
250	0xbceeb77c	-0.029140227
251	0xbe0b4caa	-0.13603464
252	0xbdc89643	-0.09794285
253	0x3dea7d01	0.11449624
254	0x3df410f2	0.119172946
255	0xbd80c2e4	-0.062871724

lstm.bias_ih_l0 f4 [200]
0	0x3dfeb4dc	0.1243684
1	0xbd0b4eac	-0.034010574
2	0x3d3eebe8	0.046611696
3	0xbd3072a7	-0.04307809
4	0xbca08ed5	-0.019599358
5	0x3d950f16	0.07278268
6	0xbcf52885	-0.029926548
7	0x3cefd4e6	0.029276323
8	0xbda7e64d	-0.08198223
9	0xbdc85326	-0.09781484
10	0xbda4ebae	-0.08052765
11	0xbdb7f84f	-0.08982908
12	0x3d9e68f7	0.07734864
13	0xbdffbfb5	-0.12487737
14	0x3d843c64	0.06456831
15	0xbdf4d34a	-0.11954363
16	0x3db42ce4	0.08797625
17	0x3db27279	0.0871324
18	0xbde03ec7	-0.10949474
19	0xbd2ab604	-0.04167749
20	0xbd0517dc	-0.032493457
21	0x3d9ded1e	0.07711242
22	0x3c9c5396	0.019082826
23	0x3e07a91e	0.13248107
24	0x3bbeb607	0.005820039
25	0xbdda42c1	-0.106572635
26	0x3e095814	0.13412505
27	0x3da4ad06	0.08040814
28	0x3e09e381	0.13465692
29	0x3dd3377b	0.103133164
30	0x3d97e962	0.07417561
31	0x3e12e3e1	0.14344741
32	0xbd95005c	-0.07275459
33	0xbe07e869	-0.13272251
34	0xbd2daf7e	-0.04240369
35	0x3dc54410	0.096321225
36	0x3d92bb2e	0.07164608
37	0x3dfd87fe	0.12379454
38	0xbc3a50e8	-0.011371829
39	0xbd81ce8a	-0.06338222
40	0x3c489104	0.012241606
41	0x3d492eef	0.049117025
42	0x3c19c7aa	0.0093859825
43	0xbdb93429	-0.09043152
44	0x3e0b3714	0.1359523
45	0xbc64c822	-0.013963731
46	0x3e08c4c8	0.13356316
47	0x3ccb68d3	0.024830258
48	0xbccb3fcb	-0.024810692
49	0xbd30fad1	-0.043207947
50	0xbda13dd3	-0.0787312
51	0x3deeef66	0.116667554
52	0xb9ff06d0	-0.00048642466
53	0x3dbc4088	0.09191996
54	0x3d2c4f7f	0.042068
55	0x3e096f91	0.13421465
56	0xbd980265	-0.07422332
57	0xbcda0140	-0.026611924
58	0xbd294082	-0.041321285
59	0x3ca80098	0.020508096
60	0x3daf904e	0.08572446
61	0x3d60ebcf	0.054912385
62	0x3d149dbe	0.036283247
63	0xbd0096c9	-0.0313938
64	0x3d90533b	0.07047125
65	0x3dca4f8c	0.098784536
66	0x3d9ddb3c	0.07707831
67	0x3df991ab	0.12185987
68	0xbe07255b	-0.13197844
69	0xbde448ec	-0.11146721
70	0xbd45a5b3	-0.048253726
71	0xbd183c56	-0.037166916
72	0xbe09c30f	-0.13453315
73	0x3dbf3b80	0.093375206
74	0x3dceb757	0.10093563
75	0xbccd8457	-0.025087519
76	0xbc92e513	-0.017931497
77	0x3db3c0d1	0.08777011
78	0x3dea0dcf	0.11428415
79	0xbce1c517	-0.0275598
80	0xbdde1b90	-0.10845101
81	0xbdacd7fa	-0.08439632
82	0xbdad52f7	-0.0846309
83	0xbd973041	-0.073822506
84	0xbdb32110	-0.087465405
85	0x3d7d60c1	0.06185985
86	0xbdf05a7c	-0.117360085
87	0xbcf607c1	-0.030032994
88	0xbdd2857e	-0.10279368
89	0x3de35b9e	0.11101459
90	0xbce0a8ce	-0.027424242
91	0xbd8664ff	-0.06562232
92	0xbd13a18a	-0.036042728
93	0x3d9d2c93	0.076745175
94	0xbe04cc34	-0.12968522
95	0xbd8b989e	-0.06816219
96	0x3d756b8f	0.05991703
97	0x3ddf67fb	0.109085046
98	0xbd8ae402	-0.0678177
99	0xbaedc334	-0.001813984
100	0x3be5dbc9	0.007014726
101	0xbc5da156	-0.013527235
102	0x3d3549b9	0.04425976
103	0xbb97c318	-0.0046314113
104	0xbd3238d5	-0.04351123
105	0x3d8b1000	0.06790161
106	0x3de980d7	0.114015274
107	0x3dd22e94	0.1026279
108	0x3da7b27c	0.0818834
109	0x3d86ae3a	0.065762
110	0xbd9e395b	-0.077257834
111	0x3dbe225a	0.09283896
112	0x3db1d260	0.08682704
113	0xbe09301f	-0.13397263
114	0xbd383c72	-0.04497952
115	0xbd1ccb0f	-0.03827959
116	0xbdde4fc4	-0.10855058
117	0x3d8fd7ce	0.07023583
118	0xbd35e023	-0.044403207
119	0x3c9d3061	0.019188108
120	0x3d85fd26	0.06542425
121	0xbd3c8cc3	-0.04603268
122	0x3df2bc9a	0.11852379
123	0x3df50fca	0.11965902
124	0x3d993362	0.074805036
125	0x3dd70390	0.10498726
126	0xbd0c9cbf	-0.034329172
127	0xbc81699a	-0.015797425
128	0x3e0af224	0.13568932
129	0xbd43e45c	-0.047825202
130	0x3ce3eb52	0.02782217
131	0x3b31f9f8	0.002715705
132	0x3d50fc3b	0.051021796
133	0xbd2e0163	-0.04248179
134	0x3c10e9f6	0.008844843
135	0xbc230b2f	-0.009951397
136	0xbd22dee5	-0.03976335
137	0x3d3a7a1a	0.0455266
138	0x3db63877	0.088974886
139	0x3d7be2c1	0.061495546
140	0xbd515bf4	-0.051113084
141	0xbdb4d151	-0.088289864
142	0x3db77f19	0.08959789
143	0x3d3dd65c	0.046347007
144	0x3d0bb82e	0.034111194
145	0x3b0250d7	0.001988461
146	0x3d8ba0b0	0.06817758
147	0x3c55b230	0.0130429715
148	0x3dd16695	0.10224644
149	0xbdb44c2e	-0.088035926
150	0xbe02f14e	-0.12787363
151	0xbe0fbe7e	-0.14037511
152	0xbd764e2e	-0.06013315
153	0xbdc3b25a	-0.09555502
154	0xbd096232	-0.033540912
155	0xbdc54511	-0.09632314
156	0x3dddf148	0.10837036
157	0x3dd6f78a	0.10496433
158	0x3daae9df	0.083453886
159	0xbda64382	-0.08118345
160	0xbceb59c5	-0.028729329
161	0x3d45df28	0.04830852
162	0x3e0fb544	0.14033991
163	0x3de0c739	0.10975499
164	0x3d952e7f	0.07284259
165	0x3d8ae5dc	0.067821234
166	0x3de01120	0.10940766
167	0x3de01e78	0.109433115
168	0xbdfd104f	-0.12356626
169	0xbe041817	-0.12899815
170	0x3da8b152	0.08236946
171	0x3c09848e	0.00839342
172	0xbdb7158e	-0.08939658
173	0x3de75694	0.1129581
174	0xbc6da466	-0.014504528
175	0x3d3ebb09	0.04656509
176	0x3d5dedac	0.05418174
177	0xbca15d8c	-0.019697927
178	0xbdbfd65e	-0.09367059
179	0x3e075709	0.13216795
180	0xbdcfb4e1	-0.10141922
181	0xbc8041a2	-0.015656296
182	0xbd312e6b	-0.04325716
183	0x3e07f79e	0.13278052
184	0x3dcc30c5	0.099702395
185	0xbd3e81c3	-0.04651047
186	0xbda0cb1f	-0.07851242
187	0x3dbfb622	0.09360911
188	0x3d393243	0.04521395
189	0xbd96066e	-0.07325445
190	0xbde13412	-0.1099626
191	0x3c85baf3	0.016324496
192	0x3e11a086	0.14221391
193	0x3e01da77	0.12680994
194	0x3dad432e	0.08460079
195	0x3e019729	0.1265532
196	0x3c87c1d5	0.016571919
197	0xbdaeea03	-0.08540728
198	0xbd68cb9e	-0.05683481
199	0x3d580e32	0.052747913

lstm.bias_hh_l0 f4 [200]
0	0xbcce8c1f	-0.0252133
1	0xbd8a874b	-0.06764086
2	0xbd895b61	-0.06706882
3	0x3de23e94	0.11047092
4	0x3dcda3f5	0.10041038
5	0x3d6532c7	0.05595663
6	0x3d8c21f2	0.06842412
7	0xbe06d8b4	-0.13168603
8	0x3dc9249f	0.09821438
9	0x3daa0f42	0.083036914
10	0xbd67979b	-0.056541067
11	0xbd8d156f	-0.06888854
12	0x3de22169	0.11041529
13	0x3dd60a4f	0.10451185
14	0xbd99a647	-0.07502418
15	0x3cd39dc6	0.025832068
16	0x3d673f80	0.056457043
17	0x3dd9f16f	0.10641753
18	0xbd82be71	-0.0638398
19	0x3defeb4d	0.11714802
20	0x3c401470	0.011723623
21	0x3b5aa777	0.0033363977
22	0x3ddb8ba3	0.10719993
23	0xbd10d1dd	-0.03535639
24	0x3dc281cf	0.09497415
25	0x3d5ff915	0.054680903
26	0x3c1b4f52	0.009479361
27	0x3e0f7201	0.14008333
28	0xbda8a2bd	-0.08234165
29	0xbd8e3afb	-0.069448434
30	0xbd926e12	-0.071499005
31	0xbcef43e0	-0.02920717
32	0xbd93b315	-0.072118916
33	0x3d0e201a	0.034698583
34	0x3d2f0832	0.042732425
35	0x3cb15330	0.021646112
36	0x3d425c3a	0.047451235
37	0x3e0bb579	0.13643445
38	0x3d9986a7	0.07496386
39	0xbcde0577	-0.027102215
40	0xbe11b535	-0.14229281
41	0xbe051c68	-0.12999117
42	0x3c90fa8d	0.017697597
43	0xbde6ff0d	-0.11279116
44	0xbd79872c	-0.060919926
45	0xbd9cfd5b	-0.07665511
46	0x3d8282a4	0.06372574
47	0x3d466d2d	0.048443962
48	0xbd037439	-0.03209326
49	0xbc75160c	-0.01495887
50	0xbd3a6f9c	-0.045516595
51	0xbdb119e0	-0.086475134
52	0xbcaab55c	-0.020838432
53	0xbde79f0d	-0.113096334
54	0xbc0830bf	-0.008312403
55	0x3dc9e7de	0.09858678
56	0x3dcfae56	0.10140674
57	0xbdbe6842	-0.09297229
58	0x3da28fdb	0.079375945
59	0x3ca1a5b0	0.019732326
60	0xbcef3100	-0.02919817
61	0x3e13acb1	0.14421345
62	0xbd9b92e8	-0.075963795
63	0xbe085782	-0.13314632
64	0x3dae15b9	0.08500237
65	0x3dad14c2	0.08451225
66	0x3dfc699e	0.123248324
67	0xbd8aa4d2	-0.06769718
68	0xbe0137c7	-0.12618934
69	0xbdf7e46a	-0.121041134
70	0x3e06371d	0.13106962
71	0x3df6e7fa	0.12055965
72	0x3d39edf0	0.04539293
73	0xbb6b65b5	-0.0035918776
74	0xbd126a41	-0.035745863
75	0x3cb68509	0.022280233
76	0x3e04aa22	0.12955526
77	0x3d23ee59	0.040022228
78	0x3bad090a	0.0052806186
79	0xbd80e905	-0.06294445
80	0x3dd9fade	0.10643552
81	0x3c72fead	0.014831227
82	0x3c853c06	0.016263973
83	0x3ccc8e20	0.024970114
84	0xbd502c42	-0.050823458
85	0xbd0da1cf	-0.03457814
86	0xbd4d6101	-0.05014134
87	0xbc909979	-0.017651306
88	0x3dbb2a76	0.09138958
89	0xbdfe54c6	-0.12418513
90	0x39ea034a	0.0004463441
91	0xbdeafa51	-0.11473525
92	0xbccbca36	-0.024876695
93	0xbd76bf8d	-0.06024127
94	0x3d3c4e8b	0.045973342
95	0xbe0a69b1	-0.1351688
96	0x3d9a5947	0.075365596
97	0xbe0b4dff	-0.13603972
98	0xbd593fc2	-0.05303932
99	0x3da08c98	0.07839316
100	0x3d24f5ac	0.040273353
101	0xbdf891a3	-0.12137153
102	0xbd8a2c03	-0.06746676
103	0x3c3cc3a5	0.011521255
104	0xbdf1c07b	-0.11804291
105	0xbcf0dd3e	-0.029402371
106	0xbd37a43c	-0.04483436
107	0x3d95ca68	0.073139966
108	0x3ddb868a	0.10719021
109	0xbdc61766	-0.09672432
110	0xbd303d24	-0.04302706
111	0x3d90e3a2	0.070746675
112	0x3de11c88	0.1099177
113	0x3e05f3e2	0.13081315
114	0xbddf6af7	-0.10909074
115	0xbdd28aee	-0.10280405
116	0xbd3dc79c	-0.04633294
117	0x3d472271	0.04861683
118	0x3cfba40d	0.030717874
119	0xbd526acf	-0.05137139
120	0xbd625d1a	-0.05526457
121	0xbdf7d1b5	-0.12100545
122	0x3c8e9af7	0.017407877
123	0x3e095679	0.13411893
124	0xbdc84c18	-0.09780139
125	0xbe0c7236	-0.13715443
126	0xbd3d61c7	-0.046235826
127	0xbe0ed3d2	-0.1394799
128	0x3e012bb2	0.12614325
129	0xbdb9598e	-0.09050284
130	0x3d93041d	0.07178519
131	0xbddeaca8	-0.10872775
132	0x3dc3d3a0	0.09561849
133	0xbd6acab5	-0.057322223
134	0x3d52eec6	0.051497243
135	0x3c60b971	0.013716088
136	0xbad9fb9c	-0.0016630772
137	0xbc8efa51	-0.017453345
138	0x3dee86db	0.116468154
139	0xbe093048	-0.13397324
140	0x3cf2e5a0	0.02965051
141	0xbe120808	-0.14260876
142	0x3b91fbd0	0.004455067
143	0x3d830c24	0.063988
144	0x3de97ed3	0.11401143
145	0xbdaeeace	-0.08540879
146	0x3cef8006	0.029235851
147	0x3c526960	0.012842506
148	0xbdf133ae	-0.11777435
149	0x3e1515ee	0.14559147
150	0x3d9cb02b	0.07650789
151	0xbdb91260	-0.09036708
152	0x3dc5dfc6	0.09661822
153	0x3d28c5cd	0.041204263
154	0xbdf5057b	-0.11963936
155	0x3dec3919	0.11534328
156	0x3e0caa41	0.13736822
157	0x3e0d0064	0.1376968
158	0xb7346cc0	-1.0754156e-05
159	0xbde2f5b7	-0.11082023
160	0x3da3ef39	0.080046125
161	0xbdc6beac	-0.097043365
162	0x3e105838	0.14096153
163	0x3dd384af	0.10328042
164	0xbd4d5b89	-0.050136123
165	0xbd84d206	-0.06485371
166	0x3b627b28	0.003455827
167	0xbd0e186c	-0.03469126
168	0xbc627a54	-0.013823111
169	0xbe0e426f	-0.1389253
170	0xbdda7bc6	-0.10668139
171	0xbbe58907	-0.0070048603
172	0x3d7b9208	0.061418563
173	0xbcf7cde8	-0.030249551
174	0xbdd5da39	-0.10442013
175	0xbde5b408	-0.11215979
176	0x3e00755e	0.12544772
177	0x3db14d79	0.08657355
178	0xbd5c56b7	-0.053793635
179	0x3c92322b	0.017846188
180	0x3d55ded2	0.05221445
181	0x3dcebc6d	0.10094533
182	0xbdeba9b6	-0.11506979
183	0x3ddeaafe	0.10872458
184	0x3d0f4269	0.034975443
185	0xbdbfe5d3	-0.09370007
186	0xbd488296	-0.04895266
187	0xbd52cae6	-0.05146303
188	0xb82493e0	-3.9238366e-05
189	0xbd640790	-0.055671275
190	0xbd4ad540	-0.049519777
191	0x3da9896c	0.08278164
192	0xbe0097d5	-0.1255792
193	0x3d1e3904	0.038628593
194	0x3db5646e	0.08857046
195	0x3d8c01bf	0.068362705
196	0x3e099751	0.13436629
197	0xbdb87bf6	-0.09008019
198	0xbd12b1b4	-0.035814002
199	0x3d9a23d3	0.07526364

lstm.weight_ih_l1 f4 [200, 50]
0	0x3db432a3	0.08798721
1	0xbdcf06bc	-0.10108706
2	0x3db8b944	0.090197116
3	0x3deb8561	0.115000494
4	0x3df91d2a	0.12163766
5	0x3d82a697	0.06379431
6	0x3dc79110	0.09744465
7	0xbc9cedbe	-0.019156333
8	0xbd72760d	-0.059194613
9	0xbddfc43f	-0.10926103
10	0xbd90b55f	-0.07065844
11	0xbcb77e06	-0.02239896
12	0x3c8176a5	0.015803644
13	0xbd173137	-0.03691217
14	0x3d23c7ff	0.039985653
15	0x3dbad6cb	0.09123
16	0xbd9ee9b0	-0.07759416
17	0xbe088c81	-0.13334848
18	0xbcb9b588	-0.022669569
19	0xbdb6c1e4	-0.089237005
20	0xbdb87b7f	-0.0900793
21	0x3d19de07	0.037565257
22	0x3c073013	0.008251208
23	0x3c6ac8f5	0.014330138
24	0x3de74254	0.11291948
25	0xbde8b081	-0.113617904
26	0xbc8bb754	-0.017055191
27	0x3dd722eb	0.10504707
28	0x3da07afa	0.07835956
29	0x3da173c7	0.07883411
30	0x3d02cfda	0.031936504
31	0x3c6dcaf6	0.014513722
32	0x3cdde78a	0.027087945
33	0x3ddf7246	0.10910468
34	0xbc323fb7	-0.010879449
35	0xbca14158	-0.019684479
36	0x3da5bc4e	0.08092557
37	0xbdaa3774	-0.08311358
38	0x3db7a37c	0.08966729
39	0x3c1b7eaf	0.009490653
40	0xbdf752ea	-0.120763615
41	0xbd8fc467	-0.07019883
42	0xbdd258e2	-0.10270859
43	0xbd815ae1	-0.06316162
44	0xbc82d4f5	-0.015970686
45	0x3d72361c	0.059133634
46	0xbd6caf59	-0.057784412
47	0xbd80a93c	-0.06282279
48	0x3aaf8320	0.0013390519
49	0x3de68018	0.11254901
50	0xbcb04c92	-0.021520887
51	0x3e0a3e99	0.13500442
52	0x3cd305b9	0.025759565
53	0x3def8f68	0.116972744
54	0xbdd176f0	-0.10227764
55	0xbd5fc0d5	-0.05462726
56	0x3dd5f32a	0.104467705
57	0x3c143771	0.009046421
58	0x3e0a4d26	0.13505992
59	0xbd870b76	-0.06593983
60	0xbe0e58bd	-0.13901038
61	0x3dec103b	0.11526533
62	0x3c139c84	0.009009484
63	0x3d8cb352	0.0687014
64	0x3dcbc029	0.09948761
65	0x3de9f249	0.11423165
66	0x3d0985df	0.033574935
67	0xbdb53a5e	-0.08849023
68	0x3d38f42d	0.04515474
69	0xbdd8b357	-0.10581081
70	0x3e132af6	0.14371857
71	0xbd82638d	-0.06366644
72	0xbd1789e7	-0.03699675
73	0xbd99da34	-0.07512322
74	0xbd257225	-0.04039206
75	0x3da3a484	0.07990363
76	0x3dc9d83f	0.09855699
77	0x3d1a9770	0.03774208
78	0x3dba98f7	0.09111207
79	0x3dbbcc05	0.09169773
80	0xbc8e525e	-0.01737326
81	0xbdec9cbf	-0.115533344
82	0x3e0d9963	0.13828044
83	0x3d496568	0.049168974
84	0x3d2b8142	0.041871317
85	0x3cd584c0	0.026064277
86	0x3e10f3e2	0.14155534
87	0x3d9fee63	0.078091405
88	0xbc88842a	-0.016664583
89	0xbddbaa2e	-0.107258186
90	0xbd9a91a6	-0.075473115
91	0x3d35735b	0.044299465
92	0x3dd0ab98	0.10188979
93	0xbd68452a	-0.056706585
94	0x3dcb2ff7	0.09921258
95	0x3d8b661e	0.06806587
96	0xbd5f24cf	-0.054478463
97	0xbdf6bd06	-0.12047772
98	0xbba4d299	-0.005029988
99	0xbda25eeb	-0.079282604
100	0x3e02c69e	0.12771079
101	0x3d696fcd	0.056991387
102	0xbca03ede	-0.019561227
103	0x3ce51f9f	0.02796918
104	0xbc0b3379	-0.008496159
105	0x3d53b24c	0.05168371
106	0xbcc998b9	-0.024608957
107	0x3df671c9	0.120334215
108	0xbc4a9f6e	-0.012367113
109	0x3c77f24e	0.0151334535
110	0xbda68477	-0.081307344
111	0xbdcbef90	-0.09957802
112	0x3d9009f8	0.070331514
113	0xbd72164f	-0.059103306
114	0x3b1daeea	0.0024060556
115	0x3d8d6253	0.069035195
116	0xbcffc550	-0.031222016
117	0xbc853c24	-0.016264029
118	0x3d0dd258	0.034624428
119	0x3dc8ef20	0.098112345
120	0xbe02f1f9	-0.12787618
121	0xbe038285	-0.12842758
122	0x3db6229a	0.088933185
123	0xbdb049a7	-0.08607798
124	0x3c7a26bd	0.015268025
125	0x3ba96b22	0.005170242
126	0x3cf050ea	0.029335458
127	0xbd8abe9b	-0.06774636
128	0xbd43929a	-0.047747232
129	0xbdf3f852	-0.11912598
130	0xbde6c734	-0.11268464
131	0xbd0ea9b2	-0.034829803
132	0x3d78c350	0.06073314
133	0x3db060c1	0.08612204
134	0x3c77d05a	0.0151253585
135	0x3bd516cd	0.006502962
136	0xbe07bba5	-0.13255174
137	0x3daf8ef1	0.08572186
138	0xbda4b4fc	-0.080423325
139	0x3d99f31b	0.07517072
140	0xbdb98c9b	-0.090600215
141	0xbe1123e5	-0.14173849
142	0xbb83caf0	-0.004021995
143	0x3adf8238	0.0017052358
144	0x3dbeb5fe	0.09312056
145	0xbe0f870b	-0.14016359
146	0xbd666950	-0.056252778
147	0x3e053e22	0.13011983
148	0x3dd87086	0.10568337
149	0x3e08696c	0.13321465
150	0x3df5822d	0.1198772
151	0x3dee7c88	0.11644846
152	0xbc9e8d65	-0.019354532
153	0xbc6c9cf9	-0.014441722
154	0xbdb8524a	-0.090000704
155	0xbd0b8893	-0.034065794
156	0xbcb2fea6	-0.021849941
157	0x3d6c2eba	0.05766175
158	0x3d8ac250	0.067753434
159	0x3d825016	0.063629314
160	0xbdc20793	-0.09474101
161	0x3d9dbea2	0.07702376
162	0x3da6d0f4	0.081453234
163	0x3c220755	0.009889443
164	0x3d48b990	0.04900509
165	0x3d7e9312	0.062151976
166	0x3d66af07	0.056319263
167	0xbe073ff0	-0.13207984
168	0x3e0ce1ea	0.13758054
169	0x3db52612	0.08845152
170	0xbd80184f	-0.062546365
171	0x3d9eebf6	0.0775985
172	0xbda397cf	-0.079879396
173	0xbc818b58	-0.015813515
174	0xbdecface	-0.11571275
175	0x3db327c4	0.08747819
176	0x3dfdf758	0.12400693
177	0x3c4729e8	0.012155987
178	0xbdedae1a	-0.11605473
179	0xbdd71d08	-0.10503584
180	0x3dc2cba5	0.09511498
181	0x3d886a5f	0.06660914
182	0x3da1a7ca	0.07893331
183	0xbd7730c7	-0.060349252
184	0x3e010de0	0.12602949
185	0x3db88b10	0.09010899
186	0xbdf61dd6	-0.120174095
187	0x3df75221	0.12076212
188	0xbda0724f	-0.07834303
189	0xbd0e7ffb	-0.03479002
190	0x3d820952	0.06349434
191	0x3e029c35	0.12754901
192	0x3e059458	0.1304487
193	0xbb9a1f84	-0.004703464
194	0xbc0456d1	-0.008077339
195	0xbdb59476	-0.08866207
196	0xbdf4c828	-0.11952239
197	0x3aaa7275	0.0013004082
198	0xbd065d76	-0.032803975
199	0x3dd0cc8c	0.10195264
200	0x3dd7da81	0.10539723
201	0xbcc3b9b9	-0.02389227
202	0x3c5d58c6	0.013509935
203	0xbdc9ca32	-0.09853019
204	0xbd87c4ad	-0.0662931
205	0x3e0975f7	0.13423906
206	0x3bfeac30	0.007771991
207	0x3defb248	0.11703926
208	0x3e05dadf	0.13071774
209	0x3dfb8de2	0.122829214
210	0x3d45da76	0.048304044
211	0x3cb71800	0.022350311
212	0xbdb1a3cd	-0.08673821
213	0xbd8d9093	-0.06912341
214	0xbcaf2c73	-0.0213835
215	0xbddb7813	-0.10716262
216	0xbb46b175	-0.0030318175
217	0xbdc06e1b	-0.09396001
218	0x3d93db4c	0.07219562
219	0xbc457331	-0.01205139
220	0xbd2b3f67	-0.041808512
221	0x3df6de99	0.12054176
222	0x3d585454	0.052814797
223	0x3dc611fd	0.096714
224	0xbdbf9e6b	-0.09356388
225	0xbd9757f3	-0.07389822
226	0x3db5973a	0.08866735
227	0xbd014264	-0.031557456
228	0x3e01afa3	0.12664656
229	0xbd8eba91	-0.069691785
230	0xbe029206	-0.12751016
231	0xbd69771f	-0.05699837
232	0xbcf9f6d9	-0.030513214
233	0xbd2e76e6	-0.04259386
234	0x3e043ce6	0.12913856
235	0xbd389ad0	-0.045069516
236	0xbdf86a93	-0.121297024
237	0x3db5c655	0.088757195
238	0xbdac9109	-0.08426101
239	0x3ba9a569	0.005177189
240	0xbdfe3ffc	-0.12414548
241	0xbdc8ff7e	-0.09814356
242	0x3cdeb467	0.027185632
243	0xbe090152	-0.1337941
244	0x3df9eb9f	0.12203144
245	0xbc475569	-0.012166359
246	0xbdda58f3	-0.10661497
247	0x3ccdd2fa	0.025125016
248	0x3ddd07b3	0.10792484
249	0x3e051c65	0.12999113
250	0x3e00a931	0.12564541
251	0xbd80c911	-0.062883504
252	0x3b083657	0.0020784342
253	0x3c6c6fa1	0.014430911
254	0x3cd78635	0.026309112
255	0x3ba1c373	0.0049366294

lstm.weight_hh_l1 f4 [200, 50]
0	0x3bff90d6	0.007799248
1	0xbdb49953	-0.08818307
2	0x3e041c9d	0.1290154
3	0xbd26f4e0	-0.040760875
4	0x3c4ecd79	0.012622231
5	0xbd4b051d	-0.049565423
6	0xbcda1714	-0.026622333
7	0x3d587d57	0.05285391
8	0x3b072514	0.0020621466
9	0x3d1bcc49	0.03803662
10	0xbdaddbd0	-0.084891915
11	0xbdd6a4a4	-0.104806215
12	0x3d7c876a	0.06165258
13	0x3de131c5	0.10995821
14	0xbe02876f	-0.12746976
15	0x3cab4fe3	0.020912116
16	0xbd2aed46	-0.041730188
17	0x3d9d90e1	0.07693649
18	0x3e0e4cbd	0.13896461
19	0xbd9e82c4	-0.07739785
20	0x3dc9cc19	0.09853382
21	0x3df3ab2c	0.11897883
22	0x3dbb7d28	0.09154731
23	0xbddfa204	-0.10919574
24	0x3dc8b9bf	0.09801053
25	0xbd885221	-0.0665629
26	0xbde8e70c	-0.11372194
27	0x3d72ad95	0.059247572
28	0x3d0e87a5	0.03479733
29	0xbe1077f3	-0.14108257
30	0xbd2b9be2	-0.04189671
31	0xbe10df4d	-0.14147682
32	0xbe049bcc	-0.12950057
33	0x39ae8f08	0.00033294433
34	0x3d9eea21	0.077595
35	0xbb7f7b86	-0.0038983538
36	0xbd40260a	-0.046911277
37	0xbd59b006	-0.053146385
38	0x3df187a5	0.1179345
39	0x3cf44593	0.029818332
40	0x3e001189	0.12506689
41	0xbcd8511c	-0.026405863
42	0x3d0d25c6	0.03445985
43	0x3c861222	0.016366068
44	0xbd953e72	-0.07287301
45	0x3cc70b9a	0.024297524
46	0x3cde499d	0.02713471
47	0xbe04dbb4	-0.12974435
48	0xbe12e921	-0.14346744
49	0x3dfb19c7	0.12260776
50	0xbd509003	-0.05091859
51	0x3df646c1	0.12025214
52	0x3d56ee5e	0.05247342
53	0x3e01906e	0.12652752
54	0xbdc474d5	-0.095925964
55	0xbd6c18e9	-0.057640944
56	0x3d8fdf6a	0.07025035
57	0xbc6f8391	-0.01461877
58	0xbdcb4177	-0.09924596
59	0x3dc256e7	0.094892316
60	0x3e137482	0.14399913
61	0xbd6324be	-0.055454962
62	0x3d2d0fe4	0.042251483
63	0x3cb1f767	0.021724416
64	0xbdfb18a2	-0.12260558
65	0xbbfa7ac3	-0.007644029
66	0xbd71d1dc	-0.059038028
67	0xbd8681a8	-0.06567699
68	0xbc0e16aa	-0.008672396
69	0x3da0925f	0.07840418
70	0xbdb9fe60	-0.09081721
71	0xbde582d1	-0.11206592
72	0xbdec2f42	-0.11532451
73	0xbdd070ae	-0.10177742
74	0xbd6b1a40	-0.05739808
75	0x3dc122f3	0.09430494
76	0xbc9e9acf	-0.019360928
77	0xbc785873	-0.015157807
78	0x3dbeed09	0.093225546
79	0x3db8e7f4	0.090286165
80	0x3ce42074	0.027847506
81	0xbc0aac3f	-0.008463918
82	0x3dcbe226	0.09955244
83	0x3d46601e	0.04843151
84	0x3d826c73	0.06368341
85	0x3c5d6690	0.013513222
86	0x3e1359e4	0.1438976
87	0xba904f47	-0.0011009955
88	0xbd910f8e	-0.07083045
89	0xbbd835e2	-0.00659822
90	0x3daf7d29	0.08568794
91	0xbd96f6d2	-0.07371296
92	0xbdb7a0a1	-0.089661844
93	0xbd736c57	-0.059429493
94	0xbd7f2f4c	-0.062300965
95	0xbbfc5f11	-0.0077017625
96	0xbd2b94fd	-0.041890133
97	0xbcde5ead	-0.027144754
98	0xbcbd51de	-0.023110326
99	0xbdb7a53c	-0.08967063
100	0xbd9a8107	-0.07544141
101	0x3c6c67ff	0.0144290915
102	0x3d48a3ed	0.048984457
103	0x3d458b35	0.04822846
104	0x3c74c575	0.014939656
105	0x3c2c73a8	0.0105256215
106	0xbdfb427e	-0.12268542
107	0xbdd0a0b2	-0.101869
108	0xbd0c7b88	-0.034297496
109	0xbdf5d23b	-0.12002989
110	0xbd9551bd	-0.07290981
111	0x3da9962b	0.082805954
112	0x3da3bf72	0.079955
113	0xbdfa72e9	-0.122289486
114	0xbc0c5e2e	-0.008567376
115	0xbccd3807	-0.02505113
116	0x3d693dd9	0.05694375
117	0x3dfc0e88	0.12307459
118	0x3d8d72f6	0.06906693
119	0xbc46dbc6	-0.012137359
120	0x3ba54930	0.005044125
121	0x3d29aa09	0.041421924
122	0xbc226972	-0.009912835
123	0x3cbe1faa	0.023208458
124	0x3d998c85	0.07497505
125	0x3d5b4f11	0.0535422
126	0x3df23cb4	0.118279845
127	0xbdf6511b	-0.120271884
128	0xbdf23013	-0.11825576
129	0xb9b47af0	-0.0003442387
130	0xbd368bfe	-0.0445671
131	0x3d27ff4b	0.04101495
132	0xbde92bae	-0.11385284
133	0x3e0f492e	0.1399276
134	0xbe0ef81b	-0.13961832
135	0x3e09a537	0.1344193
136	0xbcabe37b	-0.020982495
137	0xbe106d8b	-0.14104287
138	0x3dad00fe	0.08447455
139	0x3ca4b0df	0.02010387
140	0x3df700c7	0.12060695
141	0xbd4e4be6	-0.05036535
142	0x3d5593f2	0.052143045
143	0xbdbed1bd	-0.09317348
144	0x3ddacee0	0.106839895
145	0xbcf7c7aa	-0.030246574
146	0x3d7809d1	0.060556237
147	0xbdb2d93c	-0.087328404
148	0xbc6432d0	-0.01392813
149	0xbd957543	-0.072977565
150	0x3d5f4116	0.05450543
151	0x3dcf4ccc	0.1012207
152	0xbb859456	-0.004076521
153	0xbd3a466c	-0.045477316
154	0x3df35b16	0.11882608
155	0x3b1d8309	0.0024034402
156	0xbc97eab0	-0.018544525
157	0xbdf96628	-0.12177688
158	0x3dca92c8	0.098912776
159	0x3df84f49	0.121244974
160	0xbdf8f38f	-0.1215583
161	0xbc435cdc	-0.011923995
162	0x3dd64dca	0.10464056
163	0xbd7d6348	-0.06186226
164	0x3ba7882d	0.005112669
165	0xbd9f30e4	-0.07772997
166	0xbdca71c2	-0.09884979
167	0x3db25746	0.08708052
168	0x3c1f99a2	0.009741219
169	0xbb894c23	-0.0041899844
170	0xbe147aad	-0.14499922
171	0xbd217d44	-0.039426103
172	0x3de89639	0.11356778
173	0xbe04a652	-0.12954071
174	0x3dea4b48	0.1144014
175	0xbcc38a58	-0.023869678
176	0xbd24ffb9	-0.04028294
177	0x3dc5dede	0.09661649
178	0x3d05cb53	0.03266461
179	0x3d393a98	0.045221895
180	0x3cd0cad2	0.025487337
181	0xbdebe679	-0.115185685
182	0xbdcde04c	-0.10052547
183	0xbd81d962	-0.063402906
184	0x3d114e8c	0.0354753
185	0x3dc6df3b	0.097105466
186	0x3d209314	0.039202765
187	0xbdbe35e3	-0.09287622
188	0x3cb02c37	0.021505458
189	0xbd67c5f9	-0.056585286
190	0x3d72415f	0.059144374
191	0x3d634e56	0.05549463
192	0xbdd577f3	-0.10423269
193	0xbc49e3dd	-0.012322393
194	0xbda32d99	-0.079676814
195	0xbc414d1d	-0.01179817
196	0xbcd2a32f	-0.025712578
197	0xbdebb939	-0.11509938
198	0x3d922cd2	0.07137455
199	0x3dabb772	0.08384599
200	0xbdca75dd	-0.09885762
201	0x3cf90125	0.030396054
202	0xbde3a6df	-0.111158125
203	0x3c92b269	0.017907338
204	0xbc66488c	-0.014055382
205	0xbd4d4e15	-0.050123293
206	0x3deec45d	0.11658547
207	0x3d1cfbc4	0.03832604
208	0xbbea5405	-0.007151129
209	0x3d9b9ecc	0.075986475
210	0x3daff180	0.08590984
211	0x3d4511d0	0.04811269
212	0x3cdc2476	0.026872855
213	0x3da8abf4	0.082359225
214	0xbd36af4d	-0.044600774
215	0x3e008176	0.12549385
216	0xbdaafa36	-0.08348505
217	0x3ddb226e	0.10699926
218	0x3ca34b11	0.019933255
219	0x3da635ab	0.08115705
220	0x3c0de302	0.00866008
221	0xbd8f1a4d	-0.06987438
222	0x3c9322f0	0.017960995
223	0xbd383028	-0.0449678
224	0x3dff5839	0.12467999
225	0xbdb14582	-0.08655836
226	0xbd46a4b3	-0.048496913
227	0xbdf10872	-0.11769189
228	0x3b71bb9e	0.003688551
229	0xbd32b217	-0.04362687
230	0x3c870ff0	0.016487092
231	0xbe10b1da	-0.14130345
232	0xbd125e8b	-0.035734694
233	0xbc9d1a32	-0.01917753
234	0x3d56a1d7	0.052400436
235	0xbdd37be4	-0.10326365
236	0x3daf02c4	0.085454494
237	0x3c939547	0.018015517
238	0x3cb4b73b	0.022060027
239	0xbd75a6a2	-0.059973367
240	0xbd941a04	-0.072315246
241	0x3ce464af	0.02788004
242	0xbc5277f6	-0.012845984
243	0x3ded3d00	0.115839005
244	0x3cdd814e	0.027039196
245	0x3e0d80b4	0.13818628
246	0xbdf1cd7d	-0.11806772
247	0xbcfeb6ef	-0.031093089
248	0xbdf8a5f8	-0.12141031
249	0x3c2b93c8	0.0104722455
250	0x3df7ff1b	0.121092044
251	0xbe049494	-0.12947303
252	0xbbd83f40	-0.006599337
253	0x3e04846b	0.12941138
254	0xbd1207a6	-0.035651825
255	0xbda0d9d4	-0.078540474

lstm.bias_ih_l1 f4 [200]
0	0x3d97cc54	0.07412019
1	0xbba1b6f6	-0.0049351407
2	0x3e0dad57	0.13835655
3	0xbe01ea51	-0.12687041
4	0xbd7a4adc	-0.061106548
5	0xbcf97a7b	-0.030453911
6	0xbdf5b98a	-0.119982794
7	0x3d10e133	0.035371017
8	0xbde47deb	-0.111568294
9	0xbdc2c30e	-0.0950986
10	0xbd4d891c	-0.050179586
11	0x3af61610	0.0018774886
12	0x3d1ef971	0.038812105
13	0xbd8c5997	-0.068530254
14	0xbd8e16f6	-0.06937973
15	0x3d68c97b	0.05683277
16	0x3da8d005	0.082428016
17	0xbbf4d505	-0.007471683
18	0xbcd3517b	-0.025795689
19	0xbde98355	-0.11402003
20	0xbca672c4	-0.020318396
21	0x3c808ff2	0.015693638
22	0x3d605b83	0.054774772
23	0xbca06b6f	-0.019582478
24	0x3ce032bb	0.02736794
25	0xbda79ea3	-0.081845544
26	0x3decbd34	0.11559525
27	0x3e1389f6	0.14408097
28	0x3d4d6e34	0.050153926
29	0xbcc993c2	-0.02460659
30	0xbdf95b34	-0.12175599
31	0xbdbd81f7	-0.092533045
32	0xbd0d1b09	-0.03444961
33	0x3d40a9e7	0.04703703
34	0x3d105fbd	0.035247553
35	0x3deb97a4	0.115035325
36	0xbe10dd52	-0.14146927
37	0x3dae3b06	0.085073516
38	0x3cbf2a34	0.023335554
39	0xbd93e345	-0.072210826
40	0x3e0326c1	0.12807752
41	0x3ddac923	0.10682895
42	0x3da5bcc9	0.080926485
43	0xbcba3dda	-0.022734571
44	0xbd01dcf6	-0.031704865
45	0xbe0496fa	-0.12948218
46	0xbe050312	-0.12989452
47	0x3dc23aec	0.09483895
48	0xbdabe8da	-0.08394022
49	0x3da649b3	0.08119526
50	0x3b9c7517	0.0047747004
51	0x3b78c92e	0.003796171
52	0x3d02f088	0.03196767
53	0xbdb70e4b	-0.08938273
54	0xbca00184	-0.019531973
55	0x3b6725cb	0.003527033
56	0x3d4af481	0.049549583
57	0xbd2f8e43	-0.04286028
58	0x3df243a8	0.11829311
59	0xbd55817f	-0.05212545
60	0xbdb60b99	-0.08888931
61	0x3d2a9867	0.04164925
62	0xbd9b0c15	-0.07570664
63	0x3db20c90	0.08693802
64	0xbd8c01bd	-0.06836269
65	0x3d3660cb	0.044525903
66	0xbab47035	-0.001376635
67	0xbbb09664	-0.0053890217
68	0x3c38930b	0.0112655265
69	0x3b95c99e	0.004571154
70	0xbcdf8ddb	-0.027289322
71	0x3de48e89	0.11159999
72	0x3e01a7d4	0.12661678
73	0xbd3e429d	-0.046450246
74	0x3dd16d50	0.10225928
75	0x3d7ff45f	0.06248891
76	0x3e0947fb	0.13406365
77	0x3d8119c3	0.06303742
78	0xbdb21284	-0.08694938
79	0x3d6db901	0.05803776
80	0x3e002c03	0.12516789
81	0x3df54320	0.11975694
82	0x3d7660e3	0.060150992
83	0x3ded93f9	0.11600489
84	0xbda6b5da	-0.08140154
85	0x3d13a495	0.03604563
86	0x3bb35a75	0.00547343
87	0x3d749fc3	0.059722673
88	0x3d9dfa9d	0.07713816
89	0xbde28a55	-0.11061541
90	0x3d579bdb	0.05263887
91	0xbd2b6abe	-0.041849844
92	0x3ddb9182	0.10721113
93	0x3cf5b199	0.029991912
94	0x3c7083a6	0.014679825
95	0xbd21af63	-0.039473902
96	0xbddb9a2e	-0.10722767
97	0x3e0adf4d	0.13561745
98	0x3d721123	0.059098374
99	0xbddf6054	-0.10907045
100	0xbd97c1bd	-0.074099995
101	0x3ceff10a	0.029289741
102	0x3d9a8351	0.07544578
103	0x3e09fd29	0.13475479
104	0xbd102783	-0.03519393
105	0xbdbf3c99	-0.0933773
106	0xbd5a10ac	-0.053238556
107	0xbce175a6	-0.02752192
108	0xbcd2a9fe	-0.025715824
109	0xbdc2b321	-0.095068224
110	0x3da3d693	0.07999911
111	0xbc0cc3c1	-0.008591593
112	0xbe08904d	-0.13336296
113	0x3ddfcda1	0.109278925
114	0x3d870477	0.065926485
115	0xbdbc5a60	-0.09196925
116	0x3c8ba75a	0.017047573
117	0xbd13f0f7	-0.036118474
118	0x3dea2e49	0.114346094
119	0x3de79390	0.11307442
120	0xbd9e0bb3	-0.07717075
121	0xbbebf4f7	-0.007200833
122	0x3dc49853	0.09599366
123	0xbdc393c5	-0.09549669
124	0xbd215bad	-0.03939407
125	0xbdd093b9	-0.10184426
126	0xbda31157	-0.07962292
127	0xbd556d6d	-0.05210631
128	0xbdb23bad	-0.087027885
129	0xbdfc7af9	-0.12328143
130	0xbd8513d2	-0.06497921
131	0xbda98ad4	-0.082784325
132	0x3d8066dd	0.062696196
133	0x3dbf3995	0.09337155
134	0xbd62b9b5	-0.055352885
135	0xbddde6ac	-0.10835013
136	0x3dec30cc	0.11532745
137	0xbe0cd0a5	-0.13751467
138	0xbbc98c24	-0.0061507393
139	0x3e0849f0	0.13309455
140	0xbd82c9e1	-0.063861616
141	0x3c95fb24	0.01830823
142	0xbdb0c7c7	-0.086318545
143	0x3c022027	0.007942236
144	0x3d90e2ba	0.07074495
145	0x3d4411b0	0.04786843
146	0xbdf74a82	-0.12074758
147	0xbd6d4f22	-0.057936795
148	0xbcdd16c2	-0.02698839
149	0x3b65dbf6	0.0035073734
150	0x3d4b23cf	0.049594697
151	0x3c0e9134	0.008701611
152	0xbd8f5e0e	-0.070003614
153	0x3dab25c0	0.083568096
154	0xba144dae	-0.0005657327
155	0x3d557054	0.052109078
156	0x3cd41ef7	0.025893671
157	0x3d0807fd	0.033210743
158	0x3d913c3c	0.07091567
159	0xbd93fe99	-0.07226295
160	0x3db53124	0.088472635
161	0xbc272e2d	-0.01020388
162	0xbdf75542	-0.120768085
163	0x3e03c56c	0.12868279
164	0x3ce7be6e	0.028289046
165	0x3dc08cf0	0.09401882
166	0x3e0327fb	0.1280822
167	0xbd115fbc	-0.03549169
168	0x3d1d7040	0.038437128
169	0x3d071ce3	0.032986533
170	0x3cccd310	0.025002986
171	0xbcc872c3	-0.024468785
172	0xbc8af4b3	-0.016962385
173	0xbdac3379	-0.08408255
174	0x3d5764af	0.052586254
175	0xbe0b2172	-0.13586977
176	0x3d60ff76	0.054931127
177	0x3db28a20	0.087177515
178	0xbdc50e1a	-0.0962183
179	0x3d9f33f6	0.07773583
180	0x3d57f344	0.05272223
181	0xbdf17f4b	-0.11791857
182	0x3bb98f89	0.0056628627
183	0xbdd7f304	-0.105443984
184	0x3cd732cb	0.026269337
185	0x3d98f71d	0.07469008
186	0xbd430b2a	-0.04761807
187	0xbb3f63e7	-0.0029203834
188	0x3dbcfde5	0.09228114
189	0xbe0a9eff	-0.13537215
190	0xbd71800b	-0.058960002
191	0x3d1b5b19	0.037928674
192	0x3d924a03	0.07143023
193	0xbd186460	-0.0372051
194	0x3db558a1	0.08854795
195	0x3de7a65e	0.11311029
196	0xbdc4a863	-0.0960243
197	0x3d54ba87	0.0519357
198	0xbdfed8de	-0.12443708
199	0xbe0ae20c	-0.13562793

lstm.bias_hh_l1 f4 [200]
0	0x3de2abb6	0.110679075
1	0xbb9f4c96	-0.0048614247
2	0x3e149533	0.1451004
3	0xbdf709ee	-0.12062441
4	0x3d742628	0.0596067
5	0xbc4a3517	-0.012341759
6	0xbd150c7f	-0.03638887
7	0xbd5617c5	-0.052268762
8	0xbdaa4282	-0.083134666
9	0xbe0aa544	-0.13539606
10	0x3e064a58	0.13114297
11	0x3d4bb119	0.04972944
12	0xbdb4df3d	-0.08831642
13	0x3dde44e3	0.10852983
14	0x3d66b728	0.056327015
15	0xbb8bb50c	-0.004263526
16	0xbd3fe28a	-0.046846904
17	0x3dd48a4b	0.1037794
18	0x3cce2535	0.025164226
19	0x3d4103ed	0.047122885
20	0xbe078706	-0.13235101
21	0x3c966a8a	0.018361349
22	0xbce477d1	-0.027889164
23	0x3d76c592	0.06024701
24	0x3db020eb	0.086000286
25	0xbd198569	-0.037480745
26	0xbd9e04e8	-0.077157795
27	0xbd94e296	-0.0726978
28	0x3d107968	0.035272032
29	0xbdbb51ad	-0.09146438
30	0xbde8901c	-0.11355612
31	0x3c5bf23c	0.013424452
32	0x3dd0bf2a	0.10192712
33	0x3c090ccb	0.0083648665
34	0xbd350ec3	-0.04420353
35	0xbda01341	-0.078161724
36	0xbddcb6a3	-0.10777023
37	0x3dab6258	0.08368367
38	0xbd262674	-0.040564016
39	0xbd4ad403	-0.049518596
40	0x3d71142d	0.05885713
41	0x3e023070	0.1271379
42	0x3dd4b3cd	0.10385857
43	0x3e0c344d	0.13691826
44	0x3e1256b9	0.14290895
45	0x3db5d87c	0.08879182
46	0xbd7904a6	-0.06079545
47	0x3dc0b5d6	0.094096825
48	0x3d1a40bc	0.03765939
49	0xbd53a14e	-0.051667504
50	0x3e135440	0.14387608
51	0x3dd8c20b	0.10583886
52	0xbcf713ff	-0.030160902
53	0x3da4c835	0.08045999
54	0x3df48fbc	0.11941478
55	0xbd9b0d78	-0.07570928
56	0x3e04d8d7	0.12973343
57	0x3df6f98a	0.120593145
58	0xbdcc2b30	-0.09969175
59	0xbcc394d7	-0.023874683
60	0xbd8cd765	-0.06877021
61	0xbd939ec8	-0.072080195
62	0xbd32b87e	-0.043632977
63	0xbd5cead5	-0.05393489
64	0xbcbefb48	-0.02331318
65	0x3de8c0b7	0.113648824
66	0x3d2f8dda	0.04285989
67	0xbdfacbc2	-0.12245895
68	0x3cee216d	0.029068673
69	0xbc7fbf08	-0.01560951
70	0x3e13fce6	0.14451942
71	0x3d9edca5	0.07756928
72	0x3e0d4bd6	0.1379846
73	0xbcc62160	-0.024185836
74	0xbcf8f4df	-0.030390201
75	0xbdd10a70	-0.10207069
76	0x3dfa7e57	0.12231129
77	0x3c17aed3	0.00925799
78	0xbdee0832	-0.11622657
79	0x3dec1483	0.1152735
80	0xbc8f5bf5	-0.017499903
81	0x3e0775ba	0.13228503
82	0xbcfae36d	-0.030626023
83	0xbc75f311	-0.015011565
84	0x3c76a56d	0.015054089
85	0x3d9954c3	0.0748687
86	0x3d9acd65	0.07558707
87	0x3b9a6815	0.0047121146
88	0x3e02c608	0.12770855
89	0x3d3736c2	0.044729955
90	0x3ddb9a11	0.10722745
91	0x3def0d30	0.11672437
92	0xbc9d9779	-0.019237267
93	0x3ae67386	0.0017582036
94	0xbd4311d4	-0.047624424
95	0xbdaefd55	-0.08544413
96	0xbd7dad19	-0.061932657
97	0xbbdbd596	-0.006708811
98	0xbdbba9f7	-0.091632776
99	0x3db9e2e9	0.09076483
100	0x3d717517	0.058949556
101	0x3d66cde1	0.056348685
102	0x3d4dcdf6	0.050245248
103	0x3cb76964	0.022389121
104	0xbd94135c	-0.07230255
105	0xbcd23011	-0.025657685
106	0xbd7dc0c8	-0.06195143
107	0xbd1cdda6	-0.038297318
108	0x3d5bba05	0.0536442
109	0x3d8c26d3	0.06843343
110	0x3d1f8d9e	0.038953416
111	0x3d331cbc	0.043728575
112	0xbdc60d26	-0.096704766
113	0x3dd42059	0.10357732
114	0x3dd136ef	0.10215556
115	0xbdb92914	-0.09041038
116	0xbdc91e7d	-0.09820268
117	0xbc6c550d	-0.014424575
118	0xbdaff635	-0.08591882
119	0x3c1646ce	0.009172155
120	0xbd8d68cb	-0.06904753
121	0xbe098046	-0.13427839
122	0xbd634957	-0.055489864
123	0x3cdf9f3f	0.027297614
124	0xbab04d59	-0.0013450786
125	0x3d826837	0.06367534
126	0x3c63cf45	0.013904397
127	0x3df25600	0.118328094
128	0xbc82ff61	-0.015990915
129	0xbc83b733	-0.016078567
130	0x3df255eb	0.11832794
131	0xbd8ac313	-0.06775489
132	0x3dc67a37	0.096912794
133	0xbc846e5e	-0.016165908
134	0xbc8eb254	-0.017419018
135	0xbceed96c	-0.02915641
136	0x3b0744ac	0.0020640297
137	0xbdcf0c55	-0.10109774
138	0x3de0a449	0.10968835
139	0x3c8ab009	0.016929643
140	0x3d16a3d3	0.03677733
141	0xbde458e0	-0.11149764
142	0x3caea837	0.021320445
143	0x3e0c405d	0.13696428
144	0xbdcce18d	-0.10003958
145	0x3df6d1be	0.12051724
146	0xbde7bd15	-0.113153614
147	0xbd96d948	-0.07365662
148	0x3c864036	0.01638804
149	0x3de90ab8	0.113789976
150	0x3e11968e	0.14217588
151	0x3e06d8aa	0.13168588
152	0x3d9965e7	0.074901395
153	0xbe06e92e	-0.13174888
154	0xbbfbaa15	-0.0076801875
155	0xbd967015	-0.07345597
156	0xbde2ab1e	-0.11067794
157	0x3d556a91	0.052103583
158	0xbb80106b	-0.003908207
159	0x3cd093d0	0.025461107
160	0x3d17db41	0.03707433
161	0x3d8065c8	0.06269413
162	0xbdca666d	-0.098828174
163	0xbdb65245	-0.089024104
164	0x3d66c4a3	0.05633987
165	0xbde9d80e	-0.11418162
166	0xbd7ecf74	-0.06220956
167	0x3b1ff35b	0.0024406526
168	0xbc514b20	-0.012774259
169	0xbd20c2c7	-0.039248254
170	0x3d4f2af8	0.050578088
171	0x3ddbbe8c	0.10729703
172	0x3db10e65	0.08645324
173	0xbdf12d93	-0.11776271
174	0x3d1840d3	0.037171196
175	0x3c2b0094	0.01043715
176	0x3cbbec74	0.022939898
177	0xbceb4fdb	-0.028724601
178	0x3d5269f9	0.051370595
179	0x3c80bf2d	0.01571616
180	0xbdca892d	-0.098894455
181	0x3e00abed	0.12565584
182	0xbcd792d2	-0.026315127
183	0xbd8df99c	-0.06932375
184	0xbc93e1d9	-0.018052028
185	0x3d850927	0.06495886
186	0x3da10c54	0.078636795
187	0x3dfc4701	0.123182304
188	0xbe02fdd8	-0.12792146
189	0x3dbe9f38	0.09307712
190	0x3d41c91e	0.04731094
191	0xbe0e446d	-0.1389329
192	0xbd6cbbcf	-0.057796296
193	0x3d9a38bc	0.075303525
194	0x3e0d0fc1	0.13775541
195	0xbda9551d	-0.08268187
196	0x3dc46fbd	0.09591625
197	0xbbdd8da3	-0.006761269
198	0x3d80dfa4	0.06292656
199	0x3b9ea587	0.0048415097

fc.weight f4 [1, 50]
0	0xbdcd4912	-0.10023703
1	0x3d807c1d	0.06273673
2	0x3d994f21	0.07485796
3	0x3dc3b026	0.09555082
4	0xbb22ce30	-0.0024842136
5	0xbd511298	-0.051043123
6	0xbc96b72f	-0.018397896
7	0xbd3500b0	-0.04419011
8	0x3c2fffcc	0.010742139
9	0xbce0928e	-0.027413633
10	0xbd3dcbc5	-0.046336908
11	0xbde67232	-0.1125225
12	0x3dbf5449	0.09342248
13	0x3d938c9d	0.07204554
14	0xbd8632d1	-0.06552661
15	0xbcf494d0	-0.029856116
16	0xbdbe394b	-0.092882715
17	0x3d1ef763	0.038810145
18	0xbdd3396d	-0.103136875
19	0x3da18755	0.07887141
20	0xbd47de46	-0.04879596
21	0x3cdbccf7	0.026831133
22	0x3dd68593	0.10474696
23	0xbcf0ba3c	-0.029385678
24	0xbc2c2a30	-0.010508105
25	0x3c4db557	0.012555442
26	0x3c88d8e7	0.01670499
27	0x3c747ec9	0.014922806
28	0xbdb793a6	-0.089637086
29	0x3c504d8f	0.012713804
30	0x3be9e077	0.007137354
31	0x3dadfe2d	0.08495746
32	0xbd1da8a2	-0.0384909
33	0x3df7de41	0.121029384
34	0xbd1c84af	-0.038212474
35	0xbe138a13	-0.1440814
36	0xbdd08e10	-0.10183346
37	0xbe0c636a	-0.13709798
38	0xbc052e52	-0.008128719
39	0xbdcd3874	-0.10020533
40	0x3e072b14	0.13200027
41	0x3d83a035	0.064270414
42	0x3c9407c7	0.018070115
43	0x3d15562b	0.03645913
44	0x3dff9ebc	0.12481448
45	0xbe05d301	-0.13068773
46	0x3d2932eb	0.041308325
47	0xbe0ab026	-0.13543758
48	0xbcca64dc	-0.024706297
49	0x3df4b460	0.11948466
