data/models/DIS_20251215_165444.pt (torch, 128837 bytes, 9 tensors)

lstm.weight_ih_l0 f4 [200, 1]
0	0xbddd7bf0	-0.10814655
1	0x3a55a762	0.0008150247
2	0x3e11b3db	0.14228766
3	0xbe06a23e	-0.13147828
4	0x3d9e77a0	0.077376604
5	0xbd334754	-0.043769196
6	0xbdd6b450	-0.10483611
7	0x3d586281	0.052828316
8	0x3dc13279	0.09433455
9	0x3d3bfe8e	0.04589706
10	0xbdbad4e6	-0.091226384
11	0xbdabc5ca	-0.08387335
12	0xbd4d5451	-0.05012924
13	0x3d727deb	0.059202116
14	0x3e0a8bf6	0.13529953
15	0xbdda39c1	-0.10655547
16	0xbdcd7f02	-0.100339904
17	0xbde64b36	-0.11244814
18	0xbda1ac91	-0.078942426
19	0xbe0013e2	-0.12507585
20	0x3ce833ab	0.02834495
21	0xbc150b3b	-0.009096916
22	0x3bb8123b	0.0056174076
23	0xbd2832b9	-0.041063998
24	0x3dc23247	0.09482246
25	0x3a402eda	0.00073312
26	0x3da51e28	0.080623925
27	0xbdcdecb0	-0.1005491
28	0xbda93880	-0.0826273
29	0x3cfb5769	0.030681329
30	0xbdb3c59b	-0.087779246
31	0xbdbdb6f3	-0.092634104
32	0x3dbf0abb	0.093282185
33	0x3dcb2395	0.09918896
34	0x3dc32910	0.095293164
35	0x3d855fe9	0.06512434
36	0xbdf7f229	-0.12106735
37	0xbdb6c9a0	-0.08925176
38	0xbdcc3d7a	-0.09972663
39	0xbdcfd742	-0.10148479
40	0xbbc4bbbf	-0.0060038264
41	0x3dd56d93	0.1042129
42	0x3dd76bbe	0.10518597
43	0x3d51c981	0.05121756
44	0xbddb0a01	-0.106952675
45	0xbb89a2a8	-0.0042002983
46	0x3c72ab2f	0.014811321
47	0xbdeb00da	-0.11474772
48	0xbd91263b	-0.0708737
49	0x3dafeb37	0.085897855
50	0xbd29a098	-0.04141292
51	0xbd4ef107	-0.05052283
52	0x3c695d70	0.014243469
53	0x3dae994d	0.085253336
54	0x3dbf596b	0.09343227
55	0x3dbc4cfb	0.0919437
56	0x3c929425	0.017892906
57	0x3dda64f6	0.10663788
58	0xbc8b925d	-0.017037565
59	0xbd1084a0	-0.03528273
60	0xbe108477	-0.14113031
61	0x3c7f150c	0.015568983
62	0x3d84a915	0.06477562
63	0x3e004dd4	0.12529689
64	0xbe0654c0	-0.13118267
65	0x3d3b2464	0.045689
66	0xbd5e4026	-0.054260395
67	0x3dc969ed	0.09834657
68	0x3d82108e	0.06350814
69	0x3da3ecda	0.0800416
70	0x3e0e6bd1	0.13908316
71	0x3db6bca0	0.08922696
72	0xbd6a38bb	-0.05718301
73	0x3e0195c1	0.12654783
74	0x3da4ab8f	0.08040535
75	0xbc6e9b56	-0.014563402
76	0x3daad7bd	0.0834193
77	0xbcda7c97	-0.026670737
78	0x3e097728	0.13424361
79	0xbdce3d2c	-0.10070261
80	0x3d9b0719	0.07569713
81	0xb96d8880	-0.00022652932
82	0x3d7599f5	0.059961278
83	0x3da6a509	0.08136947
84	0xbd9418df	-0.07231306
85	0xbd9ed946	-0.07756285
86	0x3d0785e0	0.033086658
87	0xbe0e6f25	-0.13909586
88	0xbd5a34cd	-0.05327301
89	0x3d858964	0.06520346
90	0xbd401bb1	-0.04690141
91	0x3d10c76e	0.03534644
92	0xbd62976d	-0.055320192
93	0x3ba3ef57	0.0050028968
94	0x3d037f99	0.03210411
95	0x3d256777	0.040381875
96	0x3dd55ec7	0.10418468
97	0xbc9e4856	-0.019321602
98	0x3dda6209	0.1066323
99	0xbe13125c	-0.14362472
100	0x3d7882cc	0.060671613
101	0xbddab934	-0.10679856
102	0x3db5868d	0.08863554
103	0xbdd0814f	-0.10180914
104	0x3ddcf92a	0.10789712
105	0xbe1217f7	-0.14266954
106	0xbdcc9462	-0.09989239
107	0x3c2dee34	0.010615874
108	0xbdf781c9	-0.120853014
109	0xbba853cc	-0.0051369425
110	0x3dd9603d	0.10614059
111	0x3e00c325	0.12574442
112	0xbddd6978	-0.10811132
113	0xbe1104a5	-0.14161928
114	0xbd98687a	-0.07441802
115	0x3c9f06cf	0.019412426
116	0x3d0bd8e1	0.03414238
117	0x3daf176f	0.085493915
118	0xbd97276a	-0.073805645
119	0xbdd907da	-0.10597201
120	0x3c7a5b90	0.015280619
121	0x3e029c67	0.12754975
122	0xbda37ff4	-0.079833895
123	0x3d2eccca	0.04267577
124	0xbdf4f5ce	-0.11960946
125	0xbd5fb95b	-0.054620128
126	0x3e01a38a	0.12660041
127	0xbca7648e	-0.02043369
128	0x3d3c4521	0.045964364
129	0x3dc70df6	0.0971946
130	0xbdaa33df	-0.08310675
131	0xbd0d89ad	-0.034555126
132	0x39a9fd06	0.0003242271
133	0x3db0b864	0.0862892
134	0xbdc075f2	-0.09397496
135	0x3c2915b6	0.010320118
136	0x3d2bd534	0.041951373
137	0xbd9f11ab	-0.07767042
138	0x3dad227a	0.084538415
139	0x3d396fb3	0.04527254
140	0xbd97bb03	-0.074087165
141	0x3e060e29	0.13091339
142	0xbd815d4b	-0.06316622
143	0xbce8e14f	-0.028427748
144	0x3c9a698e	0.01884916
145	0xbd789aa7	-0.060694363
146	0x3d8c60a4	0.0685437
147	0xbdaeada8	-0.08529216
148	0x3d9e52ab	0.077306114
149	0xbda45a4f	-0.080250375
150	0xbc955a04	-0.0182314
151	0xbd8bff11	-0.068357594
152	0xbe02423e	-0.12720582
153	0x3b1df5a4	0.0024102712
154	0xbc7adea9	-0.015311875
155	0xbe026f09	-0.12737669
156	0xbc676721	-0.014123709
157	0xbde0e8ec	-0.10981926
158	0x3d41921c	0.04725848
159	0xbdbfd14b	-0.09366091
160	0x3c34dce8	0.011038996
161	0x3d9351bc	0.07193324
162	0xbcaac970	-0.020848006
163	0xbdc3832f	-0.09546506
164	0xbd5a0bb1	-0.053233806
165	0x3d78d6fc	0.0607519
166	0x3dda7db8	0.1066851
167	0x3bc2a831	0.00594046
168	0xbdc98753	-0.09840264
169	0xbce51ad1	-0.027966889
170	0xbc45228d	-0.012032163
171	0xbde614cb	-0.11234435
172	0x3ce3ec5e	0.02782267
173	0xbdb6b54a	-0.08921297
174	0x3d965b60	0.07341647
175	0xbc0a0744	-0.008424584
176	0x3dab6655	0.08369128
177	0xbe077f56	-0.13232169
178	0x3d76840c	0.060184523
179	0xbcc27bc6	-0.02374066
180	0xbc548e77	-0.012973419
181	0x3ca5425b	0.020173242
182	0xbbdc7fe1	-0.0067291115
183	0x3be60f5e	0.007020875
184	0x3ba8a44a	0.005146538
185	0xbc95145a	-0.018198181
186	0x3d749e6e	0.059721403
187	0xbd5ce362	-0.053927787
188	0x3e04ce49	0.12969317
189	0x3dd07244	0.101780444
190	0x3c795c86	0.015219813
191	0x3d1f0f52	0.03883297
192	0x3d1c182a	0.038108982
193	0x3d8e5fe2	0.06951882
194	0xbd8f8214	-0.07007232
195	0x3e134fab	0.1438586
196	0xbcc3e223	-0.023911541
197	0xbcca99dd	-0.02473157
198	0x3d109afb	0.03530405
199	0x3db76411	0.08954633

lstm.weight_hh_l0 f4 [200, 50]
0	0xbdaea3ee	-0.08527361
1	0x3e0a5756	0.13509879
2	0x3dc61ac3	0.09673073
3	0xbe07502f	-0.13214181
4	0x3d9065fb	0.07050701
5	0x3da31071	0.0796212
6	0xbb443b52	-0.0029942584
7	0xbcacbeb1	-0.021087022
8	0xbdf0ae31	-0.117519744
9	0x3d7a3b0b	0.061091464
10	0x3d9469d8	0.072467506
11	0x3c2436a4	0.010022793
12	0x3de92908	0.11384779
13	0xbca25a6f	-0.019818513
14	0x3dabce95	0.08389012
15	0xbb2dc841	-0.0026517066
16	0xbd9b1e24	-0.07574108
17	0x3ddf80fa	0.10913272
18	0x3d44cd7b	0.048047524
19	0x3d1f2425	0.03885283
20	0x3e08b886	0.1335164
21	0x3db058d3	0.08610692
22	0xbd82476e	-0.063612804
23	0xbdc75a84	-0.09734061
24	0x3c9bcc0b	0.019018194
25	0xbde81aeb	-0.11333259
26	0x3d55238a	0.052035846
27	0x3dddf6f4	0.10838118
28	0xbdc7ea2c	-0.097614616
29	0x3da9ae1f	0.08285164
30	0x3c3ae72e	0.011407657
31	0x3d30e90a	0.043190993
32	0x3ae4078a	0.0017397266
33	0xbc432e71	-0.011912928
34	0xbcb08fc8	-0.021552935
35	0xbd3022c0	-0.04300189
36	0xbde4ab8f	-0.11165535
37	0xbda93570	-0.082621455
38	0x3dc897b2	0.097945586
39	0xbd83f478	-0.06443113
40	0x3b5e4dcb	0.003392088
41	0x3d1608a1	0.036629323
42	0xbd83114a	-0.06399782
43	0x3d3abba6	0.04558911
44	0xbdfd0bfd	-0.12355802
45	0x3d7d9a83	0.061914932
46	0xbd4655f7	-0.048421826
47	0xbdd45c87	-0.10369211
48	0x3dd54779	0.10414023
49	0x3da44ade	0.08022092
50	0x3d06007f	0.032715317
51	0xbdad1fac	-0.084533066
52	0x3d16f7a6	0.03685727
53	0x3c95d8f9	0.018291937
54	0x3df03b7d	0.117300965
55	0x3dc32588	0.09528643
56	0x3d8554f6	0.06510346
57	0xbd874006	-0.066040084
58	0x3e09841c	0.13429302
59	0xbe01c54d	-0.1267292
60	0x3d87eae0	0.06636596
61	0x3de7386e	0.1129006
62	0x3d97f3fa	0.07419582
63	0xbd3729f8	-0.04471776
64	0xbd028b62	-0.031871207
65	0x3ddb6ca1	0.10714079
66	0x3d8bc523	0.0682471
67	0xbdc9f393	-0.09860911
68	0xbda84b1f	-0.08217453
69	0xbcdca20c	-0.026932739
70	0xbdca022d	-0.09863696
71	0xbdeb8909	-0.11500747
72	0xbe0a1960	-0.13486242
73	0xbe11dbde	-0.14244029
74	0x3de138e6	0.10997181
75	0x3dcfc287	0.10144525
76	0x3e09d4f1	0.13460137
77	0xbd53d7f2	-0.051719613
78	0xbdb303a7	-0.08740931
79	0x3dde2946	0.10847716
80	0xbe09c566	-0.13454208
81	0xbc475bc7	-0.0121678775
82	0x3d3fc390	0.046817362
83	0xbdccf1cc	-0.100070566
84	0xbdc43d3b	-0.09581991
85	0x3bbb09a8	0.005707938
86	0x3df91a9f	0.12163281
87	0x3da3a86b	0.079911076
88	0xbe123c63	-0.14280848
89	0x3d993989	0.07481677
90	0x3de92e46	0.11385779
91	0xbdcb6fb8	-0.09933418
92	0xbd5c0cb0	-0.053723037
93	0xbc0a6931	-0.008447931
94	0x3ddfcbf0	0.1092757
95	0x3cbd2f9c	0.023093991
96	0x3d63fd38	0.05566141
97	0x3df94745	0.12171797
98	0x3d9d5f98	0.07684249
99	0xbd7ec6e7	-0.062201407
100	0xbc65fa29	-0.014036694
101	0xbd0bba3d	-0.034113158
102	0xbdbfe2cc	-0.0936943
103	0xbca5bc13	-0.020231282
104	0x3d96902b	0.073517166
105	0x3c678ad1	0.0141322175
106	0xbb07f8ed	-0.0020747737
107	0xbd566936	-0.05234643
108	0xbcff7749	-0.03118481
109	0x3c7905ca	0.015199134
110	0x3dee23b9	0.11627907
111	0xbbb04f69	-0.00538056
112	0xbdeb254a	-0.11481722
113	0x3caf285f	0.021381555
114	0xbb9a6dbd	-0.004712789
115	0xbdd9d463	-0.10636213
116	0x3df0eb25	0.117636
117	0x3b58cf09	0.0033082387
118	0x3d1d5079	0.038406823
119	0x3e03b03b	0.12860195
120	0x3c09eed4	0.0084187575
121	0xbc2c4a1c	-0.010515716
122	0xbde10a86	-0.10988335
123	0x3d851f77	0.06500142
124	0x3d8d0b9d	0.06886981
125	0xbdd5411b	-0.104128085
126	0x3d7749d0	0.060373127
127	0xbd0c40dd	-0.034241546
128	0xbe03c112	-0.12866619
129	0xbd986780	-0.07441616
130	0x3d52fcfb	0.051510792
131	0xbd89e312	-0.06732763
132	0xbdff281a	-0.12458821
133	0xbd679512	-0.05653865
134	0xbca98450	-0.020692974
135	0x3d17280e	0.036903434
136	0x3cf1f11d	0.029533917
137	0xbdcdf680	-0.10056782
138	0x3c9028e3	0.017597621
139	0x3d278f69	0.04090825
140	0xbdc5246e	-0.09626089
141	0xbbe115d8	-0.006869059
142	0x3d040e97	0.032240476
143	0x3d84735e	0.06467317
144	0xbcd52303	-0.026017671
145	0xbd2894f1	-0.041157667
146	0x3dd83d41	0.10558558
147	0x3e129601	0.14315034
148	0x3e0b2849	0.13589586
149	0xbc39142b	-0.011296312
150	0xbdd03800	-0.10166931
151	0xbc689522	-0.014195712
152	0xbd35dcea	-0.044400133
153	0x3e10955a	0.14119473
154	0x3c26a25c	0.010170545
155	0xbdc984d1	-0.09839786
156	0xbde7a39a	-0.113105014
157	0xbce9a2f7	-0.02852009
158	0x3e0822d0	0.1329453
159	0x3d415b27	0.04720607
160	0xbcff0f07	-0.031135095
161	0x3ce3b175	0.027794579
162	0x3daa9fcf	0.08331262
163	0x3ded892e	0.115984306
164	0x3db5be77	0.08874219
165	0xbdf63894	-0.1202251
166	0xbddba3bd	-0.1072459
167	0x3df2c102	0.118532196
168	0x3e08e14e	0.13367197
169	0xbde79c28	-0.11309081
170	0xbd645fdf	-0.055755492
171	0xbc91f5e9	-0.017817454
172	0x3da4f17e	0.080538735
173	0xbd667be2	-0.056270488
174	0x3c4862b2	0.012230562
175	0x3dd30e2e	0.10305439
176	0xbdafe8ac	-0.085893005
177	0x3d668146	0.05627563
178	0x3b35d65a	0.0027746172
179	0xbc005a8f	-0.007834091
180	0x3d548b98	0.05189094
181	0xbdff155b	-0.12455245
182	0xbe11c9de	-0.14237162
183	0xbda814d0	-0.08207095
184	0xbcd09d32	-0.025465582
185	0x3c958cdc	0.018255644
186	0x3deaa982	0.11458112
187	0x3de9eda3	0.11422279
188	0x3dc32e28	0.09530288
189	0x3b6194c2	0.0034420942
190	0x3da8e13e	0.082460865
191	0xbd7a00cb	-0.061035912
192	0xbdfd315f	-0.123629324
193	0x3df7dc82	0.121026054
194	0x3dbac562	0.09119679
195	0x3bf45c52	0.0074572945
196	0xbc612162	-0.013740869
197	0xbe0179bb	-0.12644093
198	0x3e030968	0.12796557
199	0xbc513f70	-0.012771472
200	0xbdf50a85	-0.11964897
201	0x3df52faf	0.119719855
202	0x3dc3dcdf	0.09563612
203	0x3d929028	0.07156402
204	0x3e0695d4	0.13143092
205	0xbd07f701	-0.033194546
206	0x3d9f27c5	0.07771257
207	0x3d42abea	0.04752723
208	0x3deb6ac3	0.114949726
209	0x3de01a36	0.10942499
210	0x3da82f70	0.08212173
211	0x3e04a36c	0.12952965
212	0xbd410e87	-0.047132995
213	0x3cce9b1e	0.02522045
214	0xbda7640e	-0.08173381
215	0xbd7014ce	-0.05861359
216	0x3deb401d	0.11486838
217	0x3dca60cc	0.09881744
218	0xbe0cf356	-0.137647
219	0xbe0362dc	-0.1283068
220	0xbcad4638	-0.021151647
221	0x3d20b6d9	0.039236877
222	0xbdaac8ac	-0.083390564
223	0x3db334c3	0.08750298
224	0x3d815a8a	0.06316097
225	0xbcfc2f81	-0.03078437
226	0xbe07107a	-0.13189879
227	0xbaf7ab92	-0.0018895736
228	0xbdb28c2b	-0.08718141
229	0xbd8e50ba	-0.06948991
230	0x3dd6bf3e	0.10485695
231	0x3ddda021	0.10821558
232	0xbe101f44	-0.14074427
233	0x3cff6e47	0.031180514
234	0x3d6ae200	0.057344437
235	0x3d97b9a7	0.07408457
236	0xbd04b2d4	-0.032397106
237	0x3c13932a	0.009007255
238	0xbe078a66	-0.13236389
239	0x3cd5968d	0.026072765
240	0x3d76019d	0.060060132
241	0xbd9f6a2a	-0.07783921
242	0x3d944af8	0.07240862
243	0xbd7ecb6f	-0.06220573
244	0xbdeeb2b9	-0.116551824
245	0x3d1f5821	0.038902406
246	0x3d72ee59	0.059309337
247	0xbd23e668	-0.040014654
248	0x3d5c0e61	0.05372465
249	0xbd610fdf	-0.054946776
250	0x3b437417	0.0029823834
251	0xbd7c9279	-0.061663125
252	0xbc3bf7a1	-0.011472614
253	0x3dbd134e	0.09232198
254	0x3dd71c1a	0.10503407
255	0xbc8cdbec	-0.01719471

lstm.bias_ih_l0 f4 [200]
0	0x3db9c77a	0.0907125
1	0xbd9d80c5	-0.076905765
2	0xbd8d363f	-0.06895112
3	0x3d83e1d2	0.06439556
4	0xbcd4d090	-0.025978357
5	0x3c859bfa	0.016309727
6	0x3d1e1f13	0.038603853
7	0x3dbaa7da	0.091140464
8	0x3d806c04	0.06270602
9	0xbc8f9f66	-0.017532062
10	0x3e04d6a2	0.12972501
11	0x3d50911f	0.05091965
12	0xbd996068	-0.07489091
13	0xbd8de189	-0.06927783
14	0xbe0701f0	-0.13184333
15	0xbdfd3ddb	-0.123653136
16	0x3d2e7681	0.042593483
17	0x3e15e944	0.14639765
18	0xbdf7e828	-0.12104827
19	0xbd9017f9	-0.070358224
20	0xbd29e014	-0.041473463
21	0x3d976e69	0.07394106
22	0x3d26d54c	0.04073076
23	0xbdfdf401	-0.12400056
24	0x3cae9509	0.0213113
25	0xbd832cfa	-0.06405063
26	0x3dffbcf3	0.12487211
27	0xbdace67b	-0.08442398
28	0x3df17f36	0.11791842
29	0x3d8b490a	0.068010405
30	0x3decd744	0.11564496
31	0x3e0343d7	0.12818848
32	0x3d67899c	0.05652772
33	0xbcc8ddd0	-0.024519831
34	0x3c7c8ad8	0.015413962
35	0x3da11b2e	0.07866512
36	0x3d68cd02	0.056836136
37	0x3e014298	0.1262306
38	0xbe0ba024	-0.13635308
39	0xbdb988fc	-0.09059331
40	0x3d4ba2ed	0.049715925
41	0xbdc4f921	-0.0961783
42	0xbdd36eec	-0.10323891
43	0xbd4411f6	-0.04786869
44	0x3e03a8b9	0.12857331
45	0xbd82cb45	-0.06386427
46	0x3dbfc625	0.09363965
47	0xbd228a3f	-0.039682623
48	0x3d97ce82	0.07412435
49	0xbc4a9abd	-0.012365994
50	0x3e0b7a04	0.13620764
51	0xbe0fb87d	-0.1403522
52	0xbe021a4a	-0.12705341
53	0xbc39caed	-0.011339885
54	0x3d1c7e37	0.038206305
55	0x3e0d2a19	0.1378559
56	0x3d0b59cd	0.034021188
57	0xbd587627	-0.052847054
58	0xbdba96ad	-0.091107704
59	0xbd909e58	-0.07061452
60	0xbce305af	-0.027712671
61	0x3d5b7268	0.053575903
62	0xbb9fe225	-0.0048792535
63	0x3d4c1699	0.04982624
64	0x3d8c18be	0.06840657
65	0x3b8f32c6	0.0043700663
66	0xb9fa04fa	-0.00047687424
67	0xbb4d42b4	-0.0031320276
68	0xbe154a7c	-0.14579195
69	0x3db27efb	0.08715626
70	0x3d0bd1fa	0.034135796
71	0xbca5d328	-0.020242289
72	0xbd762450	-0.060093224
73	0x3d630f48	0.055434495
74	0xbdacf422	-0.08445002
75	0xbde36f56	-0.1110522
76	0x3d1c7ef8	0.038207024
77	0xbdcb7dea	-0.099361256
78	0xbd61e6df	-0.055151816
79	0xbd92ee47	-0.07174354
80	0x3d220616	0.039556585
81	0x3d3a8ee1	0.045546416
82	0xbd250d31	-0.040295783
83	0xbdf51667	-0.119671635
84	0x3e049831	0.12948681
85	0xbcfe5b59	-0.031049417
86	0xbcd6b041	-0.026207091
87	0x3c966507	0.01835872
88	0xbdd421d3	-0.10358014
89	0x3dd4d2c3	0.10391762
90	0x3debb72a	0.11509545
91	0xbdaa3a7a	-0.08311935
92	0xbdb7307a	-0.08944793
93	0x3e02c56e	0.12770626
94	0x3d9cbd68	0.07653314
95	0xbd66ff53	-0.05639584
96	0x3de8755e	0.11350511
97	0x3dc7a100	0.09747505
98	0x3d6814f3	0.056660604
99	0xbc72fac9	-0.0148303
100	0xbce74479	-0.028230892
101	0x3daf0f21	0.085478075
102	0x3dcdf7db	0.1005704
103	0xbc9d74d6	-0.01922075
104	0xbdbdaec6	-0.09261851
105	0x3d389a1b	0.04506884
106	0x3de87e27	0.11352187
107	0xbdcd888c	-0.1003581
108	0xbd1a5f21	-0.03768838
109	0x3d881de2	0.06646325
110	0x3d775c1c	0.060390577
111	0x3e0839fb	0.13303368
112	0xbd65f825	-0.056144852
113	0x3d69c75e	0.057074897
114	0xbe0df926	-0.13864574
115	0xbc5c89d7	-0.013460598
116	0xbcc28b40	-0.02374804
117	0x3d91214c	0.07086429
118	0xbd2378a2	-0.039909966
119	0xbe09c2f7	-0.1345328
120	0xbd045514	-0.0323077
121	0x3e056780	0.13027763
122	0xbda987af	-0.08277833
123	0x3d8a7b8b	0.06761845
124	0x3d946dce	0.07247506
125	0xbd7425de	-0.059606425
126	0xbdfe4a6f	-0.12416541
127	0xbc333f9d	-0.01094046
128	0x3da46159	0.0802638
129	0xbd9936a9	-0.07481129
130	0xbb42ab4e	-0.0029704156
131	0x3c997d69	0.018736558
132	0x3c821440	0.015878797
133	0xbdf795b7	-0.12089103
134	0xbe04406b	-0.12915199
135	0xbda218b5	-0.07914869
136	0x3d4c9bc2	0.04995323
137	0xbc39d0c1	-0.011341275
138	0xbcea573a	-0.028606046
139	0xbbf297c0	-0.007403344
140	0xbd481ed2	-0.048857518
141	0x3ca54a97	0.020177169
142	0xbdf41f4e	-0.119200334
143	0x3d123d08	0.035702735
144	0x3d417920	0.047234654
145	0xbd8b5e86	-0.06805138
146	0xbdf25207	-0.11832052
147	0x3d6eddb7	0.058316913
148	0x3e01067a	0.12600127
149	0x3d76635b	0.060153347
150	0xbda08e32	-0.078396216
151	0xbe085eb2	-0.13317373
152	0xbe020377	-0.12696634
153	0xbd7acf23	-0.061232697
154	0x3d915d3c	0.07097861
155	0xbd52e288	-0.05148557
156	0x3e05f389	0.13081183
157	0xbd325671	-0.04353947
158	0x3d30d1d9	0.043168876
159	0x3d2e925c	0.042620048
160	0xbe0ed687	-0.13949023
161	0x3dc0e923	0.09419467
162	0xbd3c7abb	-0.046015482
163	0xbde99280	-0.11404896
164	0x3e155916	0.14584765
165	0xbc88ac2b	-0.016683659
166	0x3d70f9cf	0.058831986
167	0x3d438186	0.047730945
168	0xbd6c6612	-0.05771453
169	0xbe09afb0	-0.13445926
170	0xbe09a518	-0.13441885
171	0xbd798ee4	-0.060927287
172	0xbdf57e47	-0.11986976
173	0xbd7c0fe8	-0.061538607
174	0x3db4ba0a	0.08824547
175	0x3cd703a3	0.026246851
176	0x3e06e75c	0.13174194
177	0x3d98e964	0.07466391
178	0xbc0ec0c2	-0.008712949
179	0x3d7480f1	0.05969328
180	0xbd0ac99f	-0.033883687
181	0x3dea289f	0.11433529
182	0xbde31bc4	-0.1108928
183	0xbd16b2b2	-0.03679151
184	0x3d0c88b3	0.034310054
185	0xbe020716	-0.12698016
186	0x3d3b7e84	0.04577495
187	0xbe0c6f96	-0.13714442
188	0xbb4d2158	-0.0031300392
189	0x3dabe5fa	0.08393474
190	0x3d9655b2	0.07340564
191	0xbde5911b	-0.11209317
192	0x3d85143b	0.06497999
193	0xbd364e61	-0.04450834
194	0xbdb0318d	-0.08603201
195	0x3de1c54b	0.11023959
196	0xbe0235b5	-0.127158
197	0x3dcec641	0.10096408
198	0xbbe13aa8	-0.0068734474
199	0xbd8afdb3	-0.067866705

lstm.bias_hh_l0 f4 [200]
0	0xbdda49b0	-0.10658586
1	0x3d9d169d	0.07670329
2	0x3dff847f	0.124764435
3	0xbde91d82	-0.11382581
4	0x3e0307ad	0.12795897
5	0x3dc1a5c7	0.09455448
6	0xbdd3842c	-0.10327944
7	0xbd07e3e3	-0.033176314
8	0x3ba6c088	0.0050888695
9	0x3d75c12b	0.059998672
10	0xbdf74718	-0.12074107
11	0xbc0efd61	-0.008727402
12	0xbd12d609	-0.03584865
13	0xbd4638ac	-0.04839389
14	0xbdc7a998	-0.09749144
15	0x3e0a4efc	0.13506693
16	0x3e08b0ca	0.1334869
17	0xbda96579	-0.082713075
18	0x3ddd7337	0.10812991
19	0x3d44f693	0.048086714
20	0x3d9ba691	0.076001294
21	0x3d370b0c	0.04468827
22	0xbc2018e3	-0.009771558
23	0x3d0a8e0d	0.033826876
24	0xbddea34c	-0.1087099
25	0x3d8a9ae4	0.06767824
26	0xbba13f49	-0.0049208743
27	0x3c3d67f7	0.011560432
28	0xbcc6e336	-0.024278264
29	0x3e0280df	0.12744473
30	0xbd3a3016	-0.045456015
31	0xbe0b0f1a	-0.1357998
32	0x3d8d376c	0.068953365
33	0x3d81d378	0.063391626
34	0xbd43d09d	-0.04780637
35	0xbd46e163	-0.04855479
36	0x3e09ebf0	0.1346891
37	0xbcc2b448	-0.023767605
38	0xbdc362c1	-0.0954032
39	0x3b719a46	0.0036865636
40	0x3d89e704	0.06733516
41	0x3d207717	0.039176073
42	0xbd2d3c1a	-0.042293645
43	0x3df07b8f	0.11742317
44	0xbe00c5a7	-0.12575398
45	0x3e1565c4	0.14589602
46	0xbdafe84d	-0.0858923
47	0x3e0d9165	0.13824995
48	0xbd75e929	-0.060036812
49	0xbe0d5040	-0.13800144
50	0x3df0b930	0.11754072
51	0x3ce9fd6c	0.028563224
52	0x3dddf48f	0.108376615
53	0xbcd15927	-0.025555206
54	0x3c871e27	0.01649387
55	0x3ca36f62	0.019950572
56	0x3d3a4139	0.045472357
57	0xbdd8083c	-0.105484456
58	0x3d819a5c	0.0632827
59	0x3db34939	0.087542005
60	0x3dd1dd13	0.10247245
61	0xbd3e0dbe	-0.046399824
62	0xbd71f3e1	-0.05907047
63	0x3df23339	0.11826176
64	0xbd9b386e	-0.075791225
65	0x3dc911d9	0.09817857
66	0x3da433ed	0.080177166
67	0x3b6339cc	0.00346719
68	0xbd44a424	-0.0480081
69	0xbdef412a	-0.11682351
70	0xbe08483e	-0.13308808
71	0x3dc06ef5	0.093961634
72	0xbd930cea	-0.071801975
73	0x3de6819b	0.11255189
74	0xbe0924aa	-0.13392892
75	0xbe021f85	-0.12707336
76	0xbdd34b28	-0.10317069
77	0x3dd3f246	0.10348944
78	0xbdb9dae3	-0.090749525
79	0xbd983bda	-0.07433291
80	0xbe037918	-0.12839162
81	0x3decdbbd	0.11565349
82	0xbadf003f	-0.0017013623
83	0xbde743df	-0.11292242
84	0xbdce26da	-0.10066004
85	0x3d0b8dd7	0.034070816
86	0x3c9a2acb	0.018819233
87	0xbe0e3ff2	-0.1389158
88	0xbcb03188	-0.021507993
89	0x3dba1479	0.09085936
90	0x3d289067	0.041153338
91	0xbdd9cafb	-0.106344186
92	0xbdcd73a8	-0.10031825
93	0xbe06ad98	-0.13152158
94	0x3dc746de	0.09730314
95	0xbd0d9fbb	-0.03457616
96	0x3e0dc5db	0.13845007
97	0x3e1592c3	0.14606766
98	0xbdf33315	-0.118749775
99	0x3da08cd1	0.078393586
100	0x3d37f7b8	0.044913977
101	0x3c8d4ceb	0.017248591
102	0xbcc76dda	-0.024344373
103	0x3e0f0696	0.13967356
104	0x3cb2468e	0.021762159
105	0xbde027a7	-0.10945063
106	0xbdc442ec	-0.09583077
107	0x3dc196a1	0.09452558
108	0xbc945290	-0.018105775
109	0xbdd6fb88	-0.104971945
110	0xbd5db1a7	-0.0541245
111	0x3cb2f553	0.021845495
112	0xbce77721	-0.028255047
113	0xbdb00260	-0.08594203
114	0xbd5a076d	-0.053229738
115	0xbda954f6	-0.08268158
116	0x3b6e44aa	0.0036356845
117	0x3d92c8de	0.071672186
118	0xbdc6585d	-0.09684823
119	0x3d9d45c2	0.07679321
120	0xbd9c7207	-0.076389365
121	0x3d68189a	0.056664087
122	0x3d8751a7	0.06607371
123	0x3df44a4d	0.11928234
124	0xbd38603a	-0.045013644
125	0xbcb7bbd8	-0.022428438
126	0xbe122ef0	-0.14275718
127	0xbcfe481b	-0.031040242
128	0x3c398158	0.011322342
129	0xbda239d1	-0.07921184
130	0xbe0e4560	-0.13893652
131	0x3c6b41e1	0.0143589685
132	0x3ce86c01	0.028371813
133	0x3d20a990	0.039224207
134	0x3c0d0942	0.008608164
135	0xbd82998e	-0.063769445
136	0x3d008652	0.031378098
137	0x3d38346c	0.04497187
138	0x3de1ea4c	0.11031017
139	0x3cd6a0f7	0.0261998
140	0xbe01cd87	-0.12676059
141	0xbd139a30	-0.036035717
142	0x3d428198	0.04748687
143	0xbdbf5f00	-0.09344292
144	0x3d15f9cc	0.036615178
145	0x3db31373	0.08743944
146	0xbd6c4ef7	-0.057692494
147	0x3d85bc0b	0.06530007
148	0xbdf3b07c	-0.11898896
149	0xbdc10d07	-0.09426313
150	0x3d7c864f	0.061651524
151	0xbdb2ccaf	-0.087304465
152	0xbdc8e92d	-0.098101
153	0x3d718b8c	0.058970973
154	0x3cae4ee8	0.02127786
155	0x3c82da84	0.015973337
156	0x3d4e9f46	0.050444864
157	0xbda45244	-0.080235034
158	0xbc8ecaf8	-0.017430767
159	0x3d6015dc	0.054708347
160	0xbd463522	-0.048390515
161	0xbd9ffb3d	-0.07811592
162	0xbd961233	-0.0732769
163	0x3dc7d766	0.09757881
164	0xbd3ac915	-0.045601923
165	0xbdf2a13a	-0.11847158
166	0x3d997307	0.07492643
167	0xbdd4f19a	-0.10397644
168	0xbe0e62fb	-0.13904946
169	0xbd155af0	-0.036463678
170	0xbe027b53	-0.12742357
171	0x3d35e231	0.044405166
172	0xbdc10f88	-0.094267905
173	0xbd5a5802	-0.053306587
174	0xbd68fa6e	-0.056879453
175	0x3d62982e	0.05532091
176	0x3e0b5cd4	0.1360963
177	0x3c30de86	0.010795241
178	0xbdc1921c	-0.09451696
179	0x3c82f3a3	0.015985316
180	0xbcc956ce	-0.024577525
181	0x3c20a02c	0.009803813
182	0x3d60d3c8	0.05488947
183	0xbdb01887	-0.08598428
184	0x3d5cefb3	0.053939532
185	0xbdae525b	-0.08511802
186	0xbd7a6a92	-0.06113679
187	0x3c8efd67	0.017454816
188	0x3b40cae7	0.0029417814
189	0x3d9f8bde	0.077903494
190	0xbdb2d034	-0.08731118
191	0xbd5901a6	-0.052980088
192	0xbc4df2f9	-0.012570136
193	0xbd8ea780	-0.06965542
194	0xbd382f03	-0.04496671
195	0x3df23ae3	0.11827638
196	0xbdd16a15	-0.10225312
197	0x3de42015	0.11138932
198	0x3d554dca	0.05207614
199	0xbdf78d47	-0.120874934

lstm.weight_ih_l1 f4 [200, 50]
0	0x3d714f9e	0.05891382
1	0xbc97c820	-0.018528044
2	0x3df30f79	0.118681855
3	0x3e04cb03	0.12968068
4	0x3cd9995e	0.026562389
5	0xbdce6be1	-0.1007917
6	0xbdedc06a	-0.11608966
7	0x3c797e73	0.015227902
8	0xbcf0e05f	-0.029403863
9	0xbca4b019	-0.020103501
10	0xbdd42026	-0.10357694
11	0xbdbff701	-0.09373284
12	0x3ce9ec2e	0.028555002
13	0x3d717699	0.058950994
14	0x3dd4f8b3	0.10398998
15	0xbd0163f4	-0.031589463
16	0x3d9c1f7f	0.07623195
17	0xbc88c229	-0.016694145
18	0xbe027327	-0.1273924
19	0xbd636d1b	-0.055523973
20	0xbe1142a4	-0.14185578
21	0xbd0cabdb	-0.03434358
22	0xbd95627b	-0.07294174
23	0xbba5a286	-0.0050547747
24	0xbd5df1be	-0.05418562
25	0x3d840fa9	0.064482994
26	0xbdc2f22f	-0.09518849
27	0xbdad4b82	-0.084616676
28	0xbdfdf228	-0.12399703
29	0xbc194583	-0.009354952
30	0x3dcfb636	0.10142176
31	0x3d722ad1	0.059122864
32	0xbb064b11	-0.002049152
33	0x3cb64594	0.022249974
34	0xbe004b1b	-0.1252865
35	0x3b20db22	0.0024544676
36	0x3ceec4a4	0.0291465
37	0xbdaa6a95	-0.0832111
38	0x3d587d8d	0.05285411
39	0xbd71a883	-0.058998596
40	0xbcd22213	-0.025651013
41	0xbc06467f	-0.0081955185
42	0x3da1059d	0.07862399
43	0xbd68836c	-0.05676596
44	0x3dfab3df	0.12241339
45	0xbd9130c1	-0.07089377
46	0xbdd28b2c	-0.10280451
47	0xbd99835d	-0.07495759
48	0x3dbcf905	0.09227184
49	0xbdb8ded6	-0.090268776
50	0x3d819e05	0.06328968
51	0xbddd0ae6	-0.10793094
52	0x3dd26eb9	0.10275025
53	0xbd89dbf4	-0.06731406
54	0xbd92be34	-0.071651846
55	0xbd25ef75	-0.040511567
56	0x3d66f80a	0.056388892
57	0x3e13025a	0.14356366
58	0xbd5bd106	-0.053666137
59	0x3d93c798	0.07215804
60	0x3cb47ebc	0.022033088
61	0xbd721b29	-0.059107933
62	0xbc24ce22	-0.0100589115
63	0x3dc17f20	0.09448075
64	0xbe017769	-0.12643208
65	0xbd5f8f41	-0.054579977
66	0x3de78610	0.11304867
67	0x3dd06403	0.10175326
68	0x3dde1ea7	0.1084569
69	0x3cf687e2	0.03009409
70	0x3d788606	0.06067469
71	0xbd6298b8	-0.055321425
72	0x3dc86001	0.09783936
73	0x3c6372ba	0.013882333
74	0x3db42b35	0.087973036
75	0xbd9557a6	-0.07292108
76	0xbc038360	-0.008026928
77	0x3b96b4b7	0.0045991796
78	0x3df1ba6c	0.11803135
79	0xbdf07aaa	-0.11742146
80	0xbbe5f8a0	-0.007018164
81	0xbc846ffe	-0.016166683
82	0xbd009dea	-0.0314006
83	0x3d3b7314	0.045764044
84	0x3da48a01	0.08034135
85	0xbdf53d89	-0.119746275
86	0xbc9c0cd6	-0.01904909
87	0xbe02cef1	-0.12774254
88	0x3ac550f3	0.0015054032
89	0x3da64944	0.08119443
90	0x3df03d3a	0.11730428
91	0x3d0985ad	0.03357475
92	0xbd9c7766	-0.07639961
93	0x3daf92fa	0.085729554
94	0xbdd40bc7	-0.10353809
95	0xbcae5e9e	-0.021285351
96	0xbdc67143	-0.09689572
97	0x3d7987f1	0.06092066
98	0x3cf89c99	0.03034811
99	0xbde3556e	-0.11100279
100	0xbd934dd8	-0.07192582
101	0x3c2555f6	0.0100912955
102	0xbda56d4c	-0.08077487
103	0xbd7796bd	-0.06044649
104	0x3ddfff13	0.109373234
105	0x3e0250d1	0.12726142
106	0xbdff9139	-0.12478871
107	0x3dd31145	0.10306028
108	0xbcd8767e	-0.026423689
109	0x3dfddd74	0.123957545
110	0x3e03917f	0.12848471
111	0x3d2acb2e	0.041697673
112	0xbd3aa64b	-0.045568746
113	0xbcb76589	-0.022387283
114	0x3d3b17f5	0.045677144
115	0x3d9aee4d	0.075649835
116	0x3dc5cc53	0.096581124
117	0x3d39e073	0.045380067
118	0xbe072313	-0.13196974
119	0x3dc570ef	0.09640681
120	0xbdc4b258	-0.09604329
121	0x3dc8594d	0.09782658
122	0xbd586f90	-0.05284077
123	0x3ddc5c14	0.1075975
124	0x3d0cd57a	0.034383275
125	0x3d55d984	0.052209392
126	0xbd13a21c	-0.03604327
127	0x3db07d1f	0.08617615
128	0x3dc845f6	0.09778969
129	0x3dcb2b5d	0.0992038
130	0x3db65d67	0.08904534
131	0xbc1220ec	-0.008918982
132	0xbd393cdd	-0.04522406
133	0xbda13268	-0.07870942
134	0x3d9ffa0c	0.078113645
135	0xbcd30b30	-0.02576217
136	0xb94348b0	-0.00018623727
137	0xbdbbc50c	-0.09168443
138	0xbdbcda07	-0.09221273
139	0xbded51d9	-0.11587877
140	0xbd4695ca	-0.048482694
141	0x3ddce378	0.10785574
142	0x3cc803dd	0.024415905
143	0x3c52ac00	0.012858391
144	0xbe0be8ca	-0.1366302
145	0x3e14f0c6	0.14544973
146	0xbdd49f5c	-0.10381958
147	0xbdf6aa3f	-0.120441906
148	0xbdb8e6c6	-0.090283915
149	0xbd9888e5	-0.074479856
150	0x3d726659	0.059179638
151	0xbd251562	-0.040303595
152	0xbdb8a9f9	-0.09016795
153	0x3d813f97	0.06310957
154	0xbe048e38	-0.12944877
155	0xbe06ea15	-0.13175233
156	0x3e01814a	0.12646976
157	0xbd9603f0	-0.0732497
158	0x3c9fa53f	0.019487975
159	0xbd5b7cd4	-0.053585842
160	0x3d6eeeca	0.058333196
161	0xbd366e7b	-0.044538956
162	0x3d41531e	0.047198407
163	0x3e10a76f	0.14126371
164	0xbd5b7c51	-0.053585354
165	0x3dde887b	0.10865875
166	0xbda922f2	-0.082586184
167	0xbdfecae2	-0.124410406
168	0xbc982cf1	-0.018576117
169	0x3e0661d0	0.1312325
170	0x3df800a8	0.121095
171	0x3dd8e7a5	0.10591058
172	0x3e070c21	0.1318822
173	0xbe00d7b6	-0.12582287
174	0xbbe725a5	-0.007054048
175	0x3dd71c05	0.10503391
176	0xbd2a5a9f	-0.04159033
177	0x3dc258d0	0.09489596
178	0xbd52e5c6	-0.05148866
179	0xbd710bea	-0.058849253
180	0xbd0d1392	-0.03444249
181	0x3e04b3cf	0.12959217
182	0x3cd028b6	0.025410037
183	0x3c3a60b2	0.011375593
184	0xbe0484bc	-0.12941259
185	0xbc6f5b4e	-0.014609171
186	0xbd5fa1ca	-0.054597653
187	0xbd9dabcd	-0.07698784
188	0x3dab7ba8	0.08373195
189	0xbcfcf39e	-0.030877884
190	0x3dd00e93	0.1015903
191	0x3d803eb8	0.06261963
192	0x3d1a0e84	0.0376115
193	0xbd632d49	-0.05546311
194	0xbd5a22fc	-0.05325602
195	0xbd619215	-0.055070955
196	0x3d618021	0.055053834
197	0x3d133a48	0.035944253
198	0x3bd32eaf	0.006444774
199	0x3cf361fc	0.029709809
200	0xbb32b33e	-0.0027267481
201	0xbd9d62ad	-0.076848365
202	0xbdf60e3f	-0.12014436
203	0x3d715f7d	0.058928955
204	0x3e0c26cc	0.13686675
205	0xbddff25e	-0.109349
206	0xbd013fb1	-0.03155488
207	0x3df8958a	0.12137897
208	0x3dacf97c	0.08446023
209	0x3d136776	0.03598734
210	0x3cb9eda3	0.022696322
211	0x3ca9f08d	0.020744586
212	0x3e0b1b2c	0.13584584
213	0xbe057e75	-0.13036521
214	0xbcde4a11	-0.027134927
215	0xbd9b171f	-0.075727694
216	0x3d765ac6	0.060145162
217	0x3d2b5f09	0.04183868
218	0x3dca82bf	0.09888219
219	0xbd5d3c66	-0.05401268
220	0xbd59bbfb	-0.053157788
221	0xbde57a6a	-0.11204989
222	0xbdfdd8f3	-0.123948954
223	0xbbbbdb9a	-0.0057329657
224	0x3c97b76b	0.018520078
225	0xbddd1067	-0.10794144
226	0xbdcdf471	-0.10056389
227	0x3e10afac	0.14129514
228	0xbda44e3c	-0.080227345
229	0xbd9e516b	-0.07730373
230	0x3cb82a5b	0.022481134
231	0xbd9e5123	-0.07730319
232	0x3bbf5bc0	0.005839795
233	0x3e0e55ef	0.13899969
234	0x3d5ec945	0.054391164
235	0xbd688542	-0.05676771
236	0xbd31e92f	-0.04343527
237	0xbcfd81de	-0.030945715
238	0x3d9f1e1f	0.07769417
239	0x3e01ba63	0.12668757
240	0x3d0f6b4a	0.03501443
241	0xbd5430ec	-0.051804468
242	0xbdfd4ad9	-0.12367792
243	0x3dc0df20	0.09417558
244	0xbb3efc52	-0.0029142094
245	0xbcd187e2	-0.02557749
246	0xbd7f2b96	-0.062297426
247	0x3e0b9ac7	0.13633262
248	0x3dd2c0cb	0.102906786
249	0x3c3bcfbc	0.011463102
250	0xbe002d3d	-0.12517257
251	0x3dd6d619	0.10490055
252	0xbc5d3ae3	-0.013502809
253	0x3de204a2	0.1103604
254	0x3dabc864	0.08387831
255	0xbadf4ec4	-0.0017037024

lstm.weight_hh_l1 f4 [200, 50]
0	0x3d16bc39	0.036800597
1	0xbdd411a0	-0.10354924
2	0xbdd0d89f	-0.10197567
3	0x3cce63c2	0.025194053
4	0x3d7d89bc	0.06189893
5	0x3d0c7ad1	0.034296814
6	0x3ddeb7be	0.1087489
7	0x3d33e360	0.043918014
8	0xbc1d159d	-0.009587673
9	0x3e023b91	0.12718035
10	0x3df8c805	0.12147526
11	0x3dacb8f6	0.08433716
12	0xbe13be6a	-0.14428106
13	0x3d85c3a8	0.06531459
14	0xbc210ed5	-0.009830196
15	0xbde85ea7	-0.113461785
16	0x3e0f0dc8	0.13970101
17	0x3cd26112	0.025681052
18	0xbdbc77f2	-0.09202565
19	0xbddda1e9	-0.108218975
20	0x3e09d204	0.13459021
21	0x3da6c3ab	0.081427895
22	0xbdcddb08	-0.100515425
23	0xbaaf0d87	-0.0013355472
24	0xbb0cbb38	-0.0021473896
25	0xbe0b56e5	-0.13607366
26	0x3da7b820	0.08189416
27	0x3d5f1134	0.054459766
28	0x3d89346e	0.06699453
29	0xbd8a9da3	-0.06768348
30	0x3cd7134f	0.026254324
31	0xbb69bcc2	-0.0035665487
32	0xbd87ce01	-0.06631089
33	0x3e0ac229	0.13550629
34	0x3b5f9493	0.0034115657
35	0x3de060e4	0.109559804
36	0xbc813376	-0.015771609
37	0xbce17acc	-0.027524374
38	0xbc010e54	-0.007876951
39	0xbd3a451d	-0.045476068
40	0x3cd947af	0.02652344
41	0xbdf13eda	-0.11779566
42	0x3a198b9e	0.00058572914
43	0x3dc4b7ce	0.096053705
44	0x3d19b135	0.037522513
45	0x3e0afec1	0.13573743
46	0x3e02a877	0.12759577
47	0x3e0aedfe	0.1356735
48	0x3de03110	0.10946858
49	0xbcebe1bb	-0.02879416
50	0xbdcfc4b5	-0.10144941
51	0x3dacb4e2	0.08432938
52	0x3c00542c	0.007832568
53	0x3d1d3c44	0.038387552
54	0xbbda6630	-0.0066650137
55	0x3d54ab5f	0.051921245
56	0xbddd3b87	-0.108023696
57	0xbcdd1e09	-0.026991861
58	0xbcbfb186	-0.02340008
59	0x3d31fc22	0.043453343
60	0xbdbf2399	-0.093329616
61	0xbddd3ead	-0.1080297
62	0xbd704421	-0.058658723
63	0xbdb3454e	-0.08753453
64	0x3d4abfcc	0.049499318
65	0xbd8973a2	-0.06711508
66	0x3da84390	0.082160115
67	0x3db2b7e4	0.087264806
68	0x3da776b5	0.081769384
69	0x3b259f7f	0.002527207
70	0x3deeac97	0.11654013
71	0xbce58e1e	-0.028021868
72	0x3e093c71	0.13401963
73	0x3db47f6f	0.088133685
74	0x3d8ba68d	0.068188764
75	0xbdbe7ac2	-0.09300758
76	0x3bb36cdb	0.005475623
77	0xbcdae942	-0.026722554
78	0xbe0b4c30	-0.13603282
79	0xbe0cbb85	-0.13743408
80	0x3d08b995	0.03338011
81	0x3ddac7f4	0.10682669
82	0x3e0edce9	0.13951458
83	0x3de09d51	0.10967506
84	0x3e08532b	0.13312976
85	0x3d560710	0.05225283
86	0xbe0d603b	-0.1380624
87	0xba6b8c28	-0.00089854235
88	0x3d9aa637	0.07551234
89	0xbdec66ce	-0.11543046
90	0x3d633640	0.05547166
91	0xbce7524d	-0.028237486
92	0xbce8e42c	-0.028429113
93	0xbddefd1e	-0.10888122
94	0xbce680eb	-0.028137645
95	0x3ddabf48	0.10681015
96	0x3df1debe	0.11810063
97	0xbb59e72d	-0.0033249364
98	0x3ca7757a	0.02044176
99	0x3dfa6391	0.12226022
100	0x3d27af80	0.040938854
101	0x3d22a3f8	0.039707154
102	0x3e089d2d	0.13341208
103	0xbd243683	-0.04009105
104	0x3dee8ffb	0.11648556
105	0x3d5f58c7	0.054528024
106	0x3ca74f4a	0.02042355
107	0xbc3f60b3	-0.01168077
108	0xbd166872	-0.0367207
109	0xbdf5d38b	-0.12003239
110	0x3deee035	0.11663858
111	0x3de3d1d2	0.111240044
112	0x3e0b2f67	0.13592301
113	0xbdd9e6dc	-0.10639736
114	0x3e029924	0.12753731
115	0x3d3e6f5f	0.04649293
116	0x3d97f0e3	0.07418992
117	0x3c77aaf0	0.015116438
118	0x3c8abd19	0.016935872
119	0x3d2fe8d8	0.042946666
120	0xbd67ffef	-0.05664056
121	0xbdaf3a44	-0.08556035
122	0x3dc207ea	0.09474166
123	0xbd6985fd	-0.057012547
124	0x3d0bd681	0.034140114
125	0xbdad311b	-0.08456632
126	0x3dae35c7	0.08506351
127	0xbd417c38	-0.047237605
128	0xbdb5eac2	-0.08882667
129	0x3ccc177d	0.024913544
130	0x3d68b41b	0.056812387
131	0x3e0c5a72	0.13706377
132	0xbbf73024	-0.0075435806
133	0xbd4a334e	-0.049365334
134	0x3df71e59	0.12066335
135	0xbd873f49	-0.066038676
136	0xbd66355a	-0.056203224
137	0x3e0190bb	0.12652867
138	0xbcd14872	-0.02554724
139	0x3d6a7817	0.057243433
140	0xbd84d31d	-0.06485579
141	0x3dbd167e	0.09232806
142	0x3d5a3333	0.053271484
143	0x3d306cb1	0.043072406
144	0xbca68f35	-0.020331958
145	0xbdcb111b	-0.09915372
146	0x3dfb33a1	0.12265707
147	0xbddc0f14	-0.107450634
148	0x3e10b157	0.1413015
149	0x3ddcdac9	0.107839175
150	0x3e04ea89	0.12980093
151	0x3de8da28	0.11369735
152	0xbd8caa49	-0.06868417
153	0x3e0f5eea	0.1400105
154	0x3d8b5b72	0.06804551
155	0xbde42baf	-0.111411445
156	0x3d81ea32	0.06343497
157	0xbc685357	-0.014180026
158	0x3cb4162f	0.021983234
159	0x3d1551fe	0.036455147
160	0x3d18fc48	0.03734997
161	0xbd210240	-0.039308786
162	0xbcabef11	-0.02098802
163	0x3c4df5bb	0.012570794
164	0x3d9c4d1a	0.076318935
165	0x3da1dcd9	0.079034515
166	0x3dc7ef22	0.09762408
167	0xbdbdf9de	-0.09276174
168	0xbe10ca0d	-0.14139576
169	0xbdeb61cf	-0.11493265
170	0x3d16e59d	0.03684007
171	0xbc9a2141	-0.018814685
172	0xbd5a103c	-0.05323814
173	0xbd493e4c	-0.049131677
174	0x3cd4b798	0.02596645
175	0x3ca3cde5	0.01999564
176	0xbc9f7d45	-0.019468913
177	0xbdfcac9c	-0.1233761
178	0xbda71b5f	-0.081595175
179	0xbd0e0094	-0.03466852
180	0xbd999cf2	-0.07500638
181	0x3d16286a	0.036659636
182	0xbdbbf885	-0.09178261
183	0x3de02913	0.10945334
184	0x3c283982	0.010267617
185	0xbd9a3126	-0.075289056
186	0xbdd9a1a9	-0.10626537
187	0x3ddc6815	0.107620396
188	0x3d2d8e87	0.042372253
189	0xbcf176d1	-0.029475601
190	0xbdf23928	-0.11827308
191	0x3b20c397	0.0024530643
192	0x3e061898	0.1309532
193	0xbdb6c059	-0.08923406
194	0xbc4d8e01	-0.012546063
195	0xbdc62610	-0.096752286
196	0xbcb404b6	-0.021974903
197	0x3ddc6d2a	0.10763009
198	0x3e0d5087	0.1380025
199	0xbdc23b66	-0.094839856
200	0x3c196d02	0.009364368
201	0xbd1b2aeb	-0.037882727
202	0x3d63212e	0.055451564
203	0xbdbf1e2e	-0.09331928
204	0xbdc3b113	-0.095552586
205	0x3d370ca6	0.044689797
206	0x3d006ba0	0.03135264
207	0xbdb1e4fd	-0.08686254
208	0x3db0c19f	0.0863068
209	0xbcacc3f3	-0.02108953
210	0x3c9d5561	0.01920575
211	0xbd939f22	-0.072080866
212	0xbdc3b7a8	-0.09556514
213	0xbcbc9b22	-0.023023192
214	0x3ddea413	0.108711384
215	0xbdadfbf6	-0.08495323
216	0xbdd48e73	-0.103787325
217	0x3dc85d73	0.09783449
218	0x3c9d0f9c	0.019172482
219	0x3d58ce5e	0.052931182
220	0x3d3438a2	0.04399932
221	0xbcf91321	-0.03040463
222	0xbbc1360e	-0.0058963364
223	0xbde4e24a	-0.11175974
224	0xbd93f44b	-0.072243296
225	0x3d37ed8d	0.04490428
226	0xbba6de77	-0.005092438
227	0x3e0c7464	0.13716274
228	0x3b1b8315	0.0023729254
229	0xbe0a582b	-0.13510196
230	0x3d9aede6	0.07564907
231	0x3e05bf0f	0.13061164
232	0x3d1b882a	0.037971653
233	0xbe0fc956	-0.14041647
234	0x3dce9b83	0.10088255
235	0x3d9bf0cc	0.07614288
236	0xbda190c5	-0.07888941
237	0xbe0c42aa	-0.13697305
238	0xbc40d5e5	-0.011769746
239	0xbc96a275	-0.018388012
240	0xbcf05499	-0.029337214
241	0x3de983cf	0.114020936
242	0xbd119a52	-0.035547562
243	0xbd903b70	-0.07042587
244	0x3dcf8f47	0.1013475
245	0xbe0abf3d	-0.13549514
246	0xbd42259d	-0.047399152
247	0x3cd1d7cf	0.0256156
248	0x3da697c9	0.081344195
249	0xbd014b7d	-0.03156613
250	0x3dd48240	0.10376406
251	0x3c8c40ed	0.017120803
252	0xbd7c0c45	-0.06153514
253	0xbdc02931	-0.09382857
254	0x3d3ba7a9	0.04581419
255	0xbd62abe2	-0.0553397

lstm.bias_ih_l1 f4 [200]
0	0x3d5fc97d	0.054635514
1	0x3dc20c40	0.09474993
2	0x3cecfe21	0.028929772
3	0x3ada41c2	0.0016651677
4	0xbdac1ff7	-0.08404534
5	0xbd0f1c00	-0.034938812
6	0x3dbc220a	0.0918618
7	0x3b8eb3bc	0.004354922
8	0xbd6f85a1	-0.058477048
9	0x3cce3587	0.025172008
10	0xbd69666b	-0.05698244
11	0xbd9f4e6d	-0.077786304
12	0x3dcfbb24	0.10143116
13	0xbdd791cc	-0.105258554
14	0xbcbeaf61	-0.023276987
15	0xbd55d155	-0.052201588
16	0xbcf7265e	-0.030169662
17	0xbd65bce0	-0.05608833
18	0x3db0b0e6	0.08627491
19	0xbd0231c4	-0.03178574
20	0xbdafabdd	-0.08577702
21	0xbe05fbd5	-0.13084348
22	0x3b59d3c2	0.003323779
23	0xbc58fa13	-0.013243216
24	0x3e11b1b3	0.14227943
25	0xbd3feaf4	-0.046854928
26	0x3dd92c57	0.1060416
27	0x3e00edaa	0.12590662
28	0x3cf6a7c4	0.030109294
29	0x3daea540	0.08527613
30	0x3dcb00c8	0.099122584
31	0x3cb64109	0.022247808
32	0xbdfdcb60	-0.12392306
33	0x3d5cdd54	0.053922012
34	0xbc4b0ff7	-0.012393943
35	0x3a271d4c	0.000637491
36	0x3c1bb6d4	0.009504039
37	0xbd476555	-0.048680622
38	0xbd481209	-0.048845325
39	0x3d87581b	0.06608602
40	0x3dbf081a	0.09327717
41	0x3d261bfd	0.040554035
42	0x3dfd8db1	0.12380541
43	0xbd733682	-0.059378155
44	0x3df496e4	0.119428426
45	0xbc1b93ba	-0.00949567
46	0xbe0d6eb1	-0.13811757
47	0xbd5ce482	-0.05392886
48	0x3da788a5	0.0818036
49	0xbe060e63	-0.13091426
50	0xbd882442	-0.06647541
51	0x3d10a770	0.03531593
52	0xbdbb20d5	-0.091371216
53	0xbe124e95	-0.14287789
54	0x3bd4625d	0.0064814524
55	0x3dde6544	0.10859159
56	0x3ce0d123	0.027443474
57	0xbd1c17f3	-0.038108777
58	0x3c92eb8f	0.017934589
59	0xbe03c5fc	-0.12868494
60	0x3de0c890	0.10975754
61	0xbc93a307	-0.018022073
62	0xbd451eb6	-0.04812499
63	0x3c0a3e78	0.008437745
64	0xbd6e3cf9	-0.058163617
65	0x3d89d43a	0.06729932
66	0x3d91129c	0.070836276
67	0x3cd4afcf	0.025962738
68	0x3e11a66b	0.1422364
69	0x3d36803a	0.04455588
70	0xbdc13c41	-0.09435321
71	0x3d8c98a1	0.06865049
72	0xbd7ea8c0	-0.06217265
73	0x3dff78d2	0.124742165
74	0x3d545d48	0.051846772
75	0xbb996dee	-0.004682294
76	0x3dcec864	0.10096815
77	0x3e11ff20	0.14257479
78	0xbca2da46	-0.019879472
79	0xbd93b0a3	-0.07211425
80	0x3ddc521b	0.10757848
81	0xbe0aff0a	-0.13573852
82	0x3dc74bbc	0.09731242
83	0x3c71e9a3	0.014765176
84	0x3d8ce915	0.06880394
85	0xbe08c30f	-0.13355659
86	0x3df5f060	0.120087385
87	0xbdc5e64f	-0.096630685
88	0x3d8481be	0.06470059
89	0x3da4e3c8	0.08051258
90	0x3e04235d	0.12904115
91	0xbc41d870	-0.011831388
92	0x3c9a222c	0.018815123
93	0xbbcce40f	-0.0062527726
94	0xbcc91943	-0.024548179
95	0xbcbddbbc	-0.023176067
96	0xbd517183	-0.051133644
97	0x3e02038b	0.12696664
98	0xbd02a252	-0.031893082
99	0xbdf2c435	-0.1185383
100	0xbda9b333	-0.08286133
101	0x3d48f396	0.049060427
102	0xbdb6c005	-0.089233436
103	0x3d2504eb	0.040287893
104	0xbd52a87b	-0.051430207
105	0x3c3c49a5	0.011492168
106	0xbccd0980	-0.025028944
107	0xbddf53a6	-0.109046265
108	0xbd994ff8	-0.07485956
109	0x3bd64426	0.0065388856
110	0x3c872f23	0.016501969
111	0x3e140a07	0.1445695
112	0xbde519c5	-0.11186556
113	0xbcc5126f	-0.024056641
114	0xbd33ecdf	-0.04392707
115	0x3dce232c	0.10065302
116	0x3d268f3f	0.040663954
117	0xbdc1dc0e	-0.094658
118	0x3db56a31	0.08858145
119	0xbb18b9c8	-0.0023304094
120	0xbdf11522	-0.11771609
121	0x3d3af283	0.045641433
122	0x3de39c3c	0.11113784
123	0x3d0f6bcf	0.035014924
124	0x3d565d68	0.052335173
125	0xbdbef4bc	-0.09324023
126	0x3d6aafa0	0.057296395
127	0x3d241510	0.04005915
128	0xbac0a825	-0.0014698548
129	0xbd7fc59a	-0.062444307
130	0x3c22e7ae	0.009942932
131	0xbd268bb7	-0.040660586
132	0x3e050550	0.12990308
133	0x3dd8d4b6	0.105874464
134	0xbdfac4fe	-0.122446045
135	0x3dca9e67	0.09893494
136	0x3d9a46fc	0.075330704
137	0xbdc74b70	-0.097311854
138	0x3c96af58	0.018394157
139	0xbd014aa8	-0.03156534
140	0xbdc05e49	-0.093929835
141	0xbdb3764a	-0.08762796
142	0x3e0801ea	0.1328198
143	0xbda565c6	-0.08076052
144	0xbc9c3968	-0.019070342
145	0xbdee5c4a	-0.116386965
146	0xb8f52d50	-0.000116909505
147	0x3dec4000	0.115356445
148	0xbd291ca2	-0.041287072
149	0x3e137922	0.14401677
150	0x3c3ba41b	0.0114527
151	0xbdf7e62f	-0.12104451
152	0xbd994de9	-0.07485563
153	0xbde41d12	-0.11138357
154	0x3db28a24	0.087177545
155	0xbe030ef3	-0.12798671
156	0xbd50dd04	-0.050992027
157	0xbe0b9843	-0.13632302
158	0xbdd607fb	-0.10450741
159	0x3dc8156a	0.097697094
160	0x3da17c4d	0.078850366
161	0x3cde0c3a	0.02710544
162	0x3dd8ea62	0.1059158
163	0xbe01996d	-0.12656184
164	0xbc6b324a	-0.014355252
165	0xbe036a08	-0.12833416
166	0xbdec62cd	-0.11542282
167	0xbc083caa	-0.008315245
168	0xbd77ccdc	-0.060498103
169	0xbdf3ab3a	-0.11897893
170	0x3d87943b	0.066200696
171	0x3d8fe7a7	0.07026606
172	0xbe09adae	-0.1344516
173	0xbc4972f2	-0.0122954715
174	0xbdd26c53	-0.102745675
175	0x3e07b143	0.13251214
176	0xbdb7af79	-0.08969016
177	0xbdf78de8	-0.12087613
178	0x3d16596e	0.03670638
179	0x3db9d49a	0.09073754
180	0xbc94e40a	-0.018175144
181	0x3d8a8429	0.06763489
182	0xbdfe10a9	-0.124055214
183	0x3db2f431	0.08737982
184	0x3dfc28d7	0.12312477
185	0xbde953f6	-0.113929674
186	0x3e096170	0.13416076
187	0x3d8917eb	0.06694015
188	0x3ddd049a	0.10791893
189	0x3daf25b6	0.08552115
190	0xbdcc7ecb	-0.09985121
191	0x3c5d7b97	0.013518236
192	0x3dd0af59	0.10189695
193	0x3de22da4	0.110438615
194	0x3e08245b	0.13295119
195	0xbd721c8a	-0.05910925
196	0x3db33360	0.087500334
197	0xb93c4040	-0.00017953012
198	0x3de93133	0.11386337
199	0xbd42883a	-0.047493197

lstm.bias_hh_l1 f4 [200]
0	0x3e125925	0.14291818
1	0x3dbf5bc6	0.09343676
2	0xbd7c57be	-0.061607115
3	0x3d83bf8a	0.064330176
4	0xbd05baee	-0.032648973
5	0xbd404d11	-0.046948496
6	0x3dce6746	0.100782916
7	0x3d3ea8df	0.046547767
8	0xbcb0958a	-0.02155568
9	0xbda27110	-0.07931721
10	0x3dc6c487	0.09705453
11	0x3da1e44c	0.07904872
12	0x3e073d0f	0.13206886
13	0xbca5408b	-0.020172378
14	0x3d1e6769	0.03867284
15	0x3c0b54d6	0.008504113
16	0x3d46ef37	0.048567977
17	0x3e06ae32	0.13152388
18	0x3e0b23c1	0.13587858
19	0x3da68500	0.081308365
20	0xbdee84b3	-0.11646404
21	0x3e0bd401	0.13655092
22	0x3d75caac	0.060007736
23	0x3e0d6139	0.13806619
24	0x3c2d6bd0	0.0105847865
25	0x3d04a579	0.03238437
26	0xbd62a104	-0.055329338
27	0xbd59a5fa	-0.053136803
28	0x3d45a302	0.04825116
29	0xbd63fcf9	-0.055661175
30	0x3e077944	0.13229853
31	0x3d957868	0.07298356
32	0xbe08ab01	-0.13346483
33	0xbd8917f4	-0.06694022
34	0xbd260b93	-0.04053838
35	0x3d9195a8	0.07108623
36	0xbbb14558	-0.0054098777
37	0x3dbdb385	0.09262756
38	0xbb46876e	-0.0030293125
39	0x3d892f39	0.0669846
40	0x3d4a047c	0.049320683
41	0x3dfa137f	0.1221075
42	0xbd24e4db	-0.040257316
43	0x3d8caecc	0.06869277
44	0xbd647247	-0.055773046
45	0x3dfe6dd9	0.124232955
46	0x3d8787ab	0.066176735
47	0xbd53b31e	-0.05168449
48	0xbdaf35cf	-0.08555185
49	0x3c4b95ca	0.012425849
50	0xbcd8341f	-0.02639204
51	0xbd128f78	-0.035781354
52	0xbda7c9d7	-0.08192795
53	0xbc25b274	-0.010113347
54	0x3dce25c7	0.10065799
55	0x3d277ebc	0.040892348
56	0x3d9556ad	0.07291923
57	0x3de732df	0.11289
58	0x3dd77e51	0.1052214
59	0x3d929863	0.07157972
60	0x3de7e09a	0.11322136
61	0xbc9d83a7	-0.019227816
62	0xbdd44142	-0.103640094
63	0x3cef0014	0.029174842
64	0x3daab9cf	0.083362214
65	0x3d8e01aa	0.06933911
66	0x3dbbd5b6	0.091716215
67	0xbe0e41be	-0.13892266
68	0x3cf36731	0.029712291
69	0xbdda44e1	-0.10657669
70	0xbd80c478	-0.062874734
71	0x3db7897d	0.08961771
72	0x3d61ba87	0.055109527
73	0xbe043563	-0.1291099
74	0x3d9d74c2	0.076882854
75	0xbdf713b5	-0.12064306
76	0xbd3b6686	-0.04575207
77	0x3d2dfddd	0.04247843
78	0xbe0cd4ef	-0.13753103
79	0x3dbd822a	0.092533424
80	0x3dc602bb	0.096684895
81	0x3d36ebda	0.04465852
82	0x3dd9e808	0.106399596
83	0xbd5bdc3b	-0.053676825
84	0xbdcf2b4f	-0.10115682
85	0x3dfd3ac5	0.12364725
86	0xbcc3bbbf	-0.023893235
87	0xbc9175da	-0.017756391
88	0xbc33b5bb	-0.010968621
89	0x3d9360f6	0.07196228
90	0xbda1fd5c	-0.079096526
91	0x3d27f5e5	0.041005988
92	0x3dc9affd	0.0984802
93	0x3e00296c	0.12515801
94	0xbd944a44	-0.072407275
95	0xbd6e6a30	-0.058206737
96	0xbdf6cefd	-0.12051199
97	0x3dd1e4ed	0.10248742
98	0xbd564b74	-0.05231805
99	0xbcca5050	-0.0246965
100	0xbd86d1e2	-0.06583001
101	0xbe121a4b	-0.14267842
102	0xbd8cd9df	-0.06877493
103	0xbe0b6fc1	-0.1361685
104	0xbdad66ac	-0.08466849
105	0xbe050eec	-0.12993973
106	0x3c7431a0	0.01490441
107	0xbc5428a1	-0.01294914
108	0xbddc727e	-0.10764025
109	0xbce717e6	-0.028209638
110	0x3d751580	0.059834957
111	0xbd508f14	-0.0509177
112	0x3d8106fe	0.06300162
113	0x3d327df9	0.043577168
114	0x3df83683	0.12119772
115	0x3e06b93e	0.13156602
116	0x3df7f390	0.12107003
117	0x3dac6109	0.084169455
118	0x3d8ddfb1	0.069274314
119	0x3dab1732	0.083540335
120	0xbc9be968	-0.019032195
121	0xbd1b8853	-0.037971806
122	0x3d4d22c3	0.05008198
123	0xbdf36263	-0.11884
124	0xbdd374a2	-0.1032498
125	0xbddde231	-0.10834158
126	0x3dfb019f	0.122561686
127	0x3e030683	0.12795453
128	0xbe00dc00	-0.12583923
129	0xbde99bc8	-0.11406666
130	0x3e09e833	0.13467483
131	0x3cd864b3	0.026415205
132	0x3d8bc30c	0.068243116
133	0x3c28b67b	0.010297413
134	0xbe0ce4a0	-0.13759089
135	0xbd37eef1	-0.044905607
136	0x3d046be4	0.032329455
137	0x3d775127	0.060380127
138	0x3e08dfe4	0.13366657
139	0xbc38af00	-0.011272192
140	0xbde56fad	-0.11202941
141	0xbdc7cef9	-0.09756274
142	0xbd177fee	-0.036987238
143	0x3dffc0df	0.12487959
144	0xbdb41991	-0.08793939
145	0x3dc4e42e	0.09613834
146	0xbd14cdf5	-0.03632923
147	0x3d9a49ba	0.075335935
148	0xbdd3e8b7	-0.10347121
149	0xbce75c7a	-0.028242338
150	0xbe0702fc	-0.13184732
151	0x3d8f1274	0.069859415
152	0x3e01f710	0.12691903
153	0xbbe585a1	-0.007004455
154	0xbe08e856	-0.13369879
155	0xbe15123f	-0.14557742
156	0x3ceff14a	0.02928986
157	0x3df4db9e	0.11955951
158	0x3ddaa57a	0.106760934
159	0x3df10998	0.11769408
160	0xbc533bb4	-0.012892652
161	0x3d9bb419	0.0760271
162	0x3e0868ec	0.13321275
163	0xbd21684c	-0.039406106
164	0x3cf88c93	0.030340469
165	0xbd3dd94d	-0.046349812
166	0xbd9e33ec	-0.07724747
167	0x3de8e8ec	0.11372551
168	0xbda21c47	-0.0791555
169	0x3d2a975d	0.041648258
170	0xbdc4f56f	-0.09617125
171	0x3cf9e16e	0.030503001
172	0xbd810d78	-0.06301397
173	0x3ddcdf4a	0.107847765
174	0x3d2e46f1	0.042548124
175	0xbddbf559	-0.10740156
176	0x3d81b887	0.06334024
177	0x3dadee58	0.08492726
178	0x3ddcd8d8	0.10783547
179	0xbb4e7446	-0.003150241
180	0x3dd7208d	0.105042554
181	0x3dccb2bd	0.09995029
182	0xbdf8b9ab	-0.12144788
183	0xbd101015	-0.035171587
184	0xbd81c77f	-0.06336879
185	0x3d190b22	0.037364133
186	0xbd77e2dd	-0.060519088
187	0x3d4c016c	0.049806044
188	0xbdbd2f7a	-0.09237571
189	0xbd9d7922	-0.0768912
190	0xbe0763e5	-0.132217
191	0xbd9b7026	-0.0758975
192	0x3da92ed1	0.08260883
193	0xbddfd303	-0.10928919
194	0x3d5a98ed	0.053368498
195	0x3c268a19	0.010164761
196	0x3daaae1c	0.0833399
197	0x3ca04c6f	0.019567696
198	0xbd872acd	-0.065999605
199	0xbd8a5d91	-0.067561276

fc.weight f4 [1, 50]
0	0xbe07d82d	-0.13266058
1	0xbc6f0915	-0.014589568
2	0x3ce4c3e8	0.027925447
3	0x3d332d3a	0.043744303
4	0xbcf1181b	-0.02943044
5	0x3d4aae14	0.04948242
6	0xbd99c182	-0.07507612
7	0x3d8dd295	0.06924931
8	0x3dc60e0d	0.09670649
9	0x3c59c6fb	0.01329207
10	0x3d1d3437	0.038379874
11	0x3d83003b	0.06396528
12	0xbdad86ac	-0.08472952
13	0xbd5f46ce	-0.054510884
14	0x3dc0b83b	0.09410139
15	0xbd6d5419	-0.05794153
16	0x3c419a02	0.0118165035
17	0x3d622471	0.055210534
18	0x3da123ba	0.078681424
19	0xbd48b927	-0.0490047
20	0x3d663162	0.05619944
21	0xbc1bbcb3	-0.009505439
22	0x3dbe62fe	0.09296225
23	0xbe06b12e	-0.13153526
24	0x3d86529a	0.06558724
25	0xbe03cb86	-0.12870607
26	0xbd55819e	-0.052125566
27	0x3d547780	0.051871777
28	0x3d6a6722	0.05722726
29	0x3dec4f11	0.11538518
30	0xbd110da0	-0.035413384
31	0xbe0ab21a	-0.13544503
32	0x3d554d4d	0.052075673
33	0xbcb9a4ae	-0.022661533
34	0x3a1af9ea	0.0005911874
35	0x3d9c8b01	0.076437004
36	0x3dfb2d43	0.12264492
37	0xbdcdc787	-0.100478224
38	0x3d2007e8	0.03907004
39	0xbda17e5a	-0.07885428
40	0xbd6f0d78	-0.058362454
41	0x3d0b56fd	0.034018505
42	0x3e0ca6bf	0.13735484
43	0xbd1e579b	-0.038657766
44	0xbd8972a2	-0.067113176
45	0xbc3b73a9	-0.01144115
46	0x3cd75cf7	0.026289446
47	0xbcd9d8a1	-0.026592555
48	0x3dac8128	0.08423072
49	0x3dc8c9c0	0.09804106
