data/models/DIS_20251215_164046.pt (torch, 128837 bytes, 9 tensors)

lstm.weight_ih_l0 f4 [200, 1]
0	0xbabb1ac5	-0.0014274946
1	0xbdeb8000	-0.114990234
2	0x3e19f83c	0.150361
3	0x3d38465f	0.044988986
4	0x3df34d07	0.11879926
5	0x3d53630c	0.05160813
6	0x3d164bc4	0.03669335
7	0x3dd78bf8	0.10524744
8	0x3da5eb1d	0.08101485
9	0xbd0612d9	-0.03273282
10	0xbd981966	-0.07426719
11	0x3dcb3ac4	0.09923318
12	0x3c00c422	0.007859262
13	0x3b3b4fdb	0.0028581533
14	0xbd6007d0	-0.05469495
15	0x3d1ecc8e	0.038769297
16	0xbcc33cba	-0.023832668
17	0xbdfba186	-0.122866675
18	0xbdc245de	-0.09485982
19	0x3dcda06c	0.10040364
20	0xbcd504d4	-0.026003279
21	0xbe0359e7	-0.12827264
22	0xbca31377	-0.019906742
23	0x3da9f6ab	0.08299001
24	0x3d327279	0.0435662
25	0xbdc53bf2	-0.09630574
26	0x3d4b7436	0.049671374
27	0x3e0ac507	0.13551722
28	0xbb2f4bbe	-0.0026748027
29	0xbd0e0374	-0.034671262
30	0x3d2067a1	0.03916133
31	0xbdc8979f	-0.097945444
32	0x3d91819e	0.07104801
33	0x3d7ed6f6	0.06221672
34	0xbdda33b8	-0.10654396
35	0xbe035690	-0.1282599
36	0x3d0202d5	0.031740982
37	0x3df20cd4	0.11818853
38	0x3c971f29	0.018447476
39	0x3d825c25	0.063652314
40	0xbc982901	-0.01857424
41	0xbe01dbe2	-0.12681535
42	0x3d505cda	0.0508698
43	0xbddc010b	-0.107423864
44	0x3e086aee	0.1332204
45	0x3e0c080a	0.13674942
46	0xbd83d072	-0.06436242
47	0xbdd3df00	-0.10345268
48	0xbdb61b9b	-0.08891984
49	0x3d793624	0.06084265
50	0xbd4e3f95	-0.050353605
51	0xbdaee25b	-0.08539268
52	0xbd80429d	-0.062627055
53	0x3d2632ee	0.040575914
54	0x3cec8003	0.028869634
55	0xbe071e61	-0.13195182
56	0xbdf31fc8	-0.11871296
57	0x3de0637b	0.109564744
58	0xbd97ddf2	-0.074153796
59	0xbd996203	-0.074893974
60	0xbd32386d	-0.043510843
61	0x3d3be5fa	0.04587362
62	0x3de1ec5b	0.11031409
63	0xbde5f432	-0.11228217
64	0xbe02d6a3	-0.1277719
65	0x3e05c289	0.1306249
66	0x3c45bab5	0.01206844
67	0x3c95b716	0.018275779
68	0x3e140706	0.14455804
69	0x3e0e68c2	0.1390715
70	0x3e06bc1b	0.13157694
71	0xbcfd33a5	-0.030908415
72	0x3d500db7	0.05079433
73	0xbd066da3	-0.0328194
74	0xbd3655dc	-0.044515476
75	0x3cc5fc90	0.024168283
76	0x3d7a8ce3	0.061169516
77	0xbd76fa14	-0.060297087
78	0xbdc473ce	-0.095924005
79	0xbc983300	-0.018579006
80	0x3a7d0f36	0.00096534507
81	0xbddd5ca6	-0.10808687
82	0xbdcf54e5	-0.10123614
83	0xbd144f4d	-0.03620844
84	0xbcf599c0	-0.02998054
85	0xbd78b1ac	-0.060716316
86	0xbcb0d598	-0.021586224
87	0xbd04c722	-0.03241647
88	0x3e013fae	0.12621948
89	0x3e12676c	0.14297265
90	0xbcea8914	-0.028629817
91	0xbd980e3a	-0.074245885
92	0xbd13ada5	-0.036054272
93	0x3d4df90e	0.050286345
94	0xbdec5978	-0.11540502
95	0xbe0537e2	-0.13009599
96	0x3e142d71	0.1447046
97	0x3d66eaa0	0.0563761
98	0xbd95ac8b	-0.073083006
99	0x3dbb7c27	0.091545396
100	0xbcc5aed3	-0.024131214
101	0xbb126fa1	-0.0022344368
102	0xbd4f33bc	-0.050586447
103	0x3d272abe	0.040812247
104	0x3d84282d	0.064529754
105	0x3d38ea40	0.045145273
106	0x3c206d48	0.00979168
107	0xbd9740e5	-0.073854245
108	0xbdf12448	-0.11774498
109	0xbe090d0a	-0.1338388
110	0x3dd1e397	0.102484874
111	0xbe0f75a5	-0.14009722
112	0xbc906aae	-0.017628994
113	0xbd48dfeb	-0.04904167
114	0x3db04349	0.086065836
115	0x3cceb6e7	0.025233699
116	0xbd41e487	-0.04733708
117	0xbdefab6d	-0.11702619
118	0x3d875c0c	0.066093534
119	0x3e19abaa	0.15006891
120	0x3dfecd85	0.124415435
121	0x3dea817c	0.114504784
122	0x3d898fed	0.06716905
123	0xbda23868	-0.07920915
124	0x3dd71947	0.10502868
125	0xbc85fe29	-0.016356545
126	0xbdbefb49	-0.093252726
127	0x3d19c8d1	0.03754503
128	0x3db989c8	0.09059483
129	0x3c0a2779	0.008432263
130	0xbd096c81	-0.033550743
131	0x3d903c86	0.07042794
132	0xbdd57277	-0.10422223
133	0x3d6123fd	0.05496596
134	0xbdca9744	-0.09892133
135	0x3dd90f36	0.105986044
136	0xbd807ea7	-0.06274157
137	0x3c8d8f4f	0.017280249
138	0xbdc131d7	-0.09433334
139	0x3e127a77	0.14304529
140	0xbe12afa1	-0.1432481
141	0x3e0c12c4	0.13679034
142	0xbdc48257	-0.09595173
143	0xbd31ec7f	-0.04343843
144	0xbe0b7d74	-0.13622075
145	0x3d93441a	0.07190724
146	0xbdb9e92b	-0.090776764
147	0x3df0f09e	0.11764644
148	0xbd8b181a	-0.067917064
149	0xbde85a0b	-0.11345299
150	0x3a67d1d0	0.0008843215
151	0xbe06cee0	-0.13164854
152	0xbdd18bbb	-0.102317296
153	0x3db9f643	0.09080174
154	0x3d38cafa	0.04511545
155	0x3daf3650	0.08555281
156	0x3dc523cc	0.09625968
157	0x3da6f139	0.08151478
158	0x3d87ab01	0.06624413
159	0xbdbc0222	-0.09180094
160	0xbe093c61	-0.13401939
161	0xbdfede6c	-0.12444767
162	0x3d94b035	0.07260171
163	0xbe00788e	-0.12545988
164	0xbd23f43c	-0.040027842
165	0x3d9a5b52	0.07536949
166	0xbda375b7	-0.07981437
167	0xbd453bcc	-0.04815273
168	0xbdc20e9c	-0.09475443
169	0x3e073847	0.13205062
170	0x3de3b3f0	0.11118305
171	0x3d744dcb	0.0596445
172	0xbdfd1bc7	-0.12358814
173	0x3ccca0ba	0.024978984
174	0xbd0e993d	-0.03481411
175	0xbc845a63	-0.016156381
176	0xbdcb5b9f	-0.09929585
177	0xbdc25678	-0.09489149
178	0x3d708008	0.05871585
179	0x3db7e9b4	0.08980122
180	0xbd9fb2e5	-0.07797793
181	0x3df7a62a	0.1209224
182	0xba7cb2a4	-0.00096396566
183	0xbdde4bde	-0.10854314
184	0xbcb65546	-0.022257458
185	0x3dbccead	0.09219108
186	0xbd51930e	-0.051165633
187	0x3dffac6e	0.1248406
188	0x3d00144c	0.031269357
189	0x39bbbf80	0.00035810098
190	0xbd142b17	-0.036173906
191	0x3bcad210	0.006189592
192	0xbce8f8ad	-0.02843889
193	0x3c869a93	0.016431129
194	0xbd6e20a9	-0.058136616
195	0x3d1025e6	0.035192393
196	0xbd1eefe7	-0.038803007
197	0x3d2f18ba	0.04274819
198	0x3cda3a00	0.026638985
199	0xbd40858a	-0.047002353

lstm.weight_hh_l0 f4 [200, 50]
0	0x3e0a12b6	0.134837
1	0xbd914d76	-0.070948526
2	0x3d99477a	0.07484336
3	0xbd659f1b	-0.056059938
4	0x3d8ff4e9	0.07029135
5	0x3e06cdb4	0.13164407
6	0xbd8b1b88	-0.067923605
7	0xbe0e57b2	-0.1390064
8	0xbe06b750	-0.13155866
9	0x3dc8cc06	0.098045394
10	0x3d9bdde8	0.07610685
11	0x3e02dad5	0.1277879
12	0xbdaf125e	-0.08548425
13	0xbd6af00b	-0.05735783
14	0xbc1656a8	-0.009175934
15	0xbca26329	-0.019822674
16	0xbcd19a21	-0.02558619
17	0x3d91aa86	0.07112603
18	0xbdbb4d91	-0.09145654
19	0xbd8f32d8	-0.069921196
20	0x3c28932e	0.010288997
21	0x3ce090ec	0.027412854
22	0xbcc2838d	-0.023744369
23	0xbc946eb2	-0.01811919
24	0xbd002104	-0.031281486
25	0x3dc2a368	0.095038235
26	0xbd5d6ffe	-0.054061882
27	0xbd270769	-0.04077855
28	0x3d37466f	0.044744905
29	0x3d638965	0.05555095
30	0x3d4d93de	0.050189845
31	0xbddb5828	-0.10710174
32	0xbde81632	-0.113323584
33	0xbe0c7e22	-0.13719991
34	0xbc3b863f	-0.011445581
35	0xbe05d7b2	-0.13070562
36	0xbc49542c	-0.012288135
37	0xbce17a79	-0.02752422
38	0x3cb0c8f0	0.02158019
39	0xbd8cd6f2	-0.06876935
40	0xbd9f21b4	-0.077701
41	0x3dc53a72	0.09630288
42	0xba935486	-0.00112404
43	0x3dba0ede	0.09084867
44	0xbd6eec14	-0.05833061
45	0xbd226aab	-0.039652508
46	0xbc997b95	-0.018735686
47	0x39f5306d	0.00046766122
48	0x3d54b8ff	0.05193424
49	0xbcd71a12	-0.026257548
50	0x3d194c97	0.037426557
51	0xbdc9d8d8	-0.09855813
52	0xbdf80054	-0.121094376
53	0xbd96234f	-0.07330953
54	0xbca167af	-0.01970276
55	0x3d01f54c	0.031728074
56	0x3d2c4981	0.042062286
57	0xbd47dad9	-0.048792694
58	0xbdaa0ea0	-0.08303571
59	0x3dcf4f35	0.101225294
60	0xbdf280ca	-0.11840971
61	0xb8205500	-3.8226135e-05
62	0x3d788404	0.060672775
63	0x3d089ddf	0.033353683
64	0x3dda1b5d	0.106497504
65	0x3db9bcf5	0.09069244
66	0xbc2b8540	-0.010468781
67	0xbdd9b0bf	-0.10629415
68	0xbdea4380	-0.11438656
69	0x3d3bf175	0.04588457
70	0xbd16a285	-0.036776084
71	0xbc70e7de	-0.014703719
72	0xbd0e6e7c	-0.034773335
73	0x3d98c95c	0.07460281
74	0xbe0ac742	-0.13552573
75	0xbd8af352	-0.06784691
76	0xbe0f8898	-0.1401695
77	0xbcb8e189	-0.022568481
78	0xbd77aba6	-0.06046643
79	0xbce742ab	-0.028230032
80	0xbe045650	-0.1292355
81	0x3d6bcd94	0.0575691
82	0xbd4a72be	-0.049425833
83	0x3de23a1a	0.11046238
84	0x3d6b2cc1	0.057415728
85	0xbca8a4d5	-0.02058641
86	0x3e07c949	0.13260378
87	0x3d9a5dbd	0.075374104
88	0x3e078b89	0.13236822
89	0x3d9b100d	0.07571421
90	0x3d867543	0.06565335
91	0x3d1ec891	0.038765494
92	0x3de1aff7	0.11019891
93	0x3d1f5ae5	0.038905043
94	0xbd949de8	-0.07256681
95	0x3d2c00ee	0.041993074
96	0x3dadc9dc	0.08485767
97	0x3d65293a	0.05594752
98	0xbc029214	-0.007969398
99	0x3dc5ecc4	0.096643
100	0xbe015d2a	-0.12633196
101	0xbc05e241	-0.008171619
102	0x3c63b1ce	0.013897372
103	0xba654ee1	-0.00087474106
104	0xbdea87aa	-0.11451657
105	0xbe0228c3	-0.12710862
106	0x3b577a7b	0.00328794
107	0xbdc16336	-0.09442751
108	0x3dbfb521	0.093607195
109	0xbe0a7538	-0.13521278
110	0x3da25425	0.079262055
111	0x3def8eb2	0.11697139
112	0xbd42d174	-0.04756303
113	0xbd104392	-0.03522069
114	0xbd9fd763	-0.07804754
115	0x3d3f7b94	0.046748713
116	0x3d90926b	0.07059177
117	0xbbb10d08	-0.005403165
118	0x3bd0acb2	0.006368243
119	0x3dccd0be	0.10000752
120	0x3d4d7056	0.05015596
121	0x3cf083aa	0.029359657
122	0xbd8d6bdd	-0.06905339
123	0x3c1dfae4	0.0096423365
124	0x3e19d384	0.15022093
125	0x3dbc73d3	0.09201779
126	0xbdb9a423	-0.0906451
127	0xbe0db8eb	-0.13840072
128	0x3df5d60f	0.12003719
129	0xbdf03d3e	-0.11730431
130	0xbde8d53b	-0.113687955
131	0x3dcf787c	0.101304024
132	0xbd9cee59	-0.07662649
133	0xbd85f3b1	-0.06540621
134	0xbcd3d0e3	-0.02585644
135	0x3df2ebb5	0.11861364
136	0xbdcd6ffd	-0.10031126
137	0xbd5416f9	-0.05177972
138	0xbbd38d61	-0.0064560627
139	0xbda58731	-0.08082426
140	0xbd5c0ced	-0.053723264
141	0xbdc06d05	-0.09395794
142	0x3cd50249	0.026002066
143	0x3dc26115	0.09491173
144	0xbcfc8184	-0.030823477
145	0x3d0905dd	0.033452857
146	0x3d067e7a	0.03283546
147	0xbdb2697c	-0.08711526
148	0xbde78378	-0.113043725
149	0xbdc3022d	-0.09521899
150	0xbdcda521	-0.100412615
151	0x3dd8c4fe	0.10584448
152	0x3de7f51a	0.11326046
153	0xbd6dd886	-0.05806782
154	0x3d7d95c0	0.06191039
155	0xbe054d7f	-0.13017844
156	0x3d56a9eb	0.05240814
157	0xbd64e755	-0.055884678
158	0x3e053bf5	0.13011153
159	0x3d9402b8	0.07227081
160	0x3dd71d52	0.10503639
161	0x3ce40bcc	0.027837656
162	0xbdc62723	-0.096754335
163	0x3de58a8e	0.11208068
164	0xbc291803	-0.010320666
165	0x3d8e2d3a	0.0694222
166	0xbd65f204	-0.056139007
167	0xbbde8193	-0.006790349
168	0xbd080747	-0.033210065
169	0x3cd4a4fd	0.025957579
170	0xbd134f04	-0.035964027
171	0x3da4a68c	0.08039579
172	0x3e0008d5	0.12503369
173	0xbd1606c5	-0.03662755
174	0x3dba9e82	0.09112264
175	0x3d06f26d	0.03294604
176	0xbdd1c7e1	-0.10243202
177	0xbde2aacb	-0.110677324
178	0x3dd32078	0.10308927
179	0xbddf4128	-0.109010994
180	0x3d15f432	0.036609836
181	0x3e122b89	0.1427442
182	0x3dfba501	0.12287331
183	0xbde544fd	-0.11194799
184	0x3dd6927b	0.10477158
185	0x3d6c5734	0.05770035
186	0x3d877817	0.06614702
187	0x3b88bd14	0.0041729305
188	0xbd29975f	-0.041404124
189	0x3d41b98b	0.04729609
190	0x3cf29ca4	0.029615708
191	0xbdde7a22	-0.10863139
192	0x3dd2202a	0.10260041
193	0x3cd6425e	0.026154693
194	0xbd353acb	-0.044245522
195	0x3de3f624	0.11130932
196	0x3a770da7	0.00094243366
197	0xbbd7d459	-0.006586593
198	0xbd24ebd4	-0.040263966
199	0x3d39c678	0.04535529
200	0x3d51cd9a	0.051221468
201	0x3e123514	0.1427806
202	0x3de6c7cd	0.11268578
203	0x3dc5251f	0.09626221
204	0x3d741f74	0.05960031
205	0x3d72bd18	0.059262365
206	0x3d1c51a9	0.038163815
207	0xbdb162fe	-0.086614594
208	0x3cc5c4f6	0.02414177
209	0x3e022411	0.1270907
210	0x3d7bf35b	0.06151138
211	0x3db44857	0.0880286
212	0xbdcd1a61	-0.10014797
213	0xbdb22c9a	-0.08699913
214	0xbddc70ec	-0.10763726
215	0x3c85ef16	0.016349357
216	0xbdd59afb	-0.10429951
217	0x3ce3a6ea	0.027789552
218	0xbd9e13f6	-0.07718651
219	0x3deb148b	0.11478528
220	0xbdaa9177	-0.083285265
221	0xbdd8cdd4	-0.105861336
222	0x3e05522c	0.13019627
223	0x3dbe54b2	0.09293498
224	0x3de73ff2	0.112914935
225	0x3c62db6c	0.01384626
226	0x3cd070b1	0.02544436
227	0x3db20381	0.086920746
228	0xbde3ae08	-0.11117178
229	0x3d47930d	0.048724223
230	0xbd8fe570	-0.070261836
231	0xbd778cb1	-0.06043691
232	0x3c69a19c	0.014259722
233	0x3dc9134b	0.09818133
234	0xbded6e90	-0.11593354
235	0x3dba6335	0.091009535
236	0x3d45bc4b	0.048275273
237	0xbdb7efb2	-0.08981265
238	0xbd766116	-0.060151182
239	0x3d8583e8	0.065193
240	0x3dc0524e	0.093906984
241	0xbd35c776	-0.044379674
242	0xbc216eed	-0.009853107
243	0x3dbfd42b	0.0936664
244	0xbdd17ce3	-0.102288984
245	0xbdf3fecd	-0.11913834
246	0x3df45cff	0.119318
247	0xbd973cec	-0.07384667
248	0x3d9fd68b	0.07804593
249	0x3d32a675	0.043615777
250	0x3d8ec199	0.069705196
251	0x3ce940b4	0.028473236
252	0x3e1818e1	0.1485324
253	0xbda1d92b	-0.0790275
254	0xbd576c9f	-0.052593824
255	0x3d0ec63e	0.034857027

lstm.bias_ih_l0 f4 [200]
0	0xbd54de2d	-0.051969696
1	0xbdf23134	-0.11825791
2	0x3e16917a	0.14703932
3	0x3d1c639e	0.03818094
4	0x3d27c44a	0.04095868
5	0x3da8a3d8	0.08234376
6	0xbceee7de	-0.029163297
7	0xbe04f3c3	-0.12983613
8	0x3d5e7763	0.054313075
9	0x3da7aef3	0.08187666
10	0xbc4d3e22	-0.012527021
11	0x3d07236d	0.03299277
12	0xbcfa28e6	-0.03053708
13	0x3e01f15e	0.1268973
14	0xbdaf977a	-0.08573814
15	0xbb62a8e3	-0.0034585528
16	0x3dcab359	0.09897489
17	0xbc5d2d6c	-0.013499599
18	0x3d32345a	0.043506958
19	0x3df7e518	0.12104243
20	0xbdae4cab	-0.08510717
21	0xbd82372c	-0.063581795
22	0xbe14d767	-0.14535294
23	0xbcd4ed0e	-0.025991943
24	0xbd0ac765	-0.033881564
25	0xbd591342	-0.05299688
26	0xbd73821a	-0.059450246
27	0xbd889a34	-0.06670037
28	0xbdf9e9dd	-0.12202809
29	0x3b3d0b30	0.002884578
30	0xbd87f27f	-0.06638049
31	0x3c1e78e7	0.00967238
32	0xbdd0188d	-0.10160933
33	0x3e0ae64b	0.13564412
34	0xbe14a461	-0.1451583
35	0xbd3f257d	-0.04666661
36	0x3e0c3ec6	0.13695821
37	0xbd77ff8c	-0.060546443
38	0x3dd9043a	0.10596509
39	0xbd4e27d0	-0.050330937
40	0xbc4af5f9	-0.012387746
41	0x3df3e3c6	0.11908679
42	0xbdac32de	-0.0840814
43	0x3dab6bae	0.08370148
44	0xbdda551f	-0.10660767
45	0x39ea048c	0.00044635346
46	0x3d51fc13	0.051265787
47	0xbdc6377a	-0.0967855
48	0xbe16fbd6	-0.14744505
49	0x3dbd53b7	0.09244483
50	0x3c2e0ecf	0.010623648
51	0xbdfa3456	-0.122170135
52	0x3d789e2d	0.060697723
53	0x3db1ee41	0.086880215
54	0x3dac100a	0.08401497
55	0xbdc49568	-0.095988095
56	0xbdee0768	-0.116225064
57	0x3e10b775	0.14132483
58	0xbdce11e9	-0.1006201
59	0x3d1f3cb6	0.038876258
60	0x3d0ec388	0.034854442
61	0xbd50cde0	-0.050977588
62	0xbdb85159	-0.08999891
63	0xbd555dff	-0.052091595
64	0x3dc6d725	0.09709004
65	0x3cf7405c	0.030182056
66	0xbdb5dc82	-0.08879949
67	0x3df55fb1	0.11981142
68	0x3da4208e	0.08014022
69	0x3db1c1c0	0.08679533
70	0x3e0c4a01	0.13700105
71	0x3d8d99e3	0.06914117
72	0x3b0d2160	0.0021534786
73	0xbd4f735c	-0.050647125
74	0x3d0f6f96	0.035018526
75	0x3db98f68	0.09060556
76	0x3e0ca87f	0.13736151
77	0x3acd9e14	0.001568737
78	0x3db24c95	0.08706013
79	0xbdf1bc14	-0.11803451
80	0xbe11a3b4	-0.14222604
81	0xbd9aa073	-0.075501345
82	0x3b7ef2c0	0.0038902014
83	0xbd9d010a	-0.07666214
84	0xbe09c287	-0.13453113
85	0x3dd5f0fc	0.10446355
86	0x3c93bfdb	0.01803582
87	0x3df0b94f	0.11754095
88	0x3e071ece	0.13195345
89	0x3d212642	0.039343126
90	0x3b92605e	0.0044670543
91	0xbe0ce20b	-0.13758104
92	0x3e0e03fc	0.13868707
93	0xbde54995	-0.11195675
94	0xb846e0b0	-4.7416135e-05
95	0xbcc5f571	-0.024164887
96	0x3d091f5a	0.033477165
97	0x3d5db01a	0.05412302
98	0xbdae452d	-0.08509288
99	0x3dfb6ced	0.12276635
100	0xbdd68efa	-0.10476489
101	0x3e16901c	0.14703411
102	0x3d22b816	0.03972634
103	0x3dc8ddda	0.0980794
104	0xbdc43e7d	-0.09582231
105	0xbe00918b	-0.1255552
106	0xbdebfad0	-0.11522448
107	0xbc818cbc	-0.015814178
108	0x3d56f82f	0.05248278
109	0x3d30639c	0.043063745
110	0xbd214c52	-0.039379425
111	0xbe04cadf	-0.12968014
112	0xbdcc0c8f	-0.09963333
113	0x3be1c3c1	0.0068897908
114	0x3d737e13	0.059446406
115	0x3db0384b	0.08604487
116	0x3cc131a7	0.023583246
117	0x3dfc3d6a	0.12316401
118	0xbdb64616	-0.089000866
119	0xbdb3e5d6	-0.08784072
120	0x3db8d9d7	0.09025925
121	0xbd9ad426	-0.07559995
122	0xbdff8355	-0.124762215
123	0x3dbb2ff0	0.09140003
124	0xbd06070b	-0.03272156
125	0x3ddd49bb	0.108050786
126	0x3e0ac263	0.13550715
127	0xbc618eab	-0.013766925
128	0x3e112793	0.14175253
129	0x3aa2fb32	0.0012434481
130	0xbdf7dbf5	-0.121025
131	0xbe03bcc6	-0.1286498
132	0x3dc84c13	0.09780135
133	0x3d8ce892	0.06880297
134	0xbba6b497	-0.005087446
135	0x3dee384b	0.11631831
136	0x3d961b62	0.073294416
137	0xbdf1c948	-0.118059695
138	0xbdc43956	-0.095812485
139	0x3e163b30	0.14671016
140	0xbdd0eb35	-0.10201112
141	0xbdfce08a	-0.12347515
142	0xbd6cf6f2	-0.057852693
143	0xbda43d77	-0.08019536
144	0xbdf636ff	-0.120222084
145	0xbe102643	-0.14077096
146	0xbde0a868	-0.10969621
147	0xbd7ff792	-0.06249196
148	0xbd871db9	-0.06597466
149	0xbe010195	-0.1259826
150	0xbe12152f	-0.14265893
151	0xbc892460	-0.016740978
152	0x3dc92d8c	0.098231405
153	0xbdc34438	-0.09534496
154	0xbdece780	-0.115675926
155	0xbc42ba9b	-0.0118853105
156	0xbd8d5425	-0.06900815
157	0x3dc6f03f	0.09713792
158	0x3da23f0f	0.07922184
159	0x3d3eda30	0.0465948
160	0xbde5be3c	-0.11217925
161	0xbe0fafcb	-0.14031903
162	0x3db98d1c	0.090601176
163	0x3dc3dae2	0.09563233
164	0x3dad5a2e	0.08464466
165	0xbbccfcf7	-0.0062557417
166	0x3d947c7b	0.07250305
167	0x3db6b314	0.08920875
168	0x3e182962	0.14859536
169	0x3def0612	0.1167108
170	0x3ce09669	0.027415471
171	0xbd4f9c74	-0.050686315
172	0xbdc89294	-0.097935826
173	0x3cfa66cd	0.030566597
174	0x3cce259a	0.025164414
175	0x3e08bbc1	0.13352872
176	0xbdad6e62	-0.084683195
177	0x3d5ed8d5	0.054406006
178	0xbdccfd67	-0.1000927
179	0xbd8fb256	-0.07016437
180	0xbd4d71f1	-0.05015749
181	0xbd37c0b3	-0.044861507
182	0x3e14f479	0.14546384
183	0x3da2c57c	0.079478234
184	0xbdcafe0b	-0.09911736
185	0xbe026d14	-0.12736923
186	0x3db88f38	0.09011692
187	0x3dfc15a1	0.12308813
188	0xbd9a635c	-0.075384825
189	0x3d87146c	0.06595692
190	0x3d8d54fc	0.06900975
191	0x3d38e5fc	0.045141205
192	0x3d8e1ca6	0.06939058
193	0xbcb95327	-0.022622658
194	0xbd7b4f86	-0.061355136
195	0x3dfda7df	0.123855345
196	0x3ce04d8b	0.027380725
197	0x3d8270e3	0.06369188
198	0xbcc1673d	-0.023608798
199	0x3df9b780	0.12193203

lstm.bias_hh_l0 f4 [200]
0	0xbe0a72c6	-0.13520345
1	0x3c6f4c2c	0.014605563
2	0xbd27f007	-0.041000392
3	0xbd84589f	-0.06462216
4	0x3d2ff482	0.04295779
5	0xbe00cc87	-0.12578021
6	0xbd51246f	-0.051060136
7	0x3d8bf3d0	0.06833613
8	0x3dfbd125	0.122957505
9	0xbdffa172	-0.12481965
10	0x3d10ec3b	0.035381537
11	0xbdd6769d	-0.104718424
12	0x3d879dae	0.06621872
13	0xbda348ee	-0.079728946
14	0x3ddd7bfb	0.10814663
15	0x3d0a68e6	0.033791445
16	0xbddd5f67	-0.10809212
17	0x3e03b5c0	0.12862301
18	0xbe0025a0	-0.12514353
19	0x3e0eadd2	0.13933495
20	0xbd86cd8e	-0.06582175
21	0x3d9ab658	0.075543106
22	0x3debf00d	0.115203954
23	0x3daad16b	0.083407246
24	0x3d3547bb	0.04425786
25	0xbdaa35a2	-0.08311011
26	0xbd4ab493	-0.049488615
27	0xbda660e3	-0.081239484
28	0xbc2dbfbb	-0.010604794
29	0x3cb5e6dd	0.02220481
30	0x3d293f50	0.041320145
31	0xbcf8d146	-0.030373227
32	0xbc2911ce	-0.010319186
33	0x3d8b6ee5	0.06808261
34	0x3df958d7	0.12175148
35	0x3d8a2bb5	0.06746618
36	0xbd645cce	-0.055752568
37	0xbd2d09e8	-0.042245775
38	0xbdcaec0e	-0.09908305
39	0x3cbc637d	0.022996658
40	0xbd615420	-0.05501187
41	0x3bfdd640	0.007746488
42	0xbdaf4596	-0.08558194
43	0x3dc7cf20	0.09756303
44	0xbd97d749	-0.07414109
45	0x3dd526cb	0.1040779
46	0xbc9833a2	-0.018579308
47	0x3cd3ba6d	0.02584573
48	0x3df2740c	0.118385404
49	0x3bdb16e5	0.006686079
50	0xbd09f087	-0.03367665
51	0xbdad6adf	-0.0846765
52	0x3db6f3ce	0.08933221
53	0xbddf1947	-0.10893493
54	0x3926068a	0.0001583343
55	0x3d085cd9	0.03329167
56	0x3c6a5d26	0.014304435
57	0xbd0d3c1c	-0.034481153
58	0xbd9c8c48	-0.07643944
59	0x3bd5cd4d	0.006524718
60	0xbd99fe47	-0.07519203
61	0x3def87f5	0.116958536
62	0x3e054b38	0.13016975
63	0x3b9826f4	0.0046433154
64	0xbda1e4a0	-0.07904935
65	0xbc323fd9	-0.01087948
66	0x3dbad80c	0.09123239
67	0xbdc62acf	-0.09676134
68	0x3d0b4173	0.033997964
69	0x3de8f610	0.11375058
70	0x3e179f87	0.14806949
71	0x3d2b5b89	0.04183534
72	0xbca2686e	-0.019825187
73	0xbdc9849a	-0.09839745
74	0xbdb0a4e3	-0.086252
75	0x3dbf1c60	0.09331584
76	0xbd0c4467	-0.03424492
77	0x3c172c83	0.009226921
78	0x3cb9d7b0	0.022685856
79	0xbdcf09bf	-0.10109281
80	0xbdc7c853	-0.09755006
81	0x3da97613	0.08274474
82	0x3cfd34b8	0.030908927
83	0xbce6769f	-0.028132735
84	0x3de8b5a0	0.11362767
85	0x3c6fad9b	0.014628793
86	0x3d946786	0.07246308
87	0x3d0056af	0.031332668
88	0x3d49d045	0.049270887
89	0x3d7e0ece	0.062025838
90	0xbcd9d86e	-0.02659246
91	0xbc2ba522	-0.010476382
92	0xbde246e8	-0.110486805
93	0xbb251cbe	-0.0025194134
94	0x3dfaca78	0.12245649
95	0x3d7bba35	0.061456878
96	0x3df70e2f	0.12063252
97	0x3c91dcae	0.017805424
98	0x3d5b789b	0.053581815
99	0x3e0528c6	0.13003835
100	0xbda4726c	-0.08029637
101	0xbdf65fa2	-0.12029959
102	0xbd99d8c7	-0.0751205
103	0xbdf43e9d	-0.11926005
104	0xbdf22974	-0.11824313
105	0x3da0c527	0.07850104
106	0x3dccbb17	0.09996622
107	0x3dec9c2b	0.11553224
108	0x3df7a456	0.120918915
109	0xbc9c89ab	-0.019108614
110	0xbde7456f	-0.1129254
111	0xbce67400	-0.028131485
112	0xbcada7bd	-0.021198148
113	0xbdbd7e0f	-0.092525594
114	0x3d84f42b	0.06491884
115	0x3e19aefb	0.15008156
116	0x3db043d6	0.08606689
117	0xbcdb77ba	-0.026790489
118	0xbd4e7029	-0.050399933
119	0x3d5818b3	0.05275793
120	0xbcb78cb1	-0.022405954
121	0xbd2f1fe2	-0.042755015
122	0x3dd96a1f	0.10615944
123	0xbd3fbcd5	-0.046810944
124	0x3d5d0ed3	0.053969216
125	0x3d35a53b	0.04434703
126	0x3ded3429	0.115822144
127	0xbe10a0b2	-0.141238
128	0x3d04200d	0.03225713
129	0x3e019f54	0.12658435
130	0x3d068460	0.032841086
131	0x3d9003c0	0.07031965
132	0x3d1e5eda	0.038664676
133	0xbd161ded	-0.036649633
134	0x3c124856	0.008928379
135	0x3db8f657	0.090313606
136	0xbd8b527f	-0.06802844
137	0x3dae98ba	0.08525224
138	0xbdd56cca	-0.104211405
139	0x3dd9b24a	0.10629709
140	0x3bba6493	0.005688259
141	0x3db50a3f	0.08839845
142	0xbdf78c69	-0.12087328
143	0xbe08c0ca	-0.13354793
144	0xbddcac66	-0.1077507
145	0xbcf93353	-0.030419981
146	0xbe0a1baf	-0.13487123
147	0xbd221c8a	-0.039578
148	0xbd9e6df5	-0.077358164
149	0x3d2dd422	0.042438634
150	0xbdb6a0c0	-0.089173794
151	0xbdc96553	-0.09833779
152	0x3dbdacd4	0.0926148
153	0xbb6cd394	-0.0036136853
154	0x3e04ddd9	0.12975253
155	0xbcd5fbd1	-0.026121052
156	0xbc593dce	-0.013259364
157	0x3d041876	0.03224989
158	0x3dc83ac7	0.09776836
159	0xbcec1202	-0.02881718
160	0x3d522c3b	0.051311713
161	0x3b65d565	0.003506982
162	0xbd97cb0a	-0.074117735
163	0x3ddcde12	0.10784544
164	0x3e0e8660	0.13918447
165	0xbe013bdd	-0.12620492
166	0xbd87e650	-0.066357255
167	0x3d9fbb76	0.07799427
168	0x3db09fd4	0.08624235
169	0x3d412e7c	0.04716347
170	0xbda4c036	-0.08044474
171	0xbd40f0e2	-0.047104724
172	0x3c826b71	0.015920373
173	0x3dbb34d9	0.09140939
174	0xbca94882	-0.020664457
175	0x3db39456	0.08768527
176	0x3d2ab94b	0.041680615
177	0xb9f4f6e4	-0.00046723254
178	0x3defa9c9	0.11702306
179	0x3cbcdca7	0.023054434
180	0xbd04e62b	-0.032446068
181	0x3de53cb7	0.11193221
182	0xbbfbcf32	-0.0076846117
183	0x3d8c15f6	0.06840126
184	0xbdcc2019	-0.0996706
185	0xbdf9b65d	-0.12192986
186	0x3d431ad0	0.047632992
187	0x3d4a24f4	0.049351647
188	0xbddb90c8	-0.10720974
189	0x3e0efa3f	0.13962649
190	0xbdbd5a0f	-0.09245693
191	0x3e046b40	0.12931538
192	0xbd03fcfd	-0.03222369
193	0x3d9698a3	0.07353332
194	0x3e03f7a3	0.12887435
195	0x3d289f3b	0.04116748
196	0xbd6bab6d	-0.05753653
197	0xbcc53033	-0.024070835
198	0xbb5c952f	-0.0033658256
199	0xbde70a19	-0.11281223

lstm.weight_ih_l1 f4 [200, 50]
0	0x3d8efbb0	0.06981599
1	0x3de6f2ec	0.112768024
2	0x3dba8820	0.09107995
3	0xbd139b02	-0.0360365
4	0xbb09334a	-0.0020935112
5	0x3dbde9e9	0.092731304
6	0xbe113d25	-0.14183481
7	0x3ca9c328	0.02072294
8	0x3d8dbf17	0.06921213
9	0x3ded4fd4	0.11587492
10	0x3de779dd	0.113025405
11	0x3d4c2070	0.049835622
12	0x3d8e752b	0.06955942
13	0xba8fd340	-0.0010972992
14	0xbe104c25	-0.14091547
15	0xbe0563c5	-0.1302634
16	0xbe026d36	-0.12736973
17	0xbd66d19a	-0.056352235
18	0xbdbc5004	-0.09194949
19	0x3c7571ca	0.014980743
20	0xbd46d759	-0.048545215
21	0xbc99280b	-0.018695852
22	0x3c4687b8	0.012117319
23	0xbd8054e2	-0.0626619
24	0x3d6d5552	0.057942696
25	0x3e076a90	0.13224244
26	0xbbc6df3d	-0.0060690925
27	0xbd7586ad	-0.05994289
28	0xbd728781	-0.059211258
29	0xbdc1038b	-0.09424504
30	0x3dc28744	0.09498456
31	0xbd2ac431	-0.04169101
32	0x3d711424	0.0588571
33	0xbdb022e2	-0.08600403
34	0x3d138b53	0.03602154
35	0x3df375d6	0.1188771
36	0xbd389626	-0.045065068
37	0xbd90ec22	-0.07076289
38	0xbde86c65	-0.113487996
39	0xbd7863ce	-0.060642056
40	0x3d90344d	0.070412256
41	0xbd1a7706	-0.037711166
42	0x3cf42ddf	0.02980703
43	0xbe091b2e	-0.13389274
44	0x3e14b343	0.14521508
45	0xbd012299	-0.031527136
46	0x3d9394d6	0.072061226
47	0x3e09f014	0.13470489
48	0x3e0a12f4	0.13483793
49	0x3d81d58f	0.06339561
50	0xbd79b81b	-0.060966592
51	0x3d043636	0.032278262
52	0xbd12dbb6	-0.035854064
53	0x3cd1a09e	0.025589284
54	0xbdfc74e5	-0.12326983
55	0x3dc54070	0.09631431
56	0x3ac92369	0.0015345636
57	0x3d8d6479	0.06903929
58	0xbdbc036a	-0.09180339
59	0x3de1eab8	0.11031097
60	0x3dbbb9be	0.09166287
61	0xbdbb98d4	-0.09160009
62	0x3d25d264	0.040483847
63	0x3c14a78e	0.009073151
64	0x3d046e10	0.032331526
65	0x3dba30a9	0.090913124
66	0x3bb9da2c	0.00567176
67	0x3cedbfac	0.02902206
68	0xbdb9f233	-0.09079399
69	0x3d90d323	0.07071521
70	0x3dabf2f4	0.08395949
71	0x3cbb7c52	0.022886429
72	0xbd4f825c	-0.05066143
73	0x3d996008	0.0748902
74	0xbd47c1fd	-0.048768986
75	0xbd4d92b5	-0.05018874
76	0xbda64786	-0.08119111
77	0xbbb42a91	-0.0054982384
78	0xbe0d8625	-0.13820703
79	0x3ddd6ab4	0.10811368
80	0x3c878f54	0.016547836
81	0xbaec60a0	-0.0018034168
82	0xbde6d204	-0.11270526
83	0x3d21fe55	0.03954919
84	0xbd10bf31	-0.035338584
85	0xbdb6cced	-0.08925805
86	0x3d86c327	0.06580191
87	0x3e13cebc	0.14434332
88	0x3d81535c	0.06314728
89	0xbd8768c7	-0.066117816
90	0xbd593a6a	-0.053034224
91	0x3d2775aa	0.040883698
92	0xbdd465ec	-0.103710026
93	0xbe020324	-0.1269651
94	0xbda35d3c	-0.079767674
95	0xbde2d2a0	-0.1107533
96	0x3e15c3b3	0.14625435
97	0x3d02bdf6	0.031919442
98	0xbe013def	-0.12621282
99	0xbc840ede	-0.01612037
100	0xbe049872	-0.12948778
101	0x3d9dfbd4	0.07714048
102	0xbbadbd66	-0.005302119
103	0x3d999e33	0.07500877
104	0x3dba5a8c	0.09099302
105	0x3de2e38f	0.110785596
106	0x3cba00a3	0.022705382
107	0xbcca8ff8	-0.024726853
108	0xbe03a7ff	-0.12857054
109	0x3c9f785c	0.019466572
110	0x3d89b4cd	0.06723938
111	0xbc3ace7e	-0.011401771
112	0xbca00e5b	-0.019538095
113	0x3e171692	0.14754704
114	0x3daa3aaa	0.083119705
115	0xbdc17b4d	-0.09447346
116	0xbd7b37ce	-0.061332516
117	0x3cd3dc9c	0.02586203
118	0x3ccce8f0	0.025013417
119	0xbe106023	-0.14099173
120	0xbc233587	-0.009961492
121	0x3e14f15f	0.14545201
122	0x3dcc697d	0.09981058
123	0xbd9af316	-0.07565896
124	0x3b145f1c	0.0022639697
125	0x3d2a95ae	0.041646652
126	0x3dace37a	0.08441825
127	0xbd6d0408	-0.057865173
128	0x3dbe7a4c	0.0930067
129	0x3bcf09f4	0.006318325
130	0x3d15d63c	0.036581263
131	0x3e174b72	0.14774874
132	0xbd00862c	-0.031377956
133	0x3dd090f2	0.10183896
134	0xbdadd47d	-0.084877945
135	0x3dd338ae	0.10313545
136	0xbc4b1a11	-0.012396351
137	0x3c6c3d14	0.014418859
138	0xbc898542	-0.016787175
139	0xbe1459ed	-0.14487429
140	0xbcc7aa70	-0.024373263
141	0xbd9b4fb8	-0.075835645
142	0x3d8c6cd2	0.06856693
143	0xbcda7d79	-0.026671158
144	0x3d877872	0.0661477
145	0xbd2d81a4	-0.042359963
146	0x3d8bfd2e	0.068353996
147	0x3c49b941	0.012312234
148	0x3dc832b3	0.09775295
149	0xbc80391c	-0.015652232
150	0x3dafe2a0	0.08588147
151	0x3e13b4f6	0.144245
152	0xbdd16344	-0.102240115
153	0x3dd0dc24	0.101982385
154	0x3def3b8a	0.11681278
155	0x3dcef03d	0.101044156
156	0xbdc56e38	-0.09640163
157	0x3da175ee	0.078838214
158	0x3c90c19f	0.01767045
159	0x3dc46c46	0.09590964
160	0xbd4e7c60	-0.050411582
161	0xbdddc5c7	-0.10828739
162	0x3e091471	0.13386704
163	0xbdd37d96	-0.10326688
164	0x3d2e5bc9	0.042568002
165	0x3d519a05	0.051172275
166	0x3de7b87a	0.11314483
167	0xbd1f397d	-0.038873184
168	0xbdb0c389	-0.08631045
169	0xbdb4a15f	-0.088198416
170	0xbc6319a0	-0.01386109
171	0xbe059cf6	-0.13048157
172	0x3d8a169c	0.06742594
173	0xbe090dd6	-0.13384184
174	0x3dbc2c40	0.091881275
175	0x3df88796	0.12135236
176	0x3d985659	0.074383445
177	0xbdddeddc	-0.10836384
178	0xbd8f4a39	-0.06996579
179	0x3dca9f8b	0.09893712
180	0x3dae577f	0.08512782
181	0xbdfd0039	-0.12353558
182	0x3da2ea8e	0.07954894
183	0x3de50550	0.11182654
184	0x3d1dc7a3	0.038520467
185	0xbd2b7239	-0.041856978
186	0xbdbe586f	-0.09294211
187	0x3c8d9a2a	0.017285425
188	0xbcad7d12	-0.021177802
189	0xbd94c545	-0.07264189
190	0x3cfab4e2	0.03060383
191	0x3dfffc17	0.12499254
192	0x3dab3906	0.08360486
193	0x3d95deb6	0.07317869
194	0x3e170aab	0.14750163
195	0x3d95f8f9	0.073228784
196	0x3c43875f	0.01193413
197	0x3c5cd883	0.013479355
198	0xbc084f1a	-0.0083196405
199	0xbd9673f3	-0.07346334
200	0xbe062845	-0.13101299
201	0xbddaac8d	-0.10677443
202	0xbd72b025	-0.059250016
203	0xbb80214a	-0.0039102184
204	0x3e076b7e	0.13224599
205	0x3d7866a1	0.06064475
206	0x3d28c6ec	0.04120533
207	0xbdda2dce	-0.10653268
208	0xbdc0b058	-0.09408635
209	0xbdc6a7d8	-0.096999824
210	0xbdd5af29	-0.104338
211	0x3da88c39	0.0822987
212	0x3d022a76	0.031778775
213	0x3ddcb5e9	0.10776884
214	0xbda5dda7	-0.080989175
215	0xbdb574e5	-0.088601865
216	0x3d6efe15	0.05834778
217	0xbd1de569	-0.03854886
218	0x3dad1c5d	0.084526755
219	0xbdaf1157	-0.08548229
220	0x3d83d02c	0.0643619
221	0xbe0a4b06	-0.13505182
222	0xbdf0c306	-0.11755948
223	0xbc5dec7f	-0.013545155
224	0x3e0756ff	0.1321678
225	0xbd6420d0	-0.055695355
226	0xbd832ee6	-0.064054295
227	0x39011798	0.00012311188
228	0x3c0eb282	0.008709552
229	0xbd7405e8	-0.059575945
230	0xbd0bc502	-0.03412343
231	0x3c6dbccb	0.014510344
232	0x3d3ea03a	0.046539523
233	0xbd2c7357	-0.042102184
234	0xbdd69d8f	-0.10479271
235	0x3e111bbd	0.14170738
236	0xbcafc17c	-0.021454565
237	0xbca73f0a	-0.020415802
238	0x3ca96df5	0.020682314
239	0x3d54e3fb	0.05197523
240	0xbd59ad2a	-0.053143658
241	0xbdaa165c	-0.08305046
242	0xbe093cb0	-0.13402057
243	0xbdf50fd0	-0.119659066
244	0x3d8d6fa7	0.069060616
245	0x3d77d3a0	0.060504556
246	0xbd89bef0	-0.067258716
247	0x3d9eb8b7	0.07750075
248	0x3dcc1023	0.09964015
249	0xbcd740d0	-0.026276022
250	0xbd663786	-0.056205295
251	0xbcc97f07	-0.024596704
252	0x3c6a3bfa	0.014296526
253	0x3c23fd5a	0.010009134
254	0x3dfe68ff	0.1242237
255	0xbde3dd69	-0.11126215

lstm.weight_hh_l1 f4 [200, 50]
0	0xbdbe1770	-0.09281814
1	0x3cb2eb80	0.02184081
2	0xbd82364b	-0.06358012
3	0xbc172954	-0.009226162
4	0xbd83a1b7	-0.06427329
5	0x3dc5bb3b	0.09654852
6	0x3e0f8b77	0.14018045
7	0x3d4dc879	0.050240014
8	0x3d0b2cf4	0.033978418
9	0xbd770f4d	-0.060317326
10	0x3daa028a	0.083012655
11	0xbdc47d70	-0.09594238
12	0x3dd38071	0.10327233
13	0xbad2aa50	-0.0016072486
14	0xbd9104a9	-0.07080967
15	0x3dca5eba	0.09881349
16	0xbdcf2021	-0.1011355
17	0xbd390f4e	-0.04518061
18	0x3d628ed6	0.055312
19	0x3d5900be	0.052979223
20	0x3da6604d	0.08123837
21	0xbdb6fef0	-0.08935344
22	0x3db160ba	0.08661027
23	0xbd5d4911	-0.05402476
24	0xbda76ddc	-0.08175251
25	0x3b1fdc62	0.0024392833
26	0xbdd4a177	-0.103823595
27	0x3df260b4	0.11834851
28	0x3da87940	0.082262516
29	0xbd7b38d8	-0.061333507
30	0x3ca483f4	0.020082451
31	0x3c6fb081	0.014629484
32	0x3d8cc652	0.06873764
33	0x3deb77c3	0.11497452
34	0x3d83f70a	0.06443603
35	0x3d99d6b2	0.07511653
36	0xbd4cf0ac	-0.05003421
37	0x3c9891fe	0.018624302
38	0xbd217089	-0.039413963
39	0xbdefc059	-0.11706609
40	0x3da2cbbe	0.07949017
41	0xbdd2ef45	-0.10299543
42	0xbd20486f	-0.039131578
43	0xbe06d7bf	-0.13168238
44	0xbd38e0ab	-0.045136135
45	0xbcbac879	-0.022800671
46	0xbd298596	-0.041387163
47	0x3deee41f	0.116646044
48	0xbc8c22c7	-0.017106427
49	0x3d710d0e	0.05885034
50	0xbdcd4ae8	-0.10024053
51	0x3dbde199	0.09271545
52	0xbc821278	-0.015877947
53	0xbdca1926	-0.09868078
54	0x3df59097	0.11990469
55	0x3d17950e	0.037007384
56	0x3dd8905e	0.10574411
57	0xbd086131	-0.033295814
58	0x3e0a5dc7	0.13512336
59	0x3ceb9634	0.028758146
60	0x3b658891	0.0035024027
61	0xbdc63edc	-0.09679958
62	0xbdd1a8fd	-0.1023731
63	0xbdd75465	-0.10514144
64	0xbdddcc07	-0.10829931
65	0x3d7967c5	0.060889978
66	0x3de05c52	0.10955109
67	0x3c9874ea	0.018610436
68	0x3dc72862	0.09724499
69	0xbde81aac	-0.11333212
70	0xba0cbb7d	-0.0005368514
71	0xbcc65fbd	-0.024215573
72	0xbde3c39c	-0.11121294
73	0x3dd1d091	0.10244859
74	0xbd436339	-0.047702048
75	0x3d8280a8	0.063721955
76	0xbd08a03f	-0.033355948
77	0xbd6cce45	-0.0578139
78	0x3da4ed46	0.08053069
79	0x3db86ec0	0.09005499
80	0x3df7e007	0.12103277
81	0x3d16f662	0.036856063
82	0x3c7c17bc	0.015386518
83	0xbda708df	-0.08155989
84	0x3de35eb2	0.11102046
85	0x3dcd857e	0.10035227
86	0xbd2547d0	-0.04035169
87	0x3da88a90	0.08229554
88	0xbdc325ed	-0.09528718
89	0xbda254e5	-0.079263486
90	0xbd6817af	-0.05666321
91	0x3de98116	0.11401574
92	0xbdb9c0f9	-0.0907001
93	0xbb90cdbc	-0.0044190567
94	0xbd1674d1	-0.0367325
95	0xbddef3d9	-0.10886354
96	0x3e024e25	0.12725122
97	0xbdf5c827	-0.12001067
98	0x3df85b68	0.12126809
99	0xbdc395fa	-0.0955009
100	0x3dc58e0a	0.096462324
101	0xbd573648	-0.052542
102	0x3c10c1b3	0.008835244
103	0xbdc6830a	-0.096929625
104	0xbdeff4d3	-0.117166184
105	0xbd991c8f	-0.0747615
106	0xbdb97398	-0.09055251
107	0x3df04071	0.11731041
108	0x3dde8715	0.108656086
109	0x3e076f02	0.1322594
110	0xbdbd1824	-0.0923312
111	0xbc3aaf4d	-0.011394334
112	0x3d83bf7d	0.06433008
113	0xbda2c939	-0.079485364
114	0x3dbf49e2	0.09340264
115	0x3e07ce17	0.13262211
116	0xbd08dfa8	-0.03341642
117	0xbbfe580a	-0.00776196
118	0xbde2fb2d	-0.11083064
119	0xbd82e8f4	-0.063920885
120	0xbc80a184	-0.015702017
121	0x3dcaccdf	0.09902357
122	0x3dd8f3ae	0.10593353
123	0xbba3a2c6	-0.0049937693
124	0x3deda1fc	0.11603162
125	0xbc7a693b	-0.015283878
126	0x3dd8f44e	0.105934724
127	0x3d8f13b2	0.069861785
128	0x3d62bcf7	0.055355992
129	0xbe06b23e	-0.13153931
130	0xbcb0d575	-0.02158616
131	0xbde8f93f	-0.11375665
132	0xbde185ad	-0.11011825
133	0xbbd00561	-0.0063482975
134	0xbcd5c649	-0.026095526
135	0xbd029a89	-0.031885657
136	0x3c909a74	0.017651774
137	0x3c7076c6	0.014676755
138	0x3d0ca1c1	0.034333948
139	0xbd87ebc4	-0.066367656
140	0x3c1997c6	0.0093745645
141	0xbdd7dc9d	-0.105401255
142	0x3cff4219	0.031159448
143	0xbdc49b24	-0.09599903
144	0xbda3c57c	-0.079966515
145	0x3df11fb6	0.117736265
146	0x3c14431b	0.009049202
147	0xbdced49e	-0.10099147
148	0x3d335b2c	0.04378812
149	0xbd441666	-0.047872923
150	0xbdc950a8	-0.09829837
151	0x3e0829f9	0.13297261
152	0x3bd86f44	0.006605061
153	0xbd8db550	-0.06919348
154	0x3dd45fd4	0.1036984
155	0xbdf8731c	-0.1213133
156	0x3d2b17ed	0.041770864
157	0xbdaa22a6	-0.0830739
158	0x3ded9dfb	0.11602398
159	0x3dd507dd	0.104018904
160	0x3d823fa7	0.06359797
161	0xbd0a1371	-0.033709947
162	0x3d75259b	0.059850316
163	0x3cf10b24	0.029424258
164	0xbd5b4636	-0.053533755
165	0xbce22869	-0.02760716
166	0x3ddd7557	0.108133964
167	0x3de1810d	0.110109426
168	0x3c2b6601	0.010461331
169	0xbd55aad8	-0.052164882
170	0x3dd98090	0.106202245
171	0x3dd1e20c	0.10248193
172	0x3cd24b06	0.02567054
173	0xbca6fc8d	-0.020384097
174	0xbdd08ecd	-0.10183487
175	0x3db57ac4	0.08861306
176	0xbce93053	-0.028465426
177	0x3d5f36e1	0.054495696
178	0xbe0c041f	-0.13673447
179	0x3b3fbde6	0.0029257475
180	0xbe04aca8	-0.12956488
181	0x3dee4f7e	0.11636256
182	0x3e025f89	0.12731756
183	0xbb4ef954	-0.0031581717
184	0x3d2a22c5	0.041537065
185	0x3de9272c	0.113844246
186	0x3c5ce209	0.013481625
187	0x3c21f28c	0.009884488
188	0xbd978c8d	-0.07399855
189	0xbdc5fb37	-0.09667056
190	0x3dacdd5d	0.08440659
191	0xbca054e9	-0.019571738
192	0xbddc856d	-0.107676364
193	0xbd92113c	-0.071321934
194	0xbc949234	-0.018136121
195	0xbda04f30	-0.07827604
196	0x3d8de391	0.069281705
197	0xbe0501d9	-0.12988986
198	0x3e0b5c17	0.13609348
199	0x3c0eae14	0.008708496
200	0xbc86a3fe	-0.01643562
201	0xbb181eca	-0.002321171
202	0xbdfae9d8	-0.122516334
203	0x3d2ad053	0.04170258
204	0xbd77163e	-0.060323946
205	0x3dad87a0	0.08473134
206	0xbd220c10	-0.039562285
207	0xbd7f644c	-0.06235151
208	0x3dec8f86	0.115508124
209	0xbd761341	-0.060076956
210	0x3df7744e	0.1208273
211	0xbdb37b07	-0.087637
212	0x3d38890f	0.045052584
213	0xbb9048d9	-0.0044032154
214	0x3d21ffd2	0.03955061
215	0xbd4d190e	-0.050072722
216	0x3db97952	0.09056343
217	0x3d896d64	0.06710318
218	0xbda0ef1d	-0.07858107
219	0xbd9e733f	-0.07736825
220	0xbd88c942	-0.06679012
221	0x3d73aa2a	0.059488453
222	0x3d7f0283	0.062258255
223	0x3b86c84d	0.004113233
224	0x3e092112	0.13391522
225	0x3dad8f1e	0.08474563
226	0xbd9f7e00	-0.077877045
227	0x3d8856e1	0.06657196
228	0x3df8921d	0.12137244
229	0x3b8cfbf3	0.0043024956
230	0x3daac0ed	0.08337579
231	0x3e057ed4	0.13036662
232	0x3c9f5561	0.019449892
233	0x3cc077bb	0.023494592
234	0x3c309e1e	0.010779886
235	0x3d4129bd	0.047158945
236	0xbdced05e	-0.10098337
237	0x3d31a0f7	0.0433664
238	0x3dcf0222	0.10107829
239	0x3b0e97dc	0.0021757996
240	0x3d2ba063	0.041901004
241	0xbdf40bc3	-0.11916306
242	0xbd9d1e5f	-0.076718085
243	0xbde3220f	-0.110904805
244	0x3d34dd1b	0.044156175
245	0xbd34b55e	-0.044118278
246	0x3de2f503	0.110818885
247	0x3c959c1c	0.018262915
248	0xbddfab18	-0.109213054
249	0xbd69bdef	-0.0570659
250	0x3d1dfd22	0.038571484
251	0x3b98d77c	0.0046643596
252	0x3cb751c2	0.022377852
253	0x3e09eb0b	0.13468568
254	0xbc9425a8	-0.018084362
255	0xbcd0ecfb	-0.025503626

lstm.bias_ih_l1 f4 [200]
0	0xbdaaac0c	-0.083335966
1	0xbdb52b7c	-0.088461846
2	0x3d594f86	0.053054355
3	0xbe0cc8e8	-0.13748515
4	0x3da3b237	0.07992976
5	0xbdd122bb	-0.102117024
6	0xbc34bcb2	-0.011031317
7	0xbd1525d9	-0.036413047
8	0x3de87528	0.11350471
9	0xbc617928	-0.013761796
10	0x3e0b9701	0.13631822
11	0xbe03c8a7	-0.12869512
12	0x3d71df6a	0.059050955
13	0x3bd0086e	0.006348661
14	0xbda7b660	-0.08189082
15	0x3e09637a	0.13416854
16	0x3c294c8b	0.010333191
17	0xbdd09ab8	-0.1018576
18	0xbe032900	-0.12808609
19	0x3b4f3e28	0.0031622741
20	0x3d8e00db	0.06933757
21	0x3dce21ff	0.10065078
22	0x3da92aae	0.08260094
23	0x3d8e6ee6	0.06954746
24	0x3c2273c3	0.009915295
25	0x3a8867b6	0.0010406885
26	0xbd8a293c	-0.06746146
27	0x3ddf538d	0.10904608
28	0xbdf0d2ff	-0.11758994
29	0xbd51b8a6	-0.051201485
30	0x3dd8f456	0.105934784
31	0x3d638b99	0.055553053
32	0x3d6aa638	0.057287425
33	0x3d0e2125	0.034699578
34	0xbcc5b967	-0.024136258
35	0x3dbf8153	0.093508385
36	0xbcc20db4	-0.023688175
37	0xbd3d10ea	-0.04615871
38	0xbe15036d	-0.14552088
39	0x3df17c7f	0.11791324
40	0xbe09776f	-0.13424467
41	0xbd772773	-0.060340356
42	0x3de3044a	0.110848024
43	0x3c67a584	0.014138583
44	0xbd11021a	-0.035402395
45	0x3bb0d032	0.0053959126
46	0xbd955119	-0.07290859
47	0x3d9ca5e9	0.07648832
48	0x3cf10e52	0.029425774
49	0x3dba3af9	0.090932794
50	0xbd7814db	-0.060566764
51	0x3da21654	0.07914415
52	0xbdf4d23f	-0.11954164
53	0x3b4248ed	0.0029645518
54	0x3b0f017a	0.0021820948
55	0xbad1e986	-0.001601503
56	0x3dceddcf	0.101009004
57	0x3d3100f9	0.04321382
58	0x3e093732	0.13399962
59	0xbaf6b6f5	-0.0018822836
60	0xbd3278e5	-0.043572325
61	0x3de97636	0.113995
62	0xbdbc9048	-0.09207207
63	0x3dc15d1e	0.09441589
64	0xbce2532c	-0.02762755
65	0x3c85d50e	0.016336944
66	0x3dc5de44	0.096615344
67	0xbd82846b	-0.06372913
68	0x3d8832bd	0.066503026
69	0x3c972d30	0.018454164
70	0xbd641765	-0.055686373
71	0xbc28b436	-0.010296872
72	0x3dceadc6	0.100917384
73	0xbdb50479	-0.08838744
74	0x3db6c91a	0.08925076
75	0xbc822fd4	-0.015891947
76	0xbd54b695	-0.051931936
77	0x3d4427c6	0.047889493
78	0xbde44c22	-0.11147334
79	0x3df9f0ac	0.12204108
80	0x3d5a1b34	0.0532486
81	0x3c55dd9a	0.013053322
82	0xbde3f43f	-0.111305706
83	0x3dc59f54	0.0964953
84	0x3ddb215c	0.10699722
85	0xbd171f49	-0.03689507
86	0xbdba7521	-0.09104372
87	0x3bf45892	0.0074568475
88	0x3dd1e9bd	0.1024966
89	0x3dfb4691	0.12269319
90	0x3de1bd89	0.11022479
91	0x3e005619	0.12532844
92	0xbdbf1b5c	-0.0933139
93	0xbd6b6617	-0.057470407
94	0x3e0953de	0.13410899
95	0xbd8fcc8a	-0.070214346
96	0x3ce858ba	0.02836262
97	0xbd7e5742	-0.062094934
98	0x3cd66164	0.026169486
99	0x3da592d5	0.080846466
100	0xbd8c9625	-0.06864575
101	0xbd539794	-0.051658228
102	0x3d9feed8	0.07809228
103	0x3cb6b3be	0.022302505
104	0xbe0d5b3a	-0.13804331
105	0xbd427653	-0.047476124
106	0xbd4d7554	-0.05016072
107	0x3e01c736	0.12673649
108	0xbcf852c2	-0.0303129
109	0xbda6bf5f	-0.0814197
110	0x3d15b1a1	0.036546353
111	0x3dddf6a1	0.10838056
112	0xbdc512d5	-0.096227325
113	0xbd92c6f6	-0.07166855
114	0x3d24bb2d	0.040217567
115	0xbda44cf1	-0.08022488
116	0xbac21ec2	-0.0014810192
117	0x3c92cb78	0.017919287
118	0x3dd58bf9	0.10427088
119	0xbd39342a	-0.045215763
120	0xbd5cb946	-0.053887628
121	0x3dac0eae	0.084012374
122	0x3e0185e0	0.12648726
123	0x3d16062f	0.03662699
124	0xbd964eb5	-0.07339231
125	0xbcf7921c	-0.030221038
126	0x3d1bc6af	0.038031276
127	0x3ce0ac75	0.027425984
128	0xbd189358	-0.037249893
129	0xbce6afea	-0.028160054
130	0x3dbc0c6d	0.091820575
131	0xbdf607e6	-0.12013225
132	0x3d916780	0.07099819
133	0xbdb045b5	-0.086070456
134	0x3d618a30	0.055063426
135	0xbdc9a61b	-0.09846135
136	0x3d05af2c	0.03263776
137	0xbd511c13	-0.051052164
138	0xbc8c6bba	-0.017141212
139	0xbe120083	-0.14258008
140	0xbd34096b	-0.043954294
141	0xbdb72250	-0.089420915
142	0x3ddfe9a7	0.109332375
143	0xbbcc26de	-0.0062302193
144	0xbdff055e	-0.124521956
145	0xbde89bca	-0.113578394
146	0xbd818fe3	-0.06326272
147	0x3dcf9e07	0.10137563
148	0x3d8e07c7	0.06935077
149	0x3d538390	0.05163914
150	0x3d9e69c1	0.07735015
151	0x3e09cae7	0.13456307
152	0x3df8f14e	0.121554
153	0x3dccb250	0.09994948
154	0xbddd2d7e	-0.107996926
155	0x3d77293b	0.060342055
156	0x3d0c25a7	0.034215596
157	0x3d6ad6de	0.05733382
158	0x3df45c0d	0.1193162
159	0xbd02bb19	-0.03191671
160	0x3b38085f	0.0028081161
161	0xbd2a7907	-0.041619327
162	0x3d2c16ef	0.04201406
163	0xbded70e3	-0.11593797
164	0x3925581c	0.0001576845
165	0x3d602d35	0.054730613
166	0x3db1d074	0.086823374
167	0x3d1c7e2a	0.038206257
168	0x3c15c17c	0.009140369
169	0xbc14b265	-0.009075736
170	0xbd18fd07	-0.03735068
171	0xbdf6a357	-0.12042873
172	0x3d6e6259	0.05819926
173	0x3d6bcf7e	0.057570927
174	0xbdde7532	-0.10862197
175	0x3cb2e0a8	0.02183564
176	0xbde834d4	-0.11338201
177	0xbcc14bfb	-0.0235958
178	0xbdae220a	-0.08502586
179	0xbd12e610	-0.035863936
180	0x3ded4cc8	0.115869105
181	0x3c50ded9	0.0127484435
182	0x3b5f47aa	0.0034069815
183	0x3daf0c88	0.08547312
184	0x3da932a4	0.08261612
185	0xbd9f1f86	-0.077696845
186	0x3c309037	0.010776571
187	0xbdc0bdee	-0.09411226
188	0xbde215bd	-0.110393025
189	0x3de45625	0.11149243
190	0xbdd330aa	-0.10312016
191	0xbd7c855f	-0.06165063
192	0x3d0833d2	0.033252545
193	0xbcc7be48	-0.024382725
194	0xbddd6bae	-0.10811554
195	0x3de6b601	0.11265183
196	0xbe10e231	-0.14148785
197	0x3c98a11a	0.018631507
198	0x3e03c35d	0.12867494
199	0xbd5f8b7a	-0.054576375

lstm.bias_hh_l1 f4 [200]
0	0xbb7cb92c	-0.003856252
1	0x3de4cc14	0.11171737
2	0xbccd1820	-0.025035918
3	0xbddeb8b8	-0.10875076
4	0x3da7bcdd	0.0819032
5	0x3d163b07	0.036677387
6	0xbc9fc731	-0.019504162
7	0xbd06ade1	-0.032880668
8	0x3c764c32	0.015032815
9	0x3d3cc1e0	0.04608333
10	0x3d857de6	0.06518154
11	0x3d94e78b	0.07270726
12	0xbdae5b8e	-0.085135564
13	0x3de14461	0.1099937
14	0x3c88ff3e	0.016723271
15	0x3d13a81b	0.03604899
16	0x3d842e85	0.064541854
17	0xbd24bf9d	-0.0402218
18	0x3d98cc0a	0.07460792
19	0x3d4a1746	0.0493386
20	0x3dd55ad1	0.104177125
21	0xbdf5bfe5	-0.119994916
22	0x3dc6255c	0.096750945
23	0x3d5e660c	0.05429654
24	0x3d4e6d79	0.05039737
25	0x3dea1a63	0.11430814
26	0xbd657af6	-0.056025468
27	0xbdefb8bd	-0.11705158
28	0x3e086126	0.13318309
29	0x3d3d4c7c	0.04621552
30	0xbda04a74	-0.07826701
31	0x3e0668a9	0.13125862
32	0x3df3be2f	0.11901509
33	0x3dbfd92d	0.09367595
34	0x3da1a910	0.07893574
35	0x3dd5137d	0.10404108
36	0xbe1148c3	-0.14187913
37	0xbd7d1818	-0.061790556
38	0xbe12d267	-0.14338075
39	0x3e09652f	0.13417505
40	0x3d34cfae	0.04414337
41	0xbd2d84fd	-0.042363156
42	0xbc85872a	-0.016299803
43	0xbe0269fd	-0.12735744
44	0x3def2933	0.1167778
45	0xbde5e3a9	-0.11225063
46	0xbcf7e2e5	-0.030259559
47	0xbc41af4e	-0.011821581
48	0x3e1848b5	0.14871486
49	0xbdf2fbf5	-0.11864463
50	0x3dc496a3	0.09599044
51	0xbddb2484	-0.10700324
52	0xbdcd4fad	-0.100249626
53	0xbe04327f	-0.12909888
54	0x3de55622	0.11198069
55	0x3d4447c8	0.04792002
56	0xbd9c7409	-0.076393194
57	0x3d2ed4b9	0.042683337
58	0x3d77d5ac	0.060506508
59	0xbd96f6ae	-0.07371269
60	0xbbcd7682	-0.0062702307
61	0x3dd59e60	0.10430598
62	0x3d9db0ac	0.07699713
63	0xbd88dd1e	-0.066828
64	0xbde20cc3	-0.1103759
65	0x3dfd4c83	0.12368109
66	0xbc9dbf6f	-0.019256322
67	0xbc0a43fe	-0.008439062
68	0x3d261308	0.040545493
69	0xbde980bc	-0.11401507
70	0x3d545c09	0.051845584
71	0x3d74db17	0.059779253
72	0x3c178ec6	0.009250348
73	0xbc0a2fce	-0.008434249
74	0xbb6770f2	-0.0035315123
75	0xbde98ca0	-0.11403775
76	0xbc4b9cc2	-0.012427511
77	0xbb4e9f2c	-0.003152798
78	0xbde90728	-0.11378318
79	0x3dffa9c4	0.12483552
80	0x3da6674d	0.08125172
81	0xbdf221ee	-0.11822878
82	0xbc3efd34	-0.011657048
83	0xbdff5002	-0.12466432
84	0x3d61e543	0.05515028
85	0xbd81e39d	-0.06342242
86	0x3cfb5460	0.030679882
87	0xbdbf6c33	-0.09346809
88	0x3d067e86	0.032835506
89	0x3da65ef3	0.08123579
90	0x3e05d0f2	0.13067988
91	0xbdfc8d06	-0.123315856
92	0x3d877932	0.06614913
93	0x3e031a2c	0.12802953
94	0x3c32234e	0.010872675
95	0x3bf2a757	0.0074052024
96	0x3d6b0799	0.057380293
97	0x3db548ed	0.088518
98	0x3bd07453	0.006361523
99	0x3e04638e	0.12928602
100	0x3dc4fe00	0.09618759
101	0xbc322c41	-0.010874809
102	0xbdc1ae55	-0.09457079
103	0x3d773713	0.060355257
104	0x3d3c8bd5	0.04603179
105	0xbd72939e	-0.05922281
106	0xbd985d0b	-0.074396215
107	0xbdd37d58	-0.10326642
108	0xbe11b216	-0.1422809
109	0xbd65c063	-0.056091677
110	0x3dcab804	0.098983794
111	0xbc9fe36c	-0.019517623
112	0xbe088a65	-0.13334043
113	0xbc9eadf9	-0.019370066
114	0xbd298103	-0.0413828
115	0xbe1012d2	-0.1406968
116	0xbdc6f93f	-0.09715509
117	0xbd588c21	-0.052868012
118	0x3d916713	0.07099738
119	0xbe032bfd	-0.12809749
120	0x3cfe8c49	0.031072753
121	0xbced96b2	-0.029002521
122	0x3d784607	0.06061366
123	0x3e1a0948	0.15042603
124	0x3cc98c24	0.024602957
125	0xbd293f02	-0.041319855
126	0xbdade625	-0.08491162
127	0x3cda0555	0.02661387
128	0x3dd20564	0.102549344
129	0x3df246e4	0.118299276
130	0xbd077cc7	-0.03307798
131	0x3da51ecd	0.080625154
132	0x3dfa113d	0.12210319
133	0x3e062771	0.13100983
134	0x3c9413a7	0.018075777
135	0xbc69015b	-0.014221515
136	0x3dabe5d2	0.08393444
137	0x3dd13763	0.10215642
138	0xbdf32286	-0.11871819
139	0xbe098cac	-0.13432568
140	0x3d855762	0.065108076
141	0xbdefe9fc	-0.11714551
142	0xbcf28ae1	-0.029607238
143	0x3d0707f8	0.032966584
144	0x3d451767	0.04811802
145	0xbe1312af	-0.14362596
146	0xbdeb5e82	-0.11492635
147	0x3da53205	0.08066181
148	0xbdadd312	-0.08487524
149	0x3d781288	0.060564548
150	0xbcf3a8cb	-0.029743573
151	0xbc920f76	-0.017829638
152	0x3ca83aee	0.020535912
153	0xbde83f78	-0.11340231
154	0x3e0de761	0.13857795
155	0x3ca01be9	0.019544559
156	0xbc895aec	-0.016766988
157	0xbc641a97	-0.013922355
158	0xbdb9c50a	-0.09070785
159	0x3d96c49e	0.073617205
160	0x3b9776f0	0.0046223328
161	0x3ddbb40d	0.10727701
162	0x3d6bbe0b	0.057554286
163	0x3ddcbde1	0.10778404
164	0x3df58bee	0.1198958
165	0x3d87fbfb	0.06639858
166	0x3dcada6e	0.099049434
167	0x3d3918f6	0.04518982
168	0xbc984ea1	-0.01859218
169	0xbd7407c6	-0.059577726
170	0xbe1511b2	-0.14557531
171	0xbdc8d902	-0.09807016
172	0x3dc66675	0.09687511
173	0x3e12af01	0.14324571
174	0xbdc55685	-0.09635643
175	0x3d16b3a7	0.036792424
176	0xbd521b1f	-0.051295396
177	0xbcc3a823	-0.023883885
178	0x3c5a63a2	0.013329418
179	0x3c9c7cd6	0.019102495
180	0x3e158997	0.14603268
181	0x3d9cfa3e	0.076649174
182	0xbdae4170	-0.08508575
183	0x3a137ac2	0.00056258973
184	0x3c94e56c	0.018175803
185	0xbdca5b52	-0.09880699
186	0xbdb911c4	-0.09036592
187	0xbd8fa163	-0.07013204
188	0xbe0685aa	-0.13136926
189	0x3dc1eb03	0.09468653
190	0xbdbe032a	-0.09277947
191	0x3d8e7326	0.069555566
192	0xbe106934	-0.14102632
193	0x3df7a785	0.12092499
194	0xbda336fa	-0.0796947
195	0x3db6619b	0.089053355
196	0x3daaefde	0.08346532
197	0xbd8716b8	-0.0659613
198	0x3d64c97c	0.055856213
199	0x3cf9bc2c	0.030485235

fc.weight f4 [1, 50]
0	0xbd10e25a	-0.035372116
1	0x3d34c025	0.044128556
2	0x3d538bb4	0.051646903
3	0x3dcaa2cd	0.09894333
4	0xbcf2f3ac	-0.029657207
5	0x3dfcfe56	0.12353198
6	0x3b434a3c	0.0029798886
7	0xbdfa2220	-0.1221354
8	0xbd9071a8	-0.07052928
9	0x3d2ac062	0.041687377
10	0x3c752873	0.014963257
11	0x3dccc859	0.09999151
12	0xbe064ac9	-0.13114466
13	0xbd215172	-0.039384313
14	0xbdd060be	-0.10174702
15	0xbdcd91f3	-0.10037603
16	0xbd186f51	-0.037215535
17	0xbd944211	-0.07239164
18	0xbdd605d2	-0.10450329
19	0xbdd639e0	-0.104602575
20	0x3d6805d7	0.056646194
21	0x3c083ec7	0.008315749
22	0x3d292774	0.04129739
23	0x3e0230a2	0.12713864
24	0xbd9bdb2f	-0.07610165
25	0x3d882b04	0.066488296
26	0x3dba358a	0.09092243
27	0x3dd5339f	0.104102366
28	0xbc9c08f5	-0.01904724
29	0x3deee8e6	0.116655156
30	0x3d6062af	0.054781612
31	0xbc8c6306	-0.017137062
32	0xbd027853	-0.03185303
33	0xbdcd54ec	-0.10025963
34	0xbd0e594f	-0.03475314
35	0xbe151b84	-0.14561278
36	0xbda4a7cc	-0.08039817
37	0x3dc75407	0.09732824
38	0x3dc32a50	0.09529555
39	0xbd744ede	-0.059645526
40	0x3d0408c4	0.032234922
41	0x3deae0df	0.11468672
42	0xbdede26b	-0.116154514
43	0x3dd36a73	0.10323038
44	0xbe073d8b	-0.1320707
45	0xbd5f9986	-0.05458977
46	0x3e0144e7	0.1262394
47	0xbd13d142	-0.036088236
48	0xbd9d6b05	-0.07686428
49	0x3de2423d	0.1104779
