data/models/MSFT_20251213_151039.pt (torch, 128942 bytes, 9 tensors)

lstm.weight_ih_l0 f4 [200, 1]
000000 ca 60 70 bd 4e 2e 0a bd c0 84 99 3c a8 ae 1c 3e
       -0.058686055 -0.033735566 0.018740058 0.15301001
000010 2b 7b d4 3d 26 cf 0d bd a5 b7 7e 3d ee a9 97 3d
       0.10375055 -0.03462138 0.062186856 0.074054584
000020 73 31 eb 3c 91 9a fd 3c 33 27 c9 3d d1 a6 a0 3d
       0.028710103 0.030957492 0.0982193 0.07844318
000030 b7 08 6a bd 72 b1 f3 3d 13 ec 2d 3d 76 2a 30 3d
       -0.057137217 0.118990794 0.042461466 0.043009244
000040 0a f0 dc bd 19 55 03 3e 11 27 0d bb be d0 91 bc
       -0.10787971 0.12825431 -0.0021538178 -0.017799731
000050 31 b7 1a 3e 86 53 dc 3d de f4 a8 3d df 17 07 3c
       0.15108944 0.10758118 0.0824983 0.008245437
000060 2c 7a 2e bd 90 fd 75 bd 9a e4 c1 3d d0 43 26 bd
       -0.04259698 -0.06005627 0.094674304 -0.040592015
000070 6b 5e d3 bd ca cc 55 bb 61 1e 11 3b f5 6f 67 3b
       -0.10320743 -0.0032623284 0.0022143351 0.0035314534
000080 45 04 24 3d 12 7b f1 3c 88 ed 11 bd 6a b7 f1 3c
       0.040043134 0.02947763 -0.035626918 0.029506404
000090 9a 48 ac 3d 9b f6 6c 3d 95 5b 08 3e b2 c5 aa 3d
       0.08412285 0.05785237 0.13316186 0.08338489
0000a0 01 57 98 3c 14 54 6a bd 34 56 96 3d 6a 59 21 3d
       0.018596174 -0.05720909 0.07340661 0.039391913
0000b0 2a 5a 9e 3d 3d 1e d0 3d b1 93 64 bb 86 4e 7a bd
       0.07732041 0.101620175 -0.003487807 -0.061110042
0000c0 d2 05 e8 bc 58 97 4a bc 65 ee 8f bd 38 93 9b bd
       -0.028323088 -0.012365185 -0.07027892 -0.07596439
0000d0 5d bd 04 3e ef 70 b2 3d b0 bb 9b 3d 3e eb 4e 3d
       0.12962861 0.087129466 0.07604158 0.050517313
0000e0 30 1a 1f 3c ce fc 3e bd 9a 1b 04 3e b6 e5 ac 3d
       0.009710833 -0.046627812 0.12901154 0.084422514
0000f0 4e e6 30 3d 83 77 a5 3d c4 f0 dd 3c 53 67 ca bc
       0.043188386 0.08079436 0.027092345 -0.024707472
000100 d1 7a d6 3d a6 0d 1e 3b c2 de 83 bc 36 57 c6 3d
       0.10472644 0.0024117022 -0.01609743 0.09684603
000110 b8 af 4c bd a5 0a c3 bd eb a9 fa 3c 1a 15 95 bd
       -0.049972266 -0.09523515 0.030598601 -0.072794154
000120 4f 14 68 3d c9 e2 ff 3d 2b 88 aa ba 49 7b 0c 3e
       0.056659993 0.12494428 -0.0013010552 0.13718905
000130 56 1c 8c 3c 19 fe 93 bd e2 a7 14 bd 24 f5 99 bd
       0.017103355 -0.072262 -0.036292918 -0.0751746
000140 95 f5 06 be e5 5d ea bd 56 94 72 b9 44 c3 41 3d
       -0.1317962 -0.1144369 -0.00023134178 0.04730536
000150 45 1d 0e 3e 35 be 53 3d b7 42 bb bd 5b 2d a3 bd
       0.13878353 0.051695067 -0.09143584 -0.07967635
000160 0e 7c f8 3d 92 88 1e 3d 9b 42 0b 3c 97 fa d2 3d
       0.121330366 0.038704462 0.008499767 0.103017025
000170 c7 df cf bd 17 09 03 be 6d af bd bc cb 98 9b bd
       -0.10150104 -0.12796436 -0.023154939 -0.07597502
000180 a6 5e 4f 3c 06 7e c9 3d e9 fb 85 bd cc de eb 3d
       0.012656843 0.0983849 -0.06542189 0.115171045
000190 44 6c a7 bb a7 3f 93 bd 87 f5 ac bd 19 b0 17 be
       -0.005109342 -0.07189875 -0.08445268 -0.1481327
0001a0 ba e4 e8 bd 83 55 28 bd 69 b9 db 3d 00 89 ca 3d
       -0.11371751 -0.041097175 0.107287236 0.09889412
0001b0 fc a2 0e 3e b5 5f e7 3c 8c 4e a3 bd 2d 4e 7e 3d
       0.13929361 0.028243879 -0.07973966 0.062086273
0001c0 69 c6 f0 bd 33 c3 1b 3d 7d 8b 4d 3d 1a 95 46 bd
       -0.11756594 0.038027953 0.050181855 -0.048482038
0001d0 b0 9a 9e 3d d0 82 b9 bc d3 8e fa bd 31 09 e2 3b
       0.07744348 -0.022645384 -0.12234273 0.0068980684
0001e0 b6 c0 8a 3b 17 d4 04 be 6a 02 e3 3d 5c 72 e5 3c
       0.0042343987 -0.12971531 0.11084445 0.028008632
0001f0 3c be b6 bd 54 3c 1a 3e fe 3d aa bd 4a 16 ca bc
       -0.08923003 0.15062076 -0.08312605 -0.024668831
000200 7f 35 02 3e 3d e3 04 be 01 bb 26 3d d6 fb 69 bc
       0.1271572 -0.1297731 0.040705685 -0.014281234
000210 30 78 ad 3d 06 df 15 3d 0c 9b dc bd 74 33 c9 3c
       0.084701896 0.036589645 -0.1077176 0.024560668
000220 fc 9c 25 be ff ce d5 bc 1b 30 e4 bd f9 c8 38 3d
       -0.16173166 -0.02609968 -0.11141988 0.045113537
000230 4a 5e ec bc 2c ef 87 3d a6 dc 57 3d 1a a6 eb 3b
       -0.028853554 0.06637415 0.05270066 0.0071914317
000240 3e c9 bd bd 47 1e eb bd 0f df 0e 3e 35 86 4d 3d
       -0.092668995 -0.11480384 0.13952278 0.050176818
000250 b2 70 ea bd 56 3b b9 bd 7a d4 f2 3d 9d a5 ac 3d
       -0.11447276 -0.090445206 0.11856933 0.08430026
000260 1e b6 fd 3d a2 86 ea bd 61 7b 6d 3d 45 89 fe 3d
       0.12388252 -0.114514604 0.05797899 0.12428526
000270 20 d5 06 bb dc 8b c5 3d 0e 67 c4 bc 72 f8 73 3d
       -0.002057381 0.09645817 -0.023974922 0.059563108
000280 be f8 ea 3d 74 d5 96 bc ce ad e9 3d 04 03 ab bd
       0.11473225 -0.01841233 0.11410104 -0.083501846
000290 e4 92 b5 3d c3 a6 bf bc 8a fb 9b 3d 66 87 80 bd
       0.08865908 -0.023394948 0.07616337 -0.06275825
0002a0 3e 0a c9 3d 15 c0 e9 bd 09 68 ad 3d 90 c3 4e bd
       0.09816407 -0.1141359 0.08467109 -0.05047947
0002b0 cc 65 a5 bd 01 e1 73 3a c3 e4 d1 bd bf af e7 bc
       -0.08076057 0.00093032426 -0.10248711 -0.028282044
0002c0 0e 58 9b 3b 7e ef 72 bc 82 3e c6 3d c8 66 2f bd
       0.0047407215 -0.014827607 0.09679891 -0.04282263
0002d0 ab 8f 21 3d 8b d8 d5 bd e1 25 f3 bd 0f 57 9d 3d
       0.039443653 -0.10441693 -0.11872459 0.07682621
0002e0 ce a0 f4 bc 90 48 9d 3d 30 39 89 bd f1 55 ce 3d
       -0.029861834 0.07679856 -0.06700361 0.10074986
0002f0 00 e7 00 3e 0d a4 8c 3d 33 be 8b 3d fe 04 10 3d
       0.1258812 0.06867228 0.06823387 0.03516101
000300 fe 54 07 3d fa 3b 0e be 9b d3 c0 bd 39 d6 fa 3b
       0.03304004 -0.13890067 -0.094153605 0.007654932
000310 4e 8b 0e 3e 1f 76 c5 3d 8e 4f f8 bc b8 17 8d bd
       0.13920328 0.096416704 -0.030311372 -0.068892896

lstm.weight_hh_l0 f4 [200, 50]
000000 80 81 ab bd 5b f0 d5 3b 80 53 dd b9 64 41 c7 bd
       -0.083743095 0.0065288967 -0.00042214617 -0.09729269
000010 ef 7e dc bd ed fc 12 3e b2 1c 24 3d 04 ad eb bd
       -0.10766398 0.14354296 0.04006643 -0.115076095
000020 12 c9 53 3d af d9 05 3d cf 5f 98 bc e7 7c f7 3d
       0.051705427 0.032678302 -0.018600373 0.1208437
000030 c5 37 1e be 33 f8 f1 bd b0 4a 91 39 cf d7 44 3c
       -0.15450962 -0.11814918 0.00027712202 0.012014343
000040 56 b9 34 3b 6b 01 07 be bb 93 13 bd 64 76 74 3b
       0.002757629 -0.13184135 -0.03602956 0.0037302012
000050 57 d2 bd bd 85 4b 65 bd 0d a3 bc bd 59 fc d8 bd
       -0.09268635 -0.055980224 -0.09210787 -0.105950065
000060 22 48 e6 3c 8b c8 48 bd 08 10 d1 bd 08 fc c5 ba
       0.028110567 -0.049019378 -0.10208136 -0.0015105018
000070 06 f0 c6 bd 64 dc 8a 3d 1f 82 6e bc 32 d3 bf 3c
       -0.097137496 0.067803174 -0.0145573905 0.023416135
000080 12 75 d9 bc 4f d6 64 3d 45 e9 0c be 4d 0c 25 bb
       -0.026545081 0.055868443 -0.1376086 -0.0025184334
000090 1c ab b9 bd 01 67 b9 bc 02 51 25 bd 23 c7 14 3e
       -0.0906584 -0.022632124 -0.04036046 0.1452909
0000a0 1d 72 be bd a1 16 bd bd d3 73 df bd 3d e4 ce 3d
       -0.09299109 -0.09232832 -0.109107636 0.10102127
0000b0 71 7f 20 3d de cb 1a bd 4c 4a 53 bd dc 90 ff bd
       0.039184038 -0.03779208 -0.051584527 -0.124788016
0000c0 eb fa 56 3d 61 c9 2d bc e6 d7 b8 3d 08 67 4a bd
       0.052485388 -0.0106070945 0.09025554 -0.049414665
0000d0 25 0d af bd 51 2b 00 3e b8 aa bc 3c 67 85 e7 3d
       -0.08547429 0.12516524 0.023030624 0.11304741
0000e0 06 1e 02 be ce 1a 05 3d 69 1a 74 bd 62 6c f5 bc
       -0.12706766 0.032496266 -0.0595955 -0.029958908
0000f0 6c 66 e1 3c 62 d2 ca bd 03 81 65 3c 54 9b df bc
       0.027514659 -0.099034086 0.01400781 -0.027295746
000100 14 7c c9 bd 3b 15 37 bd d5 58 4a bd de 84 7e 3d
       -0.09838119 -0.04469798 -0.049401123 0.06213843
000110 98 8f e7 3d da 58 19 bd e5 1a fe bd 40 12 fd bd
       0.11306685 -0.03743825 -0.124074735 -0.123569965
000120 ca 64 0d 3e c2 0b 2a 3d 27 0e 15 3d 59 fe 2f bc
       0.13807979 0.04151512 0.03639045 -0.010741794
000130 bf 4c f5 3d d2 f2 5f bd 27 4c ba bd 61 ff 3e 3d
       0.11977529 -0.05467493 -0.09096556 0.046630267
000140 50 c3 09 3e 09 8b 8d bb 47 b4 81 bd 8e 57 cd 3c
       0.13453412 -0.004319553 -0.06333213 0.025066163
000150 24 9e 66 3d 6f 6d 7b 3d 47 c2 6d ba 80 d6 c2 3d
       0.05630316 0.06138366 -0.0009069782 0.09513569
000160 2e 0c 11 3d 69 ff e0 3d 42 97 e0 3d c7 2b a8 ba
       0.035412006 0.109862156 0.1096635 -0.001283043
000170 60 12 ee bd b5 f3 b9 bd b0 4b ea 3d e1 2a 22 bd
       -0.116245985 -0.090796866 0.114402175 -0.039591674
000180 af 2d 4d bd 34 0d b0 3c 67 4e f7 3c 0b 1a bd bc
       -0.050092395 0.02149067 0.030188752 -0.023083707
000190 31 4f 6e bd 1b f9 00 be 2a fb a1 3d 8c 9f 00 bd
       -0.05818099 -0.12595026 0.07909234 -0.031402156
0001a0 93 0a c7 3c 36 56 9f 3d a6 d5 f6 3d 91 cf 7f 3d
       0.024297034 0.07780115 0.12052469 0.06245381
0001b0 3e bf ff 3d 59 88 04 be 8a 4c fe bd 76 6c fc bb
       0.124876484 -0.12942638 -0.124169424 -0.0077033592
0001c0 cd c5 cf 3d fb 28 d8 bd 4d e4 1a 3c 65 2e ec bc
       0.101451494 -0.105546914 0.009453845 -0.028830716
0001d0 8d 3a bb bd 21 d8 c3 bd b2 8b 2a 3d cd 64 f1 bd
       -0.09142027 -0.09562708 0.04163713 -0.11786804
0001e0 ec fb de 3d 10 81 f8 bb 69 51 09 bd 63 66 08 3e
       0.10887894 -0.007583745 -0.033524904 0.13320307
0001f0 3c b1 ed bc 80 3e f2 bd 67 6b 82 bd f9 fe 77 bd
       -0.029015176 -0.11828327 -0.063681416 -0.060545895
000200 25 c8 8c bc f4 38 00 3e b0 45 70 bd f2 c0 6c 3d
       -0.01718528 0.12521726 -0.05866021 0.057801194
000210 0e 2b 89 bc 97 21 0b be 6f 4c a2 3d 0d 3d f4 bd
       -0.016744163 -0.13587032 0.07924735 -0.11925707
000220 8c 9e 00 be 31 75 ba bd 24 82 9b 3d 35 b2 2b 3c
       -0.12560481 -0.09104384 0.07593182 0.0104795
000230 bb 49 ab bd 21 fc c1 3b 9b 9d e4 3d a8 1a 06 bb
       -0.08363672 0.0059199487 0.11162873 -0.0020462666
000240 0b 28 ef 3d 5f d9 01 bd 72 05 6b bc 69 9c 03 be
       0.116775595 -0.03170144 -0.01434456 -0.12852634
000250 81 53 d5 bc b2 6a e3 3d 5b 38 85 bd ed 10 0d 3d
       -0.026040794 0.11104335 -0.065048896 0.03443997
000260 c0 e7 1d bb 0c df d5 3c b8 db 6d bc 08 00 19 3e
       -0.0024094433 0.026107334 -0.014517717 0.14941418
000270 bd 69 ea bc f0 d7 eb bd d6 7f f7 3c 66 b0 fa 3d
       -0.028614873 -0.11515796 0.030212324 0.122406766
000280 5b 03 1b bd ce f8 21 bd a8 74 34 3d 5e 9a 3e bc
       -0.037844997 -0.03954392 0.044056565 -0.011633484
000290 4a 3d 01 3e 0d f8 0e be 13 c7 90 3d 72 d5 38 bd
       0.12621036 -0.13961811 0.070692204 -0.045125432
0002a0 a4 c4 44 bd 94 c2 7c 3d ee 89 c7 3d 5d 60 fe bc
       -0.048039094 0.061709 0.09743105 -0.031051809
0002b0 47 99 7f bd f4 b8 29 3d 03 b7 bd bc f8 44 d5 3c
       -0.062402036 0.04143615 -0.023158556 0.026033863
0002c0 f0 ae cf bd 61 55 ab bd 02 76 99 3d 3f a4 c6 3c
       -0.101407886 -0.08365894 0.07493211 0.02424824
0002d0 80 95 57 bc 2b 24 bf bd c1 96 ac 3d 1f a9 01 3e
       -0.013158202 -0.0933307 0.084271915 0.12662171
0002e0 c9 ef ba bd 0c 9d b3 3c 41 e8 00 be 7f 3c 4c 3d
       -0.09127767 0.021925472 -0.12588598 0.04986238
0002f0 f2 81 fc bc 92 0e 63 3c fc 4b 03 be 21 ee 08 3e
       -0.030823682 0.013858454 -0.12821954 0.13372089
000300 40 32 01 bd ae 3e f2 3d f7 70 e3 3d 93 30 1e be
       -0.031542063 0.118283615 0.11105531 -0.15448217
000310 83 93 8d 3d 44 e5 09 3e 47 ba 7c bd 76 82 f8 3d
       0.06912901 0.13466364 -0.061701085 0.121342584
000320 a2 dc 1c be b7 36 c7 3c 29 6f 75 bd 96 fd 8e bd
       -0.1531854 0.024318082 -0.059920464 -0.069819614
000330 75 47 6d 3d 31 94 d2 bd 05 16 5e bd 26 e6 d6 3d
       0.057929475 -0.102821715 -0.05422022 0.10493116
000340 c8 fa 8b 3d d3 19 af 3c 70 7f c6 bd 87 e4 c5 bd
       0.06834942 0.021374619 -0.096922755 -0.09662729
000350 be 6e be 3d 7b 89 8b bc 88 80 8a bd 72 d3 21 3b
       0.09298466 -0.01703333 -0.06762797 0.0024692682
000360 a0 87 85 3d ad cf b3 bb 19 67 23 bd 2c d5 ab 3d
       0.06520009 -0.0054874034 -0.039893243 0.08390269
000370 40 02 d6 bd 2b 9e 99 bd 4a 57 b7 3d 0f 9b b4 3d
       -0.10449648 -0.07500871 0.08952196 0.088186376
000380 0f c0 cb bd 3e 63 91 3c 28 ae a1 bd 41 f2 d0 bd
       -0.09948742 0.017747518 -0.07894546 -0.10202456
000390 70 ea 56 3c 8c b9 8a 3d 78 72 92 3c c0 61 13 be
       0.013117418 0.067736715 0.017876849 -0.14392757
0003a0 fd 3f b1 3c 8c f6 40 3d cf 12 0b be 5d ed 4a bd
       0.021636957 0.047110125 -0.13581394 -0.049542774
0003b0 e3 34 11 bd e1 2c 15 3e 84 36 9c bd 99 51 b5 bd
       -0.035450827 0.14567901 -0.076275855 -0.08853454
0003c0 41 8a c5 3d a0 ed 88 3d 20 99 8f 3d 0e 91 0d bc
       0.096455105 0.06685948 0.07011628 -0.008640541
0003d0 37 97 0b be 91 89 3f 3c d1 f7 5b bd e0 a7 45 3d
       -0.13631903 0.011690513 -0.053703133 0.0482558
0003e0 57 49 b9 3d 24 05 ad bd e9 ea 8a 3d a2 24 e4 bd
       0.090471916 -0.08448246 0.06783087 -0.111398
0003f0 71 36 e6 bd 3e ef 88 bd 58 6d 4b 3d 8c c0 b2 39
       -0.112408526 -0.06686257 0.049664825 0.00034094264

lstm.bias_ih_l0 f4 [200]
000000 bf e6 18 3e 33 46 be bd 1f bc b7 bd 6c a6 1a bd
       0.14931773 -0.09290733 -0.08971428 -0.03775637
000010 a6 3d 1f 3e bb 1a b4 3d a3 22 4b bd c5 01 9a 3d
       0.15550861 0.08794161 -0.04959358 0.07519869
000020 b7 78 f4 bc c8 8c d3 bd c0 44 f3 bd 2e af a0 bd
       -0.029842718 -0.10329586 -0.118783474 -0.07845913
000030 45 de 0b 3e 10 d8 c1 bd 91 bc f7 3c 8d 58 96 3d
       0.13659008 -0.09465039 0.030241283 0.073411085
000040 6d a6 43 3d d2 5e 2d 3d 1d 92 ab 3b 85 4e 98 3d
       0.047766138 0.042326756 0.005235924 0.074368514
000050 ca 5e 7b 3d 4d d0 f0 3d e7 fb e9 bd ac 60 a6 bd
       0.061369695 0.1175848 -0.11425 -0.081239074
000060 27 7d 12 bd d8 f5 56 3c 51 c9 c3 bd 71 8b 26 3d
       -0.035763886 0.013120137 -0.095598824 0.040660325
000070 ac da 09 3c d0 d9 b2 3d 5a 28 ca 3d 48 a6 a9 bc
       0.008413952 0.08732951 0.09870978 -0.020709172
000080 20 6a b0 3b 67 4e c5 bc 52 e7 ad 3d c9 22 a6 3c
       0.005383745 -0.024085237 0.084913865 0.020280259
000090 86 8a 81 bc dd 28 09 3d 8d 84 f8 bd c8 c6 7f bd
       -0.015813123 0.033486236 -0.12134657 -0.062445432
0000a0 37 45 63 bc c9 ef 87 3d 76 0f c4 3d ab b0 1c bb
       -0.013871483 0.06637532 0.095732614 -0.0023909013
0000b0 a9 55 a7 3d 19 61 bd 3d dc 5e 22 3c 81 14 78 3d
       0.08170635 0.092470355 0.009910312 0.06056643
0000c0 bf 8a 8a 3d b6 5e ff 3d c4 86 9b bd 2e c7 86 3d
       0.06764745 0.124692366 -0.07594064 0.06580959
0000d0 ca 98 04 3d 84 4d d6 3d de 09 a0 3c 23 08 e8 bb
       0.032372274 0.10464004 0.019535955 -0.007081048
0000e0 06 8f e8 3c 62 f9 9a bd 6e d3 f2 bc 3c 1b 05 3e
       0.028388511 -0.07567097 -0.029641833 0.1299867
0000f0 7b c8 7b bd 60 71 4f 3c 04 84 ed bd 43 7a f8 bd
       -0.06147049 0.012661308 -0.115974456 -0.121326946
000100 86 9c 16 be d5 1c fb bd e7 c4 12 3e e9 f3 cb 3d
       -0.14708146 -0.12261359 0.14332925 0.099586315
000110 5d ec 00 3d 92 da 02 3e 03 35 88 bd 18 6a 4a 3d
       0.031475414 0.1277869 -0.06650736 0.049417585
000120 9f 93 40 3d 58 7e 3d 3d 1d 67 cf bd 2e 33 18 bd
       0.047015782 0.04626307 -0.10127089 -0.037158184
000130 b8 53 81 3d 78 3d fd 3d d2 d2 06 3e b5 99 d7 bb
       0.06314796 0.1236524 0.13166359 -0.0065796026
000140 00 29 bd bb a8 45 34 3d 3b 14 d5 3d bb 09 ef bd
       -0.00577271 0.044011742 0.10404249 -0.11671778
000150 25 0e cf 3b 6e 14 3b bc fc 25 c0 bc 27 d5 d7 bd
       0.006318825 -0.011418445 -0.023455612 -0.105387025
000160 55 b9 05 bd 68 67 39 bd 17 31 65 bc 60 1b 39 3d
       -0.03264745 -0.04526463 -0.013988755 0.045192122
000170 dd 60 8d bd 50 72 a6 3c 7d a1 00 3e d3 d4 2b 3d
       -0.06903241 0.02031818 0.12561603 0.041951012
000180 b8 1c 28 3d a2 ac e0 bd fb 23 b1 bc 6c 62 85 3d
       0.041043013 -0.10970427 -0.021623602 0.06512913
000190 ef 97 a5 bd af 4b c5 3b 60 ec 93 3d 2b 01 1a 3d
       -0.0808562 0.006020985 0.07222819 0.03759877
0001a0 3e 75 86 3d 90 6f fa 3d ec 33 42 3d ff 77 31 3d
       0.06565331 0.1222831 0.047412798 0.043327328
0001b0 98 dc b2 bd 86 4b 9c 3c 12 fe f6 bd 29 b3 a4 3d
       -0.08733481 0.019078981 -0.12060179 0.080419846
0001c0 41 fd 35 3c 5c cd 18 3e 79 31 ec 3d 5d c6 02 be
       0.011107744 0.14922088 0.11532874 -0.12770982
0001d0 f6 a0 0e be 60 13 a8 bd a2 e5 ce bd fe 2a f5 3d
       -0.13928589 -0.082068205 -0.10102393 0.11971091
0001e0 1d bc 61 3d 03 e3 ed 3d 6e 1f 3e bd 6d 70 dd 3b
       0.05511104 0.11615565 -0.046416692 0.006757787
0001f0 22 9e e2 3c 0f 60 af bd 79 a0 0b 3e 81 76 77 3d
       0.027663294 -0.085632436 0.13635434 0.06041575
000200 61 68 25 bd 3a 3f f8 bd 08 64 62 bd 03 82 74 bd
       -0.040382747 -0.121214345 -0.05527118 -0.0596943
000210 44 bc b0 3b 7a 7f bb 3d 22 6b b3 3d 8e a6 8e bd
       0.0053935368 0.091551736 0.08760668 -0.069653615
000220 82 b1 a4 bd 2e ee 92 3d e9 a2 92 bd 19 07 59 bc
       -0.080416694 0.071743354 -0.07159979 -0.013246321
000230 79 65 9b bd d8 50 6b 3d 25 c7 ba bd e6 f9 6e 3c
       -0.07587714 0.057450145 -0.09120015 0.014585948
000240 ef e8 bf bd 1d ae fb bd 74 7c 9e 3c 01 e6 90 bd
       -0.093706004 -0.12289069 0.019346453 -0.0707512
000250 e4 5b 32 bb 65 0b a0 bd 86 8c bc 3d 58 a6 fd 3d
       -0.0027215416 -0.07814673 0.0920649 0.12385243
000260 71 96 f2 bd a0 c0 a4 3d 92 d8 df bd fb 47 66 3d
       -0.11845101 0.08044553 -0.109299794 0.05622099
000270 dc bd 18 bc 9a 32 3a 3c e6 e6 b3 bd e5 07 32 bd
       -0.00932261 0.011364603 -0.08784275 -0.04346456
000280 20 bf 23 3d ea 3e 43 bc 10 06 d0 bd d6 17 88 3d
       0.039977193 -0.011916855 -0.10157406 0.06645171
000290 af 82 be 3a aa 68 ee 3d ed d4 64 bd 69 dc 99 bc
       0.0014534796 0.11641057 -0.055867124 -0.018781858
0002a0 d5 e0 a3 3d cf 6d 32 3c 42 46 fe 3d ac ad 41 3c
       0.08001868 0.010890438 0.12415744 0.011821192
0002b0 bf 74 0a 3e 63 65 c1 3d ee 07 0d 3e 1c 39 1c 3e
       0.13521098 0.09443166 0.13772556 0.1525616
0002c0 3a c8 f5 bd 06 6b c4 3d c5 b8 ea bd 6f 62 97 3d
       -0.12001081 0.095907256 -0.11461023 0.073918216
0002d0 6a 55 5a 3d e1 a3 99 bd 0e ea 79 bd cf 5c 00 3e
       0.053304113 -0.075019605 -0.061014228 0.12535404
0002e0 ce 0f 69 bc d0 c3 1b 3e bc 55 2b bd b0 6d cd 3c
       -0.01422496 0.15211415 -0.04182981 0.025076717
0002f0 41 a4 15 3e 26 06 32 bd 3e 51 a0 3d 1d 77 00 3e
       0.14613439 -0.043462895 0.07827996 0.12545438
000300 64 9a e6 3d b7 67 48 bd 04 64 a0 bd af 54 6e 3d
       0.112599164 -0.048927035 -0.078315765 0.05818623
000310 72 80 2c 3b ea 2e 5e bc 10 48 dc bd 33 e5 e0 3d
       0.0026321677 -0.01356099 -0.10755932 0.10981216

lstm.bias_hh_l0 f4 [200]
000000 08 62 d3 bd 8f a1 ef bd ab 0a f7 3c 3c 59 cf bb
       -0.10321432 -0.11700737 0.030156454 -0.0063277762
000010 f6 5f cd bd 25 30 f1 bb b5 2d a5 3d 11 72 17 3e
       -0.10028069 -0.0073604756 0.080653585 0.14789607
000020 62 e8 87 bb 93 87 80 3d c0 5a a0 bd 05 52 19 3e
       -0.0041475752 0.06275859 -0.07829809 0.14972694
000030 80 77 d9 3d c0 9f 11 3e 65 0f ec 3d 4e b9 3d 3d
       0.10618496 0.14221096 0.11526374 0.0463193
000040 e9 71 83 3d a4 62 83 bb a2 95 6e bd b5 6f c7 3d
       0.06418211 -0.0040095616 -0.05824817 0.09738103
000050 74 72 c7 bc 79 0f 1e bc fd 52 aa bd 9a 41 58 3d
       -0.024346568 -0.009647244 -0.0831661 0.052796938
000060 5a 11 a1 bd df 72 62 3d 29 b9 88 3d ca 37 ff bc
       -0.07864638 0.05528533 0.066759415 -0.031154532
000070 b9 c1 dc 3c f7 d3 17 3d 9b a9 59 3d c6 5a d9 3d
       0.026947843 0.03706738 0.053140264 0.10613017
000080 34 cb a8 bd a1 c1 aa bd 4a d0 06 3e a4 8e 63 3d
       -0.08241883 -0.08337713 0.13165393 0.055555955
000090 01 25 ef 3d fb 51 f5 3d c4 5b 07 3e 45 90 1c 3d
       0.1167698 0.11978527 0.132186 0.038223524
0000a0 19 2b e2 3d 73 5f ac ba 4e f9 e2 3d 61 e1 d4 bd
       0.110433765 -0.0013151005 0.11082707 -0.1039455
0000b0 f8 c1 12 bd bc c3 fa 3d c0 8b f6 3d 37 eb 8f 3d
       -0.035829514 0.122443646 0.12038374 0.070272855
0000c0 1a cd ac 3d 7d 69 bf 3d 57 a6 58 3d 0f 8c fe 3c
       0.084375575 0.09346292 0.05289301 0.031072645
0000d0 24 a3 b0 3d f0 67 cf 3c 6e 32 dc 3d c2 49 ff bd
       0.086248666 0.025318116 0.10751806 -0.1246524
0000e0 df d9 89 bd 62 71 4f 3d 3a 18 4c 3d f4 fc 37 bd
       -0.06731009 0.05064524 0.04982779 -0.04491897
0000f0 f2 78 06 bd 83 ca 65 bc 04 9a 7d 3d 2a 09 90 bc
       -0.032830186 -0.014025333 0.06191446 -0.017582495
000100 c4 a9 91 bc e3 2a b7 3d e6 b8 1f 3e d1 7f 28 bd
       -0.017781146 0.08943727 0.15597877 -0.04113752
000110 da 18 c3 bc e7 c2 b5 3d 2d 32 83 bc 73 36 b4 3d
       -0.023815561 0.08875065 -0.016015137 0.08799448
000120 96 3d f5 bd f0 c3 e4 3c 98 3a 98 bb df 48 18 bd
       -0.11974637 0.027925462 -0.004645657 -0.03717887
000130 4a 5c 1f 3c 7d 7d db bd 07 55 9b 3c 4a 3b af bd
       0.009726593 -0.10717294 0.018961443 -0.0855623
000140 26 dd d2 bd 11 08 16 3e 3a f9 d2 bd 5b bd d8 bd
       -0.10296087 0.14651515 -0.103014424 -0.10582992
000150 fb 56 4c bd bf 6e 85 3d 77 2f 95 ba 63 bf 87 bd
       -0.04988764 0.06515264 -0.0011381943 -0.06628301
000160 15 f7 49 3c 3a 80 eb 3c 4f 2f 10 bd 66 d7 9c 3d
       0.012326975 0.028747667 -0.035201367 0.076582715
000170 65 37 05 be 37 74 e6 bd 6b 4b 77 bd 29 eb c5 bd
       -0.13009413 -0.11252635 -0.06037466 -0.09663994
000180 bc a3 20 3e a8 1a 08 3d 2d 7c 63 3c e7 e6 82 3c
       0.1568746 0.033228546 0.013884586 0.015979243
000190 37 60 45 3c 8e 16 99 3d 81 e8 54 3d b1 4d 02 be
       0.012046865 0.07475005 0.051979546 -0.1272495
0001a0 58 88 8c bd 78 ec 91 3c 52 67 b9 3d d9 da fe bc
       -0.06861943 0.017812952 0.0905291 -0.031110214
0001b0 49 d1 0b 3e 12 ba 4a 3d 65 e1 2b 3d c5 3c f1 bc
       0.13654055 0.049493857 0.041963 -0.029447922
0001c0 5a 29 e1 bd ce a1 07 bc 96 df 85 3c 55 f8 26 bc
       -0.10994215 -0.008278323 0.016341966 -0.010191043
0001d0 b2 42 4d bd 0b 7e bd 3b 7b be e5 3d 1f d7 36 bd
       -0.050112434 0.0057828478 0.11217972 -0.04463875
0001e0 27 9b cb 3d 12 a3 0d be 7a 22 19 3e cb 50 ab 3d
       0.09941702 -0.13831738 0.14954558 0.083650194
0001f0 0e f0 0a 3e 5b 05 10 3e 52 ba bf 3d c2 5d d0 3d
       0.13568136 0.14064543 0.0936171 0.10174133
000200 b8 6a d8 bc 46 06 9a bc 0c 3c b4 3d eb 6a c6 bd
       -0.026418075 -0.01880182 0.088005155 -0.09688362
000210 24 08 5b bc ad a3 0b 3e 34 a9 ec bd e2 e4 83 bd
       -0.01336864 0.13636656 -0.115557104 -0.0644014
000220 e2 d4 b6 bd 21 d0 6a 3c 3d 01 26 bc 13 a9 22 3e
       -0.08927323 0.014331848 -0.010132131 0.15884809
000230 a3 0c 3a 3d d5 0b b1 bd b3 de fa 3d 72 36 19 bc
       0.045422208 -0.08644835 0.12249508 -0.00935136
000240 6f 74 a0 bd 7b 21 01 be 09 11 1b 3e 06 7a 2e 3d
       -0.07834708 -0.12610428 0.15143217 0.04259684
000250 6f b9 f2 bd 9f d5 c5 3d ba 58 95 39 98 78 6d 3d
       -0.11851775 0.096598856 0.000284856 0.057976335
000260 33 37 61 3c 8d 07 03 3e 73 98 dc 3d a3 71 46 3b
       0.013746071 0.12795849 0.10771265 0.0030280135
000270 95 8d 83 bd 2c 16 47 bd 86 c2 0a bd 53 65 ef bb
       -0.06423489 -0.04860513 -0.03387692 -0.00730578
000280 1e 00 fb bc ad 79 b0 3d 23 83 c7 3c e5 90 92 bd
       -0.030639704 0.08616958 0.024354523 -0.07156543
000290 52 46 2d 3c 33 e8 8b bc 55 87 cd 3d b9 4a e1 bd
       0.010575848 -0.017078495 0.10035578 -0.1100058
0002a0 01 fa d3 bd 4e b7 14 3e bb 36 07 3e ba f5 82 3c
       -0.10350419 0.1452305 0.13204472 0.015986312
0002b0 54 9d af 3d a7 2f af bc 5b 2a b4 3d cb a8 be 3d
       0.0857493 -0.021385027 0.08797141 0.093095385
0002c0 63 0b b5 bd 66 32 84 3d 07 61 e1 bd 6b fb bf bd
       -0.088400625 0.06454925 -0.110048346 -0.09374126
0002d0 8b 9e f9 bb bd 59 e0 3d 6a 44 72 3c 48 0c bb 3c
       -0.0076177767 0.10954616 0.014786819 0.022833005
0002e0 ff 63 1c 3e 8f c5 21 bd 75 7b 8e bd d5 ab 0c be
       0.1527252 -0.039495047 -0.06957141 -0.13737424
0002f0 05 80 34 bd 4a 0c b9 3c 21 3d 16 bd b3 28 e2 3b
       -0.0440674 0.022588868 -0.03667939 0.0069018244
000300 64 44 e3 bd f2 92 d4 3d ee 35 63 3d de 37 d0 bd
       -0.11097029 0.1037959 0.055471353 -0.10166906
000310 a5 f9 1c 3e 32 2e 0e 3d f3 e3 06 3e 23 1e 2c bc
       0.15329607 0.034712024 0.13172893 -0.010505232

lstm.weight_ih_l1 f4 [200, 50]
000000 77 55 31 3c ab 50 d0 3c c0 62 ad 3d 46 c7 13 bd
       0.010823599 0.02542909 0.08466101 -0.036078714
000010 52 4d f0 bd 14 db 3a bd a1 49 6c bd a7 91 1d bd
       -0.11733498 -0.045619085 -0.057687405 -0.038468983
000020 0a 18 6c bd 92 6d c9 bd 5c 14 b3 bb 53 c9 9f 3c
       -0.057640113 -0.09835352 -0.0054650735 0.019505179
000030 f6 da 7e 3d 07 77 9a bd 05 da b1 bd 78 7e 81 bd
       0.062220536 -0.07542234 -0.08684162 -0.0632295
000040 ec 69 01 be 60 e3 4d bc d3 9b a3 3c 24 c7 b4 bc
       -0.12638062 -0.012566417 0.019971764 -0.022067614
000050 8a d6 6d bd b9 dd f4 3d 86 82 04 bd 35 ba 98 bd
       -0.05806593 0.11956353 -0.03235104 -0.07457391
000060 fc 84 18 3e 6b 80 a1 bd 53 f9 4d 3d 8c a0 ef 3c
       0.1489448 -0.07885822 0.050286602 0.02925136
000070 b6 48 8b bb db 71 36 3b 5d 74 ba 3c 25 fe fa 3d
       -0.004250611 0.002783886 0.022760564 0.122555055
000080 56 df c5 3d 6a e2 8a bd 32 9b b2 3d 68 0c 50 3d
       0.096617386 -0.06781466 0.087210074 0.05079308
000090 48 46 09 be fa 06 9a 3d 7a 4a 0f 3c d2 74 0c 3c
       -0.13405716 0.07520862 0.008745784 0.008572774
0000a0 4b eb 37 bc 1a 89 11 3e 2b ae ec bd 15 09 18 be
       -0.011225532 0.14212456 -0.115566574 -0.14847215
0000b0 d8 fe a6 bd 61 00 89 bd ac ba 04 3e ce 80 a9 3d
       -0.08154076 -0.066895254 0.12961835 0.08276521
0000c0 66 41 ef bc c4 dd 1c 3d a4 e6 e8 3a 00 12 97 3d
       -0.02920599 0.03829743 0.0017768932 0.0737648
0000d0 1f 00 1a be 8e af cb bd e8 94 32 3d 94 7d 67 bd
       -0.15039109 -0.09945594 0.04359904 -0.056516245
0000e0 fa ea f1 bd f0 5d d4 bd 1c eb f2 bd 6b ca f2 bd
       -0.11812396 -0.1036948 -0.1186125 -0.118550144
0000f0 1f af 72 3d 62 5f e4 bd 60 c8 ef bd 25 b4 17 be
       0.05924904 -0.11151005 -0.117081404 -0.14814813
000100 71 a9 ed 3c e4 0f b3 bc d2 d4 e5 ba ed 8f 00 be
       0.02901146 -0.021858163 -0.0017534739 -0.12554903
000110 cb ae 0e 3e 48 71 d2 bd 3d 2e 00 3d 73 aa 10 bc
       0.13933866 -0.10275513 0.031294096 -0.008829701
000120 ed a5 d1 bc 1e 15 7b bd 95 3f b9 bc 64 94 05 3d
       -0.025591815 -0.061299436 -0.022613326 0.03261222
000130 44 09 e0 3d 2c 51 dc bd 64 70 bb bd 6f 41 12 3e
       0.10939267 -0.1075767 -0.09152296 0.14282773
000140 08 92 97 3d 91 49 13 3e 41 51 cb bd 2b 85 55 3d
       0.074009 0.14383532 -0.09927607 0.052128952
000150 e3 e2 16 3d 86 84 f3 bd 4e b8 e7 bd 19 85 c7 3d
       0.03683747 -0.11890511 -0.1131445 0.09742183
000160 e0 0b b4 bd eb df 09 be 49 59 99 bd ab 20 0a be
       -0.087913275 -0.13464324 -0.07487733 -0.13489024
000170 0b e4 11 3d 38 fb 01 3c 93 62 75 3d ec 4d f2 3d
       0.03561787 0.00793343 0.05990846 0.11831269
000180 f5 de af 3d 71 3a 4e bd 67 3c d4 bd b9 24 22 bd
       0.085874476 -0.050348703 -0.10363083 -0.039585803
000190 9e d3 e5 3d 4c d6 ff 3c 03 1e a8 3d db 91 26 3c
       0.112220034 0.031230114 0.08208849 0.010166611
0001a0 cd 20 68 bc 9d be f3 3d 57 6d f0 3d fc dc f5 bd
       -0.014167977 0.11901591 0.11739605 -0.1200504
0001b0 7d 6d 73 3d df 14 86 bd a0 77 af 3d 95 f1 81 bd
       0.059430588 -0.065469496 0.085677385 -0.06344906
0001c0 86 67 18 be e4 b6 8c bc 96 71 9c bd c0 4e fa 3d
       -0.14883241 -0.017177053 -0.07638852 0.122220516
0001d0 0a 06 a4 3d 3c 5b 22 be 0b 03 83 bd ff ef 03 3e
       0.08008964 -0.15855116 -0.06397065 0.1288452
0001e0 c7 86 ef 3b a3 2d 87 3d dc ec 0f 3e d7 25 a1 bd
       0.007309768 0.066005014 0.14055198 -0.078685455
0001f0 9b 12 14 3e f1 23 ff 3d 9c 33 2e 3c e9 85 e2 bc
       0.14460222 0.12458027 0.010632422 -0.027651744
000200 f0 be d8 bc 8b aa ff bd ab e6 7e bc 8b 9c e1 3d
       -0.026458234 -0.124837 -0.015557925 0.11016186
000210 9a e2 55 3d 26 b4 34 3b 45 d8 a2 3c 3c 32 69 3d
       0.052218057 0.0027573197 0.019878516 0.056932673
000220 a0 45 37 3d ae 3d da 3d c7 55 61 3d 14 ea f9 3d
       0.044744134 0.10656296 0.055013444 0.1220285
000230 0b b9 23 be 34 a4 bd 3d fa bd 06 3e 04 ab 80 3d
       -0.15988557 0.09259835 0.13158408 0.06282619
000240 9e c8 fd bc ac 8f c4 3c 8a 41 0a 3e 50 9b de bd
       -0.03097945 0.02399429 0.13501564 -0.10869467
000250 a2 a1 f4 bd 45 bf e7 3c 80 c1 05 bc 4c ae 43 3d
       -0.119448915 0.028289447 -0.00816381 0.047773644
000260 88 65 71 3d 18 d6 8e 3d c1 29 98 3d e3 4d 4a bd
       0.05893472 0.06974429 0.07429839 -0.049390685
000270 69 e2 c6 3c 9b 83 c8 3d 7e 18 cc bd 49 0f d7 bd
       0.024277883 0.09790727 -0.09965609 -0.10500962
000280 1e 20 c2 bd 69 1b a0 bd 85 28 9f bd c6 17 87 bd
       -0.09478782 -0.07817728 -0.077714 -0.06596331
000290 ae f9 88 bd 1a fd ac bb 81 2c ef bd fb ed 8e 3b
       -0.066882476 -0.0052791955 -0.1167841 0.0043618656
0002a0 f4 58 17 be df fc ec bc 20 d9 d6 3d f7 70 f6 bd
       -0.14780027 -0.028929172 0.10490632 -0.12033265
0002b0 b7 f7 76 bd 53 44 16 3d 44 e4 a8 3d 43 b9 df 3d
       -0.060294833 0.036686253 0.08246663 0.10924008
0002c0 5d f6 00 3e 94 6a e0 3c 79 da 9a bd eb 6f 06 be
       0.1259398 0.02739457 -0.075612016 -0.13128631
0002d0 c7 2f f5 3a 15 0d ae bd a9 41 e3 bd 4d a3 fd bd
       0.0018706255 -0.08498589 -0.11096508 -0.12384663
0002e0 c0 71 29 3d c1 82 12 be ba 2d 3b 3d b8 b4 ef 3d
       0.041368246 -0.14307691 0.045697905 0.11704391
0002f0 c1 69 13 be 57 89 e7 3d 8a c9 0a be ff 38 31 3d
       -0.1439581 0.11305492 -0.13553444 0.043267246
000300 f1 d2 84 3d 86 ca fb bd 8f d5 15 be 17 06 1e be
       0.064855464 -0.12294488 -0.14632247 -0.1543201
000310 2c 76 d3 3d f8 de 8a bd 01 e0 af 3d 67 b1 01 3e
       0.10325274 -0.06780809 0.08587647 0.1266533
000320 57 0d 88 3d 85 7a b4 3c a1 f9 46 bc b6 95 8d bd
       0.066431694 0.022031078 -0.012144477 -0.06913321
000330 f0 ae 34 3c 14 f9 d2 3d c8 f9 46 3d a5 e1 12 bd
       0.0110280365 0.10301414 0.048578054 -0.035859723
000340 7a 2f b0 3d 5d ca 05 be 9a 24 d1 3d 33 bd 0b bd
       0.086028054 -0.13065477 0.10212059 -0.03411598
000350 d8 c8 82 bd e2 22 fd 3d 09 fb 19 3b 1a 03 b8 bc
       -0.06385964 0.12360169 0.0023495576 -0.022462416
000360 52 6f bc 3d 8b 27 05 bd 33 6f c2 3c 61 15 e2 3d
       0.0920092 -0.032508414 0.023734665 0.11039234
000370 4d 30 09 be 55 e3 c3 3c de ab 0e be 6a 8c d1 3d
       -0.13397332 0.023912111 -0.1393275 0.1023186
000380 aa 2b bc 3c aa e0 98 3d 6c 0a 98 3c 19 4f e7 bd
       0.02297004 0.07464726 0.018559657 -0.112943836
000390 6d 5d e7 3d 0d 42 18 bd 88 d0 85 3d 96 43 a6 3c
       0.112971164 -0.037172366 0.06533915 0.0202959
0003a0 cc 0d f8 3d 94 95 89 bd 5f 5b 09 3e 42 dd e6 bd
       0.121120065 -0.06717983 0.13413762 -0.1127267
0003b0 cc 3d f8 3c 82 5b 37 3d 0d b6 ef 3d 85 7a 4b 3c
       0.030302905 0.044765003 0.11704645 0.012419348
0003c0 c6 9b a1 bd d8 99 c7 3d 29 da 02 be bf 6d ce 3b
       -0.078910396 0.0974614 -0.12778534 0.006299704
0003d0 de ff d1 3d 77 d5 ac bd db b9 d1 3d 00 6b 39 3d
       0.10253881 -0.08439153 0.10240527 0.04526806
0003e0 df b2 ce 3d 45 dd cf bd 34 b5 ec bd c7 f3 96 3d
       0.10092711 -0.10149626 -0.11557999 0.073707156
0003f0 62 ee ff b9 59 24 00 bd 34 6d 32 3d 33 2c a8 bd
       -0.00048815 -0.031284664 0.043561175 -0.08211555

lstm.weight_hh_l1 f4 [200, 50]
000000 58 71 b5 3c a9 a7 16 be 7e 77 c2 bd 19 69 24 bd
       0.022148773 -0.14712395 -0.094954476 -0.04013929
000010 3b 08 b3 bb 67 53 b2 3d b9 66 f2 bd dc ec ad bd
       -0.0054636276 0.08707314 -0.11835999 -0.08492443
000020 37 63 0e bd 7f a9 cc 3d df d1 1a bd 79 58 d3 3d
       -0.034762587 0.09993266 -0.037797805 0.10319609
000030 e4 80 63 bc d8 ca 03 3d f2 a9 ec 3d e1 b1 b7 3d
       -0.01388571 0.03217587 0.11555852 0.089694746
000040 c1 96 cd bd 7c 9d 40 3d 5a 9f cb bd 5a 02 b4 bc
       -0.1003852 0.04702519 -0.09942503 -0.021973778
000050 37 a8 87 bc 2c 46 01 be 3d 74 fc bd d6 41 f6 3c
       -0.016559703 -0.12624425 -0.12326858 0.03006069
000060 37 23 ef 3d aa ef e6 bc ee 9f 8b 3d 41 56 99 3c
       0.116766386 -0.028190453 0.068176135 0.018717887
000070 c4 d2 3e bd bd 5d 13 be 61 0f cd 3c 29 7a b3 3d
       -0.04658772 -0.14391227 0.025031747 0.087635346
000080 b0 3a e1 3c e3 72 a8 3d 1c 95 9d bd cb 6c 1f 3e
       0.027493805 0.08225038 -0.07694456 0.15568845
000090 7b 3f aa 3d 95 50 f5 bd dc 68 a9 3d 49 18 c4 bd
       0.08312889 -0.119782604 0.082719535 -0.095749445
0000a0 f7 7c 92 bd 0b 07 ce bd 69 c2 05 3e 88 c1 08 3e
       -0.071527414 -0.10059937 0.13062443 0.13355076
0000b0 77 79 4c 3d a2 07 1a bd ec 3e 90 3d 60 6a 93 3c
       0.049920525 -0.037604935 0.070432514 0.01799506
0000c0 92 29 9b 3c 92 3e f6 3d 06 9c cd bd 6d ad f7 bd
       0.01894072 0.12023653 -0.10039525 -0.12093625
0000d0 f5 7e fb 3d 42 a1 ed 3d d6 47 03 3e 25 29 63 3d
       0.122800745 0.11603023 0.12820372 0.05545916
0000e0 44 43 1d 3c 46 03 85 bd db 6c ed 3d b7 ca 99 bd
       0.009598557 -0.06494765 0.11593028 -0.07509368
0000f0 43 84 1a 3d 72 ff 8e 3d 11 e2 ff 3d dd 68 ad 3d
       0.03772379 0.06982316 0.124942906 0.08467267
000100 4a e0 a3 bc 75 27 dd 3d 13 5c a5 bd b6 0d cf bd
       -0.02000441 0.107985415 -0.080742024 -0.10110037
000110 8d a4 e1 3c 82 ae 8c bd 98 d3 eb 3d 41 f0 fe 3d
       0.027544284 -0.06869222 0.11514968 0.124481685
000120 b6 83 be 3c 1f 6d df bd 1d d1 42 bd 9a 99 01 3c
       0.023256164 -0.10909485 -0.047562707 0.007910157
000130 99 32 85 bc 7c 80 e3 bd c2 89 a9 bd 7b dc ca bd
       -0.016259478 -0.11108491 -0.08278228 -0.099053346
000140 bb fc 40 3d 3f 98 f7 bd 57 38 e4 bd 7c 35 74 3d
       0.047116023 -0.120895855 -0.111435585 0.05962132
000150 00 a7 d9 3d 66 69 71 bd e5 e4 e6 3c 58 26 fa bd
       0.10627556 -0.058938406 0.028185317 -0.12214345
000160 73 df 13 3e 10 9e 18 3e 64 21 f1 3d 8d 69 05 bd
       0.14440708 0.14904046 0.11773947 -0.032571364
000170 d4 74 21 3c e6 b9 c4 bd eb e2 2f 3d 5a de d1 bb
       0.009854514 -0.0960577 0.042941015 -0.00640468
000180 76 44 de 3d 02 2b 03 3e 0e 25 fc 3a 46 20 6f 3d
       0.10852902 0.12809375 0.0019237117 0.058380388
000190 be ff e4 bd 7e f1 a0 3d a6 a3 ed bc b9 05 c0 bd
       -0.111815915 0.07858561 -0.029008698 -0.093760915
0001a0 ba a3 9b 3c d3 dc c2 bd b0 c4 55 3d a6 b5 b0 bd
       0.01899897 -0.09514775 0.05218953 -0.08628397
0001b0 37 69 04 bd e4 ba 97 bd 1d e6 2e bd d2 27 b4 3d
       -0.032326903 -0.074086934 -0.042699922 0.087966576
0001c0 e6 2e 15 3e 0e f0 1c 3c d4 7d 0c bd b9 de 5e bd
       0.14568672 0.009578718 -0.034299687 -0.054411624
0001d0 f0 3b d0 bd f2 9d b8 3d 3b aa a0 bc 1f 17 82 bd
       -0.10167682 0.09014501 -0.019612422 -0.06352066
0001e0 f9 da 0b 3e f9 8b e8 bd 78 d1 b9 3d be 5d 09 3e
       0.1365775 -0.11354823 0.09073156 0.13414666
0001f0 1a 51 ad 3d 3d db b4 3d 75 7f 25 bd 79 dd 86 bd
       0.084627345 0.08830879 -0.040404756 -0.06585211
000200 2f 9b a4 3b 51 69 4b 3d 2e 57 42 bd 2e 77 ec 3d
       0.005023382 0.049660984 -0.047446422 0.11546169
000210 a6 e9 91 bc 0c 00 85 3d ba 5f cd bc 24 87 aa 3d
       -0.017811608 0.064941496 -0.02507006 0.08326557
000220 38 fb 96 bc 30 39 eb 3c f7 09 08 bb 33 f4 c5 3d
       -0.018430337 0.028713793 -0.0020757893 0.09665718
000230 48 c9 01 be 79 70 1d be e7 2f a6 3d 50 01 d4 bd
       -0.12674439 -0.15374936 0.081146054 -0.10351813
000240 56 6a c4 bc 90 1d 95 3c b7 1d ce 3d d7 66 1f bd
       -0.023976486 0.018202573 0.100642614 -0.038916435
000250 9a 52 a2 bc 12 49 e3 bd 9b e3 28 3d d3 f6 0f be
       -0.019814778 -0.110979214 0.041232686 -0.14059
000260 ea d0 15 bd d6 64 b8 3d 84 9a e5 39 06 f9 a7 bd
       -0.03657619 0.09003608 0.00043793407 -0.08201794
000270 71 82 72 bd 00 86 dc bd ee 49 a4 3d 96 4d 88 bc
       -0.05920643 -0.10767746 0.080219135 -0.016638558
000280 37 e8 f7 3d 44 84 f6 3d 44 ad 09 3e 1b 52 49 bd
       0.12104838 0.120369464 0.13445002 -0.049150568
000290 40 0e eb bd 86 4b 55 3d b1 50 9e bd 96 69 f5 bd
       -0.11477327 0.052073978 -0.077302344 -0.119830295
0002a0 1b 24 0f be 98 2d d9 bd 12 df 06 bd 5a 10 88 bd
       -0.13978617 -0.106043994 -0.03292758 -0.06643744
0002b0 c1 18 09 3d f5 fa 8a bd 70 09 11 3d fc a5 93 3d
       0.033470873 -0.067861475 0.03540939 0.072093934
0002c0 14 c5 fd 3d 28 6e 86 bd e2 32 7a bd 30 d0 00 be
       0.12391105 -0.065639794 -0.061083682 -0.12579417
0002d0 ec 32 c1 3d 1a ba 67 bd c9 b3 78 bc e4 ac fd bd
       0.09433541 -0.056573965 -0.015179583 -0.12386492
0002e0 91 53 ec ba 7b 87 f0 bd 43 40 87 3d f7 4d 61 bd
       -0.0018030276 -0.11744591 0.06604054 -0.055005994
0002f0 7b 70 d7 bd 0f bb e9 bd 1d ec 93 3d 3d 39 f5 bd
       -0.10519501 -0.11412632 0.072227694 -0.11973808
000300 ba d8 11 3e 29 7b 6c 3d d0 03 1b bb f8 d5 01 bd
       0.14242831 0.057734642 -0.0023653395 -0.031698197
000310 07 ca 77 bd aa 16 2d bd 5e d0 f7 bd d1 86 a3 bc
       -0.060495403 -0.042257942 -0.1210029 -0.019961746
000320 75 2a d5 3d 97 33 a0 bd b4 66 2f bc ee d4 01 3e
       0.10408489 -0.0782234 -0.010705639 0.12678882
000330 d3 9c ba 3d a8 5c 00 3e 37 e3 9d 3b f4 bc ff 3d
       0.09111943 0.12535346 0.004818346 0.12487212
000340 0e 34 96 bc 80 13 17 bc 2e 3b e0 bd df a0 bb 3c
       -0.018335368 -0.009220958 -0.10948788 0.022903858
000350 a2 93 e1 3c 07 bc ec bd f5 06 3f 3d a5 35 d2 3d
       0.027536217 -0.11559301 0.046637494 0.10264138
000360 71 f5 63 3d d6 03 08 be 6a 5a 88 3d 07 79 92 bb
       0.055653993 -0.13282713 0.0665787 -0.004469994
000370 f5 d1 e9 bd 3b 5b ae bd 86 b5 78 bd 30 c2 86 3d
       -0.11416999 -0.085134946 -0.06071999 0.06580007
000380 8a 67 9f 3d be 8b 18 3e 16 98 e1 bc 0a 36 81 3d
       0.077834204 0.14897057 -0.02753834 0.06309135
000390 03 5c ca 3d 52 1c 2d 3c e0 05 81 bd ed a8 02 3e
       0.09880831 0.010565834 -0.06299949 0.12759753
0003a0 39 19 ba bd 67 59 ab 3d 7a 0f 76 3d ec 69 e2 3c
       -0.09086842 0.083666615 0.060073353 0.027638398
0003b0 25 03 b8 3c 9f c3 08 be d7 2c e5 3d 7b e2 f5 bd
       0.022462437 -0.13355874 0.11190193 -0.12006088
0003c0 59 3b 80 bd 56 20 cb 3d e3 58 ab bd 29 a2 0c be
       -0.0626132 0.09918277 -0.08366563 -0.13733734
0003d0 0f 65 6d bd b3 bf b7 bd ec a5 b2 39 36 69 fc bb
       -0.057957705 -0.089721106 0.00034074427 -0.007702972
0003e0 82 9b ae bd b9 78 be bd 33 96 5f 3d bc 1b 23 3b
       -0.085257545 -0.0930037 0.0545866 0.0024888357
0003f0 3b 1c 72 3d 66 98 3b 3d d7 74 ed 3d f9 17 62 3d
       0.059108954 0.045799635 0.11594551 0.055198643

lstm.bias_ih_l1 f4 [200]
000000 af 95 01 3e 8b d2 cd bd b2 2a ef 3d 32 6d 24 bc
       0.12654756 -0.100499235 0.11678065 -0.0100358
000010 56 ca 0a bd 2f c9 13 3d e5 e0 9b bd 36 e5 fd bc
       -0.03388437 0.036080536 -0.076112546 -0.030993085
000020 93 77 92 bd 63 0c bd 3d 50 53 40 bd 8a 8c e1 3c
       -0.07151713 0.09230878 -0.046954453 0.027532835
000030 f9 ba 55 3d ec 29 9c 3d 5e 0e 0f bd 6b e9 bb bd
       0.052180264 0.076251835 -0.03492581 -0.0917538
000040 2c c6 52 3d 6d d6 a7 bd 5b fb 96 3d 64 ff a9 3d
       0.051458523 -0.08195195 0.07372161 0.08300665
000050 e9 3a 0e 3d da 16 bd bd 0e e3 5f 3a 99 f3 0e be
       0.03472415 -0.09232874 0.00085406087 -0.13960113
000060 22 45 e9 bd b6 06 c1 3d a9 2e 4b bd 96 81 e9 3d
       -0.11390139 0.09425108 -0.049605045 0.1140167
000070 7f b6 ed 3b 82 83 14 be 72 f4 4b bd 13 53 2d 3d
       0.0072544212 -0.14503291 -0.049793668 0.042315554
000080 15 a5 c3 3d 58 ae 3e 3d f3 76 13 be 14 78 a6 3c
       0.09552971 0.046552986 -0.14400844 0.02032093
000090 04 b3 d9 bd 12 61 5c bc 7c 8d 09 bd 3f af 17 be
       -0.10629848 -0.013450878 -0.033582196 -0.14812945
0000a0 a9 55 69 bc 98 6b e9 bd 0a 3b 0c 3e 0c 95 b2 bc
       -0.014241614 -0.11397475 0.13694397 -0.021799587
0000b0 32 df 24 bd 52 14 9f bc 8c c5 f0 bd 90 3c 0b 3e
       -0.040251918 -0.01941887 -0.11756429 0.13597322
0000c0 ff 05 6d bd 62 f9 f6 bd 1c 4f 5d bd a5 78 c4 3d
       -0.057867046 -0.12059285 -0.054030523 0.095933236
0000d0 1e a6 88 bc 31 48 aa 3d 42 9a 03 be 98 7e 06 be
       -0.016680773 0.08314551 -0.12851813 -0.13134229
0000e0 a0 ea a8 bd 1d 3b fa 3c 5a ca b0 bd 3d 0c 7a 3b
       -0.08247876 0.030545766 -0.086323455 0.0038154267
0000f0 83 c2 84 bd 96 d4 2d 3d 5f 43 95 bd bf ec ad bd
       -0.06482413 0.042439066 -0.07288241 -0.08492421
000100 a2 b2 bb bd 3b 44 8e 3d 43 03 e5 bd 6d 77 01 3e
       -0.09164931 0.06946608 -0.11182263 0.12643214
000110 d5 47 69 3d 83 78 eb bd 7d d7 ee 3c 6c f7 a3 3d
       0.05695327 -0.11497595 0.029155487 0.08006176
000120 d2 02 ff 3d 66 99 b4 3d dd e2 eb 3b 0f 71 7b bd
       0.1245171 0.08818321 0.007198675 -0.061387118
000130 91 8e 0a bd 8d b4 2e bd c3 bd d7 3d 0e cf 05 be
       -0.03382737 -0.042652655 0.10534241 -0.13067266
000140 eb fb aa 3d 5f 8e 89 3d 21 f1 4b bd f3 14 a7 bd
       0.08348831 0.06716608 -0.049790505 -0.081582926
000150 1e a5 32 3d 33 c6 b6 bd d6 d7 27 3d 57 a7 ab bc
       0.0436145 -0.08924522 0.04097732 -0.020953817
000160 ae 2d 7a 3d e4 7d be 38 5f 49 10 3a 34 df b7 3d
       0.06107872 9.083355e-05 0.0005504097 0.089781195
000170 8c 97 08 be e2 97 2e bd 04 95 b0 bd 89 ba 84 3c
       -0.1333906 -0.042625315 -0.086221725 0.016202228
000180 44 92 d9 3c ef f4 36 bd 61 f7 44 bc cd f2 fe 3d
       0.026559003 -0.04466718 -0.01202187 0.12448654
000190 c6 b1 7e 3d 44 56 86 3d 3d 57 89 bd 7f 52 56 3d
       0.062181257 0.065594226 -0.067060925 0.05232477
0001a0 f6 f0 0c 3d 8f c9 ea bd 17 f4 b4 bd 7e e3 35 3d
       0.034409486 -0.114642255 -0.08835619 0.044406407
0001b0 ce 4d ac bd cb b8 95 3d 42 b6 bd bc 0b ed 3a 3d
       -0.084132776 0.07310637 -0.023158196 0.045636218
0001c0 3a 0f 0a 3e 4e 17 aa bc 4c 4d 53 bd df a8 dc 3c
       0.13482371 -0.020763066 -0.051587388 0.026935993
0001d0 93 65 d2 3d 35 4e de bd 8b 50 b3 bc eb 9c 0a 3d
       0.1027328 -0.108547606 -0.021888992 0.033841055
0001e0 87 a1 07 3e d7 de d3 bd 31 2b 4c 3b cf 34 0f bd
       0.13245212 -0.10345238 0.0031153674 -0.03496247
0001f0 80 b8 c9 bd b1 23 c1 3b e9 ae 0f 3e 6e 98 39 bd
       -0.09849644 0.0058941473 0.14031567 -0.045311384
000200 4b 73 1c be f8 6c c9 3d 1c 97 4e 3d 49 2b 08 3e
       -0.15278356 0.09835237 0.050437078 0.13297762
000210 4d ce e8 bc 5d 75 a4 bc e1 8e ec bd 02 8f 1e 3e
       -0.028418684 -0.020075494 -0.115506895 0.1548424
000220 de fc 28 3d 74 16 a8 3d ef eb 7f 3d 03 4a ed bd
       0.041256778 0.082074076 0.062480863 -0.11586382
000230 a4 b7 1f bd 30 2d f6 bc e4 98 f4 3d be 9b ac 3d
       -0.038993493 -0.030050844 0.11943224 0.08428143
000240 20 b0 c1 bd f5 81 23 bc 5a f3 1b be 7c 6b 1e 3e
       -0.09457421 -0.009979715 -0.1522955 0.1547069
000250 26 1f a0 bb de 3f cd 3c 39 c3 a9 bd c6 26 9c bd
       -0.0048865257 0.025054868 -0.08289189 -0.07624583
000260 a3 3c 31 3c 0a 74 c1 bd 39 87 b3 bb 74 4c 97 3d
       0.01081768 -0.09445961 -0.0054787663 0.07387629
000270 b9 c5 c7 3d 00 c5 09 be 6c e5 04 3e fe f6 7b bd
       0.097545095 -0.13454056 0.12978142 -0.061514847
000280 e2 e3 9a 3d 9f 14 1d 3d 87 b2 b4 bd 2a f5 37 bd
       0.075629964 0.038349744 -0.08823114 -0.04491154
000290 65 63 25 3c 86 4d 95 3d 16 18 9e 3d 9a f2 99 bd
       0.010094498 0.07290177 0.07719438 -0.07516976
0002a0 a7 3e 0c be 90 14 13 be de ce 14 3e c2 6e a2 bd
       -0.13695775 -0.14363313 0.14532039 -0.079312816
0002b0 c0 7e d1 bc ff 12 3f bd 39 f7 ee bd 63 e2 c0 bd
       -0.025573134 -0.046648975 -0.11668248 -0.0941818
0002c0 6e 89 a8 3d 0b b7 b0 bd 9b 36 6c 3c bf d0 0f be
       0.08229338 -0.08628663 0.014417316 -0.14044474
0002d0 4b 3d 7b 3d 02 b3 ed 3d 7b bc 4f bd 5d 96 99 3d
       0.06133775 0.11606409 -0.05071686 0.07499383
0002e0 ee 81 fd bb b8 64 85 bb a9 da 19 bd 86 8b e6 3d
       -0.007736436 -0.0040708445 -0.037562046 0.11257081
0002f0 83 3c ae 3d 63 c6 0f be 71 cc 0a be 43 ee 0b 3d
       0.085076354 -0.14040522 -0.1355455 0.03416277
000300 2b f0 fd 3d 94 4e 0e bd ce 48 f4 bd a1 23 c4 3d
       0.12399324 -0.034742907 -0.11927949 0.09577108
000310 de 6d d3 bd 24 42 ce bd aa 82 3b 3d c7 3f a8 3c
       -0.1032369 -0.10071209 0.045778908 0.020538224

lstm.bias_hh_l1 f4 [200]
000000 02 6d 31 3d 97 b6 a5 bd 7f 5f dd 3d 3b 9a 96 3c
       0.04331685 -0.08091467 0.1080923 0.01838409
000010 1e fb 2c 3d b5 3c a0 bb 71 1e 45 3d 1a 90 b9 3d
       0.04223167 -0.0048900493 0.048124734 0.09060688
000020 e9 d1 d2 bd 44 61 de 3d 1c df fd bc d6 3c 9d 3c
       -0.102939434 0.10858396 -0.030990176 0.019194048
000030 e8 7b 5e bc a0 ca cc 3d d0 b4 4a bd 45 5b 7c 3b
       -0.013579346 0.09999585 -0.049488842 0.003850655
000040 dd ed bc 3d b1 85 52 bd 15 e7 b6 bd 91 aa 6c 3d
       0.09225056 -0.05139703 -0.08930794 0.057779852
000050 97 b2 bf bc 87 49 3e bd ce 01 1c bd 0f 9a 09 be
       -0.023400588 -0.04645684 -0.03808766 -0.13437675
000060 24 9f f3 3d b5 d8 3f bd 67 9a 83 3d 9c e2 88 bd
       0.11895588 -0.046837527 0.06425934 -0.06683847
000070 97 30 ca 3d e6 da c8 3d 10 3e 38 3d 57 92 df bc
       0.09872549 0.098073766 0.044981062 -0.02729146
000080 2a cc f1 3d 98 bb 0d 3e 21 2b e0 bd 6e a5 7a 3d
       0.11806519 0.13841093 -0.10945726 0.061192922
000090 74 f5 4b 3c 18 af de 3a 0d 8f cd bd 48 87 5e bc
       0.012448657 0.0016989438 -0.100370504 -0.013582058
0000a0 f5 b8 f8 3d de 51 6d bd 90 09 fc 3d a5 ca 19 3c
       0.12144653 -0.057939403 0.123065114 0.009386693
0000b0 19 56 fb bd 99 b4 0b 3e d0 79 03 3e d8 fa a6 bd
       -0.12272281 0.13643111 0.12839437 -0.081533134
0000c0 c3 30 cf 3d 0d 36 aa 3d 0a ff 38 3d 4d 9a 7e 3d
       0.101167224 0.083110906 0.0451651 0.06215887
0000d0 aa d8 0f 3e 27 e6 ad 3c a0 bd b5 3d 46 e6 06 be
       0.14047495 0.02122791 0.08874059 -0.1317378
0000e0 5f 66 90 bd 4f 34 ae 3c 9f 97 9e bd 3e fd be 3b
       -0.07050776 0.021265177 -0.07743763 0.0058285287
0000f0 0f a3 a0 3d f4 4c 03 3d 67 3e d9 3d 34 9e ba bd
       0.07843601 0.03205581 0.106076054 -0.09112206
000100 de 2b 06 be 07 b6 5f bb 6d ca f0 bd 30 9b c2 3d
       -0.13102672 -0.0034135596 -0.1175736 0.09502256
000110 09 ac 4d bd 4b 8b ac bb 97 7d 60 3d 4b 01 07 3e
       -0.050212894 -0.0052656285 0.05480727 0.13184087
000120 1c c1 fb ba 22 20 61 3d 71 a7 fb 3b e6 9a 94 bc
       -0.0019207331 0.054962285 0.0076798727 -0.018140268
000130 04 40 b4 3c 41 cc e0 bc a8 06 d0 3c a9 52 e8 3c
       0.022003181 -0.027441146 0.025393799 0.028359728
000140 46 26 b8 bd ae d9 01 3e fb ad f9 3c b2 ca 9b bc
       -0.08991675 0.12680694 0.030478468 -0.019017551
000150 7e 2a 92 3d 55 e6 20 3d a5 0e 9d 3c 9c 20 85 bd
       0.07137011 0.03928216 0.019172022 -0.0650036
000160 24 74 10 3e 74 9c 6f 3c 71 f6 16 be 5a 2d f4 bd
       0.14106804 0.014624704 -0.14742447 -0.119227126
000170 15 18 19 3d 04 74 05 be 4e 20 8f 3d 69 74 88 bd
       0.037376482 -0.13032538 0.069885835 -0.066628285
000180 d8 49 aa 3d 4f b6 f1 3d 87 b3 ec 3d 01 f4 70 3d
       0.08314866 0.11802351 0.115576796 0.05882645
000190 ac 73 96 bc 6e 48 bc bd 8a 0c ec bd ea ec bf bd
       -0.018365704 -0.09193502 -0.11525829 -0.0937136
0001a0 ed 21 da 3d 0f a4 9c bd 39 d4 14 be 44 41 53 bd
       0.10651002 -0.07648479 -0.14534082 -0.051575914
0001b0 96 7e 59 bd 4e 28 29 bc a7 31 06 be 8d 38 a3 bb
       -0.053099237 -0.010324551 -0.13104878 -0.0049811066
0001c0 3c 7d f0 3d ce e5 06 3e 14 24 3f 3c 65 1e 95 3a
       0.117426366 0.13173601 0.011666317 0.0011376856
0001d0 e8 05 6a bb 59 73 8a 3c 8d c7 f9 bd 2b 65 10 3c
       -0.0035709087 0.016900705 -0.121962644 0.008813183
0001e0 f0 f1 05 3e 2c aa 17 be 84 80 ea 3d 83 8b 81 3d
       0.13080573 -0.14811009 0.11450294 0.06325438
0001f0 a3 d7 b7 bc 2b e8 e0 bd 98 4d 3e bd 38 19 f4 3d
       -0.02244169 -0.109817825 -0.046460718 0.119188726
000200 72 b0 4f 3d d2 58 d9 bd 4c a6 03 be 6c 19 db bd
       0.05070538 -0.10612644 -0.12856406 -0.10698208
000210 c3 91 f0 bc 8e 93 d9 3d fa 4c 9d bd 7c 24 ba 3c
       -0.02936638 0.10623847 -0.07680698 0.022722475
000220 39 c5 12 be d9 ac 78 3d 9e 91 b1 bc 6a a7 00 3d
       -0.14333047 0.060711715 -0.021675881 0.03140966
000230 1c 72 28 bd ea 4e f8 bd af 06 33 bd 0d 92 8f bd
       -0.04112445 -0.12124427 -0.043707546 -0.07010279
000240 70 25 f7 bd 6f 31 a5 3d 37 44 ef bd 02 57 be 3c
       -0.120676875 0.08066069 -0.11682933 0.023234848
000250 61 11 db bd 11 7b b9 3c 6d 2a f5 bd ee 84 53 bd
       -0.10696674 0.02264169 -0.11970983 -0.051640444
000260 5d d0 d7 3d fe 0b cb 3d fc 11 ae 3d ee 68 e2 3d
       0.10537789 0.09914397 0.08499524 0.1105517
000270 ef d2 96 3d 3a f3 f0 bd 9d 91 e0 3d 16 20 52 3a
       0.07364451 -0.11765142 0.109652735 0.00080156454
000280 46 93 f0 bd e9 b9 a2 bd be 68 9b bd df b0 85 bd
       -0.1174684 -0.07945616 -0.07588337 -0.06527876
000290 66 09 c9 bd 12 aa 09 bd d8 cb ad bd 22 86 01 3e
       -0.09816246 -0.033609457 -0.08486146 0.12648824
0002a0 21 7f cd 3d 7b ad f0 3d 3b 68 e6 3d 3d 82 0a 3e
       0.100340135 0.11751839 0.11250349 0.13526244
0002b0 73 51 71 bd eb e0 e7 bd 91 70 6a 3d 1e 93 f7 bd
       -0.058915567 -0.113221966 0.057236258 -0.12088607
0002c0 77 6f b2 3d f4 c3 22 3e 8c 6e bb bc cc 72 a8 bd
       0.087126665 0.15895063 -0.022879861 -0.08225021
0002d0 09 3c 15 3e 3a 2b bf 3d 5b 2d ef 3d dd 17 ba bd
       0.14573683 0.09334417 0.11678573 -0.09086583
0002e0 2f 78 51 3d 40 5b 08 3e 53 f8 77 bd 9c 1f d3 bd
       0.051140007 0.13316059 -0.060539555 -0.103087634
0002f0 2d 88 0b 3e 7f ed 39 3d 53 31 90 bb 6c 7c 64 3d
       0.13626166 0.04539251 -0.004400411 0.05578272
000300 23 82 c5 bd 68 56 55 3c e9 f6 8a 3d 72 26 db 3b
       -0.09643962 0.013021089 0.067853756 0.0066879326
000310 c8 70 10 3e c6 5b db bd 04 f0 d8 bc f8 e9 c5 3d
       0.14105523 -0.10710864 -0.026481636 0.096637666

fc.weight f4 [1, 50]
000000 d3 5b 58 3d a5 47 ff 3d 29 df 6b bd e0 18 39 3c
       0.052821945 0.12464837 -0.05758587 0.011297435
000010 9d 7f 64 bd ee 4c a7 3a 88 28 a2 bd b3 3e 36 bd
       -0.055785764 0.0012764016 -0.07917887 -0.04449339
000020 60 ff 53 bd e8 3d 88 3d 99 e3 f5 3a 35 8d e9 3c
       -0.051757216 0.06652433 0.0018759846 0.028509716
000030 b1 20 05 3d c4 09 22 3e 73 98 08 bd ae 1b 05 3e
       0.03250188 0.15824038 -0.033348512 0.1299884
000040 eb 35 f6 bc fc 13 3f 3d bb 9d 65 3d 06 97 35 bd
       -0.030055007 0.046649918 0.056058627 -0.04433348
000050 24 d5 0f 3e ec f4 fb bd 36 0e 3b 3d c3 21 52 bd
       0.1404615 -0.123025745 0.04566785 -0.05130173
000060 58 7b 10 3d 2e 1b c6 3c 9f 9c 02 3e 2b 1c af 3d
       0.03527388 0.024182882 0.12755059 0.085502945
000070 e2 df 95 bd 6d fb 3f bd 31 14 15 be 11 35 f3 3d
       -0.07318093 -0.046870638 -0.14558484 0.11875356
000080 86 5b e5 bd 6f 4c bb 3d f4 ff de 3d f0 f4 c0 3d
       -0.11199097 0.09145438 0.10888663 0.09421718
000090 b0 7b ea bd bf 52 2e bd d4 00 c6 bd a2 9f 24 3d
       -0.11449373 -0.04255938 -0.09668127 0.0401913
0000a0 93 05 eb 3d be cc 77 b9 4c 07 88 3d c8 d2 f7 3c
       0.114756726 -0.00023632028 0.06642017 0.030251876
0000b0 ca b8 ec 3d 78 db 2e 3d cb ab 21 be 5b a3 c6 3d
       0.11558683 0.04268977 -0.1578819 0.09699126
0000c0 5e 3e 03 bd c5 8c 10 3d
       -0.0320419 0.0352905
