data/models/PETR4.SA_20251213_102719.pt (torch, 130453 bytes, 9 tensors)

lstm.weight_ih_l0 f4 [200, 1]
00000000: 0648 1e3e de6f bcbc e5b2 583e fc54 943d
00000010: eb78 0e3e c19c 383d 2fa8 c43d 6e3f 8b3d
00000020: 0774 323e 724f f43d 3740 863d 0ecc a63d
00000030: dc88 e5bd dd2e 9b3d 1811 35bd 1ca9 a03d
00000040: 9208 9abd 96a4 6d3e 115b ac3d e481 28be
00000050: cfea 2cbd 363b 9abb 9b66 c73d 8981 19be
00000060: 20d8 99bc 4b7f 533c c0f3 e33d ae88 123c
00000070: 60ae c93d 6191 ff3a 7a32 053d 22bc 9f3d
00000080: b237 1c3d fcf0 e0bd d971 46bd a867 073e
00000090: 383c fabc 2584 0c3e a17c 533e f6cb d13d
000000a0: 2133 a7bd ed1d 1e3e a6fb a23a 2b9b 19bb
000000b0: e7bf 3f3d fb87 533d 3a47 183e 1252 803b
000000c0: 87ed 52bc 097e 0c3d 4805 493e b290 efbd
000000d0: 3101 8f3d d7cd 6ebc 8722 7ebc e375 ad3d
000000e0: eac1 63bc 3d51 c2bd 3a10 d13d 1b9c a33c
000000f0: 07c7 c6bb 2c5c 383d 4571 cbbd 0909 28bc
00000100: 3750 063e 3adf 08bd da32 af3d d470 2e3b
00000110: 7156 d03d 78ad 5f3d a28a 833c 51c7 863d
00000120: 422d b2bd 163d 33be 3045 3bbd ff82 f0bd
00000130: 1e45 1f3e 5257 133d 1dc7 7abd 2277 183c
00000140: 9601 4fbc 6c65 0bbc e78c 1e3d 7e33 25be
00000150: ff00 9dbd ba3a 7cbd 5f37 703d 0588 2cbd
00000160: 5a2a e83d c4be daba 736d 203e 0ab0 66bd
00000170: 426e b03d e985 083e 7649 893d 1a84 9abb
00000180: 4c04 913d d61e cd3d d49d 003e 4202 14bd
00000190: 5c42 2d3e 97e1 19be 2574 b73d c9a0 e4bd
000001a0: c5ae 1abe d2e2 8dbc f7bc 0fbe c939 123d
000001b0: c247 943d e9b3 bdbd 916d 263e 3d80 25be
000001c0: c22d 9e3d cc92 003e e6ce 26be aab9 16be
000001d0: ecc1 febd 6ef6 063e 262d fa3d 69af 0a3e
000001e0: 0675 29be 26a0 fa3d 749f b83d c7e6 cf3d
000001f0: 2736 403e 9764 213e 3c4f 1e3e 091c 01be
00000200: 4ce1 67bd 3b67 fabd 566c 4a3e 48ad 54bd
00000210: bd5b 12be fa31 09be 78e1 303d d388 2bbe
00000220: 4fed d3bd be9f df3d 6967 ec3d 3a64 2f3e
00000230: 110b 223d fc8f 07bd 0f4d 07be 5d64 b7bc
00000240: 802b fcbd cbc5 fabd 5e0d 293e 70b5 2cbd
00000250: 6616 1dbe 090e 00bd 7c35 5f3e bd1c 943d
00000260: d650 453e dd61 bb3d 338f f73d e8dd 93bd
00000270: 370e 703d da41 753d d8e2 b4bd 3042 64bd
00000280: c35d d33d 8765 e43d 100c 7b3d 423c dd3c
00000290: ba0e 193d a24b bfbd 62bb 193c af6d ec3d
000002a0: 941f e23d d0e2 efbd f6d8 0a3e 808c a0bc
000002b0: f730 8fbd e894 2dbd 2fa7 533b baa7 783c
000002c0: 240c 2f3e 88b2 583d cf0d 693d 187c 103e
000002d0: a61f 963d 2074 023e 4bd2 183d 79c1 9bbd
000002e0: 038b bd3d 224f a13d 7264 bb3d 23a5 b9bb
000002f0: 6e77 823d 8af9 5f3d 9b43 78bd 2123 9c3d
00000300: 717c 973d 8b0e 4d3d 0b08 f63c 2ffa 86bd
00000310: f8b9 e73d 1caf 953d 881a bcbc 046e d13c
0.15457162 -0.023002561 0.21161993 0.07242772 0.13913314 0.045071367 0.09602391 0.06799208
0.17427073 0.119292155 0.06555217 0.08144389 -0.112077445 0.07577298 -0.044205755 0.07844755
-0.07521166 0.23207316 0.08415807 -0.164558 -0.04221612 -0.0047067655 0.09736367 -0.1499082
-0.018779814 0.012908767 0.11130476 0.00894372 0.098477125 0.0019498282 0.03251884 0.07799555
0.038139053 -0.10983464 -0.048448417 0.13223135 -0.030546293 0.13722284 0.20653011 0.102439806
-0.08164049 0.15441103 0.0012434616 -0.0023438435 0.04681387 0.051643353 0.14870921 0.0039160335
-0.012874014 0.034299884 0.19630921 -0.1169752 0.06982649 -0.014575443 -0.015511162 0.08469751
-0.013901213 -0.09488151 0.10208173 0.019971898 -0.0060662064 0.045009777 -0.09933714 -0.01025606
0.13116537 -0.03341601 0.08554621 0.0026617544 0.101727374 0.054608792 0.016057316 0.06580985
-0.087000385 -0.17503771 -0.04572028 -0.117437355 0.1555371 0.035971947 -0.061225045 0.009305747
-0.012634655 -0.008508068 0.038708594 -0.16132924 -0.076662056 -0.061579444 0.058646556 -0.042121906
0.11336203 -0.0016688933 0.15666752 -0.056320228 0.0861478 0.13332333 0.06703465 -0.0047154548
0.07080898 0.10015647 0.12560207 -0.036134966 0.16919845 -0.15027462 0.089577 -0.1116348
-0.15105732 -0.01732007 -0.14036928 0.03569964 0.07240249 -0.09262831 0.16252734 -0.161622
0.07723571 0.12555999 -0.16289863 -0.14719263 -0.124393314 0.13179943 0.12215643 0.13543476
-0.16548547 0.12237577 0.09014788 0.10151439 0.18770657 0.15761028 0.15459913 -0.12608351
-0.056611344 -0.12226721 0.1976789 -0.051923066 -0.14292808 -0.13397971 0.043183774 -0.16751413
-0.103479974 0.1091914 0.115431614 0.17128077 0.039561335 -0.0330963 -0.1321299 -0.022386724
-0.123129845 -0.12244757 0.16509005 -0.04216522 -0.15340576 -0.031263385 0.21797746 0.07232044
0.19269118 0.09149525 0.1208786 -0.0722006 0.058607306 0.059877254 -0.088323295 -0.055727184
0.10320618 0.11152177 0.0612908 0.027006272 0.03736756 -0.09340598 0.009383054 0.11544358
0.11041179 -0.11713183 0.13559327 -0.019598246 -0.06991761 -0.042378336 0.0032295694 0.015176708
0.17094475 0.052904636 0.056897935 0.14109838 0.07330255 0.1273961 0.037309926 -0.07605261
0.0925503 0.078764215 0.09150018 -0.005665438 0.06370436 0.05468134 -0.06061135 0.07623888
0.07396782 0.050062697 0.030033132 -0.065906875 0.113147676 0.0730879 -0.02296187 0.025565155

lstm.weight_hh_l0 f4 [200, 50]
00000000: 8207 003e 50e9 14bd 3593 8ebd f84f 1bbd
00000010: 0797 0fbe 4001 03be bcc4 9bbd f056 02bd
00000020: 6455 b43d a37d 87bc f8bd 1ebe ddaf adbd
00000030: 1b46 043e 6b6f 6bbd 1042 52bc 32be 53bd
00000040: ee43 6e3d 1c98 443d 9ad7 ec3c 86ea 133e
00000050: f216 86bd 5846 ee3b a909 1f3c dbb6 4fbc
00000060: af78 df3d 1158 99bc f69d 0f3e c283 00be
00000070: acd4 d2bd b578 553d 6376 bd3c 41f0 aabc
00000080: 3a16 1dbe 694a 523d 1090 9b3b 3680 04bd
00000090: 8da8 10be 8d63 883d 5c77 173e 9380 833d
000000a0: eef7 0ebe 96b4 d83d ff97 14bd 6949 27bd
000000b0: 0dea 9c3d 6393 a23d 47be 813d f58b 11be
000000c0: e769 a93d 70e1 173c e0e7 a83c c600 fb3c
000000d0: 349c 31bd 58bf 7d3d bd1c b8bd 7eb1 9f3d
000000e0: 7b31 bf3d a352 7fbd 76d1 bb3d 9992 ebbc
000000f0: dd3e fbbc 15b9 94bd 6eea 2cbe d0e8 f0bd
00000100: f462 8cbd 1391 613d 983a 0c3d 0000 153d
00000110: 80ab 123c 7409 2cbe 3036 2fbd 23a6 84bd
00000120: ad04 033d cd9d 54be 8e41 11be 5d97 4fbe
00000130: 4760 b8bd 4dac 0ebe c094 0a3e 4251 f83d
00000140: a550 43bd e47a 753d b3cd 313e 030d af3d
00000150: 9186 fd3c 14f9 a2bd b3ac 2d3d 816f 10be
00000160: 6d03 9bbd 96b2 d9bb ed97 093d 9f26 ffbc
00000170: eaa6 0d3e 31dd 98bd 43c2 04be 024c d0bd
00000180: e944 33be 676f 983d 6a45 aa3d fc01 b1bd
00000190: 37fb fe3b cb1e a73d be61 943c 36b1 85bd
000001a0: 061d 913c 487f 1bbe 7f2a 453d eb27 bbbd
000001b0: 4a04 78bd aebb abbc dea7 813d fb46 f6bd
000001c0: c5a2 ac3d 9709 703d df53 2abe 5280 fabd
000001d0: e3b4 a33d 3f24 a3bd 9114 1dbc 529c db3d
000001e0: 10ba 8b3c 38e8 d33d 2619 643d 94ee 073e
000001f0: 36e4 e93d 656f 48bc d37c 513d 8b2b 0fbe
00000200: c302 1a3e 9f29 40be c24b 74bd 0701 23be
00000210: 1a70 18be efb4 553c c7ad 3abc b422 24be
00000220: b921 29be d65f ce3d 7974 dfbc 4215 903d
00000230: c432 b5bd b86c 7fbd 5994 debd 4b33 30bd
00000240: fe60 f9bd dacc cdbc 1047 283d 805a fdbd
00000250: a1ee ffbd 975f 5abd 6632 873c 9803 7f3d
00000260: 2b80 e6bc 7190 9d3d a781 90bc 4a91 8abc
00000270: fdd8 1fbe 62c9 173e d3f3 1b3e 0154 dbbd
00000280: 6525 95bd 76b6 45bd 115d 0a3e 8204 4ebd
00000290: c7d0 f8bd e9f8 103c 52a0 75bd 23e7 b7bd
000002a0: 3152 86bc 5451 ce3d 9fd1 e9bd e6b3 553d
000002b0: c782 fdbd 31d6 063c d3d9 b4bd 5f39 c6bd
000002c0: ea56 8d3d fe8f 69bd eef8 103e 3965 a4bd
000002d0: e6f7 0ebd c46e 4cbd eca0 483d ab31 0a3d
000002e0: 4858 ebbc d3dd 3dbd ec76 e23c 0ac9 2c3d
000002f0: 1972 9c3c 45ce 0a3e 84bf 643d 4cea 943d
00000300: a9be 5d3d a137 a1bd 4f10 bcbd 0931 c33c
00000310: 91e6 14bd f854 e53d 86d5 ccbd a2c5 a43d
00000320: ecbe dd3d 7eda 20bc 6c91 be3d 339e 50bd
00000330: 714d 15be 8416 8bbd 45ee febc a415 bf3d
00000340: bb7e f83d cbdb ecbd 5cbf 2ebe c054 8d3d
00000350: 92aa 433d 7217 d7bd b8fd f2bd 8648 9e3d
00000360: 8b16 81bc f5ce 1f3d cdf5 64bd ba16 38bd
00000370: 8c9c bbbd 4405 7c3c e429 d8bd fc65 d0bb
00000380: 08e8 efbc 8414 df3c e946 c23d 28a6 16bd
00000390: 7c94 863d 77a5 01be 09c4 1e3d cabe e8bd
000003a0: 376d 193d 9158 05be b8e2 f6bb 2333 683b
000003b0: 5c9b 113d 0eee eabd 8bda 243e 2562 d6bd
000003c0: fbfd d0bb b201 c93d 9d10 773d e76b f63d
000003d0: 53a9 613d 6eb7 c9bb 7b11 ad3d 29b4 293c
000003e0: 9b1d d3bd d403 913d d92c f83d 2274 0b3c
000003f0: e8f6 e63d b645 07bd 9ec3 21be c5ca eb3c
0.12502864 -0.036355317 -0.06961671 -0.03791806 -0.14022456 -0.12793446 -0.076058835 -0.03182119
0.088053495 -0.0165394 -0.15502155 -0.08480809 0.12917368 -0.057479303 -0.012833133 -0.051695056
0.05817025 0.047996625 0.0289114 0.14444932 -0.06547345 0.007271569 0.009706893 -0.0126778735
0.109116904 -0.018718751 0.14025101 -0.12550262 -0.1029447 0.05211707 0.02312774 -0.020866515
-0.1534051 0.051340494 0.004747398 -0.032348834 -0.14126797 0.06659613 0.14791626 0.06421008
-0.13961765 0.10581319 -0.036277767 -0.040841494 0.07661829 0.07938268 0.06335121 -0.14213546
0.082721524 0.009270057 0.02061838 0.030640017 -0.043361858 0.061950058 -0.089898564 0.07797526
0.093356095 -0.062334668 0.09170811 -0.028756427 -0.030669624 -0.07261864 -0.16886303 -0.117631555
-0.06854811 0.055069994 0.034235567 0.036376953 0.008952022 -0.16800481 -0.042776287 -0.064770006
0.03198688 -0.20763321 -0.14185163 -0.20272584 -0.090027384 -0.13932915 0.13533306 0.12124874
-0.04768433 0.05993165 0.17363624 0.08547404 0.030947955 -0.07957664 0.042401027 -0.14105035
-0.07569013 -0.0066436036 0.033592153 -0.031146346 0.13833204 -0.07464064 -0.1296473 -0.10170747
-0.17506756 0.07443123 0.08314021 -0.086429566 0.007781412 0.0816017 0.018113013 -0.06527941
0.017714035 -0.15185273 0.04813623 -0.09138473 -0.060550965 -0.020963516 0.06330846 -0.12025257
0.08429483 0.058602896 -0.16633557 -0.122315064 0.07993486 -0.07965898 -0.009587423 0.10723175
0.017056495 0.103470266 0.055688046 0.13274604 0.11420481 -0.01223359 0.051144432 -0.13981454
0.15040116 -0.18765877 -0.05964256 -0.1591836 -0.14886513 0.013043626 -0.011393971 -0.16028863
-0.1651677 0.10076873 -0.027277218 0.070353046 -0.088475734 -0.06235954 -0.10868139 -0.043017667
-0.12176703 -0.025122095 0.041083395 -0.12370777 -0.12496687 -0.053313818 0.016503524 0.062259287
-0.028137287 0.07693566 -0.017639948 -0.016914982 -0.15610118 0.14822915 0.1522973 -0.10709382
-0.07282523 -0.04826971 0.13512065 -0.050297268 -0.12149196 0.008848407 -0.059967346 -0.08979633
-0.016396614 0.10074106 -0.11416935 0.052173518 -0.123784594 0.008229778 -0.08830609 -0.096789114
0.06901343 -0.057022087 0.14157459 -0.08027119 -0.034904383 -0.04991032 0.048981592 0.033738773
-0.02872862 -0.046354126 0.027644597 0.042183913 0.019097375 0.13555248 0.055846706 0.07271251
0.054136906 -0.078719385 -0.09182798 0.023827093 -0.036352698 0.11197847 -0.10001664 0.08045508
0.10827431 -0.009817718 0.09305081 -0.05093212 -0.14580323 -0.06791404 -0.031119475 0.093302995
0.12133547 -0.1156536 -0.17065185 0.069009304 0.04777009 -0.10502519 -0.11864799 0.077286765
-0.01575782 0.03901573 -0.055898476 -0.04494355 -0.09160718 0.015382115 -0.10554865 -0.0063598137
-0.029285446 0.027231462 0.09486181 -0.036779553 0.0657129 -0.12660776 0.038761172 -0.11364515
0.03745767 -0.13022067 -0.007534351 0.003543087 0.035548553 -0.114711866 0.16098993 -0.10467938
-0.006377933 0.098147765 0.060318578 0.120322995 0.05509312 -0.0061558997 0.084506 0.010357895
-0.10308381 0.07080808 0.12117929 0.008511575 0.112775624 -0.033025466 -0.15797278 0.028783211

lstm.bias_ih_l0 f4 [200]
00000000: bb94 283d 1fc0 2b3e 51e1 32bd 635d 2d3e
00000010: 88db 9fbd 3e33 cd3d c9ff 493d f954 d0bb
00000020: 593d 023e 0da2 2a3e 94f6 fe3b 1c2f e83d
00000030: 47a9 76bd 85d7 df3d 5bf3 f2bd a543 7a3d
00000040: 1bc1 d2bd d0de bd3d 46d5 1d3e e1dc 273b
00000050: 383a b8bd ebdb 07bc 3800 b1bd d6db c3bc
00000060: 1edf 50bd e3f1 393e e5da 003e b420 a23d
00000070: 4f8d 7ebc 66a0 c43d d0bf aa3d 65e3 d3bc
00000080: c179 7b3d 2f74 ca3d e88b fc3d 3e17 9b3c
00000090: f357 fcbd c298 c2bd 8358 85bd f669 6ebd
000000a0: 521f 0f3e d347 063e c1c4 a33d 86c6 aebb
000000b0: 0864 ee3d c879 a2bd 46e5 fbbb e8bd fb3d
000000c0: 7304 a7bd 84ed 6f3d 10f7 73bd dc2f babb
000000d0: 584a 033e 315a 72bd 0b76 94bd cd09 25bd
000000e0: a053 e83d 0aee 8d3d 5cdb c03d cc3b 9dbd
000000f0: fbec 23bd 3940 cb3d 073c 76bd e24b d73d
00000100: 75cd a8bd d784 fc3d 3560 363d e9a9 01bd
00000110: 2abc 8c3d 062f 183e 0657 603c 1f1f 8fbc
00000120: 8b6a 183d 307f eabd 4977 243d 9551 cf3d
00000130: 0e9f febc ef68 91bd 7ed4 e93c 6899 3abd
00000140: 4e8b c9b9 f13c e2bd a716 ef3d e6ee 103d
00000150: 129e e13d d49d 5d3c 88dd 0a3e 15dd da3c
00000160: 8246 433d 06cd f03d cfda 253d edf5 cebd
00000170: 6ec4 1b3d 95d4 a6bd 8e32 97bd 302b f63c
00000180: 3738 0d3e ee09 b1bc 472e 57bd eabf 25bd
00000190: fe98 c53d 7f69 51bd c481 febd 3048 c03d
000001a0: 0313 b83d 5154 09bd 7d90 aabc b6cf ee3d
000001b0: 91a6 02bd 580a a8bc f0c3 8abd 1233 d33d
000001c0: c5bb e23d 7bfc f1bd 311b 82bd 7c80 ae3d
000001d0: 7682 2d3d eb1a 76bd cdc6 7f3d 0a00 6d3c
000001e0: c57a 7dbd d140 29bd a9f3 04be 4f23 f4ba
000001f0: 4080 0cbe bcc7 a8bd 68b0 873d e86a 0ebd
00000200: 98b6 f33d 80a7 f63c 0245 073e 9724 c2b9
00000210: 4e08 f23c f7e2 3fbd 1855 f33d c365 ffbd
00000220: 3c41 063d 68f3 eb3d 4724 d1bd 4ed2 84bd
00000230: d89b c6bc 1378 003d 5e7c 8d3d e719 003e
00000240: 82bf 87bc 678d 743c a6f5 04be ad80 dabd
00000250: bf28 96bd f442 bfbc fcf8 1a3e 9e40 013e
00000260: c6fd ccbb 55f4 f8bc 619f 52bc f5b9 c5bb
00000270: 52c4 18bd ba8c c8bd 9a28 8c3c 19ad 403e
00000280: eb18 523e c70a fd3d 421e 0e3e fcba 213d
00000290: 7f7c 21bd e5f5 cf3d 5d05 6bbd f815 e43c
000002a0: 3700 b3bd 74bb 333d 206b 013e daf3 143d
000002b0: 0e81 1bbd 926b 123e cb8a e0bc d4c1 303d
000002c0: f89a 2a3e c0bc 333e 780a 2cbd df4a ec3d
000002d0: d1ec 243e 0782 3e3d faf5 b03d c970 ae3d
000002e0: 5330 1dbe 15b4 b43d fc43 bbbd 19d1 a43c
000002f0: afac 8cbc 79ef 983d f9ae 09be 810b c73d
00000300: 72f4 1f3e 27ca 533c b6ef b33b 49be e9bc
00000310: 9b66 903d d7e7 c93d fdb4 a5bd 75a0 38bd
0.041157465 0.16772507 -0.04367191 0.16930155 -0.07805544 0.10019539 0.0493162 -0.006357786
0.12718715 0.1666338 0.0077808592 0.113371104 -0.06022003 0.10929779 -0.118628226 0.061099667
-0.10290738 0.09271014 0.15413389 0.0025613832 -0.08995479 -0.008292179 -0.0864262 -0.023908537
-0.05099403 0.18158679 0.12583502 0.07916394 -0.01553662 0.09600906 0.083373666 -0.025865266
0.06139541 0.098854415 0.123313725 0.018931981 -0.123214625 -0.095017925 -0.06511023 -0.05820652
0.13976792 0.13113336 0.07996512 -0.0053337244 0.11640173 -0.07933384 -0.0076872436 0.12292081
-0.081551455 0.058576122 -0.05956179 -0.005681975 0.12821329 -0.059168044 -0.072490774 -0.04029255
0.11344075 0.06930168 0.094168395 -0.07677421 -0.040020924 0.09924359 -0.06011584 0.105125204
-0.08242313 0.12330025 0.044525344 -0.03165618 0.06871827 0.14861688 0.013692623 -0.017470894
0.037210982 -0.1145004 0.04015282 0.101229824 -0.031081703 -0.071000926 0.028543707 -0.045556456
-0.00038441498 -0.1104678 0.116742425 0.03538408 0.11016478 0.013526399 0.1356107 0.026716748
0.047674663 0.11757855 0.040491875 -0.101055 0.038029127 -0.081460156 -0.073826894 0.03004989
0.13790976 -0.02161118 -0.052534368 -0.040466227 0.096483216 -0.051126 -0.124270946 0.09388769
0.08988001 -0.033527676 -0.02082085 0.116607115 -0.03189713 -0.020512745 -0.06775653 0.10312475
0.110709704 -0.11815735 -0.063528426 0.085206 0.042360745 -0.060084265 0.06244545 0.014465341
-0.06188466 -0.04132158 -0.12983574 -0.0018626245 -0.13720798 -0.08241221 0.06625444 -0.034769922
0.11900061 0.030109167 0.13209918 -0.00037029825 0.029544976 -0.04684731 0.11881465 -0.124705814
0.032777056 0.115210354 -0.102119975 -0.06485425 -0.024244234 0.03136451 0.06908487 0.12509881
-0.01657081 0.014926291 -0.12984332 -0.10669074 -0.073319905 -0.023347355 0.15134043 0.12622306
-0.006255838 -0.030389944 -0.012855382 -0.0060341307 -0.0372966 -0.097924665 0.017109204 0.18816032
0.20517318 0.12355571 0.1387873 0.039484963 -0.03942537 0.101543225 -0.05737816 0.027842507
-0.08740275 0.04387994 0.12638521 0.036365367 -0.037964873 0.14298847 -0.027409932 0.0431536
0.16660678 0.17552471 -0.04200217 0.11537718 0.16105963 0.046510722 0.08640666 0.08517606
-0.15350465 0.088234104 -0.09143826 0.020119237 -0.017172186 0.07467551 -0.13445653 0.09718991
0.15620592 0.012926615 0.0054912223 -0.028533118 0.070508204 0.09858673 -0.080911614 -0.0450749

lstm.bias_hh_l0 f4 [200]
00000000: 7b99 403d a729 a73d cd98 7fbb f0b6 113e
00000010: b95d 08bd aa5d f4bd cb4b 843d a65f 293d
00000020: 8756 b1bd d303 083d 60dc 25bb 60ba d23d
00000030: c53c 993d fbc1 ad3d a724 34bc 1568 28bd
00000040: c11c 02be ee08 a5bd a0e6 7d3d 7631 c93a
00000050: 3c74 f43c f014 bebd e452 bebd c1d4 a23d
00000060: f3fe c93d b666 d23c 399b d93c c737 4b3e
00000070: 503e f5bd bc4d f43d 24f4 2f3d 04ac 90bd
00000080: 6cd2 9f3c 7f85 163d ab59 163d 11e1 b13d
00000090: 03d2 44bd 1c4e af3d 89c6 a1bd 06b2 d53d
000000a0: f7a7 c1bd 5d80 063d cb54 5a3c 659e bbbd
000000b0: 4126 dbbd ba36 a43d 9197 033e 80ff b5bc
000000c0: c1be 1e3c e600 7c3d 436f 8b3c 8580 d23d
000000d0: 6874 b5bd 48c4 33b7 1298 f83d 4603 6abd
000000e0: 64d0 f8bd 095e e73d b0a2 28bd f3e3 153d
000000f0: 67bb 4f3d b254 133e aac3 bb3d 088f a8bd
00000100: 2602 063e e019 553d 4302 39bd a1d3 8abd
00000110: 393f e03c ea8e ddbd d76c 123e 7ad4 323c
00000120: 9856 be3d b270 a53d d6a0 bdbc dd52 a5bd
00000130: 9076 fe3d 6064 85bc 9dc3 a8bd 7487 2d3d
00000140: 0963 86bd 943a 52bd ece4 9abc 236c b0bd
00000150: 5104 8bbd e26e a83d 2198 d0bc ddfb 0dbd
00000160: cc4c 04be c562 b5bc 6026 993d 8057 f9bc
00000170: 6173 6b3d 0b98 ea3d f8fb f13d e51d 9bbd
00000180: e525 8d3c cd9d 58bd d226 2dbd 3f52 173d
00000190: aa0b b6bd 921b c63d 1b7e e93d d281 d5bd
000001a0: d202 a1bd a4ba b1bd 9bab 1a3b 79eb 123e
000001b0: 5116 703d 6ef4 003e 4e5f 103c 8349 963c
000001c0: 51b0 95bd c04f 713c 96ff e1bc 6f46 903d
000001d0: 2a9a 513d fa67 0d3e 8b67 083e 7afd 47bd
000001e0: a840 293d c65c 5b3d 942d b7bd 8d60 05bd
000001f0: f01f b23d d28f 773d 6366 59bc 233f b23d
00000200: 4096 c23d a444 b7bd 52e2 883c 8d01 d5bd
00000210: 8ab7 5b3c 7bd5 d53d 8126 a33d b9d2 d4bd
00000220: 2e87 f3bd 3608 efbd 3e8c b13d 7acd 1c3d
00000230: 98bf ecbd 804c b1bd 7384 43bd 3030 b33d
00000240: ce91 0dbe 334b 43bd 3fbb a0bd ce99 c1bb
00000250: 7432 3d3c 3c00 aa3d 9722 1cbc 87e9 b23b
00000260: 3bd0 013e 2844 cd3d 4894 b2bd fea5 9abd
00000270: bf1f 81bb 2cd6 c43d dd6a e4bd 9e8d 0dbd
00000280: 7979 ebbc 867e 083c 0795 0e3e a057 143e
00000290: d9e1 153d f307 163d ca8f 32bb e5c2 e63d
000002a0: e9a2 113c 6642 9b3d f227 113e a445 c53d
000002b0: 7b9f a13d e00b dd3d 8545 7c3d bec0 c13d
000002c0: 91a8 62bd 9f78 82bd 6000 483d 43df 10bd
000002d0: a4ba b6bc 7f5a d83d 104f 943d f1b8 fd3d
000002e0: ca5e 983b de0f 76bd d774 003e f304 803a
000002f0: 9a9a 003e 36ce 71bd 2eff ddbc 7737 963d
00000300: 06a5 ae3d d022 833d f63c 6d3c 0267 593c
00000310: b49c a4bc c21b 4e3d 6a32 953c d523 103d
0.04702137 0.081622414 -0.0039000988 0.14229941 -0.033292506 -0.119319275 0.06459769 0.041350983
-0.08659082 0.033206772 -0.0025308356 0.102894545 0.07482294 0.084842645 -0.010995067 -0.041114885
-0.12706281 -0.08058344 0.06198752 0.0015349824 0.029840581 -0.09281337 -0.09293154 0.07950736
0.09863081 0.025683742 0.026563274 0.19845496 -0.11974776 0.11928889 0.04295744 -0.070640594
0.019509517 0.036748406 0.036706608 0.08685506 -0.048051845 0.0855982 -0.07899196 0.10434346
-0.09455865 0.03283726 0.01332588 -0.09161071 -0.10700656 0.08018251 0.12850787 -0.022216558
0.009689034 0.061524294 0.017020827 0.102784194 -0.08860093 -1.0714932e-05 0.1213838 -0.057132028
-0.12149122 0.11297233 -0.041170776 0.036594342 0.05071583 0.14387777 0.09168179 -0.08230406
0.13086757 0.05202663 -0.045168173 -0.06778646 0.027373897 -0.10818274 0.14299332 0.010914916
0.0929386 0.080781356 -0.023147982 -0.080724455 0.12424958 -0.016283214 -0.08240435 0.042365506
-0.06561858 -0.051325396 -0.018907987 -0.086143754 -0.06787933 0.08224274 -0.025463166 -0.034664024
-0.1291992 -0.022141824 0.074780226 -0.030437231 0.05748308 0.11454781 0.11815637 -0.07574061
0.017229984 -0.052884866 -0.04227335 0.03694367 -0.088889435 0.09673227 0.11401006 -0.10425152
-0.07861866 -0.08678177 0.002360082 0.14347638 0.058615033 0.12593243 0.008811785 0.0183456
-0.0730902 0.014728487 -0.027587693 0.07044684 0.051172413 0.13809195 0.13320749 -0.04882572
0.041321427 0.053555273 -0.0894424 -0.03256278 0.08697498 0.060439892 -0.01326904 0.087034486
0.09501314 -0.08948639 0.01670948 -0.104006864 0.013410458 0.10441109 0.079663284 -0.10391755
-0.11891018 -0.11671488 0.08669327 0.038281895 -0.11559981 -0.08657169 -0.047733735 0.087494254
-0.13825151 -0.047679137 -0.07848214 -0.0059082275 0.0115476735 0.08300826 -0.009529731 0.0054599675
0.1267709 0.100227654 -0.08719689 -0.07551192 -0.003940552 0.096111625 -0.11153195 -0.034558885
-0.028744446 0.008330947 0.13924037 0.14486551 0.03659234 0.036628675 -0.002724635 0.11267642
0.008888938 0.07581024 0.14175394 0.096324235 0.078917466 0.107932806 0.061589736 0.09460591
-0.05533654 -0.06370663 0.048828483 -0.03536917 -0.022305794 0.10564136 0.072416425 0.123887904
0.0046499716 -0.060073726 0.12544571 0.00097671 0.12558976 -0.05903455 -0.027099218 0.07334798
0.085275695 0.06403124 0.014479866 0.013269188 -0.020094253 0.05031944 0.018212516 0.035190422

lstm.weight_ih_l1 f4 [200, 50]
00000000: 0c04 4b3c 3665 53be eee7 bfbd 9c8b 0bbe
00000010: 3505 edbd 38ad d2bc 89b0 31be c8c8 9b3d
00000020: 4b93 603d 4f24 4abe fefc 05bd 9d51 13be
00000030: e07f 343e 89f1 33bd 7d64 23bc 9d21 03bd
00000040: bd7c 65bd f7ba dbbc 96bc 803d a37a 87bd
00000050: e4f4 bd3d d13d b3bd e9d7 76bc c8c2 2e3e
00000060: 854a 943d 2ba5 0b3e 5780 913d ae32 22be
00000070: c795 073e e3b8 b73d c589 ecbc b679 de3d
00000080: 44e5 dcbd 39e9 833a 7e4a 9a3d 9f08 f53b
00000090: 40d5 7cbd 613d a4bd 832d 943d b4a1 763d
000000a0: 8330 d6bd 4dbf c93c 74fc 55be 7585 f63d
000000b0: 0be9 24be 99e9 e1bd f59b 313b 1072 9dbd
000000c0: 2f18 ae3d ee61 0abd 9c1b 443e 16d1 63be
000000d0: 849b 12bd 810a c2bc 0b9a 823d 83ef d83d
000000e0: 431a ddbd 94bf 803d 1191 60bc 5e09 79be
000000f0: e266 0d3c c486 f6bd 05aa 403c 210a fbbc
00000100: ebb7 76bd 1820 803d 319a b23d d408 3c3e
00000110: 2815 c43d bd8b c33c 88e3 46bd e7e0 2fbd
00000120: 2c70 c63d fff3 113e e4f8 593d 654b a73c
00000130: 4f3f 383e a9f8 673d de97 32bd 3749 d2bd
00000140: 1fbe 9dbd 8a47 b3bc 4289 dbbd 4657 3e3d
00000150: 26e3 eb3d 4bf8 783d 0f5b 98bd e17c 003e
00000160: 67b5 213e b08e ad3d 06b6 f6bd abb6 c43d
00000170: a235 623d cc03 cebd d3ca 09be 23ed 44bd
00000180: 71c8 323c 5c14 183d 9143 33be 8e86 1ebd
00000190: a946 50bc c79e 13be 95e8 1ebd e12f cebc
000001a0: f34f aa3d 547a 97bd 2a37 06be a3d2 0d3e
000001b0: 2ceb 04bd 4f7d e2bd e828 83bd ed05 3dbe
000001c0: 361a de3c bb6f 6fbd b65a 9e3d 54b3 7bbb
000001d0: 581b 2abc b565 2a3e 1446 003e c971 65bd
000001e0: 729d b2bd a302 913d 77eb 5fbd ab96 513d
000001f0: d700 543c 1ba9 193e b969 e13d bbb1 2b3d
00000200: 9237 623b ae54 4f3d 89ff df3d cbaf b63c
00000210: 2fa8 b13c 82f4 38bd 75bb 173e 26f1 adbc
00000220: 38f3 443d 4883 973b a9bf 5e3d d96f 3d3d
00000230: cb38 75bd 89f8 983d f8dc d3bd d830 73bd
00000240: e389 dcbd b4ac 99bd cc36 253e 8e6b 65bc
00000250: a880 c5bd 0165 bd3d 5aa0 80bc d8b9 f23c
00000260: bb15 6abd b8b1 26be 7a33 803b 7dbc 673c
00000270: 5997 b0bc ef4a 0abd 6bb9 58bd fb38 9bbd
00000280: 1cb8 c13d 28b4 15be 3a31 c4bd 2f73 123d
00000290: 70f1 dd3d 677e 1fbc a1a6 a7bd 237a 273e
000002a0: 89d2 c2bd 36e4 9a3c ad13 afbd 6f0c a63d
000002b0: f725 0c3e abd3 3abc 6bda 223e 6a3f 2b3e
000002c0: 463b a33d 6490 a83d 0317 093e 04d6 d4bd
000002d0: 2fec 9d3d 1039 8ebd 0b7a 013b b05d 063d
000002e0: f367 863d 9760 8ebd 8ea7 df3d d517 dabc
000002f0: 24e8 35bd 04c1 253e c3af 2b3d ae26 89bc
00000300: dd74 1cbe ba55 e83d fa53 15be b4e3 9cbd
00000310: 2ebc c63d 6297 b3bd b086 4ebd 6d79 fcbd
00000320: 65e2 a73d 5e06 993d 183a 4f3e 0ec2 103c
00000330: 68c0 4abe 78be 043e 2cd2 0cbd 0751 29bd
00000340: 5d50 97bd 9396 11be 2984 343e fe11 08be
00000350: 37eb 67bc 2df3 863d 8dad 84bd 7c78 77be
00000360: 1490 52bd b46b 4d3d 9025 d7bd d204 a23d
00000370: d1a5 5d3d a2bc 4abc 5a33 c83a a17b a93d
00000380: 1ae5 39bc cc17 0bbd e7a2 29bd c10f 9ebd
00000390: bf25 f1bd ac72 a4bc 018b 9cbd 0c35 e93d
000003a0: 0d89 8cbd c4d4 433d 25f6 fbbd d9f9 91bd
000003b0: b13a 78ba 130f f0bd fec5 dd3c e345 ec3d
000003c0: 6b45 74bc 0050 a6bd 6883 e9bd ed10 11bd
000003d0: fae7 bf3c 0919 a73d f972 6e3e 0f96 56bd
000003e0: c3a5 d7bc 2d12 16bc f5f6 093c a3d7 dfbd
000003f0: 8afa 8bbc 566b 1a3e 6bd9 77bd a2fb f13d
0.012391102 -0.20644078 -0.09370409 -0.13627476 -0.11573259 -0.025717363 -0.17352499 0.07606655
0.05482797 -0.19740413 -0.032711975 -0.14386602 0.17626905 -0.043931518 -0.009972689 -0.032014478
-0.056027163 -0.02682255 0.0628597 -0.06615188 0.09275225 -0.08752025 -0.015066125 0.1706649
0.07240776 0.13637225 0.07104557 -0.15839645 0.1324073 0.08970811 -0.028874287 0.10863058
-0.107859164 0.0010064013 0.075337395 0.0074778344 -0.06172681 -0.080195196 0.07235243 0.060212806
-0.104584716 0.024627352 -0.20897084 0.12037174 -0.16104524 -0.11030883 0.0027101014 -0.07687771
0.085007064 -0.0337848 0.19151157 -0.22247729 -0.035792843 -0.02368665 0.063770376 0.10592558
-0.10796025 0.06286541 -0.0137064615 -0.2431998 0.008630486 -0.12037423 0.011759286 -0.030644478
-0.06023399 0.062561214 0.08720816 0.18362743 0.09574348 0.023870343 -0.048556834 -0.042939093
0.09689364 0.14253233 0.053215876 0.020421693 0.179929 0.056633625 -0.043601863 -0.10267871
-0.07702278 -0.021884698 -0.10719539 0.04646995 0.115179345 0.060783666 -0.07439243 0.12547638
0.15791856 0.08474481 -0.12046437 0.09605154 0.05522693 -0.10059318 -0.13456278 -0.048077714
0.010912047 0.03712879 -0.17506243 -0.03870254 -0.012712159 -0.14416037 -0.038796026 -0.025169315
0.0831603 -0.07396379 -0.13106981 0.13849883 -0.03245084 -0.11059057 -0.064042866 -0.18459292
0.027112108 -0.058456164 0.077321455 -0.0038406448 -0.010382496 0.1664036 0.12526733 -0.056016717
-0.087214366 0.07080581 -0.054667916 0.05116908 0.012939653 0.15005915 0.11006493 0.041917544
0.0034517986 0.050617866 0.10937411 0.022300621 0.021686641 -0.045155056 0.14817603 -0.021233153
0.048083514 0.0046238042 0.054382 0.046249244 -0.059868615 0.07469279 -0.10344881 -0.059372753
-0.10768487 -0.07503644 0.16134185 -0.014002694 -0.0964368 0.092477806 -0.015701462 0.029629633
-0.05714963 -0.16278732 0.0039123865 0.01414406 -0.021556543 -0.03376287 -0.052911203 -0.075792275
0.09458944 -0.14619505 -0.09579702 0.03575438 0.10837066 -0.0097347265 -0.08186079 0.16355185
-0.09512813 0.018907648 -0.08548675 0.0810784 0.13686357 -0.011403005 0.15903632 0.1672341
0.0797029 0.08230665 0.13387685 -0.10392383 0.07711064 -0.069444776 0.0019756581 0.03280419
0.065627955 -0.06952017 0.109206304 -0.026622692 -0.04441084 0.16186911 0.041915666 -0.016742077
-0.15278955 0.11344476 -0.14582816 -0.076606184 0.09703861 -0.08769108 -0.050421417 -0.12327848
0.08197478 0.074719176 0.20237005 0.008835329 -0.1979996 0.12963283 -0.034380123 -0.04133704
-0.07388375 -0.14217596 0.1762854 -0.13288113 -0.014155201 0.06589351 -0.06478415 -0.24167055
-0.051406935 0.05015154 -0.10505211 0.07911076 0.054113213 -0.012374075 0.0015274093 0.082755335
-0.011346126 -0.03395824 -0.04141512 -0.077178486 -0.117747776 -0.020074211 -0.076437004 0.11387071
-0.06862078 0.04781033 -0.12302808 -0.07127733 -0.0009469195 -0.11721625 0.02707195 0.11536767
-0.014909129 -0.081207275 -0.11402017 -0.035416532 0.023426045 0.08159072 0.23286046 -0.0523892
-0.026324159 -0.009159607 0.008420696 -0.10929801 -0.01708724 0.15080008 -0.06051008 0.11815573

lstm.weight_hh_l1 f4 [200, 50]
00000000: 7fc3 14bd 3f1f 84bd d2b9 eabd 70cb cc3d
00000010: 51c8 883b 031c 863c aad8 653d 016a cdbd
00000020: 4c24 b3bd 0e72 f5bd 19f8 33bd 2dbf 0cbd
00000030: 31a1 1cbe 6412 6cbd 6f09 b23d fc4c 9d3c
00000040: d597 043e 9081 45bd 1815 193e 7374 573c
00000050: 4b91 fbbd f488 bd3d b498 9e3c fbba f43d
00000060: c570 d53d a8da 0dbd 09a9 603d 2968 20bd
00000070: 76c6 483b e637 f73d a1fe 63bc cc36 c73d
00000080: 30ba 8d3b 6e42 00be f123 073e 9abc 553d
00000090: f8bf b83c 3510 c93c 1713 e0bd 7480 0f3e
000000a0: 5cf3 6ebd a9d8 3ebc b906 133e 1d3b de3d
000000b0: a7e9 a9bd 609f 8b3d acba 393d bdcf a63d
000000c0: ebb5 babc af4c 8e3d 7e20 003e ac24 ecbc
000000d0: af0e 983d 3e65 f83d f167 5c3b 5a0f c5bd
000000e0: 60b6 8cbd 9b3e 8e3c 69b2 e43d 4de9 db3d
000000f0: c539 7d3c ccba 51bd d302 913d 2060 123e
00000100: 9ce7 d53d 381c 6f3c 2e98 4c3c fe6f e63c
00000110: 3548 803d 9b9e 66bc 54dd aa3d 7463 cf3d
00000120: 81a0 d43d 99ac ec3d 470d 5c3d 714b 1e3d
00000130: de1b 11bd 7249 cebd 7913 97bc ccfa abbd
00000140: ab89 133e 2a74 a5bd 4d6e 353c 4568 8b3d
00000150: 22d4 8b3d 5089 0d3e c4d7 dcbd e5a7 20be
00000160: f718 af3d b964 b5bd b24f dcbd b4ef d6bd
00000170: 98ce 4d3d e8c6 b93d 15ea a5bd 8aef 163c
00000180: 7986 5f3d 9d54 f7bd 5807 f73d 0afc b03d
00000190: 2674 003e 8a23 0c3d cdf7 1a3e d5b3 1bbe
000001a0: f234 23be 1a10 4d3b 413b fe3d 6c41 c6bd
000001b0: d110 c8bd 3779 3ebd ef90 973d 1dcb c93d
000001c0: 8a90 e83b 7667 d5bd 7d33 1d3e 8cf4 cabd
000001d0: c23b f13d ef27 e6bd ceec 8eba 82f2 cdbd
000001e0: 9008 07bd f992 2a3a 0a46 c6bc 307a 42bd
000001f0: 59a7 743b cd4b e63d 2da6 4bbd 7d2e 833d
00000200: 417d ff3d 43b5 68bd 4d6c 023e e7d7 b83c
00000210: 3528 ecbd c1ca f5bd 6a96 62bc 36ab bdbd
00000220: 7ae5 03be ed6a e4bc d431 453d 3400 91bd
00000230: a73f f6bd 4d63 1bbc d9c7 083e d7cd b5bc
00000240: fe80 303d 9534 d4bd 5816 db3c 1531 0abe
00000250: d57e c83d 8c82 163d a5ee 28bc b3d3 f1bd
00000260: c454 6dbd 403a 28bd 9ec8 e13c c8bd 45bd
00000270: d342 bfbd d538 89bc 0dc5 923c 0049 b4bd
00000280: 6f80 153e ab5d a83d f806 fb3d 3f78 1c3b
00000290: 87ab 343d 35ad 51bd 2b65 f03c a16f 0a3d
000002a0: 3e20 f33d d15c a03d 928e 98bd c0db d23d
000002b0: ece1 e6bd 2d17 c63d 4f32 b13d 7109 8dbd
000002c0: 5b57 e1bd 1d17 d0bd cf97 0abd fb2a b7bd
000002d0: e5e8 be3d e5a5 7dbb cacb f5bd fb07 89bc
000002e0: 7bde 033e 1af3 0fbe ca52 25bd afe2 b73c
000002f0: 3b1a 04be ead2 62bd 97da 853d 9e39 65bd
00000300: e189 203d afe0 e4bd d0ec b53d 2f25 f6bd
00000310: c1ac 22be 4087 22bd e992 b23d c063 173c
00000320: 1cf4 1dbe 0d93 b33d 3d85 c8bd 32d2 bcbd
00000330: 011c da3d 664b 97bd a456 b03d f318 f3bd
00000340: 3a19 66bd 117a 503b 09e5 183d f10c e8bd
00000350: fdbe 44bd 1328 fc3a b47a 983d 2eb1 803d
00000360: e83d c43d a1f4 32be 7e20 0a3d c684 6ebd
00000370: b5fb 5f3d 9c96 8a3d 14c2 c6bb 3c18 62bd
00000380: f8b0 cd3d 0b72 1d3e 99bf 403c da92 013d
00000390: ba3a 8a3c 882f 2b3c a158 953b 440b 973b
000003a0: d2ce 50bd 535b 383c 8303 56bd abff 083d
000003b0: 48ad 1fbd c89c db3d 74dc db3d 5931 063e
000003c0: bd62 5e3d 0b65 84bd 54b5 fd3d ae56 f13d
000003d0: ada4 d43b cf75 c5bd 644f a9bd 34e0 04be
000003e0: 020b 2b3e 4dc8 97bd df1a b0bd 7034 b9bd
000003f0: da19 813c 4d2c b2bd 25b3 4abd e7d0 cf3d
-0.036319252 -0.06451272 -0.11461224 0.0999974 0.00417427 0.016370779 0.05611483 -0.10029984
-0.087471575 -0.11984645 -0.043937776 -0.034362007 -0.15295865 -0.057634726 0.086932056 0.019201748
0.12948544 -0.048219264 0.14949453 0.013150322 -0.12283572 0.09254637 0.019359924 0.11949726
0.104219 -0.034632355 0.054848704 -0.039161835 0.003063587 0.12071209 -0.013915689 0.097272485
0.004325174 -0.12525341 0.13197304 0.052181818 0.022552475 0.02454386 -0.10941141 0.14013845
-0.058337554 -0.0116483355 0.14358033 0.10851119 -0.08296519 0.06817508 0.04534404 0.08145092
-0.022791823 0.0694822 0.12512395 -0.02882608 0.07424676 0.121286854 0.003363129 -0.09622069
-0.06870723 0.017363837 0.111668415 0.10737858 0.015455668 -0.051203534 0.07080617 0.14294481
0.104445666 0.01459413 0.012487454 0.028129574 0.062637724 -0.0140759 0.08342996 0.10126391
0.10382176 0.11556358 0.0537236 0.038646165 -0.035426967 -0.10072602 -0.018441902 -0.08397445
0.14407985 -0.08078797 0.011073661 0.06806997 0.068275705 0.13821912 -0.107833415 -0.15689047
0.085496835 -0.08857102 -0.10757388 -0.104949385 0.05024585 0.090711415 -0.08101288 0.009212384
0.054571602 -0.120766856 0.120619476 0.08641823 0.12544307 0.03421358 0.15133591 -0.15205319
-0.15938166 0.0031290115 0.124136455 -0.09680447 -0.097688325 -0.04650232 0.07400691 0.09853194
0.0070973085 -0.10420124 0.15351672 -0.09909925 0.11778976 -0.112380855 -0.0010904314 -0.1005602
-0.03296715 0.0006506886 -0.02420332 -0.04747981 0.0037331192 0.112449266 -0.049719024 0.06405351
0.12475062 -0.05681349 0.12736626 0.022563888 -0.115311064 -0.12001563 -0.013829807 -0.092611715
-0.12880507 -0.027883017 0.048143223 -0.07080117 -0.120238595 -0.009484124 0.13357486 -0.022192879
0.043091767 -0.10361592 0.026744053 -0.13495286 0.09789816 0.036745593 -0.010310804 -0.118079565
-0.057942167 -0.041071177 0.027561482 -0.048276693 -0.093389176 -0.016750732 0.017916227 -0.08802986
0.14599775 0.08220991 0.122571886 0.0023875383 0.044108894 -0.051190574 0.029345116 0.033797864
0.11871384 0.07830203 -0.07449068 0.1029582 -0.1127356 0.09672389 0.08652174 -0.068865664
-0.1100299 -0.101606585 -0.033836182 -0.08943745 0.09321765 -0.0038703617 -0.1200176 -0.016727438
0.12877838 -0.1405758 -0.040362157 0.022446958 -0.12900631 -0.055376925 0.06535833 -0.05596315
0.03919399 -0.111756675 0.08883059 -0.12018811 -0.15886213 -0.039679766 0.08719427 0.009240091
-0.15425152 0.08768282 -0.09791038 -0.09219779 0.106498726 -0.07387428 0.086102754 -0.11869993
-0.0561764 0.0031811038 0.0373278 -0.113305934 -0.048033703 0.0019238017 0.07445279 0.06283794
0.0958212 -0.17476131 0.033722393 -0.05823209 0.054683406 0.06767008 -0.0060656164 -0.055198893
0.1004352 0.15375535 0.01176443 0.03163419 0.016873706 0.010448344 0.0045576845 0.0046094973
-0.05097849 0.011252242 -0.052249443 0.03344695 -0.038983613 0.10723263 0.107354075 0.13104762
0.054293383 -0.06464585 0.12388101 0.11784111 0.0064893574 -0.09641611 -0.08267096 -0.12976152
0.16703418 -0.07411251 -0.08598875 -0.09043205 0.015759397 -0.08699856 -0.04948725 0.10147267

lstm.bias_ih_l1 f4 [200]
00000000: a4e8 7a3d c920 d7bd 1237 febc 7d1d b13b
00000010: 7df9 abbd d7fc be3d 3651 9e3d e28b e6bc
00000020: e1a3 03be f435 babd c28f 8a3d 49ee f0bd
00000030: 6ef9 d4bd b443 b23d 65ff e03d 19b0 c3bc
00000040: e4b3 c4bd 18d7 d5bd 5fc3 d9bc 5877 8cbd
00000050: bdde 6ebd 9ac9 a73c d039 ff3d 733a 2a3c
00000060: 94d2 66bb 1252 91bd f2cb 8a3d 45c3 b73d
00000070: 45a4 00be 260d 773d 333c 023d 91d3 03bd
00000080: 5dbe 3f3d 4d34 da3b 9484 56bd ebda 4f3e
00000090: 4d80 49bd 0ef5 673d fc34 173e d607 cebd
000000a0: 7b58 54bd a103 1fbc 0b95 4c3d 7e54 ee3d
000000b0: 1c53 4d3d cc7d 0b3d f955 65bd 9a89 093e
000000c0: bd46 1e3e d648 4e3d a4b7 a33d df5e 1a3e
000000d0: 5cdf 9d3d a8f7 d2bc c061 05be d331 e43d
000000e0: 1d9d d43d e151 0abe 834b 88bc 70ba 173e
000000f0: 4833 09bd e988 123e 63c3 5dbc f202 a03d
00000100: 658d f03d 4754 afbc 2f74 e23d cb02 10be
00000110: 37a5 9dbc 0005 b2bd d3c3 3a3d d69f e4bd
00000120: 98c5 f0bb ed69 f03d 20ca 56bd 6fd7 f7bd
00000130: 90f8 1fbd dfbb 043e b19b db3d 9bfd e73d
00000140: 8bff ae3d c8c1 e13d cb7d f83b de2a 0c3e
00000150: abd5 d13d 26be d83d 4a0f 713d d5d7 eebc
00000160: 9e1d 9d3c 4d66 933d cfeb f83d 0ff4 dc3d
00000170: fd6b 0e3e 9bac b83c 94ca 01bd eae6 46bd
00000180: 2b7c f0bc b89c 143e 9338 b63c 3f5a b83d
00000190: a288 20bc a3bc 663d e5a9 c23d 6376 dcbd
000001a0: 216e cc3d b576 f23d 19b7 d5bd 2f5e fbbd
000001b0: 49f9 9fbd 53d2 793b d49c ef3d 731f 383b
000001c0: 9044 c83d 7777 0a3e 810a 153d cdda 0fbe
000001d0: 5a34 8c3d 328a 9b3d e90f 3f3d 2142 f43d
000001e0: 463a a6bd de56 ca3d 2119 99bd 6a76 d7bb
000001f0: afa8 a9bd 4865 47bc fc76 af3c 634a 01be
00000200: ecaf 18bd 331f 07be bcdd a53d c7e5 cf39
00000210: c747 f1bd 6102 93bc 13c6 643d ce05 acbd
00000220: 4edc e13d 900a acbd 82af 86bd 2a6b bb3c
00000230: 706a b7bd a4bb 053e 44be ba3c 84ee 0f3e
00000240: 3b14 fcbd 305f cbbd 98df f0bd abbf 22bc
00000250: 4edf 063d 4fc2 01be b59a d2bd dbea c93d
00000260: 987c 0bbd 0c05 043e eb64 f83d 7833 0fbd
00000270: e5ad 6a3d fd72 11be de11 6fbd 0ce3 e73d
00000280: de02 013e 4757 703c 5247 023e c6f3 7d3d
00000290: fc96 05bd ce88 063e 1c6e 123e 6360 2d3c
000002a0: 959c 933d 9f92 5fbd ce7f 443d 752c 63bd
000002b0: bed8 e73d 5185 9d3c 4be8 9ebd 2b11 c73d
000002c0: 86f8 e33c 1771 47bc ca5b 453b f9a7 7abd
000002d0: db02 083e 8138 c23d bc48 38bd 7898 fd3d
000002e0: 46d5 ba3d 76bf 42bc 650b 603c 5796 003e
000002f0: 22a3 103d 9f06 0c3e aeb2 e73d ffd8 013e
00000300: 4b20 9a3d ac92 3abd 3234 bebd 7a12 9fbb
00000310: d9dc 073e 4788 b63d 534a ee3b a102 0f3c
0.06125702 -0.105043 -0.031032119 0.0054051266 -0.083971955 0.09325569 0.077303335 -0.028142873
-0.12855484 -0.09092322 0.06765701 -0.11764199 -0.103991374 0.087043196 0.10986213 -0.02388768
-0.09604624 -0.104414165 -0.026582418 -0.068587005 -0.05831789 0.020481873 0.12462199 0.010389912
-0.003522073 -0.07095732 0.06777181 0.089727916 -0.12562664 0.060315274 0.03179569 -0.032184187
0.046812404 0.006659067 -0.05237253 0.20298354 -0.049194623 0.056630187 0.14766306 -0.10060088
-0.051842194 -0.009705455 0.049946826 0.11637209 0.050128087 0.034055516 -0.055990193 0.13431397
0.15456672 0.05036243 0.07994011 0.15075253 0.07708618 -0.025752857 -0.1302557 0.11142316
0.103815295 -0.13507797 -0.01663757 0.14817214 -0.03349617 0.1431004 -0.013535353 0.07813062
0.11745719 -0.021402491 0.110573165 -0.14063565 -0.01924382 -0.0869236 0.04559691 -0.11163299
-0.0073477738 0.11738954 -0.052438855 -0.121016376 -0.039055407 0.12962292 0.10723055 0.11327668
0.08544835 0.11023289 0.007583355 0.13688228 0.10245832 0.10583143 0.05885247 -0.029155651
0.019179162 0.07197247 0.12154352 0.10788738 0.13908382 0.022543242 -0.031687334 -0.04856006
-0.029356083 0.14512908 0.022243774 0.09001588 -0.009798201 0.05633224 0.09505061 -0.10764768
0.09981943 0.11839048 -0.10435314 -0.122738235 -0.07811219 0.0038119748 0.116998345 0.0028094917
0.09778702 0.13522135 0.03638697 -0.1404831 0.06845923 0.07594718 0.046646032 0.119266756
-0.081165835 0.0987985 -0.07475496 -0.0065753954 -0.08284127 -0.012170143 0.02141904 -0.12626033
-0.037277147 -0.13195495 0.08098933 0.00039653314 -0.117812686 -0.01794547 0.05585296 -0.08399545
0.11028348 -0.08400452 -0.06576444 0.022878248 -0.08955848 0.1305986 0.022795804 0.1405583
-0.12308546 -0.09930265 -0.11761397 -0.0099333925 0.032927804 -0.12671779 -0.10283414 0.09859248
-0.03405437 0.1289255 0.121286236 -0.034961194 0.057294745 -0.14204021 -0.05836665 0.11322603
0.1259875 0.014669246 0.12722519 0.06200006 -0.032614693 0.13138124 0.14299816 0.010582062
0.072076 -0.05458319 0.047973447 -0.05546232 0.11320637 0.01922861 -0.0775915 0.097200714
0.027828466 -0.012172959 0.0030114525 -0.061195347 0.1328234 0.094834335 -0.04499124 0.12382597
0.0912271 -0.011886468 0.013674592 0.1255735 0.035311826 0.13674401 0.11313377 0.12680434
0.07525691 -0.045550033 -0.09287299 -0.0048544975 0.1326784 0.089127116 0.0072720437 0.008728654

lstm.bias_hh_l1 f4 [200]
00000000: 3130 c1bd 45bf d5bd d37e ef3d cbd7 00be
00000010: f914 c53d 7a0e d1bd 9da5 acbd 51d7 8bbd
00000020: 0bb0 1a3d 99af 393e be6f 8bbc 73e5 5abd
00000030: a791 953d b8e0 e8bc 5b06 553c 6945 cabd
00000040: 9a1c 89bd 1aee a83d 0536 99bd e768 d3bc
00000050: cca4 cf3d ad54 0a3e 7e95 8c3d 2651 54bd
00000060: 0be8 30bb e61d 053e ee76 a53d 6144 bebd
00000070: dd55 113d 1918 e13d c3c6 9b3d b984 6c3d
00000080: 9c16 61bd b8f6 bdbd 30f1 713d 563a 8c3d
00000090: 3abb c0bd ea87 913d d5ac 0c3d 0394 063e
000000a0: dd83 913d b72d c8bd 053a 193e 3563 5e3d
000000b0: 5486 ddbc 034b 5abd ac08 4ebb 696f 8abc
000000c0: 90e1 b4bd 3bb8 a43d 4cfc 153e 3719 02be
000000d0: 68bf cebd 0b5e c23d a4e4 0fbe f13c 3fbd
000000e0: 1118 c43d 60b2 9d3c 3f85 093d 284e c7ba
000000f0: ebcc c33d 47bb 0e3e b771 eabd b60c b33d
00000100: ffc2 52bd 4935 8d3c 3459 fabd eb26 4e3d
00000110: 0a8d a73c 0492 8abb d21b 4abc 1222 9d3b
00000120: b89b 10bd 90de 2bbd 7569 473d fa72 4d3d
00000130: dac7 a8bc 85c9 d5bd a1a9 75bd d3e9 8f3d
00000140: 937b 993d 8f66 c6bb d780 b43d 2456 22bc
00000150: 485c 0a3e 3d71 963d 0236 c83d ef53 50bd
00000160: f034 953c 2564 b33d 483e 83bc 4011 6cbd
00000170: b27e b0bd a29b 96bd f967 f03d 3f70 123c
00000180: 1073 da3c fbab a9bd 4cd3 c6bd f7b8 843d
00000190: 8b7e cfbd 3ab0 b13c 2159 903d d51b 97bd
000001a0: 67bb e1bd 1f62 07bd bf05 813d c3d3 ca3d
000001b0: 3999 d4bd 6122 b93d e283 073d 9028 95bd
000001c0: 981a c0bd 61ed a03d 8544 9c3d 752f 88bd
000001d0: 1e7a 0abe 636f a8bd 1b6e 32bd d184 2bbd
000001e0: ca7c a13c cca3 acbd f5b1 a5bb 99bf 963d
000001f0: 7333 f5bd b71d a03d e4e4 d8bc 98eb 0b3e
00000200: b15c 8c3d bd28 70bd 26fd b93d 978f 163c
00000210: 9b28 093d eecf 123e 1af6 de3d b368 4c3d
00000220: b86b 873d a036 1dbc be7c d13d 4b85 b63d
00000230: 5676 a23d d201 103e 5520 1dbc 2156 e13d
00000240: 4a37 e73c 86a1 44bd 94f7 e43d 6a4b e73b
00000250: aaaa 8b3d a4a3 b6bd 5e7e 44bd 7ae9 343c
00000260: f20c 8e3d 4fb2 0b3c 2033 1e3d cc1e 2abd
00000270: e81c 56bd cf6f 8ebd 4393 123e c673 663d
00000280: 558d c43d 6071 b23d 54ed 7f3d 08fc 0e3e
00000290: 7353 d53d 5887 c33d 2567 c43b 0bba 27bd
000002a0: a921 183d d810 b53d 481d f93d d6de fa3b
000002b0: 96e7 21bc 4f43 fd3d a485 a63d 6bf9 37bd
000002c0: f1c8 3a3b b5f5 b9bc a72c d3bd b7f1 83bc
000002d0: 7c33 2f3d 1024 823d af53 28bd d85b ec3c
000002e0: 4e25 013e 7b5f 533e 0ef6 0abe 4030 a4bd
000002f0: 3b65 a039 a70a 683d 7696 f73d 892d 123e
00000300: fa68 123d aaa1 a1bd f073 a6bd bdb1 3dbd
00000310: 91d7 d33d 5c2f 05bd a0a5 123e 521e cdbd
-0.0943302 -0.104368724 0.11694112 -0.12582318 0.09623141 -0.10207839 -0.08430026 -0.06828178
0.037765544 0.18133391 -0.017021056 -0.053441476 0.073031716 -0.028427467 0.013002004 -0.0987652
-0.066949084 0.08248539 -0.074810065 -0.025806857 0.101388544 0.13508864 0.06864451 -0.0518352
-0.0026993777 0.12999687 0.08079325 -0.09290386 0.035482276 0.109909244 0.0760627 0.05774376
-0.054953203 -0.092755735 0.059067905 0.06847064 -0.09410711 0.07106002 0.034344513 0.131424
0.07105229 -0.097743444 0.14963539 0.05429383 -0.027041592 -0.053294193 -0.0031438274 -0.016898828
-0.08832085 0.08042952 0.14647025 -0.12704931 -0.100951016 0.094905935 -0.14052063 -0.046688978
0.09574903 0.019250095 0.03357434 -0.0015205787 0.095605694 0.13938628 -0.11447471 0.08742659
-0.051455494 0.017237322 -0.122240454 0.050330084 0.020452995 -0.004228832 -0.012335734 0.0047953213
-0.035304755 -0.0419603 0.048684556 0.05015848 -0.02060311 -0.104388274 -0.059976224 0.0702702
0.07494273 -0.0060547064 0.08813637 -0.009908233 0.13511765 0.07345817 0.09775926 -0.050861295
0.01821372 0.087593354 -0.016020909 -0.05763364 -0.08617915 -0.07353903 0.11738581 0.008937894
0.026666194 -0.08284756 -0.097082704 0.06480592 -0.10131558 0.021690477 0.0704825 -0.073783554
-0.11022072 -0.03305256 0.06299924 0.099036716 -0.103807874 0.090397604 0.033084758 -0.07283127
-0.09380072 0.078577764 0.076302566 -0.06649677 -0.13523147 -0.0822437 -0.043562036 -0.04187471
0.019712824 -0.08429679 -0.0050566145 0.07360763 -0.11972704 0.07818168 -0.026476331 0.1366409
0.06853617 -0.0586326 0.09081487 0.009189508 0.03348599 0.14337131 0.10886784 0.049904536
0.066123426 -0.009595543 0.10228871 0.08912142 0.07932727 0.14063194 -0.009590228 0.11002756
0.028224606 -0.048005603 0.11180034 0.0070585506 0.06819661 -0.08917931 -0.047972076 0.011041993
0.06936063 0.008526399 0.038622975 -0.041533276 -0.05227366 -0.069549195 0.14313988 0.056262754
0.095972694 0.08713031 0.062482193 0.1396333 0.10416307 0.09547299 0.005993741 -0.04094891
0.037141476 0.08841103 0.12163788 0.0076559586 -0.009881875 0.12366354 0.08130959 -0.044915598
0.0028501118 -0.02270017 -0.10311251 -0.01610647 0.04277371 0.063545346 -0.041095432 0.028852388
0.12611887 0.20641892 -0.13570425 -0.080170155 0.00030593 0.056650784 0.12089245 0.14275183
0.035744645 -0.07892163 -0.08127582 -0.046312083 0.103438504 -0.03251587 0.14320993 -0.10015549

fc.weight f4 [1, 50]
00000000: 44f1 07be 3903 ec3d 9ad6 093e ce93 febd
00000010: 0d9f a53d ace1 d6bb 454f 81bd 37f1 29bd
00000020: edd1 e2bd f65d d13d f813 f1bd af5c 07be
00000030: b2e1 b6bc 476c bb3d 2f31 f5bc d1e7 adbd
00000040: b73b ddbd f02e f2bd b779 9fbc 4f33 343e
00000050: 062d 19be e373 80bd 1f7f f13d 3f6b a4bd
00000060: 2c8a 243c 1b95 6a3d 181e d9bd 465c aa3c
00000070: ebd0 9fbd 5de1 83bb 8520 973d 083c b43d
00000080: bf08 143e d568 d23d 759a 0b3e 7b1b e23d
00000090: ecd8 cd3d 2f3d dfbc bee6 bc3c 394e 8f3d
000000a0: f3e3 5bbd 01ce 9a3d a202 e43d 536d f03c
000000b0: d84f fb3d fdbf fc3d f5a9 1f3d 9d8e e2bb
000000c0: 5a80 213e 479e b1bd
-0.1327563 0.11524052 0.1346077 -0.12430535 0.08086977 -0.006557664 -0.063139476 -0.041489806
-0.110751964 0.10223 -0.11771387 -0.1321895 -0.022324417 0.09151512 -0.02993068 -0.08491481
-0.10802405 -0.11825359 -0.019467218 0.17597698 -0.14958581 -0.06272104 0.117918245 -0.08028268
0.010042708 0.057271104 -0.10601443 0.020795953 -0.0780352 -0.004024668 0.073792495 0.088005126
0.14456461 0.102739014 0.1363314 0.11040398 0.1005114 -0.027250854 0.023059245 0.06997342
-0.053684186 0.075588234 0.11133315 0.029349005 0.12271088 0.12341306 0.038980443 -0.0069139735
0.15771618 -0.08672767
