data/models/PETR4.SA_20251213_102228.pt (torch, 130453 bytes, 9 tensors)

lstm.weight_ih_l0 f4 [200, 1]
-0.051273517 -0.06537795 0.12689357 -0.042100012 0.04652141 0.04428456 0.0022323653 0.07151183
-0.07676385 0.05537346 -0.03194927 0.12836275 -0.020382503 0.104197875 0.0569673 0.10668622
0.15113872 -0.02358331 -0.1305741 0.15631749 0.11584044 0.05483506 -0.09682375 0.08596732
0.100189224 0.07136996 -0.01404186 -0.05367792 -0.074420944 0.1334174 -0.09215963 0.1366378
-0.13942797 0.15452904 0.0002928659 -0.012025229 -0.024425713 -0.08865903 0.13561675 0.14100172
0.1310168 0.0045751543 0.009503744 -0.14376232 -0.049026523 -0.0425632 0.13698296 0.12592904
0.13036174 0.16907188 0.07147912 0.17267951 0.057553772 0.033259474 0.027641289 0.11420715
-0.027928917 0.078247055 0.09526185 -0.1223362 0.08473227 0.105624534 -0.011794339 0.046048373
-0.017510407 0.12986091 -0.07269403 0.05319259 0.06035388 0.16831125 0.15474588 0.18555708
-0.06279061 0.13184391 -0.07428953 0.16121477 0.06338612 0.050071802 0.0071738325 0.12864633
0.17893182 -0.09363118 -0.09113389 0.043072246 0.11307158 0.031114893 -0.027946055 -0.05799732
-0.08173429 0.05581021 -0.060576133 0.14124413 -0.028850758 -0.17006816 0.13516125 -0.09408587
0.08162532 -0.02475335 -0.00703538 0.04343233 0.08161182 -0.054734044 -0.13064142 0.1787648
0.13490319 0.1240212 -0.10541687 0.0667989 -0.0738456 -0.14055671 -0.059842207 0.19194703
-0.036143165 0.032463193 0.13221386 -0.090461776 0.050686695 -0.1795157 -0.077793546 0.0073688645
0.16288911 -0.019298634 -0.039018486 -0.002130565 -0.15241608 -0.15939152 -0.05577249 0.017501608
-0.1666459 0.19217454 0.08927956 0.012890404 -0.023511995 0.12962216 -0.058917142 -0.09041148
0.17378241 -0.0055760513 -0.08194631 -0.02794084 -0.0041583246 -0.14750342 -0.14043221 0.056179143
0.15144175 -0.09961027 0.15705174 0.17122598 0.15374456 0.19325042 -0.04774012 0.09197137
0.042875852 0.039564095 0.11506859 0.18318841 -0.010765853 0.15853554 0.10712802 -0.029339068
0.12671137 0.12260694 -0.027704211 -0.077135466 0.18443064 0.09312763 0.01860361 0.19882421
0.04078284 0.16916509 0.15409069 0.035999306 0.14644338 0.06145208 -0.02514821 -0.0712989
0.074307084 0.07385535 0.17815499 0.015859216 0.176243 -0.019631358 -0.038368184 0.08148454
-0.09333954 0.08613043 0.17912674 0.13917035 -0.010966455 0.0095219165 -0.077011704 0.09439869
0.11640432 -0.11375594 -0.07164966 0.06644933 0.08080462 -0.060016327 0.10639332 0.2184334
00000000: 2e04 52bd e0e4 85bd 63f0 013e 1071 2cbd
00000010: 3c8d 3e3d ba63 353d e04c 123b cb74 923d
00000020: 5e36 9dbd 48cf 623d 3ddd 02bd 8671 033e
00000030: 35f9 a6bc b265 d53d 8b56 693d 4e7e da3d
00000040: 1cc4 1a3e c931 c1bc 38b5 05be b111 203e
00000050: c13d ed3d ba9a 603d 884b c6bd a20f b03d
00000060: 0230 cd3d 6a2a 923d d40f 66bc 61dd 5bbd
00000070: 026a 98bd 929e 083e 30be bcbd c8ea 0b3e
00000080: 35c6 0ebe dc3c 1e3e cc8b 9939 7705 45bc
00000090: 6f18 c8bc de92 b5bd 1edf 0a3e c162 103e
000000a0: 4529 063e 2deb 953b 97b5 1b3c 6e36 13be
000000b0: 09d0 48bd c056 2ebd 4345 0c3e 8bf3 003e
000000c0: 8c7d 053e 2e21 2d3e a563 923d e6d2 303e
000000d0: 81bd 6b3d 163b 083d fc6f e23c 70e5 e93d
000000e0: 2fcb e4bc fe3f a03d a518 c33d 678b fabd
000000f0: 1d88 ad3d ad51 d83d 0b3d 41bc 389d 3c3d
00000100: fc71 8fbc 42fa 043e 9ce0 94bd 79e0 593d
00000110: a135 773d c959 2c3e b475 1e3e ad02 3e3e
00000120: 5d98 80bd 1702 073e 1c25 98bd 7c15 253e
00000130: 95d0 813d 1718 4d3d 7812 eb3b ddbb 033e
00000140: e739 373e b4c1 bfbd 68a4 babd 866c 303d
00000150: 1392 e73d a9e4 fe3c 20ef e4bc 998e 6dbd
00000160: 4f64 a7bd 3f99 643d ae1e 78bd 4da2 103e
00000170: 6d58 ecbc 5926 2ebe b667 0a3e 18b0 c0bd
00000180: 2d2b a73d 8ac7 cabc 0c89 e6bb 19e6 313d
00000190: 1924 a73d ce30 60bd ddc6 05be 1f0e 373e
000001a0: 1024 0a3e d4fe fd3d cde4 d7bd ddcd 883d
000001b0: 5d3c 97bd 19ee 0fbe 1a1d 75bd c38d 443e
000001c0: db0a 14bd 20f8 043d 1263 073e 0644 b9bd
000001d0: da9c 4f3d f7d2 37be 3952 9fbd 8476 f13b
000001e0: 67cc 263e 2b18 9ebc d9d1 1fbd f3a0 0bbb
000001f0: f612 1cbe 8837 23be b271 64bd 885f 8f3c
00000200: 39a5 2abe 67c9 443e 34d8 b63d 4632 533c
00000210: 3a9c c0bc acbb 043e 1a53 71bd a729 b9bd
00000220: 04f4 313e 4fb7 b6bb 78d3 a7bd 30e4 e4bc
00000230: 8e42 88bb 230b 17be 76cd 0fbe 1a1c 663d
00000240: 8c13 1b3e 7800 ccbd 2cd2 203e dd55 2f3e
00000250: 376f 1d3e 70e3 453e 258b 43bd 7c5b bc3d
00000260: 979e 2f3d f60d 223d 15a9 eb3d be95 3b3e
00000270: 4363 30bc 2457 223e ef65 db3d 7c58 f0bc
00000280: a0c0 013e 5919 fb3d f1f3 e2bc 33f9 9dbd
00000290: 63db 3c3e b3b9 be3d 9966 983c 9398 4b3e
000002a0: e80b 273d 9d39 2d3e f3c9 1d3e 0274 133d
000002b0: 41f5 153e 2db5 7b3d 9e03 cebc 2805 92bd
000002c0: 502e 983d 7941 973d 436e 363e 30eb 813c
000002d0: 0c79 343e f1d1 a0bc f527 1dbd 5ee1 a63d
000002e0: cd28 bfbd 2765 b03d 006d 373e ac82 0e3e
000002f0: a5ac 33bc d001 1c3c 50b8 9dbd 1a54 c13d
00000300: 6365 ee3d e0f8 e8bd 0fbd 92bd 9616 883d
00000310: e57c a53d aed3 75bd bee4 d93d 01ad 5f3e

lstm.weight_hh_l0 f4 [200, 50]
0.069069274 -0.085629605 -0.0036276174 0.013161327 0.13804439 -0.11274352 0.044227958 0.073344454
-0.026528431 -0.031378306 0.09270897 0.044310484 0.13389054 -0.08519892 -0.0057596453 -0.07567831
0.11800885 -0.12655583 -0.12493289 -0.12802495 0.07571303 -0.12058985 0.11248261 -0.08929687
0.050479535 0.103872724 -0.010962761 0.03603293 0.034369234 0.14013445 -0.09755792 0.048181415
-0.067813136 0.01558314 -0.039318062 0.008372377 0.0632634 0.123793654 -0.123765185 0.049022716
0.09889216 -0.072308205 -0.04922804 -0.09573497 0.0974646 -0.023445865 0.07946263 -0.05633576
0.055604354 0.05206436 0.10259003 -0.12377438 -0.0492115 0.117557615 0.056182314 -0.023642242
-0.086455464 -0.02892672 -0.03384481 0.08718137 -0.12158091 -0.073136695 -0.11802395 0.030115103
-0.08221715 -0.09192494 -0.0760817 0.105639674 -0.14579156 0.089846045 -0.086319365 0.070654504
-0.07855859 -0.09647164 0.042443726 0.08155606 0.0346707 0.04245372 0.11011317 0.108735256
0.0073653 0.13328604 -0.10280559 -0.021514202 -0.08267647 -0.026888464 -0.033385564 -0.04213797
-0.09884164 0.0012066537 -0.053921383 -0.13439699 0.021739092 0.046342995 -0.053026814 -0.11361481
0.07068987 -0.01016795 0.14455982 -0.011196276 0.12688424 0.063079745 -0.10544711 -0.03517397
-0.085287526 -0.016064584 -0.054455444 0.12122815 -0.006064894 -0.07648778 -0.021307396 0.03044931
-0.09619367 -0.028646287 -0.0236143 -0.05734241 0.056057695 0.007539896 -0.025160924 0.016968139
-0.039792467 -0.13090199 -0.070086 -0.036584303 -0.011018005 -0.032185107 -0.040117647 0.04854291
0.05918634 -0.121090546 -0.026235305 0.07678103 -0.06589315 -0.120747566 -0.09681813 0.013788008
-0.03149897 -0.12659632 -0.11905579 -0.03719049 0.046814557 0.10218595 -0.15364467 -0.086476006
0.14131607 0.09894257 0.076357916 -0.12925352 -0.11153355 0.035959587 -0.114522636 -0.082224704
0.018453589 0.15748541 0.17120385 -0.021002846 0.07465557 0.07535718 -0.034480605 -0.100863114
0.15823944 -0.06716449 0.031334486 0.080903225 0.03938468 0.017419035 -0.116185136 -0.09507032
0.05201259 0.04859443 -0.026448311 -0.10057398 -0.036099356 0.014620901 0.101848 -0.033304714
-0.0354593 -0.03337889 0.015105104 0.15100928 0.057781417 -0.097807884 -0.08150211 -0.06276244
-0.124095194 -0.028869634 0.08612418 0.08070237 -0.06676604 0.12820631 -0.08364629 -0.114689566
-0.027475778 0.048222892 0.084108464 0.0875956 0.010071342 -0.06529847 0.07471706 -0.04461743
0.05674671 0.119640045 -0.04846053 0.1017988 0.10632329 0.0752145 0.046153106 0.014121873
-0.061455637 -0.054241776 0.038099024 -0.09883984 -0.11436875 0.09761905 0.02934596 -0.08868587
-0.10471866 0.119691975 0.0006710018 0.00817132 -0.061366897 0.062330183 0.051280305 0.079978384
-0.13626689 -0.01288858 -0.08153276 0.0031606902 -0.1640317 0.15718009 0.06241673 0.055431843
-0.10410549 0.042026807 0.11497264 0.103935964 0.07806481 -0.043602876 0.036426973 0.1300367
0.0778493 0.12797041 0.104881965 0.0033300319 -0.11165061 0.062132068 -0.004008767 0.15416464
0.13700718 0.02660006 -0.13096656 0.11800875 -0.08054193 -0.061462436 0.06614288 0.14589807
00000000: 3174 8d3d 935e afbd 52bd 6dbb 9ba2 573c
00000010: 825b 0d3e 13e6 e6bd 6028 353d 9e35 963d
00000020: 2752 d9bc 8a86 00bd 33de bd3d e97e 353d
00000030: 9a1a 093e c57c aebd 68bb bcbb 3bfd 9abd
00000040: a0ae f13d da97 01be d1dc ffbd f918 03be
00000050: 6f0f 9b3d d0f7 f6bd 485d e63d 47e1 b6bd
00000060: a1c3 4e3d 39bb d43d 279d 33bc 4497 133d
00000070: c1c6 0c3d 687f 0f3e 72cc c7bd e059 453d
00000080: 9de1 8abd 6d50 7f3c fa0b 21bd 4b2c 093c
00000090: 3e90 813d 8787 fd3d 9a78 fdbd 0bcc 483d
000000a0: f987 ca3d 5316 94bd 57a3 49bd b210 c4bd
000000b0: 859b c73d 8b11 c0bc 4ebd a23d 53c0 66bd
000000c0: 64c1 633d 7041 553d b91a d23d 6c7d fdbd
000000d0: ff91 49bd 0cc2 f03d 6d1f 663d 60ad c1bc
000000e0: 900f b1bd bbf7 ecbc dba0 0abd 258c b23d
000000f0: 6aff f8bd b1c8 95bd 8ab6 f1bd f3b3 f63c
00000100: 7761 a8bd 2543 bcbd b9d0 9bbd 9d59 d83d
00000110: 624a 15be 3401 b83d 35c8 b0bd 4fb3 903d
00000120: 53e3 a0bd ec92 c5bd 79d9 2d3d dd06 a73d
00000130: dd02 0e3d f4e3 2d3d 0483 e13d 97b0 de3d
00000140: 9d58 f13b 237c 083e bd8b d2bd 8d3e b0bc
00000150: 4852 a9bd 3245 dcbc 4dbf 08bd dd98 2cbd
00000160: 7c6d cabd 9428 9e3a abdc 5cbd 5d9f 09be
00000170: 2e16 b23c 27d2 3d3d a532 59bd e2ae e8bd
00000180: dac5 903d 7997 26bc 7d07 143e 9670 37bc
00000190: f1ed 013e f42f 813d a8f4 d7bd 9512 10bd
000001a0: 3aab aebd e099 83bc ac0c 5fbd 7746 f83d
000001b0: 05bc c6bb a0a5 9cbd d98c aebc d570 f93c
000001c0: 3001 c5bd 9eab eabc c772 c1bc e0df 6abd
000001d0: c19c 653d 3b11 f73b 481e cebc c400 8b3c
000001e0: 6dfd 22bd 2c0b 06be 4089 8fbd 6cd9 15bd
000001f0: dd84 34bc 88d4 03bd 6752 24bd eed4 463d
00000200: 606d 723d 52fe f7bd 6ceb d6bc 5f3f 9d3d
00000210: fdf2 86bd 804a f7bd 9548 c6bd 19e7 613c
00000220: 1005 01bd 77a2 01be 86d3 f3bd 0e55 18bd
00000230: 9fc0 3f3d de46 d13d 0755 1dbe 551a b1bd
00000240: 29b5 103e 67a2 ca3d 8a61 9c3d 095b 04be
00000250: b46b e4bd 5c4a 133d d88a eabd 6d65 a8bd
00000260: fb2b 973c db43 213e 1050 2f3e 290e acbc
00000270: 05e5 983d dd54 9a3d 893b 0dbd 5291 cebd
00000280: 8509 223e 898d 89bd 9758 003d 97b0 a53d
00000290: d551 213d 5db2 8e3c 79f2 edbd 3ab4 c2bd
000002a0: 270b 553d f40a 473d 21aa d8bc bbf9 cdbd
000002b0: ebdc 13bd 818c 6f3c af95 d03d 866a 08bd
000002c0: c53d 11bd 4eb8 08bd 667b 773c 2da2 1a3e
000002d0: 35ac 6c3d 804f c8bd 94ea a6bd 9889 80bd
000002e0: 9f25 febd 0380 ecbc e061 b03d 4947 a53d
000002f0: a2bc 88bd 8448 033e bf4e abbd 5de2 eabd
00000300: e214 e1bc 5e85 453d 0f41 ac3d 5265 b33d
00000310: 4502 253c 34bb 85bd 4205 993d c4c0 36bd
00000320: 3d6f 683d d705 f53d 8c7e 46bd e47b d03d
00000330: 06c0 d93d 0f0a 9a3d 0a0b 3d3d 6e5f 673c
00000340: e8b8 7bbd a02c 5ebd b90d 1c3d 8b6c cabd
00000350: 2a3a eabd 7fec c73d f066 f03c f0a0 b5bd
00000360: bd76 d6bd 1121 f53d 2be6 2f3a 00e1 053c
00000370: db5b 7bbd ef4d 7f3d 4c0b 523d b5cb a33d
00000380: 8c89 0bbe 9f2a 53bc a6fa a6bd 9523 4f3b
00000390: edf7 27be d1f3 203e afa8 7f3d 800c 633d
000003a0: 4235 d5bd 4d24 2c3d c776 eb3d 61dc d43d
000003b0: 71e0 9f3d ee98 32bd 7334 153d 5728 053e
000003c0: 746f 9f3d ad0a 033e 5bcc d63d aa3c 5a3b
000003d0: 13a9 e4bd 327e 7e3d fa5b 83bb 56dd 1d3e
000003e0: 9c4b 0c3e 5ee8 d93c 191c 06be 92ae f13d
000003f0: 2bf3 a4bd 09c0 7bbd eb75 873d 4e66 153e

lstm.bias_ih_l0 f4 [200]
-0.10944685 -0.021368444 -0.052701805 -0.0976736 0.092808045 -0.10734817 0.1393763 0.061969865
-0.11263221 0.16930264 0.037691914 0.12885873 -0.08640505 -0.13833919 0.1752267 -0.08839118
0.041446146 0.065581344 -0.042844705 -0.11779348 -0.0452538 0.09490619 0.09749458 0.08199003
0.103151344 0.021650491 0.069374315 -0.051265936 -0.053255484 0.067760035 -0.10562795 -0.12803486
-0.050384887 0.020207122 -0.06666701 0.08739166 0.044871073 -0.07022136 0.0049609086 0.13696973
0.01617489 0.08955559 0.04302876 -0.09776232 -0.022223843 -0.04137805 0.12491424 -0.085936986
0.038047962 -0.030141553 0.09121621 0.094909854 0.06014682 0.11753858 -0.054149587 -0.030534258
-0.12750477 0.02305021 -0.037274156 0.09092965 0.12703212 0.060188815 0.07564669 -0.0375456
-0.048787095 -0.050941043 -0.007213301 -0.07155912 0.017274722 0.0855697 0.14289121 -0.05711859
0.058283843 -0.107823096 0.089219965 0.10148119 -0.046377048 0.05570474 0.002270726 -0.06446683
0.05245252 0.017912867 -0.11169259 0.1069667 -0.0051111695 -0.031086715 0.06428418 0.13770586
-0.08428348 -0.08602414 -0.031532962 -0.053401344 -0.033244945 0.045567807 -0.12655805 0.0099032335
-0.0030131424 0.08901316 -0.078010425 -0.046790805 -0.063941196 0.05843166 -0.025997385 0.11684348
-0.013008292 -0.032846868 -0.081465766 0.09057581 -0.071662605 -0.025829196 0.10128242 0.028651252
0.0801077 0.03548242 -0.11907154 0.025529329 -0.13596661 -0.07883142 -0.043328922 -0.10781594
-0.039708037 -0.14056426 0.09594926 0.126485 -0.09965365 -0.019770743 -0.13483483 -0.029745214
0.003520843 -0.06294316 -0.092951566 0.092812605 -0.069082074 0.021349723 -0.02542174 0.07626779
0.07910994 -0.14334978 -0.056688115 -0.0076028355 -0.035949167 -0.031283136 -0.031590175 0.021722626
0.13986167 0.084002495 0.1072513 0.056143697 -0.046124022 -0.0958219 -0.027614707 -0.016089953
0.02222261 0.10789804 0.06190994 0.14757729 0.10795936 0.061159786 -0.08535182 0.024728846
-0.07227322 -0.016847584 0.1191444 -0.01574359 0.0041356906 -0.07889525 -0.10188628 -0.107715935
-0.105632015 0.13498855 -0.0136773605 -0.030855462 -0.012993463 0.11247833 -0.09683003 -0.09018423
0.06521634 0.125097 -0.064928666 0.020930054 -0.07880089 0.11042713 -0.12133114 0.034366965
-0.1201881 0.11644612 0.053523693 -0.07846392 0.101978585 -0.10361651 -0.08477305 0.15974955
0.1718471 0.11214821 0.1367705 -0.08562438 0.1199554 0.12344938 0.13439934 -0.021013126
00000000: ac25 e0bd e00c afbc d9dd 57bd 1909 c8bd
00000010: 2512 be3d 5bd9 dbbd a9b8 0e3e 1dd4 7d3d
00000020: b7ab e6bd ac5d 2d3e d662 1a3d 8bf3 033e
00000030: 21f5 b0bd caa8 0dbe a16e 333e 6f06 b5bd
00000040: 6fc3 293d 834f 863d ee7d 2fbd b53d f1bd
00000050: 0c5c 39bd 2d5e c23d 3dab c73d 64ea a73d
00000060: 0341 d33d 5f5c b13c 1f14 8e3d 3bfc 51bd
00000070: 6c22 5abd c6c5 8a3d 7753 d8bd 921b 03be
00000080: 6260 4ebd 6889 a53c b788 88bd 66fa b23d
00000090: bbca 373d 37d0 8fbd 1e8f a23b cb41 0c3e
000000a0: 3481 843c ec68 b73d ed3e 303d 9c37 c8bd
000000b0: c70e b6bc 087c 29bd 09d3 ff3d bbff afbd
000000c0: 2ed8 1b3d 6beb f6bc 90cf ba3d 1960 c23d
000000d0: 835c 763d 11b8 f03d f5cb 5dbd fb22 fabc
000000e0: 9c90 02be cbd3 bc3c c9ac 18bd 5339 ba3d
000000f0: b514 023e 8c88 763d a7ec 9a3d 6ac9 19bd
00000100: fad4 47bd 8ea7 50bd 8e5d ecbb 978d 92bd
00000110: b883 8d3c 2b3f af3d 1352 123e 2ff5 69bd
00000120: 0abb 6e3d 5bd2 dcbd f5b8 b63d 5fd5 cf3d
00000130: dcf5 3dbd a72a 643d 76d0 143b 2f07 84bd
00000140: 74d8 563d 01be 923c 16bf e4bd 5b11 db3d
00000150: 997b a7bb 91a9 febc 6da7 833d c402 0d3e
00000160: d19c acbd 6d2d b0bd b528 01bd 5ebb 5abd
00000170: da2b 08bd 4fa5 3a3d 6f98 01be 2c41 223c
00000180: 2478 45bb 884c b63d eec3 9fbd b7a7 3fbd
00000190: 9af3 82bd 0956 6f3d 78f8 d4bc a24b ef3d
000001a0: bb20 55bc 708a 06bd 86d7 a6bd cf7f b93d
000001b0: d8c3 92bd c097 d3bc 286d cf3d 08b6 ea3c
000001c0: 810f a43d 0456 113d c8db f3bd e222 d13c
000001d0: d53a 0bbe 5e72 a1bd ab79 31bd 9bce dcbd
000001e0: e5a4 22bd 14f0 0fbe 0c81 c43d 4985 013e
000001f0: 3617 ccbd 41f6 a1bc 2412 0abe 3cac f3bc
00000200: f2bd 663b 58e8 80bd 645d bebd 8914 be3d
00000210: e77a 8dbd 9de5 ae3c 4141 d0bc 4932 9c3d
00000220: 6404 a23d 49ca 12be cc31 68bd 3521 f9bb
00000230: 6f3f 13bd bf22 00bd b364 01bd a6f3 b13c
00000240: e637 0f3e 8009 ac3d 92a6 db3d eff6 653d
00000250: 8bec 3cbd 463e c4bd 3d38 e2bc 14cf 83bc
00000260: 310c b63c a6f9 dc3d 4795 7d3d 801e 173e
00000270: cc19 dd3d af82 7a3d efcc aebd 2694 ca3c
00000280: fb03 94bd f203 8abc fb01 f43d b4f8 80bc
00000290: b084 873b d593 a1bd c1a9 d0bd 2c9a dcbd
000002a0: 9955 d8bd 703a 0a3e 0217 60bc 98c4 fcbc
000002b0: 89e2 54bc 0a5b e63d d34e c6bd 82b2 b8bd
000002c0: 2590 853d 6e19 003e 52f9 84bd 8175 ab3c
000002d0: 5c62 a1bd 9e27 e23d 767c f8bd 60c4 0c3d
000002e0: 2e25 f6bd 4e7b ee3d a93b 5b3d b1b1 a0bd
000002f0: 26da d03d e534 d4bd 7e9d adbd 6395 233e
00000300: b0f8 2f3e f6ad e53d 910d 0c3e d65b afbd
00000310: 2dab f53d 07d3 fc3d fb9f 093e b823 acbc

lstm.bias_hh_l0 f4 [200]
-0.07982071 -0.1078115 -0.027259491 0.16768879 -0.11724534 0.13748728 0.10687723 -0.060170494
-0.11330245 0.14538261 0.026829079 -0.04424655 -0.06989498 -0.08390788 -0.079842195 -0.08908759
0.10816176 -0.07330894 0.06880835 0.13510932 0.09508235 0.10395036 -0.005860712 -0.056919426
-0.008224067 -0.026442751 0.12929069 0.1357391 -0.07473178 -0.058688786 0.12942116 0.14001535
0.113283135 -0.039213695 -0.14187087 -0.12232418 0.07244672 -0.1052571 -0.088153206 0.06025894
0.14739423 0.20964673 0.17005493 0.020690532 0.11472542 -0.11392714 0.14734825 0.16115057
0.14461866 0.016219797 -0.04615887 -0.022181772 -0.111879766 0.07552772 0.016835349 0.0937466
0.08873013 0.088964514 0.14441013 -0.0038017426 -0.0017446558 0.10649836 0.020621473 -0.024661511
0.13291873 0.061254486 0.0077286987 -0.058691718 0.09875081 0.12609434 0.13372622 0.07726962
-0.079142205 0.02679326 -0.01830455 -0.05958129 -0.08449077 0.02682128 0.07791658 0.01859567
-0.01017179 0.11894036 0.049372334 0.12975381 -0.06908743 0.081566855 0.1024424 0.12890373
0.10273074 0.06592641 -0.07628709 0.008031329 0.11064869 -0.056295466 0.013351892 -0.11671843
0.020666363 0.04769072 -0.020198207 -0.046992075 0.023154737 -0.112988 0.041347858 -0.07026221
0.11284545 0.06109802 -0.14476532 -0.044543922 -0.11694377 0.089062035 0.047629878 0.054456994
0.11344049 -0.00932663 0.0020595763 -0.102471575 -0.02149474 0.010669071 0.084624186 0.006913069
-0.0839394 0.028674407 0.12292233 0.13778064 0.03871288 0.055706263 -0.10210367 0.12776397
0.06243454 -0.000921958 -0.12583712 0.12078693 0.1015324 -0.005202943 0.077622555 0.111271575
0.0047278437 -0.08305204 0.0036938363 0.10184221 0.08739815 0.1139013 0.122442864 -0.008622611
0.06698808 0.06990545 -0.13770165 -0.041833386 0.11313819 0.036657233 -0.07551314 -0.038021546
0.13778645 0.051449336 -0.12058496 -0.1089361 -0.027249211 0.11853994 0.051857058 -0.029130522
-0.0613333 0.17907938 0.082750686 -0.045662344 0.05817611 0.05732344 -0.05637769 -0.0925318
0.11505584 0.07403497 0.004756478 -0.08889682 0.103226185 0.07529795 0.0821472 0.077271886
-0.06486765 0.021803416 0.11597793 -0.04360967 0.029011726 -0.13011655 0.00039145222 0.023541061
0.12904665 0.10635786 0.15848951 -0.0007423138 0.066639006 -0.1231611 0.09249115 0.02317259
0.14913309 -0.1302667 0.032043085 -0.016394556 0.007553881 0.15448341 0.08956649 -0.005228644
00000000: 0a79 a3bd 47cc dcbd 4c4f dfbc 9cb6 2b3e
00000010: 531e f0bd 77c9 0c3e 73e2 da3d 5675 76bd
00000020: 1d0b e8bd 2edf 143e a8c8 db3c df3b 35bd
00000030: 1925 8fbd e5d7 abbd 4e84 a3bd 8e73 b6bd
00000040: ea83 dd3d ff22 96bd 64eb 8c3d 195a 0a3e
00000050: 89ba c23d ede3 d43d 370b c0bb 5824 69bd
00000060: 3dbe 06bc 789e d8bc c764 043e 31ff 0a3e
00000070: fa0c 99bd a763 70bd fb86 043e 2f60 0f3e
00000080: fd00 e83d 8a9e 20bd 9946 11be 1a85 fabd
00000090: f25e 943d 0991 d7bd ab89 b4bd 14d2 763d
000000a0: 83ee 163e a2ad 563e e122 2e3e 317f a93c
000000b0: 29f5 ea3d a252 e9bd 76e2 163e a804 253e
000000c0: ea16 143e 61df 843c 1511 3dbd 8cb6 b5bc
000000d0: 3821 e5bd 47ae 9a3d 49ea 893c 38fe bf3d
000000e0: 24b8 b53d 0733 b63d 40e0 133e a826 79bb
000000f0: efac e4ba d01b da3d 5dee a83c f006 cabc
00000100: d91b 083e fce5 7a3d 0641 fd3b ba66 70bd
00000110: dd3d ca3d e01e 013e 87ef 083e 893f 9e3d
00000120: 4f15 a2bd 8a7d db3c 6cf3 95bc 830b 74bd
00000130: 7f09 adbd 4db8 db3c ba92 9f3d f255 983c
00000140: 94a7 26bc 0197 f33d a53a 4a3d 2fde 043e
00000150: b67d 8dbd 860c a73d 52cd d13d 57ff 033e
00000160: 7f64 d23d 6d04 873d 683c 9cbd d695 033c
00000170: c89b e23d 1396 66bd e5c1 5a3c 120a efbd
00000180: 814c a93c 5857 433d b676 a5bc c37a 40bd
00000190: 01af bd3c 4166 e7bd 5f5c 293d a2e5 8fbd
000001a0: 841b e73d eb41 7a3d 5c3d 14be b073 36bd
000001b0: 3780 efbd 2866 b63d 8c17 433d 4c0e 5f3d
000001c0: 7d53 e83d b9ce 18bc f5f9 063b 9edc d1bd
000001d0: bd15 b0bc 54cd 2e3c 724f ad3d 0787 e23b
000001e0: 6ce8 abbd 97e6 ea3c b4be fb3d 5e16 0d3e
000001f0: 6691 1e3d 402c 643d bb1b d1bd 8fd4 023e
00000200: 5cbb 7f3d 8eaf 71ba 72db 00be 235f f73d
00000210: 38f0 cf3d 737d aabb 93f8 9e3d 5ae2 e33d
00000220: 07ec 9a3b 3017 aabd 4a14 723b a692 d03d
00000230: cdfd b23d 1645 e93d 53c3 fa3d da45 0dbc
00000240: 0c31 893d 972a 8f3d a901 0dbe 7c59 2bbd
00000250: ffb4 e73d e525 163d a2a6 9abd 7bbc 1bbd
00000260: e417 0d3e 8abc 523d 3ff5 f6bd e419 dfbd
00000270: bd39 dfbc 11c5 f23d 1168 543d 22a3 eebc
00000280: a038 7bbd 9660 373e 3179 a93d 7008 3bbd
00000290: 134a 6e3d fccb 6a3d 4bec 66bd 5081 bdbd
000002a0: 65a2 eb3d a59f 973d 3bdc 9b3b 890f b6bd
000002b0: 4068 d33d d035 9a3d cb3c a83d b940 9e3d
000002c0: 55d9 84bd 149d b23c d685 ed3d 0ea0 32bd
000002d0: 00aa ed3c 463d 05be d43b cd39 2fd9 c03c
000002e0: ce24 043e 26d2 d93d 134b 223e d697 42ba
000002f0: 087a 883d e33b fcbd 006c bd3d 72d4 bd3c
00000300: 58b6 183e a264 05be 9c3f 033d e04d 86bc
00000310: 8c86 f73b e630 1e3e a36e b73d 0b55 abbb

lstm.weight_ih_l1 f4 [200, 50]
-0.03942025 -0.13536479 -0.042543657 0.14674401 -0.019900076 -0.093004875 0.047184404 0.043344676
0.097709805 -0.107916206 0.10666627 -0.009464276 0.069348425 0.089657985 0.15515532 0.1144877
0.11213198 -0.037065268 -0.16747712 0.034139253 -0.03741185 -0.06304714 -0.009112089 0.024793431
-0.05550033 -0.17784698 -0.10380801 0.04755999 -0.06963874 0.113579445 -0.11247139 0.012432713
-0.011499095 0.015109714 -0.0043023564 0.037822995 -0.022302747 0.012881784 -0.13959962 0.0749537
0.065682136 -0.19799212 -0.20043497 0.034562644 0.09667486 -0.056430116 0.13669908 0.09719935
-0.01588371 0.044338524 -0.047291126 0.029717302 0.11138064 0.03936037 0.1509895 0.09684605
0.0892477 0.024088282 -0.10959089 -0.14190711 0.09385568 -0.104671255 0.13780807 0.09574391
0.120112345 -0.15613645 0.13701592 0.09110854 -0.061155617 0.058812942 0.11799599 -0.14429696
0.118186586 0.13131222 -0.057768017 -0.06310513 -0.00836454 -0.02643053 -0.14141285 0.13152443
-0.08739046 0.09948519 0.04973711 0.013593025 -0.05048316 -0.08885649 -0.102207884 -0.02497512
0.10437728 -0.10712693 0.0536712 -0.017217552 -0.1815815 0.07460956 0.134791 0.10707582
-0.102442294 0.12129624 -0.08580727 0.06584108 0.09558313 -0.13370855 -0.040508773 0.041192595
0.097451836 -0.024153441 -0.10710704 0.051484168 0.09112392 -0.19606255 0.016579531 -0.019753935
0.03527495 -0.058403704 -0.005886453 0.0028487174 -0.04572013 -0.048608646 -0.08419679 -0.12269829
0.064488076 -0.13481632 -0.0010131553 0.06866263 0.09152979 -0.071344115 0.0889518 -0.13688567
-0.10201679 0.110799946 0.039958533 -0.07188918 -0.064205006 0.1361176 -0.12648712 0.059661508
0.106542975 0.038856167 -0.016545363 -0.038499072 -0.010155565 0.04179186 -0.15796354 -0.109199695
-0.091224276 0.008098374 -0.079576656 0.14511342 0.051866192 -0.01870425 0.11375146 0.06718758
-0.086180665 -0.07986096 0.02840818 0.085391335 -0.015340508 0.06724332 -0.004245309 -0.096972086
0.010263886 0.03604158 0.11134514 -0.043687437 -0.053704385 -0.014342625 -0.09210043 -0.046261385
-0.08001292 -0.08785069 -0.051081054 0.07662305 0.109393574 0.044911012 -0.0038477946 -0.11826163
0.09064039 0.102706715 -0.14156985 -0.08061735 -0.08336913 0.017000735 0.025929105 -0.033157196
-0.088378586 0.0059299013 0.13140438 -0.12999545 0.05834134 -0.11662711 -0.11338038 -0.147532
0.0031223097 -0.11321265 -0.11030354 -0.04077229 0.14310813 -0.007990683 0.16165853 0.13435768
-0.06613684 -0.039866135 0.09111689 0.095745005 0.007984492 0.016711645 -0.06908118 -0.105036266
0.13701533 -0.021197125 0.045499347 0.09174951 0.06588064 -0.0974598 -0.099536754 0.025057064
-0.019166892 -0.119552806 -0.0077710594 0.09851271 0.088325776 -0.0023658471 0.08819606 0.069192186
-0.0990775 -0.09166371 0.0865713 0.054210633 0.049376506 -0.06742419 0.10827649 0.019474719
-0.12075193 0.03869384 0.040141307 -0.14282411 -0.020369554 -0.06847245 0.03533165 0.041865595
0.010322625 0.09778944 -0.04796266 -0.033622786 -0.055712465 -0.015590511 0.022727419 0.024019118
-0.13041969 -0.1377373 -0.113215834 0.04543907 0.04828418 0.07271649 0.08868721 0.16054259
00000000: 2177 21bd 119d 0abe 4242 2ebd 1044 163e
00000010: 7c05 a3bc 5779 bebd 6f44 413d 308a 313d
00000020: 141c c83d 2c03 ddbd d873 da3d 0d10 1bbc
00000030: 8c06 8e3d 9b9e b73d 09e1 1e3e 8778 ea3d
00000040: 74a5 e53d c0d1 17bd 1f7f 2bbe 9ad5 0b3d
00000050: 2b3d 19bd dc1e 81bd df4a 15bc 981b cb3c
00000060: 5054 63bd 851d 36be 4b99 d4bd 44ce 423d
00000070: c19e 8ebd 579c e83d 6657 e6bd 94b2 4b3c
00000080: b366 3cbc bc8e 773c c8fa 8cbb 49ec 1a3d
00000090: 40b4 b6bc 1e0e 533c 34f3 0ebe 5381 993d
000000a0: 5b84 863d 72be 4abe d33e 4dbe 8f91 0d3d
000000b0: 78fd c53d 4423 67bd d8fa 0b3e 7410 c73d
000000c0: 8e1e 82bc 509c 353d 57b4 41bd b371 f33c
000000d0: 881b e43d 5738 213d fe9c 1a3e 3957 c63d
000000e0: 80c7 b63d ca54 c53c 3071 e0bd 1950 11be
000000f0: 6837 c03d e25d d6bd 8f1d 0d3e 6215 c43d
00000100: 76fd f53d 3ce2 1fbe e74d 0c3e 1d97 ba3d
00000110: 507e 7abd d7e5 703d e2a7 f13d 95c2 13be
00000120: cf0b f23d b676 063e 289e 6cbd 433d 81bd
00000130: 6c0b 09bc d784 d8bc 88ce 10be 57ae 063e
00000140: c5f9 b2bd e4be cb3d 24b9 4b3d 47b5 5e3c
00000150: 6ec7 4ebd 64fa b5bd 5e52 d1bd 9f98 ccbc
00000160: c1c3 d53d 5d65 dbbd 55d6 5b3d d30b 8dbc
00000170: 80f0 39be e6cc 983d a706 0a3e 914a db3d
00000180: 44cd d1bd 2a6a f83d b9bb afbd b0d7 863d
00000190: 17c1 c33d e5ea 08be 87ec 25bd 91b9 283d
000001a0: d494 c73d 70dd c5bc f05a dbbd 10e1 523d
000001b0: 2e9f ba3d 9fc4 48be ccd1 873c 01d3 a1bc
000001c0: 777c 103d b938 6fbd 26e3 c0bb 8cb1 3a3b
000001d0: 0845 3bbd dc19 47bd 5e6f acbd 3e49 fbbd
000001e0: 5312 843d 4a0d 0abe dacb 84ba fe9e 8c3d
000001f0: f873 bb3d dd1c 92bd 5c2c b63d c22b 0cbe
00000200: 2eee d0bd 15eb e23d 8fab 233d a23a 93bd
00000210: ea7d 83bd 6a62 0b3e d785 01be a05f 743d
00000220: 3433 da3d a527 1f3d 248a 87bc 34b1 1dbd
00000230: 8763 26bc f12d 2b3d 32c1 21be 17a4 dfbd
00000240: cbd3 babd 0baf 043c 16f9 a2bd 9d98 143e
00000250: a571 543d a839 99bc 87f6 e83d a499 893d
00000260: 7d7f b0bd 258e a3bd 46b8 e83c a7e1 ae3d
00000270: c156 7bbc deb6 893d 3c1c 8bbb 4d99 c6bd
00000280: dc29 283c 56a0 133d ec08 e43d 99f1 32bd
00000290: 21f9 5bbd 54fd 6abc 269f bcbd 947c 3dbd
000002a0: d0dd a3bd 10eb b3bd 5e3a 51bd 8cec 9c3d
000002b0: bd09 e03d 9cf4 373d 482b 7cbb 2733 f2bd
000002c0: aba1 b93d e657 d23d b0f7 10be b61a a5bd
000002d0: 6fbd aabd 2045 8b3c 4669 d43c d7cf 07bd
000002e0: d5ff b4bd 9e4f c23b df8e 063e 871d 05be
000002f0: 54f7 6e3d 32da eebd f933 e8bd a112 17be
00000300: aa9f 4c3b 09dc e7bd d3e6 e1bd d800 27bd
00000310: f08a 123e 5beb 02bc d089 253e 0f95 093e
00000320: c072 87bd ac4a 23bd 7e9b ba3d f515 c43d
00000330: 63d1 023c dce6 883c 6f7a 8dbd 411d d7bd
00000340: bf4d 0c3e 98a5 adbc 865d 3a3d 2be7 bb3d
00000350: 6eec 863d 0199 c7bd edd9 cbbd 7944 cd3c
00000360: e303 9dbc 1ad8 f4bd 5fa4 febb 08c1 c93d
00000370: 25e4 b43d 540c 1bbb 23a0 b43d a2b4 8d3d
00000380: 25e9 cabd 2fba bbbd 4b4c b13d f80b 5e3d
00000390: 053f 4a3d b215 8abd 10c0 dd3d 7289 9f3c
000003a0: ca4c f7bd 6f7d 1e3d 366b 243d 7c40 12be
000003b0: 0dde a6bc 493b 8cbd ecb7 103d 427b 2b3d
000003c0: 3a20 293c d445 c83d 7f74 44bd 0cb8 09bd
000003d0: c132 64bd 586f 7fbc da2e ba3c bec3 c43c
000003e0: bd8c 05be 020b 0dbe b4dd e7bd 511e 3a3d
000003f0: a2c5 453d 62ec 943d a4a1 b53d 4765 243e

lstm.weight_hh_l1 f4 [200, 50]
0.102934465 0.058794502 0.01813648 0.050289854 -0.07061697 -0.12754731 -0.038049307 0.066938214
-0.015227493 0.06371539 0.08521705 -0.06256011 -0.06030518 -0.000735856 0.079465315 0.03240887
0.046327423 0.09810263 0.10157809 -0.0044616098 0.0047932877 -0.014876682 0.028216513 -0.0016576576
-0.067363545 -0.07553675 -0.07484223 0.09239141 0.05424459 0.114064544 -0.049298663 -0.13109863
-0.04820248 0.042139433 -0.052826487 -0.12775612 -0.015791874 0.14044173 -0.09379402 -0.13897501
0.109418325 -0.12639396 -0.066140935 0.11558221 -0.04326857 -0.050815694 0.023864744 -0.08518568
0.043839082 0.114114165 0.10157968 0.028968632 -0.077165976 -0.0095067015 -0.11150208 0.10436368
-0.083666384 0.02662206 -0.04240244 -0.0043415627 -0.06574376 0.026593355 0.070255384 0.10609971
0.115549624 -0.15045278 0.056883927 0.035588358 -0.007468546 0.04646575 -0.039850645 -0.08393521
0.06285464 -0.07819555 0.13811249 0.047769833 0.06663132 0.14185491 0.078051336 0.025118807
-0.1326236 -0.0026445328 0.11087971 -0.055332165 -0.07115226 -0.00825988 0.06750437 0.032126874
0.005150287 -0.010575713 -0.15824321 -0.07139058 -0.15203743 -0.124292776 0.087766275 -0.12787214
-0.13341615 0.050482143 0.12801765 0.10573077 0.09937535 -0.028746778 0.08916155 -0.10425167
-0.0055081137 0.032814093 0.0982727 -0.008026478 0.05670399 0.100485206 -0.079806246 -0.11477454
0.067711264 0.06256854 -0.06908918 -0.025097135 0.124229625 -0.101813056 -0.043893762 0.105860636
0.0058767344 -0.10936466 -0.12551479 0.11494841 -0.09338582 -0.0365606 -0.0659839 0.119291656
-0.046791665 -0.07252851 0.032697234 0.046929054 -0.094994426 -0.099672906 0.10006962 -0.07527709
0.085083134 0.03367812 0.02039484 -0.1349621 0.049455434 0.088118486 0.060920764 0.14106295
-0.09577696 -0.091447495 -0.017218877 -0.078040324 0.01093879 0.14299802 0.13178904 -0.048675317
-0.077064745 -0.040393863 -0.077633865 -0.114722446 -0.092484966 -0.077686764 0.059352692 -0.08589053
-0.039850093 0.11706828 0.047065515 -0.08791983 -0.100389674 -0.071172185 0.039992582 -0.07787246
-0.10541106 0.020680424 -0.025434172 -0.021929244 -0.020536797 -0.123539284 -0.093996465 0.023823531
0.053902965 -0.012064339 0.13273515 -0.036221445 0.11432182 -0.095818 -0.017144639 0.044522103
-0.0909195 0.09399788 0.12588675 -0.0906711 -0.055666093 0.055876352 -0.04692173 -0.079332255
-0.08283239 0.028801387 -0.036171377 0.023077598 -0.059349053 0.015253333 -0.034701172 -0.13244303
-0.06989125 -0.09622221 0.082482904 -0.05552489 -0.04014833 0.10167875 -0.120857455 -0.08642409
-0.028798439 0.039956875 0.036328495 -0.06589048 0.06248519 0.104188345 -0.08548171 -0.017242301
0.12928946 0.13956092 -0.09119177 0.041695457 0.12100512 0.096967235 0.09803382 -0.09293856
0.033737566 0.11580001 -0.014148053 0.010913756 0.11897529 0.11819943 -0.09482255 0.060883712
-0.14714457 0.047865514 0.10165855 -0.10278223 -0.052225415 -0.068278156 0.067408726 -0.045434386
0.018657893 -0.12228874 -0.024093458 0.09290007 -0.117558554 -0.023983272 -0.10624943 0.111056484
-0.112319164 0.031446993 0.09704762 0.08943345 -0.1418944 0.017293382 -0.08917233 0.11526724
00000000: 4ecf d23d 81d2 703d f592 943c bcfc 4d3d
00000010: a19f 90bd c39b 02be 97d9 1bbd e716 893d
00000020: bc7c 79bc 377d 823d 4786 ae3d 841f 80bd
00000030: 9002 77bd 76e6 40ba b6be a23d 2abf 043d
00000040: d3c1 3d3d 08ea c83d 2c08 d03d b232 92bb
00000050: 0311 9d3b 54bd 73bc 5126 e73c c245 d9ba
00000060: e6f5 89bd 03b3 9abd e246 99bd b537 bd3d
00000070: 932f 5e3d ac9a e93d 65ed 49bd b83e 06be
00000080: f76f 45bd 669a 2c3d 9660 58bd 80d2 02be
00000090: f65d 81bc f5cf 0f3e 1417 c0bd 774f 0ebe
000000a0: b716 e03d 6b6d 01be e674 87bd 5eb6 ec3d
000000b0: 623a 31bd 1e24 50bd ff7f c33c d475 aebd
000000c0: 9c90 333d b0b4 e93d 0209 d03d a04f ed3c
000000d0: 3209 9ebd ffc1 1bbc 345b e4bd a0bc d53d
000000e0: 4859 abbd 8216 da3c 2eae 2dbd ab43 8ebb
000000f0: aaa4 86bd 4fda d93c 0ee2 8f3d ce4a d93d
00000100: 48a5 ec3d 4b10 1abe 1fff 683d 19c5 113d
00000110: b4ba f4bb df52 3e3d 6e3a 23bd 39e6 abbd
00000120: efb9 803d fd24 a0bd 5c6d 0d3e 4daa 433d
00000130: 0076 883d 6a42 113e 61d9 9f3d f5c5 cd3c
00000140: 7bce 07be e64f 2dbb e714 e33d fba3 62bd
00000150: 47b8 91bd 7354 07bc bb3f 8a3d 7897 033d
00000160: bdc3 a83b c145 2dbc 820a 22be 3935 92bd
00000170: b3af 1bbe 368d febd cebe b33d eaf0 02be
00000180: 3e9e 08be 5dc6 4e3d 0f17 033e 6089 d83d
00000190: 4e85 cb3d 5d7e ebbc 559a b63d e681 d5bd
000001a0: 687d b4bb 1268 063d 3343 c93d 7d81 03bc
000001b0: 7142 683d 30cb cd3d 7571 a3bd ea0e ebbd
000001c0: 34ac 8a3d ef23 803d a17e 8dbd 8298 cdbc
000001d0: 1a6c fe3d 5d83 d0bd f2c9 33bd 76cd d83d
000001e0: 9f91 c03b 94fa dfbd f386 00be 126a eb3d
000001f0: 1141 bfbd 91c0 15bd 9122 87bd 2f4f f43d
00000200: 9ea8 3fbd d489 94bd 89ed 053d ae38 403d
00000210: 708c c2bd 4f21 ccbd 4df1 cc3d e02a 9abd
00000220: 1140 ae3d 11f2 093d 1413 a73c 8133 0abe
00000230: c891 4a3d 7777 b43d 0d88 793d ce72 103e
00000240: b626 c4bd d348 bbbd 9a0e 8dbc 9bd3 9fbd
00000250: 9c38 333c 136e 123e b5f3 063e c55f 47bd
00000260: 1fd4 9dbd 0974 25bd 81fe 9ebd 9af3 eabd
00000270: c268 bdbd 3d1a 9fbd cf1b 733d 60e7 afbd
00000280: da39 23bd 7fc1 ef3d c5c7 403d 500f b4bd
00000290: 1a99 cdbd b9c2 91bd 43cf 233d 997b 9fbd
000002a0: c1e1 d7bd fe69 a93c 535b d0bc f5a4 b3bc
000002b0: c93c a8bc 2a02 fdbd 3881 c0bd 9129 c33c
000002c0: 5bc9 5c3d 81a9 45bc b9eb 073e f05c 14bd
000002d0: 8f21 ea3d 3a3c c4bd ea72 8cbc cf5c 363d
000002e0: 0134 babd f681 c03d 75e8 003e c5b1 b9bd
000002f0: 2102 64bd 9ade 643d 0031 40bd f378 a2bd
00000300: 07a4 a9bd e3f0 eb3c 7028 14bd 3b0d bd3c
00000310: fe17 73bd 1ee9 793c d122 0ebd 259f 07be
00000320: 2523 8fbd 2610 c5bd ccec a83d 116e 63bd
00000330: 9372 24bd f33c d03d 1d84 f7bd 1dff b0bd
00000340: b4ea ebbc d2a9 233d 30cd 143d 97f1 86bd
00000350: 78f0 7f3d b360 d53d 0911 afbd ba3f 8dbc
00000360: 7564 043e 0fe9 0e3e c0c2 babd dbc8 2a3d
00000370: 88d1 f73d c296 c63d f5c5 c83d 9256 bebd
00000380: 6730 0a3d 8e28 ed3d 3ccd 67bc 9ccf 323c
00000390: 51a9 f33d 8b12 f23d 5332 c2bd 3361 793d
000003a0: 11ad 16be a10e 443d 5c32 d03d 7d7f d2bd
000003b0: 51ea 55bd 6bd5 8bbd 960d 8a3d 6819 3abd
000003c0: 70d8 983c 8572 fabd a55f c5bc 6442 be3d
000003d0: 8ac2 f0bd 9178 c4bc 4d99 d9bd 9571 e33d
000003e0: 9707 e6bd 90ce 003d e7c0 c63d e228 b73d
000003f0: c44c 11be daaa 8d3c fc9f b6bd 3b11 ec3d

lstm.bias_ih_l1 f4 [200]
-0.07915167 0.14032063 0.07872702 -0.12099283 -0.055067 0.034771252 -0.055898707 0.06623729
-0.08398651 -0.052614026 0.019035779 -0.027858412 -0.10097084 0.028645432 0.087202124 -0.10599326
0.029430557 0.1527824 0.094932705 0.025064208 0.07213441 -0.0567032 0.1260433 -0.11324251
0.077066384 -0.08579556 0.06392412 0.045338064 -0.07369965 0.043206997 -0.10664522 0.028634679
-0.017838616 0.12012084 -0.09905972 0.1319326 -0.026078694 -0.02905062 0.08509156 0.09503631
0.05633614 -0.03825155 0.024242673 -0.04983106 -0.11547923 -0.09927102 0.10265639 -0.11575598
0.11372613 -0.10770005 0.0058243694 0.051115345 -0.126292 0.0957262 0.0737655 0.040859208
0.035672 -0.06625643 0.13314742 -0.05982729 0.096758515 0.031255268 -0.09663787 0.13284697
0.08157918 -0.02419373 -0.119415194 0.08652438 -0.025087424 -0.14445186 0.09471948 -0.09961986
-0.101008244 -0.032138795 -0.14824542 0.069081604 0.011034704 0.07418453 0.05910761 -0.03860613
0.021305505 -0.13290939 0.058281187 0.025589148 0.09794317 0.095908895 -0.13946131 0.00096405216
0.12800033 0.08526184 0.03268548 0.01398878 0.06215788 0.15116625 0.022599863 0.12673016
-0.11434205 0.04375787 0.073566414 0.024807638 -0.105877124 -0.05506893 0.10483926 -0.14916278
-0.106186695 0.13370356 -0.07427784 0.0066893096 0.054303005 0.07022565 -0.018375387 -0.098022245
-0.085154966 0.12508674 -0.025105715 -0.044808768 0.07139925 -0.088249095 -0.09200873 0.113385975
-0.09836161 -0.04176627 -0.07510654 0.012935666 0.009290283 -0.105613925 0.01809743 -0.019043952
0.07520389 0.09977701 -0.006828939 0.086191505 0.11676338 0.008851952 0.0045156134 0.14616388
-0.06556711 -0.11139838 -0.09898332 -0.10573926 0.0021820674 -0.05375547 0.0923289 0.098594286
0.09134259 -0.11634307 -0.109401025 0.14717546 -0.11640749 -0.05874464 -0.09505065 -0.04784395
-0.115621805 -0.08452789 -0.014621753 -0.098170415 -0.0045323395 0.038908258 0.0023399547 0.040165823
-0.017256416 -0.011456349 0.015132437 -0.058549225 0.03785769 -0.0019244628 0.11217149 0.045237254
0.12522417 0.052268736 0.028608976 0.004762241 -0.0041602394 -0.12197757 -0.10922008 -0.06880293
-0.01264664 0.13671583 0.12556691 0.1355476 0.07430664 -0.1280861 0.11283651 -0.08053661
0.0276737 -0.065920606 -0.029215747 0.053284213 0.101916276 -0.12156092 0.006224504 -0.082479306
-0.15521683 0.12915143 0.15387963 0.100304134 0.05847986 -0.015874071 0.10382524 -0.016432162
00000000: 451a a2bd 36b0 0f3e a23b a13d 17cb f7bd
00000010: ef8d 61bd 4d6c 0e3d 0bf6 64bd 6ba7 873d
00000020: 1f01 acbd ce81 57bd ecf0 9b3c 5337 e4bc
00000030: cdc9 cebd d3a9 ea3c 0797 b23d ff12 d9bd
00000040: 5a18 f13c fd72 1c3e 146c c23d 7453 cd3c
00000050: 35bb 933d 9d41 68bd 7f11 013e b0eb e7bd
00000060: fbd4 9d3d 95b5 afbd a6ea 823d 68b4 393d
00000070: d8ef 96bd d2f9 303d cf68 dabd 4693 ea3c
00000080: 4a22 92bc ea01 f63d d3df cabd 5719 073e
00000090: fca2 d5bc 91fb edbc 7c44 ae3d 66a2 c23d
000000a0: b9c0 663d a8ad 1cbd 9298 c63c a71b 4cbd
000000b0: 6080 ecbd 9b4e cbbd 833d d23d 7911 edbd
000000c0: 3fe9 e83d d891 dcbd 5ada be3b 535e 513d
000000d0: b152 01be 190c c43d 5e12 973d fc5b 273d
000000e0: ce1c 123d 73b1 87bd cc57 083e 760d 75bd
000000f0: 5429 c63d 8605 003d 13ea c5bd 0909 083e
00000100: fc12 a73d ee31 c6bc f48f f4bd b233 b13d
00000110: 2484 cdbc 30eb 13be 49fc c13d 7f05 ccbd
00000120: 69dd cebd f8a3 03bd a6cd 17be a87a 8d3d
00000130: e7ca 343c 0fee 973d d21a 723d 7621 1ebd
00000140: e288 ae3c 6619 08be 41b8 6e3d 55a0 d13c
00000150: 6e96 c83d e26b c43d f2ce 0ebe 72b8 7c3a
00000160: 8512 033e c29d ae3d 36e1 053d 3231 653c
00000170: 4399 7e3d 53cb 1a3e 5923 b93c 8dc5 013e
00000180: 2a2c eabd 743b 333d fda9 963d 6339 cb3c
00000190: 1bd6 d8bd f58f 61bd f7b5 d63d 21be 18be
000001a0: 6978 d9bd 96e9 083e fb1e 98bd ff31 db3b
000001b0: d46c 5e3d 77d2 8f3d fb87 96bc e3bf c8bd
000001c0: ba65 aebd bd16 003e 80aa cdbc 6689 37bd
000001d0: c539 923d f1bb b4bd 136f bcbd e836 e83d
000001e0: d071 c9bd 1c13 2bbd 75d1 99bd 1ef0 533c
000001f0: 4536 183c 1d4c d8bd 1041 943c 1002 9cbc
00000200: 7f04 9a3d e457 cc3d 4bc5 dfbb 2c85 b03d
00000210: a421 ef3d c707 113c b6f7 933b fcab 153e
00000220: 0d48 86bd d524 e4bd c4b7 cabd d38d d8bd
00000230: 0401 0f3b b22e 5cbd ef16 bd3d cdeb c93d
00000240: d311 bb3d 4745 eebd a50d e0bd 2ab5 163e
00000250: 0d67 eebd 389e 70bd eaa9 c2bd 05f8 43bd
00000260: 20cb ecbd f51c adbd 1490 6fbc 920d c9bd
00000270: 0584 94bb 445e 1f3d ed59 193b eb84 243d
00000280: 545d 8dbc 69b3 3bbc 0bee 773c 50d1 6fbd
00000290: aa10 1b3d 423e fcba 2bba e53d b34a 393d
000002a0: c43a 003e be17 563d 5f5d ea3c 930c 9c3b
000002b0: 9e52 88bb 60cf f9bd c7ae dfbd 8de8 8cbd
000002c0: da33 4fbc 3cff 0b3e 9d94 003e fdcc 0a3e
000002d0: 142e 983d 0129 03be d416 e73d 61f0 a4bd
000002e0: f5b3 e23c 6201 87bd dd55 efbc 8c40 5a3d
000002f0: 7bb9 d03d eef4 f8bd edf6 cb3b e9ea a8bd
00000300: 29f1 1ebe 4640 043e 9f92 1d3e 416c cd3d
00000310: 9488 6f3d 570a 82bc 54a2 d43d be9c 86bc

lstm.bias_hh_l1 f4 [200]
0.12862921 0.055887166 -0.041997753 -0.065679416 -0.087812066 -0.07097919 -0.04101583 0.081303515
0.0014622038 -0.023580892 0.06244577 0.04700798 0.13931674 0.09855177 -0.08038809 0.014820743
-0.05584392 -0.11286798 -0.041014526 -0.01110924 8.558348e-05 -0.0006443132 -0.021436786 -0.08373799
0.1200066 -0.011312099 0.049924754 0.025950119 0.02758348 0.06428274 -0.05044468 -0.019402552
-0.044435102 0.10673617 -0.06352515 -0.073981404 0.13705656 -0.077642925 -0.03685464 -0.048456702
0.13600849 0.08888158 0.11663067 0.13949405 -0.008713572 0.007565815 0.02097599 -0.08240154
-0.117170535 -0.08520313 -0.056230947 -0.09914968 0.02789052 -0.091039896 0.06415439 -0.031524975
-0.06449178 0.1476996 -0.10922508 0.018891763 0.037345912 -0.111583136 0.040645394 0.12772162
-0.033870015 -0.034753416 0.10572675 0.10026322 0.12655117 -0.05350292 0.15032786 0.053375777
-0.025199581 0.018062152 -0.109300174 -0.108477205 -0.010875685 0.016446756 -0.035178453 -0.0018389518
0.018037844 -0.11707806 0.111899294 -0.05296652 0.0725041 -0.09812865 -0.030681735 -0.032818496
0.015275369 0.102838114 -0.049684502 -0.026270615 -0.022634426 0.02819613 0.045441505 0.07175321
0.050506394 -0.11397439 0.062261224 0.114269085 0.041457146 -0.022621835 -0.1112965 -0.1289405
-0.029057428 0.1127748 -0.024512144 0.07347177 0.060648452 0.043419696 0.12177565 -0.13261023
-0.15265551 -0.07430412 0.05026539 0.049376555 -0.056240905 0.08094257 -0.11738992 0.09889741
-0.08151698 -0.12776038 -0.010442389 -0.11291537 -0.10173335 -0.014431156 -0.029943958 0.1485987
-0.037017174 -0.10294052 -0.11675168 -0.037425637 0.049332492 -0.021332387 0.019574631 -0.08204776
0.13551858 0.12046608 0.003724561 0.14625913 0.04914757 0.13670342 0.06640335 0.041201882
0.086109556 -0.09346197 -0.022609696 0.11661209 0.09555074 -0.004724956 -0.041588474 -0.0289945
0.13893339 0.032498043 0.07881668 0.020752916 -0.09713185 0.087823585 -0.03212235 0.020726362
-0.07900955 0.085088156 0.016789418 0.09357231 0.09649428 -0.13500746 -0.021968538 -0.086413436
0.050489146 0.0096999 0.017398234 0.10486894 0.0010481114 -0.029862085 -0.13907987 -0.08925932
-0.06284746 0.042336807 0.052809604 -0.088052526 0.09130478 -0.023074107 -0.020149779 0.13870749
-0.033250008 0.13081577 -0.058524057 -0.04805004 0.11565762 0.05280513 0.1295883 -0.100961
-0.15649915 -0.018244648 -0.12462899 0.04586543 0.00013346798 0.048409242 0.13172367 -0.0013852136
00000000: 60b7 033e f1e9 643d d605 2cbd ee82 86bd
00000010: d0d6 b3bd 8a5d 91bd 3700 28bd 7582 a63d
00000020: 6ba7 bf3a b72c c1bc 23c7 7f3d 718b 403d
00000030: 0ca9 0e3e 83d5 c93d 83a2 a4bd b4d2 723c
00000040: 98bc 64bd 5427 e7bd d9fe 27bd 8803 36bc
00000050: 487b b338 20e7 28ba 339c afbc d37e abbd
00000060: 05c6 f53d 6256 39bc e67d 4c3d 5895 d43c
00000070: c0f6 e13c aba6 833d 159f 4ebd 1af2 9ebc
00000080: 9501 36bd 7e98 da3d 7919 82bd 9083 97bd
00000090: 8e58 0c3e 4103 9fbd e4f4 16bd 897a 46bd
000000a0: cf45 0b3e 8c07 b63d 10dc ee3d 87d7 0e3e
000000b0: 5fc3 0ebc a8ea f73b d7d5 ab3c 23c2 a8bd
000000c0: 1bf7 efbd fb7e aebd 6c52 66bd fd0e cbbd
000000d0: a97a e43c 2073 babd 6063 833d 5520 01bd
000000e0: 4414 84bd 903e 173e 66b1 dfbd e6c2 9a3c
000000f0: 07f8 183d b385 e4bd c97b 263d 75c9 023e
00000100: 49bb 0abd 9959 0ebd 4487 d83d ce56 cd3d
00000110: a196 013e e125 5bbd 8cef 193e 8fa0 5a3d
00000120: 5a6f cebc 14f7 933c c5d8 dfbd 4c29 debd
00000130: ee2f 32bc 59bb 863c 4817 10bd fc08 f1ba
00000140: 1ac4 933c 9fc6 efbd 752b e53d 6cf3 58bd
00000150: 087d 943d acf7 c8bd 4358 fbbc b06c 06bd
00000160: 8b45 7a3c ca9c d23d fa81 4bbd 7935 d7bc
00000170: d56b b9bc 92fb e63c df20 3a3d 59f3 923d
00000180: cbdf 4e3d 686b e9bd a005 7f3d e905 ea3d
00000190: f8ce 293d 6d51 b9bc 6bef e3bd fa08 04be
000001a0: d809 eebc 79f6 e63d b1cd c8bc 5e78 963d
000001b0: 836a 783d dad8 313d 8365 f93d faca 07be
000001c0: ba51 1cbe c22c 98bd 15e3 4d3d 123f 4a3d
000001d0: dd5c 66bd 38c5 a53d 206a f0bd ba8a ca3d
000001e0: 60f2 a6bd 9ed3 02be 8e16 2bbc 2c40 e7bd
000001f0: 9359 d0bd a870 6cbc 084d f5bc 422a 183e
00000200: 529f 17bd 7bd2 d2bd 811b efbd a04b 19bd
00000210: de10 4a3d 42c1 aebc fa5a a03c a808 a8bd
00000220: 62c5 0a3e ecb6 f63d c417 743b f4c4 153e
00000230: f64e 493d fbfb 0b3e 7bfe 873d 4ec3 283d
00000240: 355a b03d fd68 bfbd f837 b9bc 52d2 ee3d
00000250: 1bb0 c33d ced3 9abb ad58 2abd e085 edbc
00000260: 8e44 0e3e ab1c 053d a46a a13d 0502 aa3c
00000270: 10ed c6bd dadc b33d ba92 03bd 55ca a93c
00000280: c2cf a1bd b342 ae3d f689 893c d7a2 bf3d
00000290: cb9e c53d 653f 0abe 5df7 b3bc 87f9 b0bd
000002a0: b5cd 4e3d 54ec 1e3c be86 8e3c 87c5 d63d
000002b0: c860 893a 55a1 f4bc f46a 0ebe 97cd b6bd
000002c0: 2bb6 80bd 5c69 2d3d e24e 583d e254 b4bd
000002d0: 00fe ba3d e905 bdbc 2611 a5bc 5609 0e3e
000002e0: 2931 08bd 92f4 053e ecb6 6fbd 1ed0 44bd
000002f0: e7dd ec3d 314a 583d ccb2 043e a4c4 cebd
00000300: 5041 20be cd75 95bc 7c3d ffbd 64dd 3b3d
00000310: 8af3 0b39 c548 463d 92e2 063e 0e90 b5ba

fc.weight f4 [1, 50]
0.13654597 0.047871515 0.06504124 -0.077405736 0.0051487996 0.057736132 -0.061040718 0.094032384
0.06522934 0.11117484 0.14998637 -0.036865234 -0.06226448 0.101877496 0.12434331 -0.050602965
-0.1280603 -0.077571504 -0.09084606 -0.1025375 -0.091173105 -0.092864 -0.050906774 0.0089765815
0.05675693 0.053888023 -0.042067382 0.1422953 -0.12409385 -0.13379708 -0.08663047 -0.09293973
0.11094139 0.14614423 -0.051219262 0.046387963 0.06817757 0.14945762 -0.11226141 0.027583174
-0.13843903 0.1217289 0.003088951 0.046398025 0.092954196 -0.12028992 -0.0053602136 0.06304239
0.04975908 0.08985036
00000000: b5d2 0b3e ec14 443d 5734 853d e686 9ebd
00000010: 43b7 a83b b97c 6c3d d505 7abd 0d94 c03d
00000020: f696 853d a2af e33d 0796 193e 0000 17bd
00000030: 0a09 7fbd 26a5 d03d b5a7 fe3d 0e45 4fbd
00000040: 3d22 03be cfdd 9ebd 800d babd 2eff d1bd
00000050: f7b8 babd 7b2f bebd 9f83 50bd 8312 133c
00000060: f479 683d b0b9 5c3d d94e 2cbd dcb5 113e
00000070: eb24 febd 1a02 09be 516b b1bd 2f57 bebd
00000080: 3d35 e33d d5a6 153e 4acb 51bd 4e01 3e3d
00000090: afa0 8b3d 6b0b 193e 4fe9 e5bd 1cf6 e13c
000000a0: f6c2 0dbe 004d f93d 0070 4a3b db0b 3e3d
000000b0: c55e be3d 905a f6bd bba4 afbb 5e1c 813d
000000c0: 2dd0 4b3d 7703 b83d
