data/models/PETR4.SA_20251229_162312.pt (torch, 128998 bytes, 9 tensors)

lstm.weight_ih_l0 f4 [200, 1]
0.14069533 0.07377222 -0.013035213 0.08383117 -0.07151787 0.062140677 -0.07677532 0.09244486
-0.08277474 0.07078783 0.029898556 -0.07702276 -0.014742853 -0.019492045 -0.098101124 -0.12405382
-0.105221264 -0.076469585 0.04853199 0.071325034 -0.08081099 0.01581335 -0.119089514 0.090225905
-0.11919564 -0.09178616 -0.07358078 0.022431852 0.08903224 0.06404314 -0.13445498 -0.14789282
0.008146961 0.055043418 0.05356109 0.050029766 0.089228176 0.1371 0.07005792 -0.12176842
0.005436374 -0.0033821808 -0.055868886 0.02087437 -0.13117334 0.10289003 -0.0043062507 -0.119519964
0.014622534 0.100907885 0.15320882 -0.0050671063 0.1296022 -0.037177082 0.10069265 0.15918098
-0.105981335 0.08619725 0.10073475 -0.04535236 0.016065652 0.06737006 0.03672357 0.09462927
-0.01776436 -0.032449998 -0.14511521 -0.0025669932 -0.12924944 0.13502598 0.1419311 -0.116820715
0.13991526 -0.057917524 0.09398205 -0.022566913 -0.014574973 -0.049026035 -0.0021379304 0.09743889
0.08485951 -0.011788714 -0.070079744 -0.01194093 0.078391634 0.053797077 -0.053475212 -0.10195108
0.106632136 -0.0395282 -0.09979796 0.085712574 0.06494841 0.04824109 0.013671554 -0.096372485
-0.044425264 0.10831845 0.0044005285 -0.10452614 0.10911153 0.05678179 -0.14750344 0.13631587
0.118812785 -0.06566497 -0.08529144 -0.1570901 0.016932415 0.08286349 0.13129075 -0.08166068
0.09241317 0.09451044 0.08387034 -0.013553071 -0.12489888 0.065913245 0.12647615 -0.037885584
0.026030567 -0.026118634 0.056643434 -0.124819465 -0.034454547 -0.15141359 0.10611613 0.07904378
0.036524925 -0.004688321 0.020057427 -0.09445939 -0.103579804 -0.033180926 0.07589274 0.047290634
-0.14392442 0.014642579 0.09128637 0.02578219 -0.066308536 -0.10389966 0.1108066 -0.074653335
0.07424641 -0.10113131 0.05227831 -0.003280188 0.089095145 0.007871507 0.042660974 0.065543465
0.116368495 -0.12917802 -0.052246876 -0.017823162 -0.13306044 0.118259795 -0.067706086 -0.0147998445
-0.12558101 0.054595467 -0.028874593 0.08319332 -0.11507684 -0.13236666 0.062158484 0.095459476
0.02431527 0.036983173 -0.031912163 0.06838254 0.13428397 -0.014984399 0.09234994 0.06356453
-0.008153599 -0.11360025 0.016096571 0.08825763 0.13527867 0.08664704 0.11565745 0.1202816
0.04229006 -0.08187596 0.15567668 -0.048165917 -0.025635324 0.11302347 0.0887608 -0.07751549
0.070226714 -0.090245016 -0.07177764 -0.035167303 -0.07216858 -0.007409231 -0.11073173 0.1277346
00000000: 7012 103e e415 973d a591 55bc adaf ab3d
00000010: f677 92bd 3987 7e3d 613c 9dbd bb53 bd3d
00000020: ce85 a9bd 36f9 903d d1ed f43c 1cbe 9dbd
00000030: 028c 71bc c8ad 9fbc 3ee9 c8bd ee0f febd
00000040: 3f7e d7bd 169c 9cbd 7bc9 463d dc12 923d
00000050: 3b80 a5bd 008b 813c 34e5 f3bd 5cc8 b83d
00000060: d81c f4bd 62fa bbbd 85b1 96bd 01c3 b73c
00000070: 8956 b63d 0d29 833d 91ae 09be 3771 17be
00000080: d57a 053c 3575 613d e062 5b3d 03ec 4c3d
00000090: 43bd b63d f163 0c3e 877a 8f3d b961 f9bd
000000a0: 9c23 b23b 94a7 5dbb c6d6 64bd ba00 ab3c
000000b0: 4e52 06be 02b8 d23d 731b 8dbb e2c6 f4bd
000000c0: 5a93 6f3c cba8 ce3d c6e2 1c3e f809 a6bb
000000d0: 70b6 043e ff46 18bd f337 ce3d 5700 233e
000000e0: be0c d9bd 2f88 b03d 054e ce3d 65c3 39bd
000000f0: 1d9c 833c 50f9 893d 746b 163d fecc c13d
00000100: 9086 91bc 4aea 04bd 1599 14be 003b 28bb
00000110: f759 04be 4044 0a3e 6356 113e b33f efbd
00000120: f245 0f3e ed3a 6dbd a979 c03d 3fde b8bc
00000130: decb 6ebc 86cf 48bd 851c 0cbb 0a8e c73d
00000140: d3ca ad3d 7325 41bc f885 8fbd e4a3 43bc
00000150: cb8b a03d 535a 5c3d d308 5bbd bacb d0bd
00000160: f361 da3d 52e8 21bd df62 ccbd 138a af3d
00000170: ac03 853d 7398 453d a7fe 5f3c f05e c5bd
00000180: 44f7 35bd 10d6 dd3d 4f32 903b cd11 d6bd
00000190: de75 df3d 0694 683d 240b 17be 6396 0b3e
000001a0: 1e54 f33d 5b7b 86bd 47ad aebd 3adc 20be
000001b0: d9b5 8a3c 55b4 a93d 1571 063e b73d a7bd
000001c0: 1e43 bd3d b18e c13d 36c4 ab3d b30d 5ebc
000001d0: fcca ffbd 86fd 863d f782 013e ea2d 1bbd
000001e0: 0e3e d53c bff6 d5bc f202 683d 59a1 ffbd
000001f0: 3620 0dbd 2a0c 1bbe 6a53 d93d b5e1 a13d
00000200: 299b 153d 7da0 99bb 794f a43c ed73 c1bd
00000210: a621 d4bd b9e8 07bd a76d 9b3d d3b3 413d
00000220: ec60 13be 6de7 6f3c 59f4 ba3d 2c35 d33c
00000230: c5cc 87bd 58c9 d4bd 92ee e23d d9e3 98bd
00000240: 800e 983d ef1d cfbd c821 563d 6cf8 56bb
00000250: 8477 b63d 7ef7 003c 46bd 2e3d a73b 863d
00000260: 9b52 ee3d 3e47 04be d200 56bd e101 92bc
00000270: ff40 08be 3132 f23d 7da9 8abd 0c7b 72bc
00000280: 4f98 00be 7f9f 5f3d 698a ecbc 4261 aa3d
00000290: 68ad ebbd 208b 07be e599 7e3d 4280 c33d
000002a0: d130 c73c ab7b 173d 54b6 02bd 250c 8c3d
000002b0: bd81 093e 2081 75bc f721 bd3d 1f2e 823d
000002c0: ac96 05bc 3fa7 e8bd f5dc 833c 6bc0 b43d
000002d0: 7e86 0a3e 0174 b13d d0dd ec3d 3356 f63d
000002e0: 5838 2d3d 95ae a7bd b569 1f3e a049 45bd
000002f0: 2c01 d2bc d978 e73d 39c8 b53d 71c0 9ebd
00000300: 06d3 8f3d 61d2 b8bd 2800 93bd 970b 10bd
00000310: 1fcd 93bd 22c9 f2bb 51c7 e2bd dccc 023e

lstm.weight_hh_l0 f4 [200, 50]
0.07007731 -0.06606321 0.01190683 -0.01948048 -0.09769504 -0.102005035 -0.07966933 -0.11954975
-0.12315973 0.03846136 -0.030534646 -0.009402017 0.07535695 -0.06312166 -0.121046595 -0.021797396
-0.0049775047 -0.07251234 -0.017706975 -0.049905844 0.05083356 -0.002952153 -0.07410123 0.0076321075
0.13173556 -0.023504544 -0.03675948 -0.0775536 -0.12300694 0.0015592886 0.12733907 -0.12243426
-0.004849282 0.053872768 0.038572114 -0.13428727 0.11512883 -0.026992094 0.023991344 0.08310589
0.12851156 0.035777785 -0.03226446 0.035769153 -0.024532959 -0.056584626 0.08752505 0.05133185
0.03650596 0.02094854 -0.04125201 -0.0734876 -0.017085288 -0.030092282 0.059075512 -0.1110541
-0.0021089255 -0.096667 0.09617951 0.09661169 0.06074683 0.051796768 0.05671736 0.048494227
0.012866244 -0.14177105 0.0090459 -0.099740535 -0.022214346 0.0937959 -0.070421085 -0.054180007
-0.15245332 0.060658514 -0.0076980605 0.013852975 -0.04871835 0.113103874 -0.12711875 -0.11141851
0.04020267 -0.11651419 0.0811144 0.14193062 0.08051267 -0.12486079 -0.12186507 0.032535605
0.07595611 -0.08213695 0.017698945 -0.017524844 -0.124043256 0.122728504 -0.1234651 0.109039284
0.006109593 -0.048283014 -0.045989342 0.12479499 -0.059202872 0.118926294 0.028817805 0.085771844
-0.08839209 0.14248624 0.019665362 -0.14515284 -0.07369805 0.033067044 -0.021578308 0.04890994
-0.13959014 -0.096108705 -0.07327887 -0.06291972 0.10986797 0.116210185 0.07721132 -0.1386062
0.1012084 0.021234618 0.03413032 0.10290461 -0.033753175 0.08449033 -0.07932828 0.11721558
0.093611576 -0.11923373 0.023457315 0.15472469 0.09264143 0.03935244 0.012071059 -0.13277902
-0.0048887106 -0.062627666 -0.09911912 0.019985856 0.048243836 0.012779217 -0.03806012 0.05760681
0.033846796 -0.08358594 0.14780505 -0.11266662 0.06103965 0.020597983 -0.01564254 -0.079931736
-0.099104725 0.053161703 0.095173486 0.016574873 -0.121781014 0.06828733 0.13134179 0.11747656
-0.10524793 -0.026560387 -0.05041263 0.074678145 -0.089298524 -0.14327545 -0.049437903 -0.052600294
-0.050154876 0.11480921 -0.07643702 0.052959148 0.1132535 -0.03851914 0.08910731 -0.10252342
-0.12911406 0.04418141 0.12962578 0.07199585 -0.019343272 -0.09978808 -0.13216032 -0.10049664
-0.008877428 0.010441975 -0.051598147 -0.09236263 0.060110647 -0.12300823 0.049089953 -0.06405423
0.11589152 0.099531874 -0.024285741 0.13364494 0.14592764 -0.10994067 0.095121965 0.0010801079
0.11031789 -0.036328472 0.05193191 0.09033789 0.14421675 -0.12647288 0.034336053 -0.076874025
-0.0076573645 0.06588821 0.13033234 -0.012937699 0.09482889 -0.08211948 0.023161681 -0.12293864
-0.11054292 0.08428072 0.043851122 -0.07122835 0.053093083 -0.08457319 0.046432935 0.086264506
0.06463595 0.10082909 0.0673601 0.025208924 -0.08683345 0.028335067 -0.116032235 0.032022815
0.08542057 -0.09446619 -0.029521905 0.04968263 0.06507384 0.11815258 -0.05987623 -0.1384313
0.05627144 -0.06809262 0.1194595 0.007568164 0.075056836 0.012683338 0.07777042 0.064524196
-0.123049565 0.06238772 0.056714825 0.05396094 -0.033784427 -0.120421074 -0.013527688 0.06625355
00000000: b184 8f3d 264c 87bd dd14 433c 8795 9fbc
00000010: 5614 c8bd 04e8 d0bd ac29 a3bd 80d6 f4bd
00000020: 2b3b fcbd a989 1d3d cb23 fabc eb0a 1abc
00000030: bf54 9a3d ee45 81bd 47e7 f7bd 7490 b2bc
00000040: 561a a3bb 5a81 94bd 380e 91bc 126a 4cbd
00000050: da36 503d e978 41bb 63c2 97bd c216 fa3b
00000060: b0e5 063e 9a8c c0bc 1c91 16bd 6cd4 9ebd
00000070: 10eb fbbd 0b61 cc3a 2c65 023e d0be fabd
00000080: bae6 9ebb b1a9 5c3d cbfd 1d3d 9a82 09be
00000090: aac8 eb3d 861e ddbc 7f89 c43c 6c33 aa3d
000000a0: 8998 033e ba8b 123d bd27 04bd ad82 123d
000000b0: 58f9 c8bc 48c5 67bd 5540 b33d 5941 523d
000000c0: 4687 153d 469c ab3c def7 28bd ab80 96bd
000000d0: 72f6 8bbc 1784 f6bc 2af9 713d 5570 e3bd
000000e0: e635 0abb 59f9 c5bd c3f9 c43d 5adc c53d
000000f0: abd1 783d d928 543d 7650 683d e2a1 463d
00000100: f0cc 523c 6e2c 11be 4135 143c c444 ccbd
00000110: dcfa b5bc 1118 c03d ee38 90bd dbeb 5dbd
00000120: b91c 1cbe 1075 783d 0340 fcbb 97f7 623c
00000130: e48c 47bd 01a3 e73d 6b2b 02be 632f e4bd
00000140: 8eab 243d fe9e eebd 4e1f a63d 4356 113e
00000150: d4e3 a43d 04b7 ffbd 6594 f9bd 0e44 053d
00000160: e18e 9b3d 6b37 a8bd 61fd 903c 4390 8fbc
00000170: 640a febd 1559 fb3d 45db fcbd fd4f df3d
00000180: fb32 c83b 69c4 45bd 525f 3cbd 8494 ff3d
00000190: b67e 72bd a18f f33d 5113 ec3c 26a9 af3d
000001a0: e906 b5bd eae7 113e 4119 a13c f2a2 14be
000001b0: 01ef 96bd 4f71 073d fec4 b0bc ca55 483d
000001c0: b8f0 0ebe a4d4 c4bd 3b13 96bd 0edc 80bd
000001d0: 7502 e13d 9bff ed3d f820 9e3d c9ee 0dbe
000001e0: 5a46 cf3d 39f4 ad3c 3ccc 0b3d a7bf d23d
000001f0: c540 0abd 4409 ad3d de76 a2bd b90e f03d
00000200: 6db7 bf3d d030 f4bd 8e29 c03c 2670 1e3e
00000210: caba bd3d 0630 213d b1c5 453c 39f7 07be
00000220: 7a31 a0bb ef42 80bd f7fe cabd 61b9 a33c
00000230: 549b 453d ec5f 513c eee4 1bbd 1ef5 6b3d
00000240: f0a2 0a3d 1b2f abbd 355a 173e c2bd e6bd
00000250: b604 7a3d 1abd a83c c924 80bc 40b3 a3bd
00000260: 6bf7 cabd 16c0 593d 51ea c23d 07c8 873c
00000270: 5368 f9bd 3ada 8b3d 767e 063e 8d97 f03d
00000280: 3a8c d7bd 2b95 d9bc 797d 4ebd dbf0 983d
00000290: 25e2 b6bd cdb6 12be 667f 4abd 6873 57bd
000002a0: 336f 4dbd 1721 eb3d 038b 9cbd b1eb 583d
000002b0: 73f1 e73d 3fc6 1dbd e57d b63d ccf7 d1bd
000002c0: 7a36 04be 91f7 343d 9fbc 043e 8f72 933d
000002d0: c875 9ebc b15d ccbd 0955 07be 2fd1 cdbd
000002e0: a272 11bc d114 2b3c 9458 53bd 9e28 bdbd
000002f0: 9536 763d bdeb fbbd 8c12 493d dd2e 83bd
00000300: 8958 ed3d 5ed7 cb3d e4f2 c6bc 38da 083e
00000310: 0e6e 153e 9328 e1bd 4ecf c23d 6892 8d3a
00000320: 59ee e13d 2acd 14bd 8eb6 543d 1203 b93d
00000330: 8ead 133e 1b82 01be f6a3 0c3d 2170 9dbd
00000340: a1ea fabb 66f0 863d d775 053e a5f8 53bc
00000350: a635 c23d 422e a8bd 91bd bd3c 41c7 fbbd
00000360: 5464 e2bd 5f9b ac3d 3c9d 333d 2be0 91bd
00000370: 2278 593d b534 adbd 7630 3e3d 72ab b03d
00000380: da5f 843d 7b7f ce3d 18f4 893d f282 ce3c
00000390: bcd5 b1bd f11e e83c 4fa2 edbd 5b2a 033d
000003a0: fbf0 ae3d 7d77 c1bd ecd7 f1bc 0380 4b3d
000003b0: 6f45 853d fbf9 f13d c740 75bd efc0 0dbe
000003c0: e27c 663d 2574 8bbd 2fa7 f43d 5cfe f73b
000003d0: 66b7 993d c6cd 4f3c 1946 9f3d 4325 843d
000003e0: 6901 fcbd 448a 7f3d ce4d 683d 2606 5d3d
000003f0: 8a61 0abd 539f f6bd 3ca3 5dbc f1af 873d

lstm.bias_ih_l0 f4 [200]
-0.077154115 -0.14269947 0.07116588 0.09525151 -0.06442055 0.0248766 -0.13321097 0.023334762
-0.12651268 0.03165225 -0.017913822 -0.030317036 0.06201204 -0.02709105 -0.06337939 -0.09300661
-0.038072895 0.08439633 -0.15260655 0.009162683 0.07645668 0.070869565 0.053844076 0.11731473
-0.0912271 -0.122198924 -0.10294435 -0.021294143 -0.07123292 -0.13088734 -0.0155856935 -0.019250024
0.07967278 -0.14945805 0.09761805 -0.0047562206 -0.004937801 -0.07031018 0.13132246 -0.052793294
0.04873104 0.11601037 -0.1181826 -0.12294272 0.0763699 -0.027379053 0.15124819 0.0048623816
0.011729954 0.03227406 -0.05494848 0.09559334 -0.028024185 0.11543147 0.09819495 -0.075157166
0.009781132 0.0019178368 -0.102746375 0.14233723 -0.119206816 0.11406999 0.09421495 -0.0007332545
-0.009843484 0.10259353 0.109936334 -0.057390783 0.04316861 -0.040047314 -0.10343371 -0.083631866
0.1329257 -0.004445854 -0.11928431 0.021059588 0.005143929 0.13171011 0.052098256 -0.11698111
-0.073096655 -0.08806751 -0.0046341545 -0.071070805 -0.11752756 0.09241155 0.0778858 -0.046247147
0.112452134 0.05326516 -0.038868286 -0.050466273 0.1142144 -0.042945314 0.023138445 -0.06418351
0.12958422 0.1147966 -0.089048736 -0.019802 0.024037464 0.049236998 -0.0036636372 -0.1045559
-0.0008900276 0.1482155 0.09325075 -0.07015828 0.11133336 -0.014829966 -0.0030336364 0.06677327
-0.068201676 -0.1125737 0.106443405 0.08994449 -0.022597887 0.040932126 -0.11977064 -0.09422436
0.08479732 0.025766928 -0.13810392 -0.14439347 -0.062574886 0.12677763 -0.076249585 -0.13563846
-0.054954663 0.079586945 -0.026326519 0.06690577 -0.056125924 0.0386069 0.053449806 -0.07903308
0.118541755 0.12734751 -0.13134056 -0.012568816 0.019437054 0.04889 0.04208565 -0.15071607
0.08825451 -0.106457494 0.15223008 -0.008024957 0.13421027 -0.12568347 -0.07227597 0.13187721
0.05134265 0.07636202 0.106036596 -0.04133738 -0.036895 0.08301465 0.03686125 0.010305717
-0.026734281 0.1481105 -0.07641597 0.13860069 0.091285855 -0.026159063 0.118012846 -0.048333887
-0.04511184 0.101146765 -0.017304579 -0.04679673 0.10047445 0.15584828 0.0028810701 0.047111824
0.006340256 -0.08705641 0.13849354 -0.13235544 -0.12812331 0.054055445 -0.026647931 -0.009690404
0.069174014 0.11220573 0.03885191 0.11528821 0.10162888 -0.03494176 -0.06975636 -0.063535094
-0.10451848 -0.03239602 -0.09863191 -0.01811363 0.02297503 0.0063339723 0.08310033 -0.10050616
00000000: fa02 9ebd cf1f 12be 6bbf 913d 3913 c33d
00000010: ecee 83bd 03ca cb3c 7568 08be 8b28 bf3c
00000020: 8a8c 01be caa5 013d 02c0 92bc 6f5b f8bc
00000030: 5600 7e3d 0dee ddbc 0ecd 81bd 407a bebd
00000040: 53f2 1bbd fcd7 ac3d e444 1cbe 141f 163c
00000050: 5295 9c3d 1024 913d 9b8b 5c3d b542 f03d
00000060: 46d5 babd 6e43 fabd 7dd4 d2bd 0e71 aebc
00000070: 91e2 91bd 5507 06be 235b 7fbc 3ab2 9dbc
00000080: 7c2b a33d 880b 19be f9eb c73d 12da 9bbb
00000090: 47cd a1bb c9fe 8fbd 6579 063e c83d 58bd
000000a0: 339a 473d d896 ed3d b809 f2bd 65c9 fbbd
000000b0: d267 9c3d 094a e0bc cee0 1a3e 9d54 9f3b
000000c0: fe2e 403c ce31 043d a811 61bd 71c6 c33d
000000d0: fa92 e5bc 5667 ec3d 6f1a c93d 00ec 99bd
000000e0: 0b41 203c ed5f fb3a b16c d2bd dac0 113e
000000f0: b422 f4bd 879d e93d c5f3 c03d e037 40ba
00000100: 9046 21bc 8f1c d23d 4d26 e13d 9912 6bbd
00000110: 92d1 303d a708 24bd 0ed5 d3bd 2f47 abbd
00000120: ad1d 083e 87ae 91bb 554b f4bd 2885 ac3c
00000130: 678e a83b 04df 063e fb64 553d cb93 efbd
00000140: b3b3 95bd bd5c b4bd 1bda 97bb 928d 91bd
00000150: 4ab2 f0bd 4442 bd3d 9782 9f3d a66d 3dbd
00000160: 4e4d e63d 922c 5a3d 5a34 1fbd b9b5 4ebd
00000170: 3de9 e93d 6de7 2fbd d68c bd3c a572 83bd
00000180: bab1 043e 7b1a eb3d 2f5f b6bd ce37 a2bc
00000190: 37ea c43c bcac 493d a219 70bb 6721 d6bd
000001a0: be50 69ba cec5 173e 40fa be3d 25af 8fbd
000001b0: bf02 e43d 63f9 72bc f9cf 46bb 6dc0 883d
000001c0: 52ad 8bbd 0a8d e6bd 00ff d93d d134 b83d
000001d0: 341f b9bc 72a8 273d 4f4a f5bd b4f8 c0bd
000001e0: 38aa ad3d 2a15 d33c 1d6b 0dbe e2db 13be
000001f0: 4327 80bd ffd1 013e be28 9cbd cfe4 0abe
00000200: 2418 61bd 7bfe a23d b6aa d7bc e405 893d
00000210: 4ce4 65bd 4522 1e3d 2fee 5a3d 18dc a1bd
00000220: 05c6 f23d 6367 023e 247e 06be 6fed 4dbc
00000230: 753a 9f3c e140 483d 0162 2c3d 5055 1abe
00000240: c8be b43d 6306 dabd 34e2 1b3e 1c7b 03bc
00000250: 6b6e 093e 2bb3 00be 6c05 94bd d20a 073e
00000260: ac4c 523d b163 9c3d b729 d93d 6251 29bd
00000270: 361f 17bd 9603 aa3d d2fb 163d 4fd9 283c
00000280: da01 dbbc 47aa 173e fa7f 9cbd 57ed 0d3e
00000290: 14f4 ba3d 884b d6bc b8b0 f13d c1f9 45bd
000002a0: 31c7 38bd 0926 cf3d 55c2 8dbc eead 3fbd
000002b0: 8cc5 cd3d b196 1f3e 56d0 3c3b 54f8 403d
000002c0: ecc1 cf3b a24a b2bd 40d1 0d3e 2f88 07be
000002d0: c232 03be 3e69 5d3d c34c dabc 80c4 1ebc
000002e0: 1bab 8d3d 1ecc e53d 2e23 1f3d 3a1c ec3d
000002f0: cd22 d03d 171f 0fbd 6cdc 8ebd b01e 82bd
00000300: c90d d6bd b0b1 04bd 87ff c9bd 0963 94bc
00000310: 2136 bc3c 368d cf3b 8130 aa3d 2cd6 cdbd

lstm.bias_hh_l0 f4 [200]
0.13065715 -0.08764375 -0.008719682 -0.014282939 -0.06243756 -0.0207807 0.12421931 0.011626813
-0.051333908 0.06384756 0.08805099 0.08026097 -0.09159634 0.028424567 0.102447525 0.016061712
-0.01270971 -0.067306615 -0.06435787 -0.0909418 -0.0010220757 0.042459503 -0.085583344 0.009972722
0.06796163 0.08886875 0.07485517 -0.11213011 -0.0066339113 0.06717128 -0.121835135 0.06182705
-0.072136074 -0.018913785 0.12158788 -0.067497216 0.13603331 0.026370408 0.021299245 -0.13843651
-0.072917864 0.03159477 -0.06347059 -0.029486593 -0.12996717 0.014011476 0.14195716 -0.013450805
0.10860903 0.09770514 -0.10110751 0.1299395 0.071031824 0.095464036 0.10563899 0.07413858
-0.042951345 0.140799 -0.049437445 -0.11177196 0.13212907 0.00742802 -0.0894823 -0.07067717
-0.1180079 -0.14924492 -0.13827303 -0.11310579 0.029850807 0.04396867 -0.12385664 -0.07718182
-0.13012116 -0.04139003 -0.022875478 0.09106305 -0.10072679 0.121758364 0.053225975 -0.053634558
-0.044096116 -0.022941457 -0.1235224 0.046539504 0.025510052 0.047131393 -0.08729983 0.15058656
-0.0969024 0.009311003 -0.05710224 -0.094953 -0.12078185 0.042103417 -0.046513315 0.0071643703
-0.02249481 -0.036916517 -0.05796213 0.05800554 -0.13811429 -0.12352782 -0.13446988 0.07751774
-0.107148536 0.005878517 0.08338384 -0.11274865 -0.11705729 -0.095697455 -0.045789793 0.060273383
-0.033920757 -0.033257462 -0.05474257 -0.100399084 -0.07350426 0.07476911 -0.01153893 -0.0819636
-0.051337827 0.053274166 0.014659688 -0.020076955 0.08210697 -0.11150682 -0.046286356 -0.123463824
-0.09190881 -0.06839897 -0.09807868 0.07920475 0.04854112 -0.09421291 0.06876405 0.062491175
-0.044006586 0.035816684 -0.08837853 0.028377775 0.055954125 0.03486111 0.09326029 0.083617434
0.037327357 -0.09888458 0.0072894003 -0.12245371 -0.023642492 0.104701936 -0.12996453 0.06497241
0.03527991 0.03339762 -0.045824766 -0.1271525 -0.06407275 0.15407379 0.063642435 -0.033579398
-0.10660482 0.056551237 0.12206816 -0.09163731 -0.022198655 -0.037847895 -0.074949354 -0.054313745
0.027794458 0.06141461 0.06907962 -0.029605374 0.11847665 0.016173966 0.067115285 -0.009896279
-0.12083655 -0.012545837 0.08865754 0.039518308 0.026615504 -0.10784711 0.13067983 0.040581852
-0.04748214 -0.06341308 -0.052575786 -0.10369809 -0.09360102 0.104931965 -0.037523326 -0.049047556
0.11196741 0.05538927 0.021929298 -0.06776774 0.010218698 -0.110850826 0.13189544 0.12371948
00000000: fdca 053e 917e b3bd ffdc 0ebc fd02 6abc
00000010: 87be 7fbd 493c aabc b266 fe3d 637e 3e3c
00000020: 8143 52bd 82c2 823d 1454 b43d dd5f a43d
00000030: dd96 bbbd a3da e83c 02d0 d13d da93 833c
00000040: 633c 50bc 0dd8 89bd 0fce 83bd b23f babd
00000050: 2bf7 85ba 04ea 2d3d 5246 afbd a164 233c
00000060: 782f 8b3d d200 b63d ab4d 993d 79a4 e5bd
00000070: 4861 d9bb 1991 893d b384 f9bd 5c3e 7d3d
00000080: 14bc 93bd 15f1 9abc 1103 f93d fb3b 8abd
00000090: 514c 0b3e c106 d83c c17b ae3c 4dc2 0dbe
000000a0: f655 95bd 8469 013d defc 81bd de8d f1bc
000000b0: 1d16 05be 6490 653c 385d 113e c460 5cbc
000000c0: 696e de3d a219 c83d 7411 cfbd dc0e 053e
000000d0: 2279 913d a682 c33d 4159 d83d f8d5 973d
000000e0: c0ed 2fbd 9d2d 103e eb7e 4abd b3e8 e4bd
000000f0: d84c 073e bf66 f33b 7f42 b7bd 31bf 90bd
00000100: 20ae f1bd a9d3 18be 7297 0dbe 02a4 e7bd
00000110: ae89 f43c 7e18 343d 8da8 fdbd 8111 9ebd
00000120: 7b3e 05be 9888 29bd 5b65 bbbc 447f ba3d
00000130: d949 cebd 735c f93d 7b03 5a3d e9af 5bbd
00000140: 219e 34bd b9ef bbbc 50f9 fcbd 35a0 3e3d
00000150: 75fa d03c d90c 413d 41ca b2bd 5d33 1a3e
00000160: c474 c6bd 2d8d 183c 0ae4 69bd b876 c2bd
00000170: 795c f7bd a274 2c3d bf84 3ebd 18c3 ea3b
00000180: 0947 b8bc c635 17bd b369 6dbd 3897 6d3d
00000190: d56d 0dbe 27fc fcbd 79b2 09be 9fc1 9e3d
000001a0: b170 dbbd 93a0 c03b 26c5 aa3d c4e8 e6bd
000001b0: bcbb efbd 07fd c3bd 148e 3bbd 39e1 763d
000001c0: 7ef0 0abd fa38 08bd bf39 60bd 099e cdbd
000001d0: 6789 96bd 8c20 993d c80d 3dbc 88dc a7bd
000001e0: 9d47 52bd 0336 5a3d 302f 703c 6d78 a4bc
000001f0: b327 a83d b05d e4bd c396 3dbd 9ada fcbd
00000200: b03a bcbd c214 8cbd 7add c8bd 1a36 a23d
00000210: 0ed3 463d b3f2 c0bd 2bd4 8c3d bff6 7f3d
00000220: 4040 34bd 84b4 123d ceff b4bd 8278 e83c
00000230: 2730 653d 86ca 0e3d 40ff be3d 9e3f ab3d
00000240: 92e4 183d 0084 cabd ecdb ee3b 03c9 fabd
00000250: e6ad c1bc f86d d63d 6c15 05be 4110 853d
00000260: ab81 103d f1cb 083d c0b2 3bbd 4434 02be
00000270: 9338 83bd 85c5 1d3e f756 823d 8d8a 09bd
00000280: a153 dabd 45a2 673d dffe f93d 58ac bbbd
00000290: f4d9 b5bc 6506 1bbd 0c7f 99bd 1778 5ebd
000002a0: 34b1 e33c e38d 7b3d 9e79 8d3d f886 f2bc
000002b0: e3a3 f23d 447f 843c bd73 893d 0124 22bc
000002c0: 2779 f7bd 0e8d 4dbc 1692 b53d f3dd 213d
000002d0: c208 da3c f2de dcbd efd0 053e 2839 263d
000002e0: a27c 42bd b8de 81bd b559 57bd aa5f d4bd
000002f0: e4b1 bfbd 92e6 d63d 0fb2 19bd 17e6 48bd
00000300: 2b4f e53d dcdf 623d 12a5 b33c d0c9 8abd
00000310: 536c 273c c205 e3bd 990f 073e a460 fd3d

lstm.weight_ih_l1 f4 [200, 50]
0.056298506 0.03604228 -0.0257266 0.062018685 0.040618107 0.1295482 0.091755256 0.014850488
-0.017719055 -0.10694035 -0.06973661 0.0059561133 0.0033681188 0.10612897 -0.065992415 0.14662398
-0.07147682 -0.022300664 0.10984814 0.121637136 0.13604341 0.037289325 -0.07613867 -0.028758094
0.050527986 0.044550408 0.05260389 -0.077714585 0.024796778 0.04516575 -0.0015595735 -0.020330407
0.074335374 0.041232724 -0.07463729 0.038751286 0.09569511 0.055230547 -0.09945606 0.01519625
-0.0051716194 -0.0077594183 -0.015210032 -0.105797015 -0.060192596 -0.09182672 0.030454397 -0.0080162445
-0.095892124 -0.09158929 -0.07052658 -0.13604668 -0.010547015 -0.004304917 0.12366014 -0.056079827
0.04577432 -0.055254743 -0.15324396 -0.11123034 0.12275302 0.114255235 0.039951432 -0.027587805
-0.04031139 -0.07286945 0.083295636 -0.040552363 -0.018088084 0.02757074 -0.07596756 -0.109018676
-0.071014166 0.14629388 0.004387972 -0.018779228 0.004738859 0.0994389 0.14932828 0.016769078
-0.08694351 0.009030181 0.08406968 0.14610709 -0.08630235 -0.09670231 -0.045689702 -0.14701885
0.04462941 -0.0071511264 -0.025116183 -0.028381946 -0.05631904 -0.058343668 -0.03298745 -0.005737082
-0.09025852 -0.10737347 -0.110360764 -0.019091537 -0.007955006 0.1410912 0.07087408 0.0063759433
-0.13083638 -0.0780128 -0.015816402 -0.054420397 -0.020905059 0.12811884 0.0002580894 -0.039178465
0.07797417 -0.03799183 0.10462613 -0.05607351 0.056176815 0.13601848 0.034301 0.116557896
-0.025814898 0.08233169 -0.077104986 0.024821786 0.04808744 0.10987508 -0.03528282 0.055723723
0.087982215 0.009552693 0.03179824 0.006643591 0.08914513 0.08209337 -0.1062055 0.078024395
-0.11491826 -0.004287752 -0.031987928 -0.10606617 0.11756013 -0.050260812 -0.07021995 -0.08392664
-0.13013303 0.08059321 0.0056924014 0.0488494 0.10360486 0.10377658 -0.092430584 0.07226931
0.08043824 -0.012229992 0.1316443 -0.10111997 0.02808081 0.008344425 0.07840393 -0.10739067
0.018326543 -0.03719176 0.11991963 0.11313164 -0.090816505 -0.075796604 -0.13382979 -0.09480235
0.06094914 0.07958877 -0.11602036 0.015239058 0.092800796 -0.00093967933 -0.0036687434 -0.13400619
0.06228746 0.05755515 0.025142947 -0.0054539726 0.0754732 0.08419529 0.069830246 0.022763088
-0.01255813 -0.055781454 -0.03701993 -0.12003012 -0.12896727 -0.019343313 -0.10851859 0.1180916
-0.10449279 0.06898363 0.060799997 0.017716886 -0.11080506 -0.15191348 -0.06869265 0.05154161
0.13465652 -0.12805928 -0.12251231 -0.018940832 0.12339786 -0.13506152 -0.15097764 0.0033067588
0.07872419 -0.04948827 0.01601253 -0.15080869 -0.07466367 -0.10917363 -0.05220132 -0.11786083
0.04223898 -0.02467453 0.07592061 -0.08955011 -0.0735213 -0.015771812 0.09112141 -0.1159095
0.129786 0.11033288 0.09531242 -0.011053131 0.09992124 -0.030147765 -0.028866043 -0.038392793
-0.012576436 -0.079583086 -0.023858361 0.07587938 -0.1084237 -0.14841004 0.1285198 0.040165134
-0.027713059 -0.07925757 0.04839484 0.15344225 0.039420106 -0.11980404 -0.09216916 -0.0638548
-0.13738039 0.11226298 -0.07399171 0.029237691 0.12221879 -0.053407844 0.15062185 0.011036183
00000000: 4399 663d 12a1 133d 97c0 d2bc 4e07 7e3d
00000010: 2c5f 263d 49a8 043e 2eea bb3d 764f 733c
00000020: 8d27 91bc 8b03 dbbd 11d2 8ebd 802b c33b
00000030: a8bb 5c3b 255a d93d 0827 87bd 9924 163e
00000040: 7062 92bd e2af b6bc 10f8 e03d e41c f93d
00000050: f74e 0b3e b1bc 183d 97ee 9bbd 1896 ebbc
00000060: 6ff6 4e3d 7d7a 363d 2d77 573d d328 9fbd
00000070: 9d22 cb3c b9ff 383d 9a6a ccba f48b a6bc
00000080: 253d 983d a5e3 283d 6fdb 98bd abb9 1e3d
00000090: ccfb c33d 6d39 623d 9eaf cbbd b1f9 783c
000000a0: b076 a9bb b842 febb 8033 79bc 1bac d8bd
000000b0: 838c 76bd a60f bcbd 807b f93c 9156 03bc
000000c0: 1763 c4bd 2a93 bbbd 3d70 90bd d24f 0bbe
000000d0: 63cd 2cbc 4310 8dbb 8741 fd3d f6b3 65bd
000000e0: da7d 3b3d cc52 62bd fceb 1cbe bccc e3bd
000000f0: ef65 fb3d a6fe e93d 1da4 233d d2ff e1bc
00000100: 8e1d 25bd 943c 95bd e796 aa3d 3c1a 26bd
00000110: 762d 94bc 08dc e13c e194 9bbd 2f45 dfbd
00000120: e06f 91bd 10ce 153e fac8 8f3b e5d6 99bc
00000130: 6e48 9b3b 9fa6 cb3d 83e9 183e 4e5f 893c
00000140: 700f b2bd 53f3 133c b92c ac3d 199d 153e
00000150: 49bf b0bd dc0b c6bd 2025 3bbd 1c8c 16be
00000160: 54cd 363d ff53 eabb 74c0 cdbc 4181 e8bc
00000170: cbae 66bd c5f9 6ebd d91d 07bd 22fe bbbb
00000180: 75d9 b8bd 9fe6 dbbd d304 e2bd db65 9cbc
00000190: b755 02bc 367a 103e 6e26 913d 4aed d03b
000001a0: f9f9 05be 2dc5 9fbd 6691 81bc ece7 5ebd
000001b0: 1641 abbc 9631 033e 2c50 8739 9979 20bd
000001c0: ecb0 9f3d 529d 1bbd 3946 d63d 56ad 65bd
000001d0: a919 663d 6e48 0b3e 357f 0c3d e8b5 ee3d
000001e0: c479 d3bc 849d a83d 38e9 9dbd 0f57 cb3c
000001f0: 56f7 443d 3006 e13d b884 10bd 8f3e 643d
00000200: 0530 b43d e682 1c3c df3e 023d 7bb2 d93b
00000210: b991 b63d 9220 a83d 4582 d9bd 41cb 9f3d
00000220: 445a ebbd 4580 8cbb c605 03bd 3839 d9bd
00000230: 5ec3 f03d 48de 4dbd 7acf 8fbd bbe1 abbd
00000240: 9841 05be 0e0e a53d 5387 ba3b 4f16 483d
00000250: c92e d43d d188 d43d 3f4c bdbd ef01 943d
00000260: cebc a43d 4e60 48bc c3cd 063e fd17 cfbd
00000270: ba09 e63c 0eb7 083c 3d92 a03d a4ef dbbd
00000280: 8c21 963c 6356 18bd 6c98 f53d 90b1 e73d
00000290: 01fe b9bd 403b 9bbd ad0a 09be bc27 c2bd
000002a0: cea5 793d 70ff a23d 159c edbd 3ead 793c
000002b0: 580e be3d d054 76ba 4d6f 70bb eb38 09be
000002c0: 2321 7f3d f3be 6b3d 95f8 cd3c 3db7 b2bb
000002d0: b191 9a3d 956e ac3d 2903 8f3d a879 ba3c
000002e0: 9dc0 4dbc 187b 64bd 36a2 17bd 5ad2 f5bd
000002f0: ff0f 04be de75 9ebc ff3e debd 02da f13d
00000300: 5100 d6bd 4a47 8d3d 6b09 793d 0123 913c
00000310: c3ed e2bd 358f 1bbe bbae 8cbd 4c1d 533d
00000320: 66e3 093e f921 03be bce7 fabd ce29 9bbc
00000330: 04b8 fc3d 914d 0abe e299 1abe 35b6 583b
00000340: 263a a13d 36b4 4abd b62c 833c 986d 1abe
00000350: 44e9 98bd 6d96 dfbd 0dd1 55bd 0561 f1bd
00000360: c802 2d3d 3d22 cabc 447c 9b3d 0c66 b7bd
00000370: 5692 96bd e333 81bc dd9d ba3d f661 edbd
00000380: 9fe6 043e 34f6 e13d 2833 c33d 3118 35bc
00000390: 82a3 cc3d 72f8 f6bc 7b78 ecbc c341 1dbd
000003a0: 650d 4ebc 75fc a2bd 9c72 c3bc a666 9b3d
000003b0: 3f0d debd cdf8 17be b29a 033e 3284 243d
000003c0: 7f06 e3bc cb51 a2bd ab39 463d f71f 1d3e
000003d0: fa76 213d d25b f5bd 2fc3 bcbd 4ec6 82bd
000003e0: 72ad 0cbe 22ea e53d f788 97bd e283 ef3c
000003f0: d84d fa3d 2fc2 5abd 9d3c 1a3e 1bd1 343c

lstm.weight_hh_l1 f4 [200, 50]
-0.03700536 0.033855077 0.094157666 0.04340221 0.039273754 -0.040676516 0.08343347 0.07070615
-0.11052601 -0.12511274 -0.015522504 -0.033232506 -0.054586906 0.040728457 0.03667642 0.1368876
0.0028236425 -0.05047658 -0.088871285 -0.07708846 0.0041946974 -0.016757092 -0.14907879 -0.004906682
-0.014870302 0.089033015 -0.072055556 -0.060787894 -0.01808554 -0.08634098 0.0685059 0.08692302
0.053019747 0.040274993 0.077621445 0.07296434 -0.10465074 -0.090242185 -0.11207064 -0.038995355
-0.122913815 -0.079226375 -0.031474885 0.1287911 0.103094116 -0.10042436 -0.0842418 -0.11904492
-0.03183684 -0.023208657 -0.008487622 0.0848177 -0.0014363492 0.04113521 0.05913232 0.10157196
-0.14286375 0.06927917 0.07565983 0.06587926 0.11528589 -0.0057431115 0.035899855 0.07867847
0.12625095 -0.0915414 0.068880275 0.118209615 -0.0052716564 -0.078965805 0.031254016 -0.03416743
-0.06744602 -0.027757317 0.14676669 -0.025725765 0.12519866 -0.051646855 -0.12365499 0.05350358
0.007725747 -0.008743373 -0.057649333 -0.0041517224 0.12557656 0.005278821 0.026630493 -0.14026181
-0.08898812 0.055083442 -0.03528319 0.09835041 -0.047894906 -0.13371311 -0.12224028 -0.012186106
-0.053980537 -0.11884105 0.024161601 -0.052219648 0.04311171 -0.0478828 -0.09583528 -0.0628224
0.13289121 -0.12286307 0.10481801 -0.029998252 -0.042579815 -0.0070675663 -0.12060173 -0.11541281
0.0017555417 0.018371826 -0.05607515 0.10916325 -0.048298314 -0.09301136 0.06776939 -0.07784795
-0.07307289 0.10559684 0.083030246 -0.115178175 -0.13255447 -0.05895433 -0.017578665 0.12256878
0.0040975176 0.10993047 -0.042818867 -0.07451797 -0.009319412 -0.13961227 0.08901222 0.09415126
0.13852283 0.08178204 -0.10690709 -0.0327976 0.09915315 0.11725538 0.060422312 0.086719655
-0.031058103 0.14627141 -0.084656104 -0.07367419 -0.110686995 0.06725901 0.08482309 -0.05199483
-0.07918895 -0.06529069 -0.114176504 0.09582409 0.018687429 0.013096068 -0.12936765 -0.08634064
-0.10408016 0.0676027 -0.018137384 -0.09076216 0.057059236 0.13003175 -0.013757781 -0.059934493
0.098151654 -0.02593319 -0.069170825 0.00081343803 0.07495478 0.02132219 -0.12796377 0.034954164
-0.0808959 0.010786242 0.102668084 0.011561099 0.02219045 0.028416444 -0.0166817 -0.062263012
0.05339852 0.13442576 0.1240347 -0.07139633 -0.03451327 0.08627439 -0.05818514 0.105576426
-0.09275355 0.06725661 0.12839125 0.05335186 0.1178757 0.04886408 0.08025444 0.0024603738
-0.026311498 0.02178566 -0.14681953 0.07202772 0.08358815 0.14343879 0.084554315 0.026309269
-0.040585376 0.04932471 0.07395206 0.0046790806 0.113353275 -0.10957719 0.10559945 0.0748854
0.09139613 0.086062014 0.04478046 -0.14141126 -0.11845277 -0.06726953 -0.10044384 0.021559395
0.042600747 -0.052247684 0.09392113 0.077194884 0.09047717 -0.09648084 -0.10579427 -0.06864446
-0.10337086 -0.0693637 -0.097834 -0.09007566 0.09906394 -0.10050526 0.08887381 -0.10235434
-0.016895317 0.13219176 0.12285136 -0.15159675 -0.11557099 0.0002410593 0.09529821 -0.045367748
-0.03279681 -0.021647586 -0.09484001 0.07341376 -0.06471715 0.022527687 -0.104499675 0.1469564
00000000: ef92 17bd 9fab 0a3d bcd5 c03d 84c6 313d
00000010: 84dd 203d 6b9c 26bd 2bdf aa3d 63ce 903d
00000020: 765b e2bd 8e1d 00be 1a52 7ebc cf1e 08bd
00000030: 8596 5fbd e2d2 263d 043a 163d 432c 0c3e
00000040: dc0c 393b 88c0 4ebd 2602 b6bd 8ee0 9dbd
00000050: ac73 893b 2b46 89bc 1ca8 18be 3bc8 a0bb
00000060: 91a2 73bc f156 b63d dd91 93bd bafc 78bd
00000070: 2028 94bc 8ad3 b0bd d24c 8c3d b204 b23d
00000080: 3c2b 593d 64f7 243d fef7 9e3d 546e 953d
00000090: 2153 d6bd e5d0 b8bd 4b85 e5bd 98b9 1fbd
000000a0: 3dba fbbd 7041 a2bd cfeb 00bd d0e1 033e
000000b0: 0223 d33d 49ab cdbd f786 acbd d3cd f3bd
000000c0: 5967 02bd 1520 bebc ab0f 0bbc e7b4 ad3d
000000d0: e243 bcba 657d 283d bb34 723d f604 d03d
000000e0: e04a 12be 3de2 8d3d 8af3 9a3d b5eb 863d
000000f0: 021b ec3d b630 bcbb ba0b 133d 2d22 a13d
00000100: ee47 013e 0f7a bbbd 1a11 8d3d e217 f23d
00000110: dcbd acbb d3b8 a1bd 3604 003d 26f3 0bbd
00000120: 2421 8abd 5063 e3bc 024a 163e d7be d2bc
00000130: 1434 003e a78b 53bd d43e fdbd 9226 5b3d
00000140: 4328 fd3b 5d40 0fbc b521 6cbd 2c0b 88bb
00000150: 2497 003e f6f9 ac3b 3128 da3c cba0 0fbe
00000160: 673f b6bd 2d9f 613d 1b85 10bd f16b c93d
00000170: 732d 44bd 17ec 08be 1d59 fabd 3ca8 47bc
00000180: b21a 5dbd f062 f3bd 8dee c53c 45e4 55bd
00000190: e895 303d c120 44bd 4a45 c4bd 08a9 80bd
000001a0: a214 083e a29f fbbd d3aa d63d e5be f5bc
000001b0: 2c68 2ebd 0b97 e7bb 0afe f6bd 8d5d ecbd
000001c0: 341a e63a 8380 963c 0eaf 65bd fb90 df3d
000001d0: 74d4 45bd bd7c bebd aeca 8a3d bf6e 9fbd
000001e0: 3da7 95bd 2843 d83d c30b aa3d 89e2 ebbd
000001f0: 5cbc 07be 187a 71bd 2201 90bc 5705 fb3d
00000200: 7844 863b 3a23 e13d d662 2fbd e19c 98bd
00000210: 72b0 18bc 85f6 0ebe 0a4c b63d 60d2 c03d
00000220: eed8 0d3e 587d a73d 1bf2 dabd c756 06bd
00000230: cf10 cb3d 9723 f03d 637d 773d 139a b13d
00000240: 906d febc 2cc8 153e 2e60 adbd 7ee2 96bd
00000250: ddaf e2bd 18bf 893d bab7 ad3d 88f8 54bd
00000260: d12d a2bd 20b7 85bd 5fd5 e9bd 6c3f c43d
00000270: 6116 993c e490 563c f478 04be 5dd3 b0bd
00000280: fb27 d5bd 4973 8a3d da94 94bc 83e1 b9bd
00000290: f2b6 693d 0b27 053e 5168 61bc df7d 75bd
000002a0: bc03 c93d d771 d4bc 6fa9 8dbd e73c 553a
000002b0: e481 993d e0ab ae3c ef08 03be 192c 0f3d
000002c0: c0ac a5bd c7b8 303c a543 d23d c46a 3d3c
000002d0: bfc8 b53c 9ac9 e83c 0fa8 88bc 8007 7fbd
000002e0: 68b8 5a3d e8a6 093e e805 fe3d 3d38 92bd
000002f0: c95d 0dbd a1b0 b03d 8b53 6ebd 7438 d83d
00000300: 93f5 bdbd d5bd 893d ff78 033e 7b87 5a3d
00000310: d168 f13d b425 483d 715c a43d 393e 213b
00000320: 368b d7bc d777 b23c dc57 16be 4583 933d
00000330: 4430 ab3d 9ee1 123e d02a ad3d 8986 d73c
00000340: da3c 26bd b508 4a3d 2d74 973d f952 993b
00000350: c325 e83d 016a e0bd 8644 d83d 845d 993d
00000360: e52d bb3d 4841 b03d b76b 373d 1dce 10be
00000370: 5e97 f2bd 9bc4 89bd 80b5 cdbd 549d b03c
00000380: 1f7e 2e3d ab01 56bd b959 c03d 5a18 9e3d
00000390: 184c b93d bf97 c5bd abaa d8bd 7795 8cbd
000003a0: 1ab4 d3bd 8e0e 8ebd 315d c8bd 9679 b8bd
000003b0: 09e2 ca3d b4d5 cdbd 7903 b63d 279f d1bd
000003c0: 0c68 8abc 475d 073e 7e99 fb3d 2e3c 1bbe
000003d0: 7cb0 ecbd ddc4 7c39 b52b c33d 88d3 39bd
000003e0: f355 06bd 4756 b1bc 7b3b c2bd f459 963d
000003f0: 6d8a 84bd fc8b b83c ed03 d6bd bd7b 163e

lstm.bias_ih_l1 f4 [200]
-0.026797691 0.1222046 0.052414272 -0.07495545 -0.029930467 0.033766218 0.07798172 0.078226335
-0.023604978 -0.112132676 0.10998323 0.053576633 -0.106982 0.120581225 0.06814968 -0.1530845
0.018007237 0.04610656 -0.081119575 -0.12617536 -0.015832478 -0.011178339 -0.087734826 0.015041737
-0.14768371 -0.044208456 -0.06435105 0.008651031 0.1120264 -0.11373648 -0.05587165 0.09044654
-0.036610212 -0.0071147103 0.023862384 -0.1266267 -0.038721524 0.021213027 -0.038118035 0.1316087
-0.14510319 -0.04674019 0.13806611 0.07179757 0.10519237 0.15373994 0.0287632 -0.038916204
0.120691985 -0.07253952 -0.09677883 -0.041039184 -0.11606988 -0.06280385 0.086794965 -0.10526125
-0.11578446 0.114096306 -0.0028095408 0.10575555 0.031100357 -0.054745622 0.011388815 0.05108659
0.13856624 -0.02393709 0.09795221 0.14902836 -0.08115034 0.15359582 0.08618937 0.029631918
-0.06306435 -0.033583354 0.010063721 0.089732766 0.06756969 0.006592401 -0.029992728 -0.07583967
-0.043789905 -0.11772996 -0.1098551 0.12825018 -0.062194765 0.081188805 0.024973696 0.035362374
-0.09744799 0.11301148 0.093639165 0.007387352 -0.016942108 0.018570151 -0.03599208 -0.10186663
0.07868607 -0.013444421 0.12495418 -0.096356936 0.11942189 -0.085302286 0.12988177 -0.06731128
-0.10490569 -0.012823428 0.10155688 0.13817982 0.06803025 0.121716 -0.108971804 0.02011987
-0.13303407 -0.035408795 0.057892628 0.07509941 0.10592621 0.09970695 -0.14349814 0.02686636
-0.11813512 -0.109633975 -0.052612614 0.058888637 -0.11696628 -0.053146254 -0.11679853 0.053096738
-0.00060307636 0.024416843 0.09718856 0.02566371 0.008379747 -0.05902786 -0.006477603 0.0025172345
-0.11719941 0.03979581 -0.087056786 0.014992973 0.04311089 -0.08986134 -0.12557903 0.022902943
0.08050078 0.011665225 -0.08345565 -0.06456058 0.10618875 -0.051969454 0.019528486 0.056087073
-0.07801502 -0.029441949 -0.12713617 -0.07080784 -0.11255262 -0.028881017 -0.002795171 0.035992205
-0.069068134 -0.07904652 -0.12475838 0.12963067 0.096574254 -0.035395917 0.048878428 -0.07926501
0.029989148 0.05249013 0.097699285 0.06812877 0.07776467 -0.014007648 -0.12530299 -0.045400657
0.10219598 0.10139532 0.0671822 -0.031304073 0.0103123095 0.05981403 -0.09651828 0.07983521
0.07893401 0.080254 -0.089972936 -0.10279708 -0.0016330311 -0.03502061 0.09190799 -0.02656888
0.04900815 -0.02989406 -0.04115271 -0.095232636 0.1306138 0.03173403 0.025213212 0.050532293
00000000: d586 dbbc 6846 fa3d 59b0 563d 3e82 99bd
00000010: bd30 f5bc 724e 0a3d e1b4 9f3d 2135 a03d
00000020: 3a5f c1bc d1a5 e5bd e33e e13d 2c73 5b3d
00000030: 6119 dbbd 4af3 f63d 0f92 8b3d 2fc2 1cbe
00000040: ea83 933c 3bda 3c3d 0522 a6bd 1d34 01be
00000050: 1db3 81bc 5a25 37bc 51ae b3bd 9e71 763c
00000060: 663a 17be ed13 35bd 7cca 83bd 0ebd 0d3c
00000070: 196e e53d acee e8bd acd9 64bd 093c b93d
00000080: 97f4 15bd 8422 e9bb 0c7b c33c 6eaa 01be
00000090: 769a 1ebd f1c6 ad3c a821 1cbd 6ec4 063e
000000a0: ee95 14be a472 3fbd 3461 0d3e 9b0a 933d
000000b0: 196f d73d 016e 1d3e cda0 eb3c 9966 1fbd
000000c0: 5c2d f73d 9a8f 94bd fb33 c6bd b418 28bd
000000d0: 0cb6 edbd 4e9f 80bd 8fc1 b13d 3693 d7bd
000000e0: 6720 edbd 53ab e93d 4620 38bb 5e96 d83d
000000f0: 2dc6 fe3c f23c 60bd 2798 3a3c 2c40 513d
00000100: 4fe4 0d3e b717 c4bc 2b9b c83d e49a 183e
00000110: 2632 a6bd 3948 1d3e 0d84 b03d a3be f23c
00000120: e227 81bd b38e 09bd 4ee2 243c d0c5 b73d
00000130: fa61 8a3d 1105 d83b 4fb3 f5bc d451 9bbd
00000140: 0b5d 33bd 681c f1bd b6fb e0bd 0454 033e
00000150: f0bf 7ebd 5146 a63d a395 cc3c 23d8 103d
00000160: d092 c7bd 9072 e73d e4c5 bf3d 9a11 f23b
00000170: 2dca 8abc 6e20 983c 6e6c 13bd 749f d0bd
00000180: 2a26 a13d fd45 5cbc fae7 ff3d c956 c5bd
00000190: 7793 f43d f7b2 aebd baff 043e 7fda 89bd
000001a0: cbd8 d6bd 5b19 52bc 0efd cf3d 037f 0d3e
000001b0: 7253 8b3d 3d46 f93d 9c2c dfbd 6dd2 a43c
000001c0: 153a 08be d008 11bd d220 6d3d b8cd 993d
000001d0: d7ef d83d 2833 cc3d 2df1 12be d716 dc3c
000001e0: d3f0 f1bd c787 e0bd 5380 57bd 3635 713d
000001f0: 048c efbd e3af 59bd 1134 efbd f77b 593d
00000200: c517 1eba d505 c83c cc0a c73d b33c d23c
00000210: 354b 093c 33c7 71bd 1342 d4bb 30f8 243b
00000220: 3f06 f0bd ee00 233d d44a b2bd 16a5 753c
00000230: 0b95 303d 3909 b8bd ca97 00be f49e bb3c
00000240: 98dd a43d 801f 3f3c ccea aabd 5638 84bd
00000250: 7d79 d93d ecdd 54bd 34fa 9f3c 8fbb 653d
00000260: 57c6 9fbd 3e30 f1bc fc2f 02be b303 91bd
00000270: fd81 e6bd e297 ecbc 302f 37bb 906c 133d
00000280: 9873 8dbd 24e3 a1bd 5281 ffbd e7bd 043e
00000290: b9c8 c53d 4ffb 10bd bf34 483d b255 a2bd
000002a0: cdab f53c e4ff 563d 9016 c83d 1987 8b3d
000002b0: 1543 9f3d 5680 65bc 6d4f 00be 0af6 39bd
000002c0: 204c d13d 59a8 cf3d d296 893d b338 00bd
000002d0: f6f4 283c 8eff 743d 60ab c5bd a580 a33d
000002e0: 27a8 a13d 365c a43d bb43 b8bd 4787 d2bd
000002f0: 6e0b d6ba c571 0fbd 423a bc3d fba6 d9bc
00000300: c5bc 483d 63e4 f4bc be8f 28bd 5409 c3bd
00000310: a0bf 053e 8bfb 013d f08b ce3c f3fa 4e3d

lstm.bias_hh_l1 f4 [200]
-0.060794614 0.015550559 -0.03983519 -0.07573914 -0.080529355 0.090896785 0.05643694 -0.036035616
0.0066890875 -0.029460812 -0.12536602 -0.062779896 0.021284023 0.025256922 0.12435213 -0.03358429
-0.10894926 0.12744415 0.030734567 0.009142578 0.12491365 0.007911955 0.065033995 0.017903313
0.09613909 -0.064446054 0.052051038 -0.032092307 0.0137769235 -0.057537854 0.12045215 -0.10207766
0.14972785 0.034768622 -0.043523457 0.05437937 -0.025988946 -0.049365707 -0.066901706 0.10825083
0.06826691 0.11815022 0.11485286 0.12725945 0.04505589 0.10389228 0.120461896 0.149658
-0.046848156 -0.051744808 -0.038534705 -0.077068634 0.08622863 -0.033039212 -0.058269206 -0.09948538
-0.07735285 -0.022803754 -0.023788154 0.048434608 0.031540014 -0.010592978 0.012965999 0.022174515
0.050642323 0.057234928 -0.019430734 0.1341387 0.078887776 0.13629416 -0.15193367 -0.06897255
-0.043400038 0.01637173 -0.064339064 -0.017911546 -0.089036845 -0.13031049 0.034803804 0.14212143
-0.08275036 -0.037769917 -0.019158918 -0.040213186 0.034864105 0.032975093 0.05505159 0.05770061
0.05932624 -0.12804234 0.05906414 -0.10164405 -0.0711037 -0.053476952 -0.0014008196 0.05080849
-0.0014550091 0.13491023 -0.037221204 -0.053765863 -0.015013567 0.10875869 -0.027924033 -0.14850603
-0.03317312 -0.022223681 0.01863302 -0.086114 -0.054342628 -0.07771218 0.046324015 -0.019841976
-0.1458249 0.063577585 0.07617863 -0.008373807 -0.03674884 0.14054029 -0.13122122 -0.031703066
-0.005976364 -0.09361232 -0.02660642 -0.0063542947 0.12631914 0.066970274 -0.13003103 0.02670558
-0.06880106 -0.049482636 0.10657805 -0.1494081 -0.009346942 0.015394441 -0.1030403 0.13177453
0.014571754 -0.07014994 -0.09842656 0.009976886 -0.1259786 -0.073516265 -0.12907311 0.061152935
0.020231942 0.1227265 0.1262687 -0.024664717 0.069958515 0.11815038 0.04094826 -0.09831444
0.028907971 -0.053573087 -0.008601501 0.07299865 -0.09163947 0.128818 -0.13971396 0.05327937
-0.1071103 0.085019335 0.121055394 0.07386843 0.12452043 0.05968151 0.008310973 0.113728225
0.047284793 -0.11656477 0.10807589 -0.12506273 -0.114526875 0.1199939 0.03774196 -0.14505672
-0.013604568 -0.08650316 0.05531492 0.10923222 0.12679166 0.07311047 -0.024727939 0.08355368
0.0051070442 0.056080293 0.11420747 -0.0029754704 -0.14511947 -0.038838822 0.119109474 -0.08654635
0.077055074 -0.12564121 0.087237425 -0.11892825 0.026032835 0.033688314 0.04996574 0.102352336
00000000: c603 79bd c6c7 7e3c 392a 23bd 1f1d 9bbd
00000010: 93ec a4bd 1828 ba3d 6c2a 673d 159a 13bd
00000020: 2230 db3b cd57 f1bc f35f 00be bf92 80bd
00000030: d55b ae3c 9be7 ce3c 54ac fe3d ae8f 09bd
00000040: ca20 dfbd b880 023e 0fc7 fb3c c0ca 153c
00000050: bad2 ff3d 25a1 013c 8b30 853d f8a9 923c
00000060: 92e4 c43d 4bfc 83bd 7833 553d 3973 03bd
00000070: 9bb8 613c d0ac 6bbd 9eaf f63d 180e d1bd
00000080: 4252 193e 8b69 0e3d a745 32bd e7bc 5e3d
00000090: c5e6 d4bc b233 4abd c303 89bd 9cb2 dd3d
000000a0: 86cf 8b3d bef8 f13d fa37 eb3d 4d50 023e
000000b0: 868c 383d 7ac5 d43d bab4 f63d f23f 193e
000000c0: dae3 3fbd 5df2 53bd 91d6 1dbd 29d6 9dbd
000000d0: a398 b03d 2054 07bd b1ab 6ebd febe cbbd
000000e0: 2c6b 9ebd f0ce babc 60df c2bc 5e63 463d
000000f0: 1a30 013d 2c8e 2dbc 576f 543c 54a7 b53c
00000100: 536e 4f3d 2c6f 6a3d 342d 9fbc a85b 093e
00000110: ea8f a13d b290 0b3e 8094 1bbe 7b41 8dbd
00000120: 3dc4 31bd 021e 863c 33c4 83bd 3cbb 92bc
00000130: f358 b6bd 1d70 05be 6f8e 0e3d 4888 113e
00000140: 0579 a9bd a1b4 1abd 2af3 9cbc 95b6 24bd
00000150: aacd 0e3d e410 073d c77d 613d 7a57 6c3d
00000160: 1200 733d 881d 03be 3ded 713d c12a d0bd
00000170: d19e 91bd a60a 5bbd b59b b7ba 901c 503d
00000180: 01b6 beba e825 0a3e 4375 18bd 9839 5cbd
00000190: 77fb 75bc e0bc de3d f1c0 e4bc f711 18be
000001a0: 8ae0 07bd 700e b6bc 46a4 983c 895c b0bd
000001b0: 6096 5ebd 9027 9fbd 40be 3d3d a48b a2bc
000001c0: 1f53 15be f734 823d 8b03 9c3d 4b32 09bc
000001d0: f485 16bd cbe9 0f3e db5e 06be 13db 01bd
000001e0: 60d5 c3bb d1b7 bfbd b5f5 d9bc b037 d0bb
000001f0: ce59 013e b627 893d db26 05be a9c5 da3c
00000200: 92e7 8cbd 4eae 4abd 9845 da3d 70fe 18be
00000210: eb23 19bc f738 7c3c cb06 d3bd e7ef 063e
00000220: 5ebe 6e3c c6aa 8fbd dd93 c9bd 1876 233c
00000230: 8900 01be b28f 96bd be2b 04be 807b 7a3d
00000240: 75bd a53c 0858 fb3d 954c 013e a90d cabc
00000250: 6946 8f3d d4f8 f13d 5db9 273d 1559 c9bd
00000260: 69d0 ec3c 746f 5bbd 4fed 0cbc 5180 953d
00000270: 79ad bbbd dee8 033e 2d11 0fbe 783b 5a3d
00000280: a55c dbbd 9e1e ae3d e4eb f73d 5548 973d
00000290: 9104 ff3d 9974 743d bf2a 083c 58ea e83d
000002a0: b3ad 413d 83b9 eebd e456 dd3d 7210 00be
000002b0: 118d eabd 5dbf f53d 5097 1a3d c089 14be
000002c0: b2e5 5ebc 9228 b1bd e691 623d 24b5 df3d
000002d0: acd5 013e f1ba 953d 3f92 cabc 311e ab3d
000002e0: fe58 a73b 73b4 653d 9be5 e93d 1c00 43bb
000002f0: 339a 14be 7515 1fbd abef f33d 363f b1bd
00000300: 0dcf 9d3d 17a8 00be 89a9 b23d a890 f3bd
00000310: d042 d53c c2fc 093d e0a8 4c3d 1a9e d13d

fc.weight f4 [1, 50]
0.0584621 -0.0025992915 0.07708826 -0.11782169 0.039140746 0.08510704 0.14872186 0.123238064
0.110382065 -0.08895023 -0.09204307 0.05052451 -0.11686482 0.0026515662 0.05332021 -0.07340361
-0.07542196 0.0038944406 -0.06132989 0.065027714 0.061281 -0.011076423 0.07300256 -0.096066706
0.04989173 -0.10150244 0.0012168451 -0.106201544 0.096206225 -0.05074024 -0.118769966 -0.09871132
-0.049310077 -0.09408491 0.103396855 0.14547569 0.12358656 -0.017481666 0.10372344 -0.13264033
0.09161502 0.08040717 0.00973503 0.09835867 0.060115594 0.09589855 0.15148532 -0.13319461
0.017817475 -0.03788173
00000000: f475 6f3d e058 2abb 73e0 9d3d 804c f1bd
00000010: 0c52 203d 9a4c ae3d 8b4a 183e 3d64 fc3d
00000020: fe0f e23d 8a2b b6bd 1481 bcbd caf2 4e3d
00000030: d356 efbd e6c5 2d3b 4b66 5a3d a254 96bd
00000040: d476 9abd df39 7f3b 0d35 7bbd 402d 853d
00000050: c901 7b3d e379 35bc 5e82 953d 9fbe c4bd
00000060: 455b 4c3d 83e0 cfbd 8c7e 9f3a 3280 d9bd
00000070: c507 c53d ffd4 4fbd ab3d f3bd 2929 cabd
00000080: 5df9 49bd 97af c0bd bbc1 d33d 94f7 143e
00000090: f31a fd3d b635 8fbc f46c d43d ded2 07be
000000a0: a8a0 bb3d 84ac a43d ad7f 1f3c 4570 c93d
000000b0: c53b 763d 7566 c43d f81e 1b3e 2b64 08be
000000c0: f4f5 913c df29 1bbd
