data/models/PETR4.SA_20251213_101948.pt (torch, 130453 bytes, 9 tensors)

lstm.weight_ih_l0 f4 [200, 1]
00000000: 1079 513d 1f69 94bb d81d 6abd 2789 ad3d
00000010: 4401 963d 8b4a 6cbd 318e 3d3e b103 253e
00000020: 6f50 b73d 0796 323e da2e 35be bd8e e73d
00000030: 6e0e ecbc 9179 423e 7fbc 473d 2312 863d
00000040: 9e48 64bc 3d64 11bd 88c1 b2bd 01f8 7cbd
00000050: 7ed8 6abd 61d2 0e3e ed9b 193e 9a03 debc
00000060: 2492 ed3d 09ad d43d 874f e63c 1ef3 393e
00000070: 5a5c 6d3c 451d a83d d148 a23d 7eaa 0f3e
00000080: eab7 c73c 82ad 413c 8f57 72bd 4f0c 2f3e
00000090: b7e1 8b3d 7f49 c8bd bd79 0b3e 3655 d93b
000000a0: e46b f53d 6340 b33d e48b 113d 984e fb3d
000000b0: bfde 2b3b fcfe ed3d bfeb 903d ca54 fd3d
000000c0: 5e60 8c3d 0f82 f43c 47f5 d33d 4b6f 553c
000000d0: a40f 253d 44b9 1fbe 112d 12bd 960a 0ebe
000000e0: 1ac1 55bd fc2c 273e ee7a 2b3e 6101 313e
000000f0: 4485 dcbd 91fb 59bd 88cd ee3d 4b36 f93d
00000100: d369 a33d d838 ed3d cefc 5bbd 66be a5bc
00000110: 03d7 d13d c46c af3d 14bd a93d 5e3e 0d3d
00000120: be6c 5ebd 2c5a 503e dd0e dcba 46c9 153e
00000130: c9b9 d6bd 87a9 463e f3de 063e 9b36 903d
00000140: 27f3 eb3d eaf5 1a3e 899f f2bd d3d9 f43d
00000150: 424b c93d b77e 0d3e b63c b6bd ffe3 ba3c
00000160: ed20 1e3e 1796 6e3d a424 333d 9391 0a3e
00000170: ab30 293e 9107 013e 18cc 8ebd 2dec 013b
00000180: fa30 393e 6278 8d3d 4c2c a0bc 7cf7 293e
00000190: aae8 97bd cbd7 3cbe fb66 e63d 2a96 6a3d
000001a0: ec65 373e 3b41 6d3b a1f2 56bd 45c6 053d
000001b0: a761 083e e183 03be b7fd 493d 0731 a33d
000001c0: a338 b6bc e03f 26be f7fd f23d d1d5 673d
000001d0: a3ae 16be 1f46 213d cf91 22bd d1fd f83d
000001e0: a666 1a3e ed99 b43d 5f06 013d 3049 4f3e
000001f0: d781 e5bd e57d b3bc 9c5d 1e3e 5b5c 09be
00000200: b5f4 183e 6488 353e 96ce 7cbd f6ce 23bd
00000210: f49e 103d d32f b4bd 1ba5 2bbb 2f1e c6bd
00000220: 7506 ae3d 914e c83d 2823 a53d c799 d53d
00000230: f05e 5cbd 501a 49be fdcf 2abe 7c12 25be
00000240: 6598 ecbd 39b5 223d 9343 2c3c a524 d2bc
00000250: a5f7 c43c 4da0 9dbd 1362 89bc dc61 043e
00000260: 4bc2 3f3e d67f c9bd 0018 b43d 12a9 ed3d
00000270: e8eb f63d 85a5 07bd 1a81 423e 3447 a93c
00000280: 8b2a 00bd bb0d 4d3e 7a72 073e f393 353e
00000290: 50d8 ac3c ef87 6e3d 3834 e73d db03 02bb
000002a0: 04fb 8a3d 5bcb bb3c e3b9 943d 773c 323e
000002b0: d3c4 d13d 04bf 433d 4fbb 06bd a7d7 4d3e
000002c0: c77f 813d b470 d43d b22b cd3d cfc1 d5bc
000002d0: 2d9c 093e be32 5abb 4055 093d 154a 0abd
000002e0: 71bd 463e 9443 45bd f5a8 dcbc 7483 783c
000002f0: 29ad 29bd 7e88 383e 7278 653d 9aad 363e
00000300: 6070 953b 2c91 2b3e c523 693d 46db a53d
00000310: ce12 493e 7fce c73d dc23 aa3d 8b4d b43d
0.051140845 -0.004529133 -0.057157367 0.08473425 0.0732446 -0.057688277 0.18511273 0.1611469
0.08950888 0.17440043 -0.17693654 0.11306522 -0.028815474 0.18991686 0.04876375 0.06546428
-0.013933329 -0.035495985 -0.087283194 -0.061759952 -0.05733537 0.1394744 0.15000887 -0.027101327
0.1160014 0.10384566 0.028114093 0.18159148 0.01448735 0.08208708 0.07924045 0.14029881
0.02437969 0.011821153 -0.059165534 0.17094539 0.06830161 -0.09779643 0.13620658 0.0066324724
0.11983469 0.08752515 0.0355338 0.1227085 0.0026225296 0.116209 0.07076215 0.12369688
0.06854318 0.029847173 0.10349517 0.013027023 0.04029812 -0.15598017 -0.03568751 -0.13871226
-0.05218611 0.16325754 0.16746113 0.17285682 -0.10767606 -0.053218428 0.11660296 0.12168559
0.07979169 0.11583108 -0.05370789 -0.02023239 0.10246088 0.08565667 0.08288017 0.034483306
-0.054302923 0.20346898 -0.0016789098 0.14627561 -0.104846545 0.19400607 0.13170986 0.07041665
0.11520987 0.15132871 -0.11846835 0.11955609 0.098288074 0.13817869 -0.088982984 0.022813795
0.15442248 0.058248606 0.043736115 0.13532095 0.16522472 0.12600543 -0.069725215 0.001982461
0.1808509 0.06907727 -0.019552372 0.16598314 -0.07417424 -0.18441693 0.11250111 0.057272114
0.17909974 0.003620221 -0.052477483 0.032659788 0.13318501 -0.12843277 0.049314227 0.079683356
-0.022243803 -0.16235304 0.11864846 0.056600396 -0.14715056 0.039373513 -0.039689835 0.12157787
0.1507822 0.088184215 0.031500217 0.20242763 -0.112064056 -0.021910617 0.15465397 -0.13414137
0.14937098 0.1772781 -0.061720453 -0.039992295 0.03530784 -0.08798184 -0.002619094 -0.09673726
0.08497325 0.0978061 0.08063346 0.10429721 -0.053801477 -0.19638944 -0.16680904 -0.16120332
-0.115525045 0.03972361 0.010514158 -0.02565224 0.024043867 -0.076965906 -0.016770398 0.12927955
0.1872646 -0.09838836 0.0879364 0.11604513 0.12056714 -0.033116836 0.18994561 0.020663835
-0.031290572 0.20024769 0.13227263 0.1773222 0.02109924 0.058235105 0.11289257 -0.0019838724
0.06786159 0.022924116 0.072620176 0.17405878 0.10242619 0.04778959 -0.032893475 0.20101796
0.063232 0.10373059 0.100181 -0.026093392 0.13438483 -0.0033294405 0.033528566 -0.033762056
0.19408204 -0.04816015 -0.026936034 0.01516806 -0.041424904 0.18020818 0.05602307 0.17839661
0.0045605153 0.16754597 0.056918878 0.08098464 0.1963608 0.09756183 0.08307621 0.08803853

lstm.weight_hh_l0 f4 [200, 50]
00000000: ba33 06be df96 68bd 9c29 0ebd 07f6 aa3d
00000010: ff6b af3c 0ded 75bd c491 10be a61e e83d
00000020: a8ff 023c a923 783c 5e3a f43b c900 aabd
00000030: b119 c43d 4fbd 95bd 7544 6fbd db57 4c3d
00000040: 7fa7 94bd a361 a3bc df5d 7bbd c7ba 35bd
00000050: ecab f5bd cca5 533d fee4 993c 4496 f3bd
00000060: d5fe f93d 39b7 75bd 2ded 653d 9354 513d
00000070: 1a69 f03d d1db a1bd 1eba e13b 0beb 0a3e
00000080: a09b 66bd 6c35 0cbe d1f0 94bd f78b 1fbd
00000090: 287e cf3b d3ee 723d 4e11 00be d155 0bbe
000000a0: 25d1 613d 03e2 0abd d1cc 82bd 7d36 a03c
000000b0: 7ec4 5bbd edcf 9fbd e431 a8bd 87b3 4f3d
000000c0: 0e1d 073e a90f 3d3d 6f18 7cbd 7c9a 7abd
000000d0: 0110 c3bb cd1f e9bc 4636 bc3d 10e3 11be
000000e0: 914a 433d 1ba1 21bd aa70 253d 184a bcbd
000000f0: daef 45bd 797c 0a3d 03a9 453c 1178 ecbd
00000100: b668 353e 9efc 94bd 79c2 33be 9c9d 013d
00000110: 66ae bd3d cdb9 923d e4bc 4cbd 499d fb3d
00000120: 7bf2 14be e61e f03d 6def 873d bb40 103e
00000130: 86cf 80bd 8505 35be 9776 2f3e a459 a13d
00000140: f969 eabd 7bec 45be 952d 02bd 7452 b13d
00000150: 90fb 83bd 0868 0abe 9778 08bd a6f2 e43d
00000160: bc27 22bd 6ccf 013e 4165 843d 644f 98bc
00000170: 7db9 39be 194e dabd efb1 f5bd 40e2 dbbc
00000180: a167 b4bc b63a 47be 159a 133e bf67 dabd
00000190: 283d 0dbe 3095 3a3d 3fc6 1f3e 8be4 043e
000001a0: 5b22 763d 6b78 a5bd ad03 003e 2cca ccbd
000001b0: 803d 223d f6e5 7cbd 14ff 403d 1f58 913d
000001c0: 81c8 dcbb b662 26be 8377 b3bd b79b 35bd
000001d0: 54d0 49bd 951d 653c 8439 8f3d 5138 893c
000001e0: c46f 19bd 6828 833c 2745 adbd afd6 40bc
000001f0: baab 86bd 0b22 1d3e 7d96 ba3d 83c2 4a3c
00000200: f648 ff3c 81ef e5bd fb29 54bc 48f9 8fbc
00000210: 731e ebbd 1aec 09be 2291 b2bd 2887 1abe
00000220: 0479 fb3a e5ac 333d df7f 1e3d 1669 a3bc
00000230: 3287 bebc 6c11 7d3b 574e 95bc 7b98 f3bd
00000240: a28f febc 9058 9abb 8f74 25bd 58f5 9e3a
00000250: 4f6b 86bd dea6 ef3d 5703 eabd 9d2f b2bc
00000260: 7095 fc3d e916 c4bd 7487 0fbe 5f92 83bd
00000270: ce03 42bd 66e9 05be 6838 af3d 035a 213e
00000280: 0e89 dbbd 7534 11be 6557 debd 5246 083d
00000290: 2e11 513d 147d 05be 4763 053e 74dc c23d
000002a0: c9a4 dabd 211d 9ebd c3d8 033b 0052 22be
000002b0: 2557 d5bb ad23 a03d 6e8e 4ebc 6ae8 5bbd
000002c0: 593f c4bd 54d3 da3d 033c dcbd 4913 2ebe
000002d0: 1068 d7bd b094 8e3d 7331 b7bd 6894 af3d
000002e0: 37df ba3d a071 213e 54bc d0bc 9dc4 aabd
000002f0: 0d1e a73b 6b00 2fbd 5402 58bb a4d9 76bd
00000300: 264c 1ebd 2a1a f43d 4e4b c03d 39f3 bcbd
00000310: e17d d83d 42e0 0e3e 246b f93c c8b9 113e
00000320: 7671 8dbd 624f f7bd c238 ff3d 40cf edbd
00000330: a6a7 5a3d 7992 61ba e0ce d53b 0255 88bd
00000340: 67d6 a83c 6f28 82bd 7870 9bbb 9224 9cbd
00000350: 9ba3 e1bc ccc1 de3d 5d8e 7f3d 3251 ad3d
00000360: 619b 033e a9a4 0a3e 260d 9bbc b817 de3d
00000370: 3c83 a2bd 992b 03be f63f e43d 9337 b7bc
00000380: 3618 0bbd 84cc 3f3d 2f82 353e 06a9 32bd
00000390: fb02 173d 8024 063d 93c2 c83c 902d fb3d
000003a0: e864 7dbd 920c c7bd edfa 923d e9ed be3d
000003b0: 3257 0d3e b27a 103e 99df 14bc 6aae b3bd
000003c0: 7602 67bd 0a9b 85bd 0cb8 91bc cf8e babd
000003d0: 8153 023e 5592 04be 25de 3abd 246a a63d
000003e0: b428 91bd a81d e03d 6e8b 22bd 2d04 b33c
000003f0: 3b20 ddbd 12c6 aa3d 8fec 833d 2f25 d63d
-0.1310567 -0.056784507 -0.03470765 0.08347707 0.021413801 -0.060040522 -0.14118105 0.11333971
0.0079955235 0.015145221 0.007453247 -0.08300931 0.09575213 -0.073114984 -0.058414895 0.049888473
-0.0725851 -0.019944018 -0.06136882 -0.044367578 -0.11995682 0.051671788 0.01878595 -0.11893895
0.122068085 -0.059989188 0.05613439 0.051106047 0.117387965 -0.07903255 0.006888642 0.13566224
-0.05630076 -0.13692254 -0.072724946 -0.03895184 0.0063321777 0.05930979 -0.12506601 -0.13606955
0.055131096 -0.033906948 -0.06386722 0.019557232 -0.053654186 -0.078033306 -0.08212641 0.05070832
0.13194677 0.046157513 -0.06154674 -0.061182484 -0.0059528355 -0.028457547 0.09190039 -0.14246774
0.047678534 -0.039460283 0.040390648 -0.0919382 -0.048324443 0.033810113 0.012064221 -0.11546338
0.17715725 -0.072747454 -0.17554654 0.03164445 0.092617795 0.07164345 -0.049984828 0.12285859
-0.14545624 0.117246434 0.06637464 0.14087193 -0.06289582 -0.17677887 0.17135082 0.07878426
-0.11445994 -0.19328491 -0.03178175 0.08658305 -0.06444466 -0.13516247 -0.03331813 0.11179094
-0.039588675 0.12676781 0.06464625 -0.018592544 -0.18137164 -0.10659427 -0.11996829 -0.026841283
-0.02202207 -0.1945599 0.14414246 -0.10664319 -0.1379286 0.045552433 0.15602969 0.12977807
0.060091358 -0.080796085 0.12501402 -0.09999499 0.039609432 -0.061742745 0.04711826 0.07096886
-0.006737769 -0.16248593 -0.087630294 -0.044337954 -0.049270943 0.013984104 0.06993392 0.016750487
-0.037460104 0.016010478 -0.084604554 -0.011769935 -0.06575723 0.15345018 0.091107346 0.012375477
0.03116272 -0.11227322 -0.012949462 -0.017574921 -0.11480417 -0.13468972 -0.08719088 -0.1509062
0.0019185846 0.043866057 0.038696166 -0.01994757 -0.023257826 0.003861512 -0.018225832 -0.11894318
-0.031074349 -0.0047102645 -0.040394362 0.0012127561 -0.06563436 0.11701749 -0.11426418 -0.02175122
0.123331904 -0.09574682 -0.14016515 -0.064244024 -0.04736691 -0.13077316 0.085556805 0.15756993
-0.107195005 -0.14180167 -0.10856513 0.033270188 0.051041774 -0.13035995 0.13026153 0.09514704
-0.106759615 -0.077204 0.0020118214 -0.15851593 -0.0065106326 0.078193046 -0.0126072 -0.053688444
-0.09582395 0.10684839 -0.10753634 -0.16999544 -0.10517895 0.06961954 -0.089449786 0.08573228
0.09124606 0.15766001 -0.025480427 -0.08338282 0.005100018 -0.042725008 -0.0032960372 -0.060266152
-0.03864684 0.11919053 0.09389363 -0.092260785 0.105708845 0.13952735 0.030446596 0.14231026
-0.069064066 -0.12075688 0.124619976 -0.116117954 0.05338254 -0.0008604895 0.0065249056 -0.06656839
0.020610048 -0.06355368 -0.004743632 -0.07624163 -0.027543833 0.108768076 0.062391628 0.084627524
0.12852241 0.13539375 -0.018927168 0.10844368 -0.07935187 -0.128096 0.11145012 -0.022365367
-0.033958636 0.0468259 0.17725442 -0.043618225 0.036868077 0.032749653 0.024506843 0.1226455
-0.06186381 -0.097191945 0.071767665 0.093227215 0.13802794 0.14109305 -0.009086513 -0.08773501
-0.05639883 -0.06523712 -0.017787956 -0.0910927 0.12727167 -0.12946446 -0.04562201 0.081257135
-0.07087842 0.109431565 -0.03968375 0.021852577 -0.10797163 0.0833856 0.06441604 0.10456311

lstm.bias_ih_l0 f4 [200]
00000000: b0f9 b43d e9c6 423c 052d 083e 33a9 01bd
00000010: a3d7 783c 6831 483d da19 bd3c 5de9 a3bd
00000020: 100b c93d ac52 243d bfc4 7dbc cf95 55bc
00000030: 35c8 023e 3fe6 cebc a359 d6bc 4750 e43c
00000040: e012 0a3c 8986 403d c482 dbbd 4b02 adbc
00000050: 8184 973d 2806 963d 0174 9e3c 2dc3 083e
00000060: 6b62 ad3d 3c62 f8bb 4c70 bcbd 262c ae3d
00000070: be35 39bd b96a f53d b122 ef3c 615b 053e
00000080: 607f c1bd a117 b3bd 5c90 273d 5a66 cd3d
00000090: 530d 8a3c 4de4 b8bd e50d cd3d 38e7 b6bd
000000a0: 7f65 1cbd 973d 42bc 9693 10bb d49a 063e
000000b0: 006d 4ebd c3e3 e2bc 7200 353d 1be5 633d
000000c0: 6bb6 103e bfe8 c03c 021f 823d 0f65 96bd
000000d0: 7916 dbbd af4a 42bd 3201 13be f373 2f3d
000000e0: 08fc dbbc 3c95 0b3e a987 d13d 337b d6bd
000000f0: 19c5 ef3b fc50 073d 82de 873d 46f3 413c
00000100: d2bb eabd 8264 043e 7d81 ab3d 91d2 b83d
00000110: 4db8 5fbd 3b6c e3bd b638 ebbd 7665 813d
00000120: 3f88 2ebd 3470 c33d 216d 16bd 207a 953b
00000130: e8eb d23d 5c5c 26bc 76d8 003d e79a 95bd
00000140: 9c90 833d 1df6 c73b 187f 373d f931 aebd
00000150: 54aa d2bb 911a 05be 2061 8ebc dd28 ef3d
00000160: ec95 003e a7f5 c1bd 5911 c03c 4306 16bd
00000170: 67f0 14bb 789c 433d f873 503c b38a 103e
00000180: abbb cd3d d2c5 41bd 287c ab3d f430 3a3c
00000190: a008 053e f53c 0c3e 21d0 903d 2d47 cebd
000001a0: 5681 143d aef2 dabd 2777 85bd d614 babc
000001b0: 7933 0e3e 6462 bebd b0e8 8cbc 84d8 96bc
000001c0: 86a7 0ebe 1855 03be fb79 d13d 2b5a 903d
000001d0: e1e4 59bd 1e38 9a3d 65d1 bbbc ac93 053d
000001e0: e204 0e3e 8fc4 243d 6c8c 98bd a392 f03d
000001f0: 17cb adbc 2734 8d3d fdf1 41bd 8bea ffbc
00000200: bc83 003e 5e78 03be 692a 05be bb22 e3bd
00000210: c7ee 583c 5e8a 263d e323 07be f965 d23d
00000220: 0ba5 c03b 36b3 bb3d 8743 863d e90b 2b3d
00000230: 71fe c53d 6c43 7bbd 0ecf 4ebd cc28 fb3d
00000240: db45 37bd 9e15 0e3e 8268 de3d 0faf 17bd
00000250: b5bd f63c 7356 d5bd 55d1 c8bb 01ae 0f3d
00000260: 2fc6 1ebc ae4b 45bd fb57 a1bd 206a 13be
00000270: d8b5 9bbd 3111 c73d e780 b0bd 7a05 933d
00000280: 8456 0ebd d79a 67bd e063 f7bd 88bf c63c
00000290: 8da5 c4bd 277b 01be 40f4 c9bd 7640 5c3c
000002a0: 34cd adbd 59d6 60bd bfc7 dabd 83a0 fe3c
000002b0: e168 85bd c58f 8ebd 7075 52bd 2ad4 cabd
000002c0: 2757 fa3d cd1c 0cbd 25d9 e33d a83c 2b3e
000002d0: e100 2d3d e7bc c13d 24b7 b23d 6316 a53d
000002e0: 6f8a afbd 2d6b 123e 7765 b1bd 2362 50bd
000002f0: 38c9 843d 729f 0f3e a57c e9bd cfa4 bbbd
00000300: e311 8abc 631b 113e 7598 77bd 6c5a ed3d
00000310: 72c0 123e afc9 213d ecfa 673d aa40 fe3d
0.088366866 0.011888244 0.13298424 -0.0316555 0.015188131 0.048875242 0.023083616 -0.08003495
0.09816563 0.040117905 -0.015488802 -0.013036205 0.12771685 -0.025256274 -0.026165789 0.02787031
0.008427352 0.047003303 -0.10718301 -0.021119257 0.0739832 0.07325393 0.019342424 0.13355704
0.08466037 -0.00758007 -0.092011064 0.085045144 -0.04521727 0.11983246 0.029191347 0.1302314
-0.09448123 -0.08744741 0.040909156 0.10029288 0.016852057 -0.0902792 0.10012416 -0.0893082
-0.03818273 -0.0118555045 -0.0022060624 0.13145 -0.05039692 -0.027696496 0.044189878 0.055638414
0.14132087 0.023548482 0.063535705 -0.07343494 -0.10697646 -0.047434505 -0.14355925 0.042835187
-0.026853576 0.13631147 0.10230953 -0.10472717 0.007317197 0.033036217 0.06634237 0.011837786
-0.11461605 0.12928966 0.08374307 0.09024537 -0.054619122 -0.11104628 -0.11485426 0.0631818
-0.042610403 0.095428854 -0.036725167 0.0045616776 0.10298902 -0.010153856 0.031456433 -0.07304936
0.064240664 0.006102337 0.04479894 -0.08505625 -0.006428996 -0.12998416 -0.017380297 0.11677716
0.1255719 -0.094706826 0.023445772 -0.036627065 -0.0022726299 0.047756642 0.012722962 0.1411541
0.100455604 -0.047307797 0.0837329 0.01136421 0.12991571 0.13695128 0.070709474 -0.100721695
0.036256157 -0.10690819 -0.06516867 -0.022715013 0.13886823 -0.0929611 -0.017200798 -0.01841379
-0.13931093 -0.1282543 0.10228344 0.07048448 -0.05319679 0.07530235 -0.022926996 0.032611534
0.1386905 0.040226515 -0.07448658 0.11746719 -0.021215005 0.06894713 -0.04734992 -0.031239768
0.12550253 -0.12838885 -0.1300446 -0.11090609 0.013240523 0.0406593 -0.13197283 0.10273356
0.0058790497 0.09165041 0.065558486 0.041759405 0.096676715 -0.061343595 -0.05049043 0.12263641
-0.044744354 0.13875434 0.10859777 -0.037032183 0.030119756 -0.104168795 -0.00612847 0.035078052
-0.009690805 -0.048167877 -0.07878109 -0.14395952 -0.07603043 0.09720076 -0.08618336 0.07178779
-0.034750476 -0.05654415 -0.120795965 0.024261251 -0.09601889 -0.12644635 -0.0986104 0.013443103
-0.08486405 -0.054891918 -0.1068263 0.031082397 -0.06514145 -0.069610156 -0.05138153 -0.09903748
0.12223654 -0.034207154 0.111254014 0.16722357 0.042237166 0.094598584 0.087263376 0.080609106
-0.08571326 0.14298697 -0.08661931 -0.05087484 0.06483692 0.14025667 -0.11400727 -0.09162294
-0.016854232 0.14170603 -0.06044813 0.11589512 0.14331225 0.03949898 0.056635782 0.124146774

lstm.bias_hh_l0 f4 [200]
00000000: 1c5c 0abe fcb4 a8bc 7f1e dfbd 33af 9f3d
00000010: b560 8e3d b95d 36bd cd47 6a3d 2d48 603b
00000020: ef1b 0b3e a05d a83d c6b1 b5bd fed6 eb3d
00000030: 30b0 cdbc 24fe eb3d 3e15 03bd d402 063e
00000040: 001b e8bd 59a2 c43d 0da6 1dbd c528 d93d
00000050: 8989 f43d 2ed6 47bd 4d38 143e 4b60 e4bc
00000060: 71ca cd3d d72e a43c e42f 81bc 0f94 863d
00000070: 3f68 97bd 2ced 8d3b 0a33 f3bd e9c4 bcbd
00000080: 0706 40bd a52b fabd 10c4 043e 0344 053e
00000090: cc0a 853b 3373 a1bd f054 e3bc d84f d5bd
000000a0: 2eed fc3d 24ae dabb c014 96bd d90b 32bc
000000b0: 8bba 173e 36d9 21bd 8af0 143d aca9 053e
000000c0: 1fc7 0bbe d3eb d6bc 8f9c 093e 5899 05bd
000000d0: 357c c63d 864b c2bd 0c5a 89bd e34e eb3d
000000e0: 2821 09bd bee1 9cbd 9fe6 ce3d 0bab 393d
000000f0: e4c7 9e3d 39d4 033e e376 41bd 4c7d eabd
00000100: fcdf a33d 5aaf c73c e2b7 1f3d 5150 07bd
00000110: 9e2c 89bd 3101 883d c21a a7bd 9e6d 103e
00000120: 5c73 95bd ec5e dabc c131 9f3d a630 e9bd
00000130: ba7b b1bd a4ab 16bd aec1 143e e998 153e
00000140: b8f1 ef3d 2a2b 0b3e 745f 83bc 9d80 09be
00000150: d0a2 b03d 65e7 143e e6d4 bbbd ee4f dabd
00000160: e6bd a5bd 92fe 0ebd 9185 84bd 19ac 5cbc
00000170: 9ae9 51bd affc b7bd 52d5 143e 5907 f73d
00000180: 6fb0 a83d 69a1 0f3c 90d0 85bd 0aed 413d
00000190: e039 febc 8d99 9fbc 2fb5 d63d b564 e63d
000001a0: e79c 6c3c 2ac1 2a3c ecd8 903d 2ae0 6dbd
000001b0: c2e9 403d 4174 d53b 249f 21bd b091 9f3d
000001c0: d822 17be 4fd1 dcbd c5e9 f53c 94c5 9dbc
000001d0: aef0 c3bd 3ff5 0d3d 294e 183e 9869 bfbd
000001e0: f7c9 b9bd 805c 98bd d3dd bebd 3e01 ecbc
000001f0: f151 38bc 4281 bc3d 75e3 f4bd 49ea 2a3d
00000200: 6192 29bd 1108 ad3d 50ae 92bd 6b6f f73d
00000210: 62e3 d73d aae4 483d b12b 08be 9f2b cabd
00000220: a39a 033e 41fa 09be 0f2d a13d c1ce acbc
00000230: c376 9dbd 33c8 93bb c9f9 bfbc 7775 bbbd
00000240: e73b 22bd 0267 92bd 0b0e 053e 771b 3cbd
00000250: a51e f7bc 30cd c0bd d24b 00be 46ed 903d
00000260: 3ef8 a13d b311 d4bb 0f01 afbd 82a7 82bd
00000270: 0448 c93c 4945 f63d dbcc 173e 1781 1bbc
00000280: 6ca6 0dbe 6988 133e a8df 7b3d 4161 ccbb
00000290: e575 a33d 09c6 83bd 2478 b2bd b2ce 983c
000002a0: 7f8e 91bc 9ac8 303c d1df 613d 77af 033d
000002b0: 8d6d 0f3d 94b4 53bc 1121 853a a85b d33d
000002c0: 85d4 193e cc55 6c3d 0bce 80bd 097e 153e
000002d0: ad6c 283d d0f9 003e ac24 0c3e 790e 1cbd
000002e0: ee9a 4bbd 3e77 22bd 5172 a83d c631 f3bd
000002f0: 4751 87bc 43df d0bc d10a 1f3e 16be af3d
00000300: 5366 f23d 7306 afbd 3546 d63d 803a 443d
00000310: ba5f bb3d 97de 153d 1cda 423c 97eb 273d
-0.135117 -0.020594113 -0.108944885 0.077970885 0.06952039 -0.044522975 0.05719738 0.0034222708
0.13584875 0.082209826 -0.08871798 0.11515616 -0.025108427 0.11523083 -0.03200268 0.13087016
-0.11333275 0.09601278 -0.038488436 0.10603479 0.11940295 -0.048788242 0.14474602 -0.027877947
0.10048378 0.020041866 -0.015769906 0.06571209 -0.0739293 0.0043312516 -0.11874969 -0.09217245
-0.046880748 -0.12215356 0.12965417 0.13014226 0.004060125 -0.07883301 -0.027750462 -0.104156196
0.12349926 -0.006673591 -0.073281765 -0.0108670825 0.14817254 -0.03951379 0.03636221 0.13053006
-0.13650177 -0.026235497 0.13438629 -0.032616943 0.09691659 -0.09487061 -0.06706628 0.11489656
-0.033478886 -0.076602444 0.10102581 0.045329135 0.0775297 0.12873925 -0.04723252 -0.1144968
0.08001706 0.024375606 0.038993724 -0.03303558 -0.06697963 0.06640852 -0.081594005 0.14104316
-0.07297394 -0.02665659 0.07773162 -0.11386232 -0.08666177 -0.036784783 0.14527008 0.14609112
0.11716026 0.13590685 -0.016036727 -0.13427968 0.08624804 0.14541395 -0.091714665 -0.10659777
-0.08092861 -0.034910746 -0.06470788 -0.013468766 -0.05124817 -0.089837424 0.145345 0.12061948
0.08236777 0.0087665105 -0.06533921 0.0473452 -0.031033456 -0.019482398 0.10483777 0.11249677
0.014441705 0.01042203 0.070726246 -0.058075108 0.04709793 0.0065141027 -0.03945841 0.077914596
-0.14759386 -0.1078211 0.030018697 -0.019259252 -0.095673904 0.034657713 0.14873566 -0.09346312
-0.09071725 -0.07439518 -0.09319653 -0.028809186 -0.011250005 0.092043415 -0.119574465 0.041727338
-0.041399363 0.08448804 -0.07162154 0.12081798 0.10541417 0.049046196 -0.13297917 -0.09871601
0.12851958 -0.1347437 0.07869922 -0.021094682 -0.076886676 -0.0045099496 -0.023434537 -0.09153264
-0.03960791 -0.071485534 0.12993638 -0.04592463 -0.03016598 -0.094141364 -0.12528923 0.07076506
0.079086766 -0.0064718365 -0.08545124 -0.06379606 0.024570473 0.12024934 0.1482424 -0.009491227
-0.13833016 0.14407505 0.061492592 -0.0062371795 0.07981471 -0.064342566 -0.08714321 0.018653248
-0.017768143 0.010790015 0.05514509 0.03214976 0.035016585 -0.012921471 0.0010156949 0.103202164
0.15022476 0.05769901 -0.062892996 0.1459886 0.041119266 0.12595296 0.13685864 -0.03809974
-0.0497083 -0.0396645 0.08224929 -0.11874728 -0.016518248 -0.025497084 0.1553147 0.08581178
0.11835923 -0.08546152 0.1046261 0.047907352 0.09149118 0.03658923 0.011892822 0.04099616

lstm.weight_ih_l1 f4 [200, 50]
00000000: 161d d9bd 5567 cbbd 6353 0dbd e4ac a53d
00000010: 847e 69bd a6a5 1a3e 5328 9c3b f2df f0bd
00000020: 08c0 f7bc f5aa fc3d 3b07 72bc 5552 0b3d
00000030: 88ef 80bd aa46 6bbd 7c8b 89bd 1224 00be
00000040: 302c c9bd 07f5 4bbd 13d6 6ebd b546 9bbd
00000050: 71de 9d3c c36b 43bd 98d7 a43d 11b2 69bd
00000060: b7d1 04bd 6346 84bc 1222 d83d 911c a63d
00000070: 14e0 bd3d 528a f23d b7e3 12bd 0b2c 19bd
00000080: 0af5 bbbd 4063 353c bffb c1bd f28f 963d
00000090: df74 03be 3df4 1b3e 7fb6 05bb 332b 06bd
000000a0: a455 623a e6e6 823d 32e2 713d 174c 003c
000000b0: 88bd ce3d aab1 0d3d fa86 d4bc 47ca 67bd
000000c0: e2c7 e93d 8180 f53d 9212 e33d 6693 81bd
000000d0: d354 5fbd ad26 6f3d ce5e aebd 310c abbc
000000e0: 84f7 03bd 0efa eb3d 2077 85bd c44d 0a3e
000000f0: 1ec3 353b 334c 073e 7976 62bd d717 f13c
00000100: e8d1 e6bd 599d 54bd 5761 e73d 7f26 b73c
00000110: 7831 95bd 7836 71bc b882 03bd 40aa efbd
00000120: d90e ef3d 0d79 893c 3529 673c bdac 733c
00000130: 5043 0dba 8aae 013d 7912 34bd 3fcc 5abd
00000140: 6234 043e 539b 5c3d 443f 263a 7210 a5bd
00000150: 27c3 d73d bdb2 d53d f6b1 19bd 9352 173e
00000160: 22a2 653d ee9c a5bd 7ac2 ac3d d247 853c
00000170: b69c b6bc c650 1b3d 24ae 09bc e839 f63d
00000180: 95e5 d4bb bf22 cf3d 80b8 8c3d accc 74bd
00000190: a24d 323d 436e 01be edbb 39bd edb7 65bd
000001a0: 412d 153e cd40 8dbd e197 86bc 388d fabd
000001b0: 6e99 94bd 21cf 8b3c a62b 883d 9e05 de3d
000001c0: ed17 ef3d 5f02 b23d 540c abbd 6454 053e
000001d0: 9970 aebd bbf0 e6bd beeb f3bd fde9 99bd
000001e0: 34ac 103e b4ef 123e 4f49 6ebd 627b a53d
000001f0: a009 5a3d eea7 ef3d 3ce3 13bc 1d3d f0bd
00000200: 9f41 913d 4d89 1e3e 4cdd 56bc ceaf cabd
00000210: c946 febd 3120 a3bd 8610 90bd beb3 a1bd
00000220: 7e86 db3d 409e 83bd b4c4 aa3d 3dbd 2e3d
00000230: 1f2c ae3d b42d 4e3c 6015 853d 7e9f 913d
00000240: 2397 893d 5e3e 1fbd a9cc 113e d83f 24bc
00000250: 19e8 e2bc fb81 d63d 5865 e0ba 3106 b83d
00000260: 01d9 fb3d 3621 34bd 72b8 283d 7e8c 0fbd
00000270: 042d 83bd 3797 32bd 2142 b5bd 9285 14be
00000280: 2bb4 2abc 5117 8e3d d00a 063d 4042 b33d
00000290: 5661 193e ebbb 14be 842c 5cbd b5a6 653d
000002a0: f4e7 b23d 6747 123e 5b93 d5bd 1ad6 bf3d
000002b0: 00e4 dc3d 6904 ee3d 8749 5cbb cafc ed3c
000002c0: 5a13 5a3d 6c8f 163a f0e4 df3d b3ec 1d3e
000002d0: 5ba8 13be 391c 0abd 62dd 04be df49 c03d
000002e0: 37aa 113a 45b1 ab3d b7aa 053e 7dfc e73d
000002f0: 5e40 f6ba 339a 443d 0512 02bd df89 dbbd
00000300: 5641 f0bc 085c 9b3c b790 b4bd d549 8c3d
00000310: 4fac cb3d ac7d fdbd 6f46 753d 2a40 a03d
00000320: 8013 693d c1c9 3cbd 80b5 85bd 0aec 3bbd
00000330: ee9e 36bd 0b6f 41bd f7dc acbd 2950 e4bd
00000340: b121 d63c cf9b aa3d 4848 b63c fa85 203e
00000350: 5423 953d 5ffb 22bd 507f b33d bdce b33c
00000360: 84a6 19be 8ce3 703d 61f2 00be 2375 09bd
00000370: 5761 173e 3c69 c63d 8d39 e73d d6a3 0e3e
00000380: 6634 523d bee8 053e 7405 863c dce6 02be
00000390: 0634 cb3c 1369 203e 24d1 00be 186d 85bd
000003a0: f49e 153e 9976 b0bd eeec 463c a71b 85bd
000003b0: b400 e0bd 4db8 be3d f594 873d b57d 2b3e
000003c0: 99ce bfbc e571 a2bd f337 aabd 2bc7 fe3b
000003d0: 86a6 14bc 3252 d53d 0db0 57bd e925 e73c
000003e0: b640 b03b 966d f2bd decd 89bd e8e8 44be
000003f0: 1486 0c3e 6778 f9bd 24ed 48bd b687 843c
-0.10601251 -0.099318184 -0.034503352 0.08089617 -0.05700542 0.15102252 0.004765549 -0.11761464
-0.030242935 0.12337295 -0.014772232 0.034014065 -0.06295687 -0.057440437 -0.06716058 -0.1251376
-0.09822881 -0.049794223 -0.058309626 -0.07581846 0.019271107 -0.04771019 0.08048934 -0.057054583
-0.032426562 -0.016146844 0.105533734 0.08110917 0.09271255 0.11842789 -0.035861697 -0.03739552
-0.09177597 0.011071026 -0.09471845 0.07351674 -0.12837552 0.15229888 -0.0020402966 -0.03275604
0.0008633977 0.06391697 0.059053607 0.007830641 0.10094744 0.03459326 -0.025943268 -0.05658939
0.11415078 0.11987401 0.110875264 -0.06326942 -0.054524254 0.058386493 -0.08514176 -0.020879837
-0.03221847 0.115223035 -0.06516862 0.13506228 0.0027734707 0.13212661 -0.055288766 0.029430313
-0.11270505 -0.05190787 0.11297863 0.022357224 -0.07284826 -0.014722459 -0.032107085 -0.117023945
0.11672754 0.016781354 0.014108946 0.014872727 -0.00053887535 0.031660594 -0.04396293 -0.05341744
0.12910607 0.053859066 0.0006341825 -0.08059777 0.10535269 0.10434482 -0.037523232 0.14777593
0.056062825 -0.080865726 0.08435531 0.016269598 -0.022291522 0.03791883 -0.008403335 0.120227635
-0.006497095 0.10114049 0.06871128 -0.059765503 0.043531068 -0.12639718 -0.045345236 -0.05608361
0.14568044 -0.068971254 -0.016429843 -0.122339666 -0.07255827 0.01706654 0.0664895 0.10840915
0.11674485 0.086918585 -0.08351961 0.13020474 -0.0851757 -0.112763844 -0.11910199 -0.07515333
0.1412819 0.14349252 -0.05817538 0.08080174 0.053231835 0.11701952 -0.009026345 -0.117304064
0.07092594 0.15482064 -0.013114285 -0.09896813 -0.12415845 -0.079651244 -0.070344016 -0.07895611
0.10719012 -0.06426668 0.083382994 0.04266094 0.08504509 0.012584139 0.064982176 0.07110499
0.0671828 -0.038877837 0.14238228 -0.010024987 -0.027698563 0.104740106 -0.0017120047 0.08985556
0.122972496 -0.043976985 0.041191526 -0.035046093 -0.064050704 -0.04360124 -0.08850504 -0.14504078
-0.010418932 0.06938041 0.032725155 0.087528706 0.14978537 -0.1452481 -0.05375339 0.056067187
0.08735648 0.1428505 -0.104284965 0.093670085 0.10785675 0.11621935 -0.0033613162 0.029051203
0.05324111 0.00057434174 0.10932338 0.15422325 -0.14419691 -0.03371832 -0.12975076 0.0938909
0.0005556675 0.08383421 0.13053404 0.11327455 -0.0018787493 0.04799862 -0.031755466 -0.10719656
-0.02932803 0.018964782 -0.08816665 0.0685002 0.09944975 -0.12377486 0.059881624 0.07824738
0.056903362 -0.046090845 -0.06528759 -0.0458794 -0.04458516 -0.04722504 -0.08440583 -0.11148102
0.026139112 0.083304994 0.022251263 0.15676108 0.07282129 -0.039790507 0.08764517 0.021949166
-0.15004927 0.058810756 -0.1259246 -0.033558976 0.14783226 0.096880406 0.11290274 0.13929686
0.051319502 0.13077065 0.016360022 -0.12783378 0.02480508 0.15665083 -0.12579781 -0.065149486
0.14611417 -0.08616371 0.012141449 -0.06499415 -0.10937634 0.09312496 0.06620208 0.16747172
-0.023413943 -0.0793188 -0.08311453 0.0077752075 -0.009072905 0.10416068 -0.05265813 0.02821632
0.005378808 -0.11837308 -0.06728719 -0.19229472 0.13723022 -0.12181168 -0.04905428 0.016177993

lstm.weight_hh_l1 f4 [200, 50]
00000000: dd90 02be 1a14 2b3c 5396 b7bd 25ba 2ebc
00000010: 2415 a43d 76a3 0f3e c615 153e 93fe dfbd
00000020: 6268 8a3c 1dfa 053d 2881 d1bd ea36 ba3d
00000030: 2da0 5bbd 5c3c 013e f365 f63d 113b 4e3d
00000040: 668d 9e3d 8b2d 3bbd 4d09 4d3d 84f4 003e
00000050: e19c 8dbd 133b d93c e7e6 b53d a22a 9c3d
00000060: 753a f7bb d2c9 cc3d 0155 f5bd 7bdc aebd
00000070: c608 d5bc cfb7 71bc 31cc ed3d f191 9b3d
00000080: ad68 b0bd 05a8 d63c 52cf c63d 6ba9 9bbd
00000090: 3411 c1bd fdb1 bf3d b298 b33d 6d8d 073e
000000a0: 0ce9 7c3c bf91 98bc d737 3f3d c72e c5bd
000000b0: 9511 c93d 707e f93d c8a5 69bc fb7f 89bd
000000c0: a27a 34bd 888b dcbd f984 b3bd 3161 c2bc
000000d0: 0d55 8b3d 897a a5bd d6f7 94bd 6b5d ddbd
000000e0: 32ff bebd e5ac 6dbd 697a ae3d 36f0 823d
000000f0: 1278 373b 7c8f 6a3d 537c d63d a601 96bd
00000100: 3b0a 4d3d fd1d 10be 084e 963d b88b b9bd
00000110: 0806 c6bd e52e a83d a59c c9bc 1499 74bd
00000120: 298b 68bb b327 f73d 5948 17be 9f0c eebd
00000130: a37e c83d da3f d8bd ca55 033e 9ce0 01bd
00000140: 9efd 7c3d 1bdb 94bd 4337 be3d fea8 0f3b
00000150: c199 dd3d 22fc 8fbd 8589 9ebd 56e2 063e
00000160: 10df 0e3e 0c02 edbd 942e 5cbd 376e 1bbe
00000170: f0ff db3d a706 d13c 7b51 0abe 9c6f fb3d
00000180: b2fa 943d 5b8b bb3d e190 553d 2fc4 f73d
00000190: 3f4f a4bd 1804 07be 7f0e 483c 83aa 1abe
000001a0: 3532 ea3c 241d 0c3e 1436 dd3d f6ab e03c
000001b0: c17d b0bd 528b 97bd b4ba b0bd 7013 8bbd
000001c0: e588 57bc e23b 733d ea22 8cbc 5cea c93c
000001d0: 0e10 d9bd 1b06 abbd 1e68 863d 296d a4bd
000001e0: 2b12 e83c 19f8 d8bd 3bb0 bd3d c237 3b3c
000001f0: bdcd 603c bf6f f1bd c185 efbc 1741 acbd
00000200: 8214 803d 6b7e d93c fb47 04be cecd 783d
00000210: d154 86bb 9c15 0d3d c2c8 143e 1578 9c3d
00000220: 9418 253d 8b13 9b3d 7349 5f3d f537 ec3d
00000230: 9c5e ffbd fc62 513c 48fb c13d 08a2 8e3b
00000240: 0f6d d93d 308b 323e 4294 813d 68f4 6c3d
00000250: d98e bbba 81cb acbd d785 0f3e e352 0d3d
00000260: 6ce5 04be ecb7 bdbd 0934 143d 2c32 b73d
00000270: 3cc5 063e 7d51 00be 97db 173e fbb4 593c
00000280: 561a c33d 33ba b3bc d47f f33d 5c27 2dbd
00000290: 89a2 ed3c af29 efbd fa7a d4bd 3cc9 b0bd
000002a0: 85de 043e b74e 0f3e 275f 7ebd d013 d03d
000002b0: ec2d 82bd 5d9e 5bbd 43a6 76ba 7e5f 613c
000002c0: 1d7b 79ba 587a 8dbd 15f6 a93c 609b 4a3d
000002d0: d09e 1b3d b23a 4f3d 3135 4fbd c39f 933d
000002e0: 4106 c0bc b90d e3bd ea3a 48bd 3908 03be
000002f0: 058a 363d 6721 5bbd c2cc 6b3b 3722 bb3d
00000300: f8b2 8e3d 0660 d93c a5fe b33d 5345 943c
00000310: be4a 003e 765d 02be cc78 4fbc 1ab1 623d
00000320: 548d d1bd b270 c73d 6c97 403b 04af 353d
00000330: 640a d93d c837 1e3e d0ee 043e 7371 913c
00000340: 0ce3 c03d f33e c43d ebee 163d d5d9 b5bd
00000350: af5e 03bd 0584 d63d da1c ea3d b633 903d
00000360: 53e8 d23c 1df8 8bbd 8fee 13be 21fa cbbd
00000370: 881b a2bc 5120 eb3d cdd6 5bbd 3584 6ebd
00000380: 4461 dd3c fc29 c1bd ec3c 6fbd 3526 e93d
00000390: a683 c93c 1c54 3d3d 741e 33bd e792 f0bd
000003a0: de9f cd3a 4605 d53d 36cb 3c3d 7a9d aa3d
000003b0: 1607 073e cbc4 febd c77b a23c 9bf3 063e
000003c0: 6f06 813d 7274 a4bd 1e2d 03be e1d8 013e
000003d0: ec7b 113e 50fb 233e 250a d03d 1caa b7bd
000003e0: 8b37 4239 4b8f 593d ad66 fb3c a48a 23bd
000003f0: 9137 bb3d b5d0 bd3d b7f2 293c 2844 2c3c
-0.12750573 0.010441804 -0.08964219 -0.0106644975 0.08011845 0.14027199 0.14559087 -0.10937228
0.016895477 0.03270923 -0.10229713 0.09092505 -0.053619552 0.12620682 0.12031164 0.0503493
0.07741813 -0.04569773 0.050057698 0.12593275 -0.06914688 0.026517427 0.08881932 0.07625319
-0.0075448104 0.09999432 -0.11979104 -0.08538147 -0.02600516 -0.014753296 0.11611212 0.075961955
-0.08613715 0.026203165 0.09707512 -0.07600673 -0.09427109 0.093601204 0.08769359 0.13237543
0.015436422 -0.018624185 0.046684112 -0.09628063 0.09817807 0.12182319 -0.014260717 -0.067138635
-0.044062264 -0.10768801 -0.08765597 -0.023727985 0.068033315 -0.08080012 -0.072738335 -0.10808834
-0.093260184 -0.058026213 0.08519442 0.06393473 0.0027995151 0.057265744 0.10472932 -0.07324533
0.050058585 -0.1407394 0.07339102 -0.09059852 -0.09669119 0.082120694 -0.024610827 -0.0597163
-0.0035483337 0.12068119 -0.14773692 -0.11623501 0.09789779 -0.10559054 0.12825695 -0.031708345
0.061765306 -0.072683536 0.09287884 0.0021920796 0.10820342 -0.070305124 -0.077410735 0.13172278
0.13952279 -0.11572656 -0.053755358 -0.15178762 0.107421756 0.025515867 -0.13507645 0.12277147
0.07274379 0.09157439 0.05214012 0.12097966 -0.080229275 -0.13185155 0.012210487 -0.15104108
0.028588394 0.13682991 0.1080133 0.027425747 -0.08617736 -0.0739962 -0.08629361 -0.06790817
-0.013155197 0.05938328 -0.017106492 0.024647884 -0.10598765 -0.08350774 0.065628275 -0.08028633
0.028328976 -0.10594196 0.09262129 0.011426868 0.013720927 -0.11788892 -0.029238584 -0.084108524
0.062539116 0.026549539 -0.12918083 0.060743146 -0.0040994664 0.034444436 0.14529708 0.07640091
0.040306643 0.07572087 0.054513406 0.115341105 -0.12469217 0.012779947 0.09471756 0.0043528117
0.106165044 0.17435908 0.06327106 0.05785027 -0.001430954 -0.08437253 0.140159 0.034502875
-0.12978142 -0.09263596 0.036182437 0.089451164 0.13161176 -0.12531085 0.1482986 0.013287778
0.095265076 -0.021939373 0.11889616 -0.042273864 0.029008167 -0.116778724 -0.103750184 -0.086321324
0.1297551 0.13994871 -0.062102463 0.10160029 -0.06356415 -0.053617824 -0.000940893 0.013755677
-0.00095169415 -0.06908101 0.020747224 0.049464583 0.037993252 0.050593086 -0.050587837 0.072082065
-0.023440482 -0.11086602 -0.04888431 -0.12796105 0.04456522 -0.05349865 0.00359802 0.09137385
0.06967729 0.026535045 0.08788804 0.018099463 0.12528512 -0.12730965 -0.012663078 0.05534468
-0.10232034 0.09738292 0.002938713 0.04435636 0.10597685 0.15450966 0.12981725 0.017754292
0.09418306 0.09582319 0.036848944 -0.08879439 -0.03207272 0.104743995 0.11431284 0.07041113
0.025745546 -0.06834433 -0.14446472 -0.09959818 -0.019788519 0.11480773 -0.053671647 -0.05823155
0.027023919 -0.09431836 -0.05840771 0.113842405 0.024598908 0.04622279 -0.043730214 -0.117467694
0.0015687903 0.104013965 0.046092235 0.083308175 0.13186297 -0.12439879 0.019834412 0.13178866
0.06300055 -0.08030023 -0.1281018 0.12680389 0.14207429 0.16013837 0.10158185 -0.08967993
0.00018521973 0.05311517 0.030688608 -0.03992714 0.09141458 0.09268323 0.010372809 0.010514297

lstm.bias_ih_l1 f4 [200]
00000000: 5803 1c38 dbe4 eabb 1ee8 b3bd dd35 58bd
00000010: dcd9 b03d 294f 97bd 87d9 4fbd 8905 93bd
00000020: e4a3 70bd 0224 923d 071a b4bc 283e 1ebd
00000030: 9ed6 033e d80e 063e 5308 c5bd fb64 003e
00000040: 5e0f 23bd a76a 3bbd 0092 aebd 36c9 6c3d
00000050: 8ef4 233e 30d6 d3bc 6440 c8bd 967c 24bc
00000060: 7be4 753d b687 f9bd 254c f4bd 2839 ec3d
00000070: 80ab f5bc e3aa 05bd 1770 0dbc a12b 163e
00000080: ab27 1b3d be17 25be 8001 b7bd c4a7 b63d
00000090: 3c58 8f3d 9fe4 c93d dbdd df3d c14a 933d
000000a0: b53c 133e e49d f4bd e540 c63d 1801 3abd
000000b0: 8444 f73d 39d4 913d 611b b23c 3d02 97bd
000000c0: 8cc9 e7bd 8e09 ae3c 4329 02be 6f77 083e
000000d0: 71eb 5ebc 864d e13d 2dcf 1e3e 9488 c7bd
000000e0: 47d0 103d 37e9 e53c 678f 353c e736 60bc
000000f0: 8937 b33d c9f6 a4bc 2125 a33d 304d b4bd
00000100: 8373 f03d 03da 573d 0c58 343c 1999 9b3c
00000110: 8755 e3bd a062 f53d c024 7f3d f4a3 7bbd
00000120: 600f 863c 173b a63b c79a b23d 3fdd abbd
00000130: e74b 9bbc 5bac 0c3e 8f55 d43d 99b6 e9bd
00000140: 2a4b 683d 3018 24bd d01a a4bd f43a 22be
00000150: 4b91 c4bc 1f07 2d3c 974f 0a3e 1210 f63d
00000160: 456c 023e b158 2cbd 3f84 05be d725 3d3d
00000170: cbbf bebd 4966 153c d386 033e 2198 5eba
00000180: d333 87bc 27c6 4ebc 0b1a fd3c c42d 81bd
00000190: c22d c03d b835 98bd 09a7 e6bd 41b7 6bbb
000001a0: d20d eebd b8f1 d53d 0ba6 5dbd 2e57 8f3c
000001b0: c543 06bd 112c 903d 1047 28bd e5d6 c23b
000001c0: 978a d33d 37cd 29bd 44b7 f4bc a0fe 1fbe
000001d0: 88ca d3bc b422 11bd 93da d23d 702a 043e
000001e0: 844d 80bd 37fa 263d 48de d53d 5022 1abe
000001f0: f267 0bbc ec17 09bd 8ec6 ef3d 4ad6 0e3d
00000200: d125 00be eece 1cbd 8630 2cbd dd06 593d
00000210: 43ba 9abd ce2f 89bd 6ab3 eebc 4951 043e
00000220: 5d32 8bbd 854c 90bd 649f 98bc eab4 de3d
00000230: 63a5 f0bc 21a0 ca3d f3b9 f3bd b32f 5e3d
00000240: 5e94 dc3d 16ce cd3d c290 24bd ccef c33d
00000250: c67b 163e dc95 bdbb 7965 593c dc18 89bd
00000260: 5e35 123e 0c01 a63d 2e5f c73d b554 063d
00000270: fcce e93d 73c7 463d 2fb1 033e 00e4 a3bb
00000280: 52f0 06bd f3e5 e73d be02 a33c bd60 453d
00000290: 815e dbbd bb11 703c 9af7 223e 5dc7 80bd
000002a0: 998c 8d3d 200a 073e c793 1dbd a184 9ebc
000002b0: 7ba8 83ba fba3 183e bc2b 013e 7768 093e
000002c0: a88e 11bc 9644 903d 75d6 5a3b eb82 2b3e
000002d0: baf0 34bd 3f85 fe3d 9600 afbd d9d2 b33d
000002e0: 5aa9 ca3d 1989 85bd f20c 023d 339c 7f3d
000002f0: a1bd 593d 2c3f 093d ea70 5cbd ab4f d5bc
00000300: e6f8 ecbc 31d4 9f3d 8b84 8bbd 829f ee3d
00000310: c99b debd 6878 173b d7bd 28bd b0c4 b1bc
3.7196412e-05 -0.007168395 -0.08784507 -0.052785743 0.086353034 -0.073881455 -0.05074456 -0.0717879
-0.05875005 0.07135774 -0.021985067 -0.038633496 0.12874839 0.130916 -0.09620728 0.12538521
-0.039809577 -0.04575601 -0.08523941 0.057809077 0.16011259 -0.025858968 -0.097779065 -0.010039469
0.06003235 -0.12184088 -0.11928586 0.11534339 -0.029989004 -0.032633673 -0.008632681 0.1466508
0.037879627 -0.16122338 -0.08935833 0.089187175 0.06999251 0.09858059 0.109309874 0.071919926
0.14378627 -0.11944178 0.096803464 -0.0454112 0.12073615 0.071205564 0.02174157 -0.07373474
-0.11317739 0.02124479 -0.12711053 0.1332681 -0.013605938 0.110011145 0.15508719 -0.09742847
0.03535488 0.028065307 0.011081553 -0.013684965 0.08750827 -0.020137208 0.07966066 -0.08803785
0.11740782 0.052698147 0.01100732 0.018993901 -0.111002974 0.11981702 0.062290907 -0.061435655
0.016364753 0.005072962 0.08720928 -0.08391809 -0.018957091 0.13737623 0.103678815 -0.11411781
0.056712307 -0.04006213 -0.080129266 -0.15842801 -0.023995062 0.01056078 0.13506924 0.12014784
0.12736614 -0.04207677 -0.13038729 0.046178665 -0.09313925 0.009118625 0.128444 -0.0008491297
-0.016504204 -0.012620485 0.030896207 -0.06307557 0.093837276 -0.07432121 -0.11262328 -0.0035967382
-0.1162373 0.10446495 -0.05411343 0.017497625 -0.032779474 0.07039655 -0.041083395 0.0059460276
0.10329168 -0.041455474 -0.029872544 -0.15624475 -0.02585341 -0.035433486 0.10295596 0.12906814
-0.06264785 0.040765967 0.104427874 -0.15052152 -0.008508669 -0.03347008 0.11707793 0.03487233
-0.12514426 -0.03828328 -0.042038463 0.05298506 -0.07555058 -0.06698571 -0.029138286 0.12921633
-0.067967154 -0.07045845 -0.01863069 0.1087435 -0.029375738 0.098938234 -0.119007014 0.05424471
0.10770486 0.100490734 -0.040177114 0.09567222 0.14695653 -0.005785687 0.013268822 -0.06694195
0.1427817 0.081056684 0.09734951 0.032795627 0.11416432 0.048530053 0.12860559 -0.005001545
-0.03294403 0.11323156 0.019898769 0.04818796 -0.107113846 0.014652665 0.15914765 -0.062880255
0.069115825 0.13187456 -0.03847101 -0.019350352 -0.0010044718 0.14906304 0.1261434 0.13418756
-0.00888411 0.07044332 0.0033391987 0.1674916 -0.044174887 0.124277584 -0.08545034 0.087804504
0.098955825 -0.0652029 0.031750627 0.062404823 0.05315936 0.03350751 -0.05381862 -0.026038965
-0.028927278 0.07804144 -0.0681239 0.116515175 -0.108695574 0.002311254 -0.04119667 -0.021700233

lstm.bias_hh_l1 f4 [200]
00000000: 43c1 eb3d c6ab c93d 7fea b5bc 586d cc3d
00000010: 4571 383c e2af 443c 4ca0 17bd ae6b 0dbd
00000020: a313 8c3d afba e13c 876d d0bc bb46 583c
00000030: 4f16 6c3c 7e0f 033e dc05 033d 5912 36bd
00000040: 2106 78bd 0d2d aabd 888a 653d 20b7 323d
00000050: 5d8d 63bd df22 3ebd c417 b73d 945c eb3c
00000060: fff5 dfba 23f9 053e b4aa ca3c 8f06 f63d
00000070: dd18 5dbd a1a6 66bc aa46 8c3d 6f8d 023e
00000080: 734b f1bc 70d7 053d 1f24 edbd feea 723b
00000090: 20c9 7d3c 7ba4 9c3d ef74 af3d f749 333d
000000a0: ca13 3bbd 8a03 df3d bc84 433c 0411 f73d
000000b0: 48be 0d3d f8e7 d6bd c9bc 223e 8af1 a93d
000000c0: be73 b3bd 0245 0a3e 3f26 ce3d ecf8 b2bd
000000d0: df40 d5ba 0a57 9c3d 548e c43d 9042 3dbc
000000e0: 9764 b03d 4a80 0fbe 7387 b83d cefc 86bd
000000f0: b541 be3d c9b0 5f3c dcda 3b3d 24f6 36bd
00000100: fbbb 9b3d 3619 cbbc 95fc 00bd b3f9 5e3d
00000110: e23f 30bb 1279 8f3d 7e1c a33d 469b b83c
00000120: 26c6 67bd d8ae f6bc 231b a13d 36b1 46bd
00000130: dd40 c5bd 9228 fdbc e128 f6bc 4fbc ccbd
00000140: d96d af3d 01e4 f33d e05b d93d a3f1 de3d
00000150: 399b a2bd d9ab e63d e5e0 163e 685b 8cbd
00000160: 311c cf3d 143f 6b3d 9c90 a6bd 5faa df3d
00000170: 9c80 bb3d fe98 a6bc fd37 40bd c9aa 51bb
00000180: 6357 533d 032d 713c 766b 123e 4ff0 543d
00000190: 1347 8dbc a6dd 703d 839d 44bc 7568 98bc
000001a0: b4b6 88bd b48d 7e3d 7bc9 a73d 9cd5 c23c
000001b0: c13c 113e 310b a73d ce46 cdbd 9e43 40bd
000001c0: 90c9 643d 6dcf 75bc a9c8 fd3c db84 e83c
000001d0: a145 8bbd 8fde f5bc 2f56 533c 056e 193e
000001e0: e6da 94bd 9b01 333d 0e88 013e 615b 82bd
000001f0: 3881 943d 2633 71bb f6e4 1c3d 0dfb 343d
00000200: 5891 853d a14a 8dbd ef39 a43d a7ac eabd
00000210: 39f0 95bc 0f35 d5bc 94cb fb3d f5a2 c1bd
00000220: 7283 d73d 02f0 09bc a64f a53d 74a5 c5bd
00000230: 640d 96bd 22c2 1ebd aad6 3cbc 004e fbbb
00000240: 7f2d 12bd 37ed 68bd a006 d1bd be72 873d
00000250: e3da c1bb 6fc0 11be 41b1 a039 9dda 60bd
00000260: bb14 db3d a14c 1c3e 86bc 803d beaa 81bb
00000270: 2c62 53bd 3bdb 083d 8d96 3abd 351b 1bbe
00000280: 78b6 a13d 0a66 08bc 059b fabc 86fb fd3d
00000290: cbdd d13d 4ff1 013e 8243 143e dc88 dabd
000002a0: bc43 fabd 6a7e 3dbc a8d5 4fbd 3a10 12be
000002b0: ac57 3fbd 90f5 88bd 237c bb3d 2f32 0d3e
000002c0: 67d3 84bd f0dd a23d 8f6f 193e 8817 063e
000002d0: 1809 afbb f4c3 69bd 30cc 68bd 8dfb 653d
000002e0: 0899 c33d fd8b 1b3e 7a24 fbba 1d5f 72bd
000002f0: 11b4 f43d 5ee8 f63c 67e6 d4bd df73 de3d
00000300: ac45 b8bd dd11 a73d 6c2b 793c a96f 0ebe
00000310: ede5 73bd a9e3 e2bd a17c 88bc 6e09 05bd
0.11511471 0.09847216 -0.022206543 0.09981793 0.011257474 0.012004824 -0.037018105 -0.03452652
0.06839683 0.027554838 -0.025442852 0.013200457 0.014409616 0.12798879 0.03198801 -0.04445109
-0.06055272 -0.08309374 0.056040317 0.043631673 -0.055554736 -0.046419974 0.0894008 0.028730668
-0.0017086862 0.1308332 0.0247396 0.1201297 -0.05397879 -0.014077813 0.068494156 0.12749265
-0.029454922 0.03267616 -0.11579155 0.0037066336 0.0154898465 0.0764856 0.08567225 0.04377171
-0.04567317 0.10889347 0.011933502 0.12063792 0.034605294 -0.10493463 0.15892328 0.08298023
-0.087623104 0.13502887 0.100658886 -0.08738884 -0.0016269943 0.07633789 0.095974594 -0.011551514
0.08612936 -0.14013782 0.0901021 -0.065911874 0.09289876 0.013652989 0.045863017 -0.04466833
0.07604214 -0.024792295 -0.03149088 0.05443735 -0.0026893546 0.07005514 0.07964419 0.022534978
-0.056585453 -0.030112669 0.07866504 -0.048508845 -0.09631512 -0.030903134 -0.03004879 -0.099968545
0.08565874 0.11908723 0.10613227 0.10885932 -0.079397626 0.11263246 0.14734228 -0.06853372
0.10112799 0.057433203 -0.08133051 0.109211676 0.0915539 -0.020336624 -0.046928395 -0.0031992665
0.05159701 0.014720204 0.14298806 0.05198699 -0.017245805 0.05880513 -0.012000444 -0.018604496
-0.06675473 0.062146857 0.08192726 0.023783498 0.14183332 0.081564315 -0.100232705 -0.046939485
0.055856287 -0.015003067 0.030979471 0.028383663 -0.0680039 -0.03001335 0.012898966 0.14983375
-0.07268314 0.043702703 0.12649557 -0.063650854 0.07251209 -0.0036804168 0.03830429 0.044184733
0.06521863 -0.06899 0.080188625 -0.11458712 -0.018303024 -0.026026277 0.12294689 -0.0945491
0.10523118 -0.008419039 0.08071832 -0.09650698 -0.07326773 -0.03875936 -0.011525789 -0.0076692104
-0.03568792 -0.05686685 -0.10206342 0.06613682 -0.005915986 -0.14233564 0.00030649643 -0.054895986
0.106973134 0.15263607 0.06285958 -0.0039571216 -0.051607296 0.0334122 -0.045553733 -0.15147097
0.07896131 -0.008325109 -0.030591497 0.1240149 0.10247382 0.12689708 0.14478877 -0.10670635
-0.122199506 -0.011565784 -0.050740868 -0.14264002 -0.04671447 -0.06687462 0.091545366 0.13788675
-0.06485634 0.079524875 0.14983962 0.13094914 -0.00534166 -0.05707164 -0.056835353 0.0561481
0.09550673 0.1519012 -0.0019160651 -0.05917274 0.119484074 0.030140098 -0.10395508 0.108619444
-0.08997664 0.08157704 0.0152081065 -0.13909782 -0.059545446 -0.11078579 -0.01666099 -0.032479696

fc.weight f4 [1, 50]
00000000: a442 9cbd 3f32 143d 5457 1abe 4cee 9d3b
00000010: 8b19 4fbd a0f5 dc3d c0e8 f93d 9152 4e3b
00000020: 2643 f738 0437 d5bd 8fec 443d fb23 cb3d
00000030: 1cbe e43d ede3 d53d 86b2 fb3d f497 6bbd
00000040: f500 cabd 5d0c dc3b dade a7bd 1d03 083e
00000050: 1d6e 8cbd 4f02 9abd 4d5b 27bc 47fc 11bd
00000060: a384 acbd d05e 653d e8b9 ba3a 7138 5a3d
00000070: 27b6 d8bd b47b ac3d 2c19 0ebe c334 5fbd
00000080: 543c 8ebd 1a47 183c 3ccd fa3d c10e 7d3d
00000090: 0682 fc3d 79e7 f53d 82ef 163d c86b d13c
000000a0: 803e 5b3d 17db 45bd 9f88 aabb 1366 3abd
000000b0: 3a34 1bbd ada5 9bbd a853 e6bd 823f fabd
000000c0: 0fec 0e3d 5794 cbbd
-0.07629898 0.03618073 -0.15072376 0.004819667 -0.05056147 0.10789037 0.12202597 0.003148232
0.00011790385 -0.10410884 0.048077162 0.09918972 0.11169073 0.10443864 0.1228991 -0.05751796
-0.09863464 0.006715341 -0.081968024 0.13282438 -0.0685694 -0.075199716 -0.010214639 -0.03564098
-0.08423736 0.055998623 0.0014246078 0.053276483 -0.10581618 0.08422032 -0.1387679 -0.054493677
-0.069451004 0.009294296 0.122461766 0.06178165 0.123294875 0.120070405 0.036849506 0.02556409
0.0535264 -0.048304643 -0.005204275 -0.0455075 -0.037891604 -0.075999595 -0.11246425 -0.122191444
0.03489309 -0.09940403
