data/models/PETR4.SA_20251229_150244.pt (torch, 129365 bytes, 9 tensors)

lstm.weight_ih_l0 f4 [200, 1]
0	0xbd8bf74f	-0.0683428
1	0xbca49ceb	-0.020094356
2	0x3d4f2a32	0.05057735
3	0x3d9461dd	0.072452284
4	0x3da7b7b9	0.08189339
5	0x3d319f5a	0.04336486
6	0x3e0def82	0.13860896
7	0x3d113210	0.035448134
8	0x3e1c0f84	0.15240294
9	0xbc33d514	-0.010976095
10	0x3beb5701	0.0071820025
11	0xbc6ad819	-0.014333748
12	0xbd2563c3	-0.040378343
13	0xbd2f6382	-0.042819507
14	0xbdb77718	-0.08958262
15	0xbdf99254	-0.12186113
16	0x3d374011	0.044738833
17	0xbe10c5cb	-0.14137952
18	0xba76138e	-0.0009387069
19	0xbcfeb5e8	-0.031092599
20	0x3c28161f	0.01025918
21	0x3dd88be1	0.10573555
22	0x3df0bdec	0.11754975
23	0xbc80f50e	-0.015741851
24	0x3d849238	0.064732015
25	0x3e0a8563	0.13527445
26	0xbdcbd56a	-0.09952815
27	0xbd05fb2d	-0.032710243
28	0xbd1363a3	-0.035983693
29	0xbd84f177	-0.06491368
30	0xbd998fcb	-0.074981295
31	0xbd422a2c	-0.0474035
32	0xbd3528f4	-0.04422851
33	0xbe02aa66	-0.12760314
34	0xbdec9bec	-0.11553177
35	0xbb50a51d	-0.0031836696
36	0x3dcc70e5	0.099824704
37	0x3d2c1af6	0.0420179
38	0x3df9231a	0.12164898
39	0x3d2e4ef2	0.042555757
40	0x3db5cc4b	0.088768564
41	0xbd1555cd	-0.03645878
42	0xbd5647e6	-0.05231466
43	0xbe156620	-0.14589739
44	0x3da29dd5	0.0794026
45	0xbc3be58c	-0.011468302
46	0xbd1b9683	-0.037985336
47	0xbde49c81	-0.11162663
48	0x3e187743	0.14889245
49	0xbd5a6e74	-0.053327993
50	0x3e0d54da	0.138019
51	0x3e0e1364	0.13874584
52	0xbc3bbfe9	-0.011459329
53	0xbda81ac1	-0.08208228
54	0x3d34057f	0.043950554
55	0x3e12173c	0.14266676
56	0xbd19660b	-0.03745083
57	0x3dd9b4a6	0.10630159
58	0x3dbf9e4d	0.09356365
59	0x3de10b7a	0.10988517
60	0x3d36d817	0.044639673
61	0xbd837341	-0.06418467
62	0x3d8fba66	0.070179746
63	0x3dc25307	0.094884925
64	0x3d3c18be	0.045922033
65	0xbd1a6986	-0.03769829
66	0xbe01694e	-0.12637827
67	0x3db6a7ff	0.089187615
68	0x3d10a0d1	0.035309616
69	0x3d19857c	0.037480816
70	0x3dee6177	0.11639684
71	0xbc78f546	-0.0151951965
72	0xbde96ffc	-0.113983124
73	0xbdf3a8b8	-0.11897415
74	0x3db30a2d	0.08742175
75	0x3d0e043a	0.034672
76	0x3e0c30fe	0.13690564
77	0xbcaa3813	-0.020778691
78	0x3d954b89	0.07289798
79	0xbd997bdb	-0.07494327
80	0x3d6ecf58	0.058303207
81	0x3d63fadc	0.05565916
82	0x3dc947f5	0.09828178
83	0xbdd89ac7	-0.105763964
84	0x3e046a9b	0.12931292
85	0xbd2abfe5	-0.04168691
86	0xbe009081	-0.12555124
87	0xbc596ecd	-0.013271046
88	0x3d954c4e	0.072899446
89	0x3d00b055	0.031418163
90	0x3deb3494	0.11484638
91	0xbd7853ea	-0.0606269
92	0xbca29fff	-0.019851683
93	0x3d7dbeec	0.061949655
94	0x3c9807ff	0.0185585
95	0x3d02a45b	0.031895023
96	0x3c9e8b5b	0.01935356
97	0x3dec8bca	0.115501
98	0x3c938ae6	0.018010568
99	0x3dfb5d8b	0.12273701
100	0x3cebcd37	0.028784378
101	0xbdcccf9e	-0.10000537
102	0x3d2a3730	0.041556537
103	0x3e0f9fcd	0.14025803
104	0xbc196afe	-0.009363888
105	0xbaa903cb	-0.0012894807
106	0x3d9f3b3c	0.0777497
107	0x3d3196d9	0.04335675
108	0xbddb4dec	-0.10708222
109	0x3df7f6e2	0.12107636
110	0x3e0bef2b	0.13665454
111	0xbd0ebcdd	-0.034848083
112	0x3e0c2984	0.13687712
113	0xbd9d846c	-0.07691273
114	0x3e029cc5	0.12755115
115	0xbde992a0	-0.114049196
116	0x3d27df48	0.040984422
117	0x3c9af22c	0.018914305
118	0xb99cf5ac	-0.00029937678
119	0xbe0d57d0	-0.13803029
120	0x3dd6503b	0.104645215
121	0x3d54fc1a	0.051998235
122	0x3d819583	0.06327345
123	0xbe1093d9	-0.141189
124	0xbe005f48	-0.12536347
125	0x3cf1ad6b	0.029501637
126	0x3d8a3727	0.06748801
127	0x3e1e51b3	0.15460853
128	0xbd636841	-0.055519346
129	0xbdce3dcc	-0.100703806
130	0xbd891ede	-0.066953406
131	0xbce58237	-0.028016193
132	0x3d0aedcd	0.03391819
133	0x3d84c9e2	0.064838186
134	0x3d434603	0.04767419
135	0x3e0958c4	0.13412768
136	0x3e0ee91b	0.1395611
137	0xbd9ad715	-0.07560555
138	0xbdd522c3	-0.10407021
139	0x3c3d0186	0.011536008
140	0xbdc680e7	-0.09692555
141	0x3dfa905a	0.12234564
142	0xbd5793b3	-0.05263109
143	0xbd8c8710	-0.06861699
144	0x3d6e65d7	0.05820259
145	0x3cbf7fe7	0.023376418
146	0x3cf1567e	0.029460188
147	0x3d3fdba2	0.046840318
148	0x3d93cf1e	0.07217239
149	0x3b2417d1	0.002503861
150	0xbd99410e	-0.07483111
151	0xbd28e2ff	-0.041232105
152	0x3bdae145	0.0066796863
153	0x3d8bf311	0.068334706
154	0x3cfd24bb	0.030901304
155	0x3e1ff5c6	0.15621099
156	0xbdab6ece	-0.08370744
157	0xbdd374d2	-0.10325016
158	0x3e0d7362	0.13813546
159	0xbc90e376	-0.017686587
160	0x3df2ca7d	0.11855028
161	0xbdaaa6fa	-0.083326295
162	0xbc9377e8	-0.018001512
163	0xbdf40a11	-0.119159825
164	0xbcae7b13	-0.02129892
165	0x3dc20ed8	0.094754875
166	0xbda20f28	-0.07913047
167	0xbe003a52	-0.12522247
168	0x3e065850	0.13119626
169	0xbd7e4090	-0.06207329
170	0xbd96121e	-0.07327674
171	0xbd8f825a	-0.070072845
172	0xbc6a02ec	-0.014282923
173	0x3e1d7178	0.15375316
174	0x3d388ca9	0.04505602
175	0xbda72e5d	-0.0816314
176	0xbd7aa3b0	-0.06119126
177	0xbcd19234	-0.02558241
178	0xbc9e2fee	-0.019309964
179	0xbd7badf7	-0.061445203
180	0x3d026281	0.031832222
181	0x3d6407e7	0.0556716
182	0xbdbce28a	-0.092228964
183	0xbdfb8035	-0.12280313
184	0x3d0a2cf7	0.033734288
185	0xbcbcae45	-0.023032317
186	0xbc4bf98e	-0.012449635
187	0xbcd95dd5	-0.026534
188	0xbc760673	-0.015016186
189	0x3cdef97a	0.02721857
190	0xbc404299	-0.011734628
191	0x3d82b99b	0.06383058
192	0xbcddb68e	-0.027064588
193	0x3e058c26	0.13041744
194	0xbdfb1463	-0.12259748
195	0xbcf180ec	-0.02948042
196	0x3d81106e	0.06301962
197	0x3d635b1f	0.05550682
198	0x3e15eede	0.14641902
199	0x39922e80	0.00027881935

lstm.weight_hh_l0 f4 [200, 50]
0	0x3d6f0d67	0.05836239
1	0x3dabd610	0.083904386
2	0x3db15391	0.08658517
3	0xbdddcd71	-0.108302005
4	0xbd9994cc	-0.07499084
5	0x3d825050	0.06362975
6	0x3e06bb76	0.13157448
7	0x3d8909ff	0.0669136
8	0x3cc3bbf7	0.02389334
9	0x3db4165f	0.087933294
10	0x3bef3cf7	0.0073009687
11	0xbd85e17e	-0.0653715
12	0x3ddf164b	0.10892924
13	0xbd07231b	-0.032992464
14	0xbd3bc866	-0.04584541
15	0x3ca999e4	0.020703264
16	0x3da3e9ae	0.08003555
17	0xbcbe7dfa	-0.02325343
18	0x3dca6046	0.09881644
19	0x3df9d3d4	0.12198606
20	0x3dbf825d	0.09351037
21	0xbdbb49b6	-0.091449186
22	0xbe07c358	-0.13258111
23	0x3e053e8c	0.13012141
24	0xbcb4637b	-0.022020092
25	0xbcdcd299	-0.02695589
26	0x3df88d47	0.121363215
27	0x3d46f3cb	0.048572343
28	0xbcaa1f9b	-0.020767024
29	0xbdba1aec	-0.09087166
30	0xbd332559	-0.04373679
31	0xbdf3cb6e	-0.119040355
32	0xbd52cba1	-0.051463727
33	0x3cc0a5ef	0.023516623
34	0x3de2fae4	0.1108301
35	0xbca83e68	-0.02053757
36	0xbd4419e1	-0.047876243
37	0x3d80d11d	0.06289885
38	0x3dec75da	0.11545916
39	0xbda1822c	-0.078861564
40	0xbe048cf5	-0.12944396
41	0x3dbea6ee	0.09309183
42	0xbd20adf1	-0.039228383
43	0x3d1277e3	0.035758864
44	0x3dd71ce1	0.10503555
45	0x3d6d80df	0.05798423
46	0x3de57996	0.11204831
47	0xbc9b8232	-0.01898298
48	0xbca257ba	-0.019817222
49	0x3ddb9116	0.10721032
50	0x3da4eaea	0.08052619
51	0x3d764ab4	0.060129836
52	0xbd659565	-0.056050677
53	0xbd6ffdbe	-0.058591597
54	0x3c17a2ce	0.009255124
55	0x3e042989	0.1290647
56	0xbceff0b5	-0.029289583
57	0x3d93c5fc	0.07215497
58	0x3dafb4b0	0.08579385
59	0x3cc9f6fe	0.024653908
60	0xbd3f08a5	-0.046639103
61	0x3e170cda	0.14750996
62	0x3d540604	0.05176355
63	0xbe194fa7	-0.14971791
64	0x3d80f640	0.062969685
65	0x3daba6da	0.08381434
66	0xbd551b1d	-0.05202781
67	0xbdb5e930	-0.088823676
68	0x3e08aaa0	0.13346338
69	0x3dca6ee8	0.09884435
70	0x3dfdd9a6	0.12395029
71	0xbdf40909	-0.11915786
72	0x3da959ee	0.08269106
73	0xbd332b71	-0.0437426
74	0xbd964309	-0.07337005
75	0x3e0d4f09	0.13799681
76	0xbde14579	-0.10999579
77	0xbb0c3e26	-0.0021399348
78	0xbd2984c1	-0.04138637
79	0x3db27037	0.087128095
80	0xbdeb8921	-0.11500765
81	0xbc686591	-0.014184372
82	0x3d252456	0.040317856
83	0x3dc3d719	0.09562511
84	0xbd86c9d6	-0.06581466
85	0x3d9b064e	0.07569562
86	0xbd9c84a8	-0.0764249
87	0x3d4e410b	0.050355
88	0xbcd61227	-0.026131703
89	0x3e036dd8	0.12834871
90	0x3e085bb7	0.13316236
91	0x3da54379	0.0806951
92	0x3c2f81aa	0.010712067
93	0xbe048f4d	-0.1294529
94	0x3db90c7a	0.09035583
95	0x3db4098c	0.087908834
96	0xbc1fce34	-0.0097537525
97	0x3d3386de	0.04382979
98	0xbd05c7f8	-0.03266141
99	0x3dc24c6e	0.09487234
100	0xbd5cec22	-0.05393613
101	0xbd7ada08	-0.061243087
102	0xbda6e83c	-0.08149764
103	0x3df3d47e	0.11905764
104	0x3e19cc21	0.15019275
105	0xbdd3ce6e	-0.10342108
106	0x3d12a54e	0.035802178
107	0x3d8c3b83	0.068472885
108	0xbdeb1a27	-0.114795975
109	0x3db2a3cb	0.08722647
110	0x3d8a3229	0.067478485
111	0x3db581dc	0.08862659
112	0x3dc69578	0.09696478
113	0xbbda59b6	-0.0066635264
114	0x3e030720	0.12795687
115	0xbe007af8	-0.12546909
116	0xbda74628	-0.08167678
117	0xbd0d8395	-0.034549315
118	0xbdbcdf71	-0.092223056
119	0xbd67e20f	-0.05661207
120	0xbd884449	-0.06653649
121	0x3daf8125	0.08569554
122	0xbdef031e	-0.116705164
123	0x3c20355a	0.009778345
124	0xbc452f5f	-0.01203522
125	0x3dac2067	0.08404618
126	0xbdc74bf6	-0.09731285
127	0xbbe45f65	-0.0069693797
128	0xbe119576	-0.14217171
129	0xbc96fff9	-0.018432604
130	0xbd736c08	-0.0594292
131	0xbd8ae2fd	-0.06781576
132	0xbd1496f8	-0.036276788
133	0xbdccda62	-0.10002591
134	0xbdd820b4	-0.105531126
135	0x3d256c75	0.040386636
136	0xbd624b42	-0.055247553
137	0xbdad3931	-0.08458174
138	0x3db8123d	0.08987854
139	0xbbb7a609	-0.0056045097
140	0x3e02fca0	0.12791681
141	0x3dcf7c8a	0.10131176
142	0xbcc72f0d	-0.024314428
143	0xbb2d230c	-0.0026418595
144	0xbe11f6f1	-0.14254357
145	0xbd2fbd99	-0.042905424
146	0x3df917d8	0.12162751
147	0x3e1127c3	0.14175324
148	0xbc3e8a1f	-0.01162961
149	0xbc6c7c96	-0.0144340005
150	0x3d34dfdc	0.0441588
151	0x3db035fd	0.086040474
152	0x3dd4410f	0.103639714
153	0xbc02e75a	-0.007989729
154	0x3d2fe220	0.04294026
155	0x3db2bfa9	0.087279625
156	0xbc317571	-0.010831223
157	0x3c8519ea	0.016247708
158	0x3e0356a7	0.12826024
159	0x3c6fbb99	0.014632129
160	0xbdfc379e	-0.12315296
161	0x3de4d0a7	0.1117261
162	0xba46fc0a	-0.00075906573
163	0xbdcad247	-0.099033885
164	0xbd9b33fb	-0.07578274
165	0xbcdf6ed0	-0.02727452
166	0x3d895fff	0.06707763
167	0x3c68549f	0.0141803315
168	0xba1107d4	-0.00055324775
169	0x3d1d09dc	0.03833948
170	0xbc875a2b	-0.016522488
171	0x3e130402	0.14356998
172	0xbd240838	-0.0400469
173	0xbde14443	-0.10999348
174	0x3df36c03	0.11885836
175	0x3b6b3c1c	0.0035893982
176	0xbd58398a	-0.05278925
177	0x3da9c773	0.08289995
178	0x3d53735e	0.051623695
179	0xbde7f5a8	-0.11326152
180	0xbd9b6ad9	-0.07588739
181	0xbdd7f92d	-0.105455734
182	0xbab497f3	-0.0013778195
183	0x3ca849f2	0.020543072
184	0xbd9eebfe	-0.07759856
185	0xbdd7cfb0	-0.1053766
186	0xbd0a2015	-0.033722002
187	0x3e074233	0.13208847
188	0xbe010775	-0.12600501
189	0x3e104954	0.14090472
190	0x3e1566e5	0.14590032
191	0x3de6e414	0.11273971
192	0xbda6bbaa	-0.08141263
193	0x3d13995d	0.03603493
194	0x3ccb733d	0.024835223
195	0xbddd79e5	-0.10814265
196	0xbb8c1775	-0.0042752572
197	0x3d919aa5	0.07109574
198	0xbd600fc5	-0.05470254
199	0x3cb600f8	0.022217259
200	0xbd291800	-0.041282654
201	0xbd4a0f62	-0.049331076
202	0xbde0654c	-0.10956821
203	0x3cfd0c3b	0.030889621
204	0x3dbb2083	0.091370605
205	0x3dbfc7ff	0.09364318
206	0xbdeada61	-0.11467434
207	0x3dfdc46b	0.123909794
208	0x3c0f5293	0.008747715
209	0xbc4d0e87	-0.012515671
210	0xbc5cbd08	-0.013472803
211	0x3ce3d6ea	0.02781244
212	0xbd4a302e	-0.049362354
213	0x3db10fbc	0.08645579
214	0x3d1f9e6e	0.03896945
215	0xbd8a99f3	-0.06767645
216	0xbb496df4	-0.0030735703
217	0x3c6b32a2	0.0143553335
218	0x3c272afe	0.010203121
219	0x3db1e93c	0.08687064
220	0x3e1e2bb0	0.15446353
221	0x3d910414	0.07080856
222	0x3cf8a6fb	0.03035306
223	0x3d5c8065	0.053833384
224	0xbd944841	-0.07240344
225	0x3b174243	0.0023080267
226	0xbd90d0c4	-0.07071069
227	0x3db2630a	0.087102965
228	0xbdde17ee	-0.10844408
229	0x3dc22c4e	0.09481107
230	0xbdd6f6a6	-0.10496263
231	0x3c5f9e87	0.013648636
232	0x3de1dda0	0.110286
233	0xbd7c7679	-0.06163642
234	0xbd247390	-0.04014927
235	0xbd67298c	-0.056436107
236	0xbce82df3	-0.028342223
237	0x3dae84fe	0.0852146
238	0xbd7054fa	-0.05867479
239	0xbde82322	-0.11334826
240	0x3d8a53be	0.06754254
241	0x3dfcc36e	0.12341963
242	0xbd10cf13	-0.03535373
243	0x3e002340	0.12513447
244	0x3dd92593	0.1060287
245	0x3de0380b	0.10948189
246	0x3e02d682	0.1277714
247	0x3e03805b	0.12841932
248	0xbd1de97e	-0.038552754
249	0x3da54626	0.080700204
250	0x3d504672	0.050848432
251	0xbdb92e03	-0.09041979
252	0x3d3a6a1f	0.04551136
253	0xbdc9ca76	-0.098530695
254	0xbbf93856	-0.0076055927
255	0x3d47bcab	0.048763912

lstm.bias_ih_l0 f4 [200]
0	0x3ce2a6c1	0.027667405
1	0xbd7ca445	-0.061680097
2	0xbc3fbc24	-0.011702571
3	0x3db01a45	0.085987605
4	0xbd1c06cf	-0.03809243
5	0x3d94997e	0.07255839
6	0xbbc2d6b9	-0.005946007
7	0xbd99712e	-0.074922904
8	0x3d2bf450	0.04198104
9	0x3dc2964a	0.095013216
10	0x3e1614e3	0.14656405
11	0xbddc1f85	-0.107481994
12	0x3dd0e313	0.10199561
13	0x3d35d271	0.044390146
14	0x3dd1ffa4	0.10253838
15	0xbcebf724	-0.02880437
16	0x3de6a4b2	0.11261882
17	0xbdebef2e	-0.11520229
18	0x3cb86374	0.02250836
19	0xbd9e68c3	-0.077348255
20	0x3c1fd42c	0.009755176
21	0x3e209135	0.15680392
22	0x3e1a80da	0.15088215
23	0x3dbfc077	0.09362882
24	0xbe1cc92f	-0.1531112
25	0xbd7ba06a	-0.06143228
26	0xbd0ba4fa	-0.03409288
27	0xbd9dcc57	-0.0770499
28	0xbc031036	-0.00799947
29	0x3cc7c946	0.024387967
30	0x3da32413	0.07965865
31	0xbd40f36c	-0.047107145
32	0x3dff38fa	0.12462039
33	0x3b9f646a	0.004864265
34	0x3dc82fad	0.097747184
35	0xbd61b4ff	-0.055104252
36	0x3c0beee3	0.008540842
37	0xbd98758c	-0.07444295
38	0xbddffc7e	-0.10936831
39	0x3d53bbef	0.0516929
40	0x3de5eee5	0.11227206
41	0x3d9762bd	0.0739188
42	0xbc55bebc	-0.013045963
43	0xbdd09b6a	-0.10185893
44	0xbdf7f133	-0.12106552
45	0xbdc2c1c8	-0.09509617
46	0x3cdaf5b4	0.026728489
47	0x3c17c444	0.009263102
48	0xbdce73fd	-0.10080717
49	0xbd388a2b	-0.045053642
50	0xbd4168ac	-0.047218964
51	0x3dd6fb58	0.10497159
52	0x3a2655b6	0.00063451694
53	0x3de0e3ce	0.1098095
54	0x3e0a9d68	0.13536608
55	0xbd37d449	-0.044880185
56	0xbd1f8837	-0.038948264
57	0xbdc565ad	-0.09638534
58	0x3d24b457	0.040211048
59	0xbddf827d	-0.109135605
60	0xbdc1889a	-0.09449883
61	0x3dd8ee46	0.10592322
62	0x3c4ed4bb	0.012623961
63	0x3ddce518	0.10785884
64	0xbc3d6429	-0.011559525
65	0xbd92862e	-0.07154499
66	0xbc615ebd	-0.0137554975
67	0xbcdcb1c7	-0.02694024
68	0xbd16bc8f	-0.036800917
69	0x3e013eb9	0.12621583
70	0x3d9c8a85	0.07643608
71	0xbcdf5110	-0.027260333
72	0xbdf44b4f	-0.119284265
73	0xbbccc990	-0.006249614
74	0x3a28fe09	0.00064465456
75	0xbd8788fa	-0.06617923
76	0xbcf8b84a	-0.030361313
77	0x3c6e3212	0.014538305
78	0x3db4beee	0.088254794
79	0x3d9f6207	0.07782369
80	0x3d68a609	0.05679897
81	0xbc459eda	-0.012061799
82	0x3da646f1	0.08119
83	0x3df03259	0.11728353
84	0x3d94352b	0.072367035
85	0xbc3a262d	-0.011361641
86	0xbd85a816	-0.065262005
87	0xbdc107f4	-0.09425345
88	0xbd40be31	-0.04705638
89	0xbdaa144f	-0.08304655
90	0x3ca1dfde	0.019760069
91	0xbdf776fd	-0.12083242
92	0xbd99618d	-0.074893095
93	0x3bf9e097	0.00762565
94	0x3b786e8e	0.0037907693
95	0xbdada958	-0.084795654
96	0xbdd2ae22	-0.102871194
97	0x3c841369	0.016122537
98	0xbce8de95	-0.028426448
99	0x3d4e2bfb	0.05033491
100	0xbd26e4c9	-0.04074553
101	0xbdd542b4	-0.10413113
102	0x3d6af711	0.057364527
103	0x3dd3e9cb	0.10347327
104	0x3da19f64	0.078917295
105	0x3b6d8600	0.00362432
106	0xbd4d83cb	-0.050174516
107	0xbdd55912	-0.104173794
108	0x3e1cb539	0.15303506
109	0x3d519fa9	0.051177654
110	0xbda0df18	-0.07855052
111	0xbd6e085d	-0.058113445
112	0x3dd99aea	0.10625251
113	0x3b123204	0.0022307644
114	0xbd1276fd	-0.035758007
115	0x3d2dc12d	0.042420555
116	0x3d00b324	0.03142084
117	0xbd886f5f	-0.06661867
118	0x3dd5150f	0.10404407
119	0xbcf67abf	-0.030087827
120	0x3dfec03c	0.124390095
121	0xbd2d5b59	-0.042323444
122	0x3d18e50a	0.037327804
123	0xbda0a458	-0.07843846
124	0xbd2116c6	-0.03932836
125	0x3e080caf	0.13286088
126	0xbc671c60	-0.014105886
127	0x3d28928b	0.04115538
128	0x3d796718	0.060889333
129	0xbd34e7c1	-0.04416633
130	0x3d19f5ad	0.03758781
131	0x3da5022e	0.08057056
132	0x3d8bcd96	0.06826322
133	0xbdcb9c6f	-0.09941947
134	0xbde88c71	-0.11354912
135	0xbdeed3dd	-0.116615035
136	0x3a62d67b	0.0008653176
137	0x3d69db84	0.057094112
138	0x3c7a82ee	0.015290005
139	0x3dc6734d	0.09689961
140	0x3e0a9a4f	0.13535427
141	0xbd9e6875	-0.07734767
142	0x3d576c72	0.052593656
143	0x3d23dd7c	0.040006146
144	0xbc767356	-0.015042147
145	0xbd504e59	-0.05085597
146	0x3d018665	0.03162231
147	0x3d94ca52	0.07265152
148	0x3ca0612d	0.019577587
149	0xbddf19b8	-0.10893577
150	0xbde02e2a	-0.10946305
151	0xbd9603e5	-0.073249616
152	0xbdff8788	-0.124770224
153	0x3ca25bd3	0.019819176
154	0x3d5e0722	0.05420602
155	0xbdcff575	-0.10154239
156	0x3a9dc865	0.0012037872
157	0x3ce4b2b6	0.027917247
158	0xbbcc1742	-0.0062283585
159	0xbb765066	-0.0037584542
160	0x3cecbd3f	0.028898833
161	0xbd477639	-0.04869673
162	0x3dd8a19e	0.10577701
163	0x3d91ae60	0.071133375
164	0x3d9c0edb	0.07620021
165	0x3cdf5844	0.027263768
166	0x3ceec62e	0.029147234
167	0xbe032de0	-0.12810469
168	0xbcafe8f4	-0.021473385
169	0x3e0c030f	0.13673042
170	0xbd9084f1	-0.070566066
171	0xbbd2cb8e	-0.006432957
172	0xbdd1d4bc	-0.10245654
173	0x3df3f8a3	0.11912658
174	0x3cac3835	0.021022895
175	0x3dec0b06	0.1152554
176	0xbcec8887	-0.028873695
177	0xbd62bf59	-0.055358265
178	0x3cbbad92	0.022909913
179	0xbdeffc94	-0.11718097
180	0xbd08fb6b	-0.033442896
181	0xbdf7ea97	-0.12105291
182	0x3e19efbc	0.15032858
183	0x3dbc80e1	0.09204269
184	0xbd8455f2	-0.06461705
185	0x3da67719	0.08128185
186	0x3da0af76	0.078459665
187	0xbd86f91c	-0.065904826
188	0xbdd27221	-0.102756746
189	0x3cd29812	0.025707278
190	0x3d1d7c3b	0.038448554
191	0x3cb8c3ff	0.022554396
192	0x3aac9b53	0.0013168849
193	0xbca433ef	-0.020044295
194	0xbb859ea4	-0.0040777493
195	0xbd286e21	-0.041120652
196	0x3dc9964b	0.09843119
197	0x3db096de	0.08622526
198	0xbd9dc27a	-0.07703109
199	0x3d8503f2	0.06494893

lstm.bias_hh_l0 f4 [200]
0	0x3dde7429	0.108619995
1	0x3d8322eb	0.064031444
2	0xbcf938f2	-0.030422661
3	0xbde6ec0e	-0.112754926
4	0xbdef60da	-0.11688395
5	0x3dbbdbd1	0.09172786
6	0xbd913ee9	-0.07092077
7	0xbd7e2b42	-0.062052973
8	0x3dcc8930	0.09987104
9	0x3da79b34	0.081838995
10	0xbd8fd9d3	-0.070239685
11	0xbdff6c03	-0.124717735
12	0x3da78da5	0.081813134
13	0x3d8a97b2	0.06767215
14	0x3b16b852	0.0022998047
15	0xbd3eab22	-0.046549924
16	0xbdc8373e	-0.097761616
17	0xbdbdefed	-0.09274278
18	0xbdeaf1c8	-0.11471897
19	0xbc72a21a	-0.014809156
20	0xbd771879	-0.060326073
21	0x3dd49b0f	0.103811376
22	0x3d8d3d33	0.068964384
23	0xbdcbbbec	-0.09947953
24	0xbcaa64a8	-0.02079995
25	0xbcd98c77	-0.026556237
26	0x3cd104c1	0.025514962
27	0x3e062fdd	0.13104196
28	0x3d8f17ee	0.06986986
29	0xbcd81cee	-0.026380982
30	0x3d8f5ec5	0.07000498
31	0xbd7aadee	-0.06120103
32	0x3ccc23e3	0.024919456
33	0xbd490c7c	-0.04908417
34	0x3d85b449	0.06528527
35	0xbb4a0ea2	-0.0030831476
36	0xbc080f8c	-0.008304488
37	0x3ceb4b92	0.028722558
38	0xbd42b058	-0.047531456
39	0x3db0123c	0.08597228
40	0xbadd1cb9	-0.0016869522
41	0xbda5cb99	-0.08095474
42	0xbdfa13aa	-0.12210782
43	0xbcf62b88	-0.030050054
44	0x3db574e1	0.088601835
45	0xbd919138	-0.071077764
46	0xbd339dd3	-0.043851685
47	0x3c14fca4	0.009093437
48	0x3de4060d	0.111339666
49	0xbdc09f97	-0.09405439
50	0x3d73c18a	0.059510745
51	0x3d4d85e8	0.05017653
52	0xbde1ba92	-0.110219136
53	0x3d3234e4	0.04350747
54	0x3e152045	0.14563091
55	0xbcfb9aab	-0.0307134
56	0xbe072035	-0.1319588
57	0xbd08235f	-0.033236858
58	0x3dfe27fc	0.1240997
59	0x3dd479dd	0.10374806
60	0x3db73c6a	0.0894707
61	0xbde43f62	-0.11144902
62	0x3c30184b	0.010747979
63	0xbd009f8f	-0.031402167
64	0x3da7874e	0.08180104
65	0x3d9ce6cf	0.07661211
66	0x3d6c4fba	0.05769322
67	0xbdc270b6	-0.09494154
68	0xbdd8a55d	-0.105784155
69	0x3d3ae5d4	0.045629337
70	0xbdeb7c1c	-0.11498281
71	0xbb07b129	-0.002070496
72	0x3dc9cc8c	0.09853467
73	0x3dabdd67	0.083918385
74	0x3d1bf567	0.03807583
75	0x3d0e679a	0.03476677
76	0x3e0aabc5	0.13542087
77	0x3d4edd77	0.050504174
78	0xbdde4975	-0.108538546
79	0xbdfd1816	-0.1235811
80	0xbdc0accf	-0.094079606
81	0xbde89c25	-0.11357907
82	0x3de0c44d	0.109749414
83	0x3da8132f	0.08206784
84	0xbd3277d5	-0.043571312
85	0xbe1ee390	-0.15516496
86	0x3b96a5fe	0.0045974245
87	0x3d86cdab	0.06582197
88	0xbd533851	-0.05156738
89	0x3b0337c9	0.0020022264
90	0xbd9a5ec8	-0.07537609
91	0x3e07dec4	0.13268572
92	0x3df3ed48	0.11910492
93	0xbcb221ba	-0.021744598
94	0xbd7b6f7f	-0.061385628
95	0x3df36e56	0.11886279
96	0x3dd48e64	0.10378721
97	0xbd84d511	-0.06485952
98	0x3dcfd4f0	0.101480365
99	0xbdef0c23	-0.11672237
100	0x3dacaddb	0.08431598
101	0x3dfb7365	0.12277869
102	0xbdbd9b88	-0.09258181
103	0x3da1f957	0.07908886
104	0x3d600209	0.05468944
105	0x3d67561e	0.056478612
106	0x3e0e6e7e	0.13909337
107	0x3cfb04e5	0.030641982
108	0xba281648	-0.00064120116
109	0x3bf358ad	0.0074263425
110	0x3de17222	0.11008097
111	0x3de84efa	0.113431886
112	0xbdb75697	-0.089520626
113	0xbc733fa1	-0.014846713
114	0x3e012c2a	0.12614504
115	0xbc1c4baa	-0.009539524
116	0x3d57f374	0.05272241
117	0x3d62d8c1	0.055382494
118	0x3d5c98e5	0.05385675
119	0xbd9325aa	-0.07184918
120	0x3dc48a3c	0.095966786
121	0x3e1a4f15	0.1506923
122	0x3e091558	0.13387048
123	0xbe0dd20b	-0.13849656
124	0x3d245cf1	0.0401277
125	0xbdad78bc	-0.08470294
126	0xbe1fdc38	-0.1561135
127	0xbc5c17ea	-0.013433436
128	0xbdf59833	-0.1199192
129	0x3c1cea73	0.009577381
130	0x3d9f3ff2	0.077758685
131	0x3e07c08e	0.13257048
132	0x3dca3839	0.09874005
133	0x3d982937	0.07429736
134	0x3e029364	0.12751538
135	0xbde7da33	-0.11320915
136	0xbdb43a5f	-0.08800196
137	0x3e129455	0.14314397
138	0x3de252a5	0.110509194
139	0xbdc06b1e	-0.09395431
140	0x3d828d42	0.06374599
141	0x3de2793d	0.110582806
142	0xbda919ae	-0.08256851
143	0xbda4b313	-0.08041968
144	0xbdf76382	-0.120795265
145	0xbd739b5b	-0.05947433
146	0x3c5fc201	0.013657094
147	0x3d224316	0.03961476
148	0xbcb83a2a	-0.022488672
149	0x3e049ae4	0.12949711
150	0xbca21976	-0.019787531
151	0xbca0ee25	-0.019644806
152	0x3e094f05	0.1340905
153	0xb99d654c	-0.00030020846
154	0x3d260289	0.04052976
155	0x3daf1f4f	0.085508935
156	0xbd3af2ff	-0.045641895
157	0x3cf0ff87	0.02941872
158	0x3da2b827	0.079452805
159	0xbd61177a	-0.05495403
160	0x3de17c28	0.11010009
161	0x3db5a7b6	0.08869879
162	0x3d5e84dc	0.054325923
163	0x3e1d17cd	0.1534111
164	0x3db1ec9f	0.0868771
165	0xbd98e291	-0.07465089
166	0xbd6a4d2c	-0.057202503
167	0xbd9e8354	-0.077398926
168	0x3d656f77	0.056014504
169	0xbcfdf435	-0.031000236
170	0x3e0e0ff0	0.13873267
171	0xbd81bf68	-0.06335336
172	0x3ddbb96d	0.107287265
173	0x3dd6165d	0.10453484
174	0xbda435f7	-0.080181055
175	0xbceeccb5	-0.029150346
176	0x3d83ea6e	0.06441198
177	0xbdb89b74	-0.09014025
178	0xbd6c1140	-0.05763364
179	0x3dc4d76d	0.09611402
180	0xbe1581ad	-0.14600249
181	0x3ddd1ac3	0.1079612
182	0xbdbf11de	-0.0932958
183	0xbd388b6a	-0.04505483
184	0x3c65f0ef	0.014034494
185	0x3d341758	0.043967575
186	0xbdb7534a	-0.08951433
187	0xbb01557e	-0.0019734795
188	0x3bf4a233	0.0074656247
189	0x3d373510	0.04472834
190	0x3d416129	0.0472118
191	0xbd787c48	-0.0606654
192	0x3d888951	0.06666816
193	0xbd7b5360	-0.06135881
194	0xbda00a36	-0.078144476
195	0xbd86cf8a	-0.06582554
196	0x3da15f71	0.07879532
197	0x3d4d49b0	0.050119102
198	0xbdbc8e1d	-0.092067935
199	0x3e124503	0.14284138

lstm.weight_ih_l1 f4 [200, 50]
0	0x3da4f88e	0.080552205
1	0xbdfaeabb	-0.122518025
2	0xbd134822	-0.035957463
3	0x3d9a4d26	0.07534246
4	0x3de1f937	0.11033862
5	0x3da6f1c0	0.08151579
6	0x3d0a2f5b	0.033736568
7	0x3dd67c22	0.10472895
8	0x3dd77a52	0.105213776
9	0x3dadbdf1	0.08483494
10	0xbdd36fb9	-0.10324044
11	0x3dff18cf	0.12455904
12	0x3e055386	0.13020143
13	0x3d060f54	0.03272946
14	0xbda0c0a3	-0.078492425
15	0xbd85d969	-0.06535608
16	0x3c99180d	0.018688226
17	0x3d3abf2e	0.04559248
18	0x3d08976b	0.03334753
19	0xbb480f2b	-0.003052662
20	0x3ddb87d9	0.1071927
21	0xbdfa3c84	-0.12218574
22	0x3d56479f	0.052314397
23	0x3e004bb4	0.12528878
24	0xbe195fa8	-0.14977896
25	0x3e1159f6	0.14194474
26	0xbda117d5	-0.07865874
27	0x3da0f853	0.07859864
28	0x3d211460	0.03932607
29	0x3d22e89e	0.039772622
30	0x3d83323c	0.06406066
31	0xbc5fa3de	-0.013649909
32	0x3d848295	0.06470219
33	0xbbd0284e	-0.006352461
34	0x3d3c83bc	0.04602407
35	0x3c77b14b	0.0151179535
36	0x3d302f0f	0.04301363
37	0xbdebe6b3	-0.11518612
38	0xbdc8a615	-0.09797303
39	0x3cfb9f2c	0.030715548
40	0x3e0c0b4c	0.13676184
41	0xbcbf11a8	-0.023323849
42	0xbdd1f525	-0.10251836
43	0xbda56914	-0.08076683
44	0x3df03345	0.11728529
45	0xbca98535	-0.0206934
46	0x3dc759d9	0.09733934
47	0xbdd9b6ab	-0.10630544
48	0x3d59158c	0.052999064
49	0x3dd12977	0.10212987
50	0x3dbb765d	0.091534354
51	0xbe101edf	-0.14074276
52	0xbdf2c159	-0.118532844
53	0x3c2b41e9	0.010452726
54	0x3df98455	0.121834435
55	0xbd9d34ba	-0.076760724
56	0x3d2430c2	0.04008556
57	0x3c49272b	0.012277405
58	0xbda1d15d	-0.07901261
59	0x3db0fb54	0.08641687
60	0xbd9d1fc1	-0.07672072
61	0x3d2187b5	0.03943606
62	0x3d07490a	0.03302864
63	0x3e140bcd	0.14457627
64	0x3d768241	0.060182814
65	0xbdc88b1c	-0.09792158
66	0x3dd55494	0.104165226
67	0xbdb96dcc	-0.09054145
68	0xbda63308	-0.08115202
69	0x3d301b72	0.042994924
70	0xbd8a13e1	-0.06742073
71	0xbd5a6321	-0.053317193
72	0xbd4ad4b0	-0.04951924
73	0x3d9d97d7	0.07694977
74	0x3daa054d	0.08301792
75	0x3df3e342	0.1190858
76	0x3c9fd604	0.01951123
77	0x3de017b8	0.10942024
78	0xbc5f31b7	-0.013622693
79	0x3d0407f7	0.03223416
80	0xbe04a782	-0.12954524
81	0xbd8d23b1	-0.06891573
82	0x3ce3daee	0.027814355
83	0xbddc5f65	-0.107603826
84	0x3d9cf696	0.0766422
85	0xbda47fb2	-0.080321684
86	0xbdde9b1a	-0.10869427
87	0xbdc8e980	-0.098101616
88	0x3d4fe10d	0.050751735
89	0xbd875218	-0.06607455
90	0xbd2ac2fd	-0.04168986
91	0xbd5f396d	-0.054498125
92	0x3c9c7a52	0.019101296
93	0x3d914b89	0.07094485
94	0x3dba9ff7	0.09112542
95	0x3df253b8	0.11832374
96	0x3d9b2264	0.07574919
97	0xbdab67ca	-0.083694056
98	0xbdd3cef2	-0.10342206
99	0x3dbbb32e	0.09165035
100	0xbde58747	-0.11207443
101	0x3c0e53ab	0.00868694
102	0xbdb2de9b	-0.08733865
103	0x3dd51462	0.10404278
104	0xbdcce85e	-0.10005258
105	0xbde9efa7	-0.11422663
106	0xbda376a3	-0.079816125
107	0x3cbac048	0.022796765
108	0xbdf62978	-0.12019628
109	0xbbbf20ee	-0.005832783
110	0x3d380285	0.044924278
111	0x3e0e25ab	0.13881557
112	0xbcd0c1e5	-0.025483081
113	0xbded969f	-0.11600994
114	0x3ceea9d9	0.029133724
115	0x3dab1a34	0.08354607
116	0xbcd09dd8	-0.02546589
117	0xbcef19fe	-0.029187199
118	0x3da731c6	0.081637904
119	0xbdd5728f	-0.10422241
120	0x3d9ba1a8	0.07599193
121	0xbdbf965a	-0.09354849
122	0xbc745c30	-0.014914557
123	0x3d089946	0.033349298
124	0xbc682c08	-0.014170654
125	0x3ded17c8	0.115768015
126	0x3dd4499e	0.10365604
127	0xbd858797	-0.06520002
128	0x3d5ca2f6	0.05386635
129	0x3c8d93a2	0.01728231
130	0x3dfc6992	0.123248234
131	0x3db0a88a	0.08625896
132	0xbde12185	-0.109927215
133	0xbdc52ae0	-0.096273184
134	0xbdce7ce3	-0.10082414
135	0x3dfddc7c	0.1239557
136	0xbe06094c	-0.13089484
137	0x3c8cf242	0.017205361
138	0x3c255e8e	0.010093344
139	0xbd8f5e8c	-0.07000455
140	0xbdb0fd5c	-0.086420745
141	0xbc7b1d4c	-0.015326809
142	0xbda6a019	-0.08136005
143	0xbddd9aff	-0.10820579
144	0x3dde76ba	0.10862489
145	0x3d795a0c	0.06087689
146	0xbdb4e61b	-0.08832952
147	0xbca5eae9	-0.020253615
148	0x3b76bb1b	0.0037648145
149	0xbd8f72ef	-0.07004344
150	0x3db3b942	0.087755695
151	0x3d423410	0.047412932
152	0x3d01cceb	0.031689566
153	0x3d2ce7c6	0.042213224
154	0x3d23612b	0.03988759
155	0xbbdf1d09	-0.006808881
156	0x3dfb4b69	0.12270243
157	0xbdd0998e	-0.10185538
158	0xbc92fc33	-0.017942524
159	0xbdcab206	-0.098972365
160	0x3d9fabb1	0.077964194
161	0x3d071254	0.032976463
162	0xbd2e0316	-0.04248341
163	0x3dd116fb	0.10209461
164	0xbdc7d4c6	-0.0975738
165	0x3e02a3e5	0.12757833
166	0x3c820e42	0.01587594
167	0x3d3ce7c5	0.04611947
168	0xbd417bb9	-0.04723713
169	0xbdf15f14	-0.11785713
170	0x3ceed38d	0.02915361
171	0x3dec6b9c	0.11543962
172	0x3de7e1a2	0.11322333
173	0xbdc0aa92	-0.09407534
174	0xbd3519fe	-0.04421424
175	0xbda52f1c	-0.08065626
176	0x3d8d848c	0.06910047
177	0xbded5b1c	-0.11589643
178	0xbda6ae96	-0.081387684
179	0x3dbbbd3d	0.09166954
180	0x3d3838bd	0.044975985
181	0xbc64fb4a	-0.013975928
182	0x3cbaa142	0.022781972
183	0x3d897ad9	0.067128845
184	0x3cb8d017	0.022560162
185	0x3dbf4be8	0.0934065
186	0xbd27ed73	-0.040997934
187	0xbcee9dcc	-0.029127978
188	0x3dc4a9ac	0.09602675
189	0xbd03126f	-0.032
190	0x3cace61c	0.021105818
191	0xbe010a09	-0.12601484
192	0x3e01bb24	0.12669045
193	0xbdf94c47	-0.12172752
194	0xbdaacf64	-0.08340338
195	0xbdc52f37	-0.09628146
196	0xbc833781	-0.016017677
197	0x3daffa03	0.08592608
198	0x3cb5883e	0.022159692
199	0x3dc9ddf9	0.09856791
200	0x3b3f34b6	0.0029175705
201	0xbcd440ac	-0.025909744
202	0xbe1cd7c3	-0.15316682
203	0x3e169ec5	0.14709003
204	0xbddcb7bc	-0.10777232
205	0x3d127120	0.035752416
206	0x3deb894a	0.11500795
207	0xbcf21037	-0.029548747
208	0x3ddd74d8	0.10813302
209	0x3dfbaef7	0.12289231
210	0x3b698ca4	0.0035636807
211	0xbdce3153	-0.100680016
212	0xbdc3cbe5	-0.09560374
213	0x3dbabe3e	0.09118317
214	0x3c17790c	0.009245168
215	0x3db9733a	0.09055181
216	0xbcfe9102	-0.031075004
217	0xbd1a038b	-0.037601035
218	0x3ce1518d	0.027504707
219	0x3d96ad32	0.07357253
220	0xbc97bcc0	-0.01852262
221	0x3d598ea0	0.053114533
222	0x3d7222c0	0.05911517
223	0xbe124f29	-0.1428801
224	0x3c53ad54	0.012919743
225	0x3c7c45c0	0.015397489
226	0xbdf721ba	-0.1206698
227	0x3d9c5045	0.07632498
228	0x3dbc07bf	0.09181165
229	0x3dda57ad	0.10661254
230	0x3e0c8dc7	0.13725959
231	0xbccd3b09	-0.025052564
232	0xbddeebd1	-0.10884822
233	0x3d73fc9d	0.059567083
234	0xbd70d7f4	-0.0587997
235	0x3dc4033d	0.0957093
236	0x3df28de0	0.11843467
237	0xbd9fe775	-0.07807819
238	0x3c4672b4	0.012112308
239	0xbd6c99b0	-0.057763755
240	0xbcdb2cd2	-0.02675477
241	0xbd61fc19	-0.05517206
242	0x3cbd33ae	0.023095932
243	0xbcd053cd	-0.025430584
244	0xbdea2ddc	-0.11434528
245	0xbdf2adb3	-0.11849537
246	0x3ddda002	0.10821535
247	0xbd983f52	-0.074339524
248	0x3d8884f3	0.06665983
249	0xbd7286e1	-0.05921066
250	0x3dfab1c4	0.12240937
251	0xbe13ea6d	-0.14444895
252	0xbdc52a9a	-0.09627266
253	0x3d53d636	0.05171796
254	0xbdf5d5ea	-0.120036915
255	0xbd67e760	-0.05661714

lstm.weight_hh_l1 f4 [200, 50]
0	0x3c723db2	0.014785217
1	0xbc08c2f9	-0.008347266
2	0xbc4345bb	-0.0119184805
3	0xbde316df	-0.11088347
4	0x3de9ff14	0.114256054
5	0x3d65938c	0.056048915
6	0x3d932bea	0.0718611
7	0x3ba63fb6	0.005073513
8	0xbbceb3d8	-0.00630806
9	0x3d5b76d0	0.053580105
10	0xbd8247e9	-0.06361372
11	0xbcf61757	-0.030040426
12	0x3cd3cae6	0.025853585
13	0xbdb521f9	-0.088443704
14	0x3c0eb842	0.008710923
15	0x3c407b77	0.011748186
16	0xbc0484ac	-0.008088272
17	0x3a07852e	0.00051696866
18	0x3dfbcea9	0.12295277
19	0x3de8e670	0.113720775
20	0x3dde8a3f	0.10866212
21	0xbd4fa0d4	-0.050690487
22	0xbc70417e	-0.014664052
23	0x3d11b053	0.035568547
24	0x3d4634c9	0.048390184
25	0x3d2a1a2e	0.041528873
26	0x3df566c7	0.11982494
27	0x3cee5136	0.029091459
28	0x3de597ca	0.11210592
29	0xbe0d9af1	-0.13828637
30	0xbd9a7dd4	-0.07543531
31	0xbe1aebf9	-0.15129079
32	0xbde39588	-0.11112505
33	0xbbded23d	-0.0067999647
34	0xbd58f42d	-0.05296724
35	0x3cd964ce	0.026537325
36	0xbd84bda5	-0.06481484
37	0x3daec7ee	0.08534227
38	0xbd042e55	-0.03227075
39	0xbda11070	-0.07864463
40	0xbd8f5bc4	-0.06999925
41	0xbdac3ad1	-0.08409656
42	0x3d769ac5	0.060206193
43	0x3e0a459f	0.13503121
44	0x3d6b3931	0.05742759
45	0xbdce8955	-0.10084788
46	0x3cf3be21	0.029753746
47	0x3c245fe2	0.010032626
48	0x3dff5cdc	0.124688834
49	0xbde9a02e	-0.11407505
50	0x3d4871a8	0.048936516
51	0x3c25a03f	0.010109006
52	0x3da80cef	0.08205592
53	0x3e03998d	0.12851544
54	0xbd3a66ea	-0.045508303
55	0xbdf8c396	-0.1214668
56	0x3d1eb5ad	0.03874748
57	0x3d95a8a3	0.073075555
58	0x3e1143a1	0.14185955
59	0x3bec51a5	0.007211881
60	0x3d7351a7	0.05940404
61	0x3e04e6ae	0.12978622
62	0xbcd85818	-0.026409194
63	0x3dea1b55	0.114309944
64	0xbdcb0d51	-0.09914649
65	0x3da49c6f	0.0803765
66	0xbdc5b8a1	-0.09654356
67	0xbd933be7	-0.0718916
68	0xbdcb7397	-0.099341564
69	0xbda6f7b2	-0.08152713
70	0x3df2685f	0.118363135
71	0xbd8fe21e	-0.0702555
72	0xbdd79341	-0.10526133
73	0x3d110dc4	0.03541352
74	0xbd00b16c	-0.031419203
75	0x3dbbd0d1	0.09170688
76	0x3c4c7e28	0.01248125
77	0xbdc3db70	-0.09563339
78	0x3df1cf07	0.118070655
79	0x3dfe5cec	0.12420067
80	0x3d397fc4	0.045287862
81	0x3dca7503	0.098855995
82	0x3b79f0a8	0.0038137827
83	0xbd147d8b	-0.03625254
84	0x3d65d8c6	0.056114934
85	0xbe094cc3	-0.13408189
86	0xbc8c0b14	-0.017095126
87	0xbd4ec3b2	-0.0504796
88	0x3bbab91a	0.0056983354
89	0x3dfd7673	0.12376108
90	0xbde6114a	-0.112337664
91	0x3db10685	0.086438216
92	0xbd742baa	-0.059611954
93	0xbd12e3f5	-0.035861928
94	0x3db2094d	0.0869318
95	0x3e0848f5	0.13309081
96	0x3dec397f	0.11534404
97	0xbd7597ca	-0.05995921
98	0x3d6ecc30	0.058300197
99	0xbdad8939	-0.08473439
100	0xbe062806	-0.13101205
101	0x3d97e2de	0.07416318
102	0x3cf034cb	0.029322049
103	0x3d5a5e34	0.053312495
104	0xbde5db72	-0.112234965
105	0xbc87f059	-0.016594099
106	0x3da3f8b1	0.080064185
107	0x3d72570b	0.059165042
108	0xbd067aeb	-0.032832067
109	0x3d2fbdeb	0.04290573
110	0x3d52fe78	0.05151221
111	0xbd8c0c0d	-0.06838236
112	0xbdd46957	-0.103716545
113	0xbd9e75e7	-0.07737332
114	0xbc648268	-0.013947107
115	0x3c9d7a34	0.01922331
116	0xbd805278	-0.0626573
117	0x3d337a5e	0.04381787
118	0x3e0710b8	0.13189971
119	0x3d2d08a2	0.04224456
120	0xbd559f33	-0.052153777
121	0xbe09816b	-0.13428275
122	0x3d0115ff	0.031515118
123	0xbe0ca770	-0.13735747
124	0xbcb86643	-0.0225097
125	0xbd2add50	-0.041714966
126	0xbc4ac388	-0.01237572
127	0xbd77aa76	-0.0604653
128	0x3bd8b3f5	0.0066132494
129	0xbd8a0f25	-0.0674117
130	0x3d896a1d	0.067096926
131	0xbcbb3ca1	-0.022856059
132	0x3d386158	0.04501471
133	0x3c1b43e0	0.009476632
134	0xbd916372	-0.07099046
135	0x3d87a3d1	0.066230424
136	0x3e0562a3	0.13025908
137	0xbdc273f9	-0.09494776
138	0x3d39bdd2	0.045347042
139	0x3ded192b	0.11577066
140	0x3e07a45c	0.13246292
141	0xbd72b03b	-0.059250098
142	0xbceef9e6	-0.029171895
143	0x3cebd925	0.028790066
144	0xbddf6919	-0.10908718
145	0xbddad173	-0.106844805
146	0xbda2864f	-0.079357736
147	0xbdb438fb	-0.08799931
148	0x3d7acd45	0.061230917
149	0xbc97cb92	-0.018529687
150	0x3c9ed4a5	0.019388506
151	0x3b8ed6bc	0.0043590944
152	0xbe049212	-0.12946346
153	0xbde7c726	-0.113172814
154	0x3df68e2d	0.12038837
155	0x3dee2872	0.11628808
156	0x3d362186	0.044465564
157	0xbd3a3714	-0.045462683
158	0x3e05d260	0.13068533
159	0x3de7261a	0.11286564
160	0xbddb746b	-0.10715564
161	0x3d87becd	0.06628189
162	0x3df53805	0.119735755
163	0x3dc37354	0.095434815
164	0xbdc8bc03	-0.098014854
165	0x3d0f0c60	0.03492391
166	0xbdf40499	-0.119149394
167	0xbd2c7c4d	-0.04211073
168	0x3d7e55e8	0.062093645
169	0x3d573ce5	0.052548308
170	0xbdc9405b	-0.09826728
171	0xbd863e75	-0.065548815
172	0x3d997211	0.074924596
173	0x3c34ba9f	0.011030822
174	0xbdbbfa18	-0.09178561
175	0xbe0d607b	-0.13806336
176	0x3cc097c7	0.023509873
177	0x3dc5238b	0.0962592
178	0x3dcc6b4e	0.09981404
179	0x3cc6b591	0.0242565
180	0xbd537ddf	-0.051633712
181	0xbcfa3b8f	-0.030545978
182	0x3d26e10d	0.04074197
183	0x3dc23fb4	0.09484807
184	0xbdf9bc6f	-0.12194144
185	0xbdde4acc	-0.1085411
186	0xbd955feb	-0.072936855
187	0x3dee6989	0.11641223
188	0xbe1509ce	-0.14554521
189	0xbddf0055	-0.10888735
190	0xbd141f24	-0.03616251
191	0xbdb97fc2	-0.09057571
192	0x3d07f22f	0.03318995
193	0xbd79d9b4	-0.060998634
194	0x3dc97d3c	0.0983834
195	0x3df058b0	0.11735666
196	0x3df7c81b	0.12098714
197	0x3dfbf96a	0.12303431
198	0x3d975cd0	0.073907495
199	0x3d55a4be	0.052159064
200	0x3d7ea278	0.06216666
201	0xbd939edc	-0.072080344
202	0x3de7ef10	0.113248944
203	0xbd8b4220	-0.06799722
204	0x3d3024e7	0.043003943
205	0xbddc0b6b	-0.10744365
206	0xbdee69e8	-0.11641294
207	0xbc11c0b3	-0.008896041
208	0xbdb02163	-0.08600118
209	0xbc68b4a5	-0.014203225
210	0xbd2ae9a2	-0.041726716
211	0xbcd88708	-0.026431575
212	0xbe0dd1d3	-0.13849573
213	0xbe0a516f	-0.13507627
214	0xbdd2801c	-0.10278341
215	0x3c80a59a	0.015703965
216	0x3d957b23	0.07298877
217	0x3e10db3a	0.14146128
218	0x3dc02a63	0.093830846
219	0x3ccdf1fd	0.025139803
220	0x3dc532e3	0.096288465
221	0x3df2eac9	0.11861188
222	0xbdebabfa	-0.11507411
223	0x3e083c25	0.13304193
224	0xbe19ca86	-0.15018663
225	0x3c24086f	0.010011776
226	0x3ddf19ba	0.10893579
227	0x3d835264	0.06412199
228	0xbe1e3ea4	-0.15453583
229	0xbc84e035	-0.016220191
230	0xbdd0a75a	-0.1018817
231	0x3cdfbb2f	0.027310936
232	0xbd5b23c9	-0.053500924
233	0x3d9895c5	0.07450441
234	0xbd2edf47	-0.042693403
235	0x3d412963	0.04715861
236	0x3d9e87ca	0.077407435
237	0x3a549848	0.000810985
238	0xbd4c539c	-0.049884424
239	0x3dfbc246	0.12292914
240	0x3ceeaa59	0.029133962
241	0x3e0ae5fc	0.13564295
242	0x3d9b952c	0.07596812
243	0x3dc30837	0.09523051
244	0xbd55838a	-0.0521274
245	0xbdeb4ea6	-0.114896104
246	0x3c776d40	0.015101731
247	0xbd007f7b	-0.031371575
248	0x3d997b3d	0.07494209
249	0xbdf54a13	-0.11977019
250	0x3d361822	0.04445661
251	0xbe005a11	-0.12534358
252	0x3dae3ef9	0.08508105
253	0xbdca0be7	-0.098655514
254	0x3dbd36fc	0.09239003
255	0xbdf688c4	-0.12037805

lstm.bias_ih_l1 f4 [200]
0	0x3c82627f	0.015916107
1	0x3bca922b	0.0061819754
2	0x3d161c6c	0.0366482
3	0xbd229c00	-0.039699554
4	0xbd0b8750	-0.03406459
5	0x3af57875	0.0018727916
6	0xbc6a5eb9	-0.01430481
7	0x3e1cd631	0.15316083
8	0x3dc2d948	0.09514099
9	0x3d9c3f30	0.076292396
10	0xbdd55157	-0.10415905
11	0x3d6fb356	0.058520637
12	0x3db45057	0.08804386
13	0xbd0df1cb	-0.03465442
14	0x3df21ec7	0.118222766
15	0x3c98fa38	0.018674001
16	0xbcac1635	-0.021006683
17	0xbc32dc4d	-0.010916782
18	0xbde6f56f	-0.112772815
19	0xbd504426	-0.05084624
20	0xbb6c773e	-0.0036081816
21	0xbb116bb3	-0.0022189438
22	0x3c89152b	0.016733726
23	0x3da440a2	0.0802014
24	0x3da3dec6	0.08001475
25	0xba660046	-0.00087738445
26	0x3d138bc2	0.036021955
27	0xbcca13b9	-0.024667608
28	0xbd83529a	-0.064122394
29	0x3e04363e	0.12911317
30	0x3d7654b0	0.060139358
31	0xbda6ec24	-0.08150509
32	0x381e98a0	3.781228e-05
33	0xbdec1076	-0.11526577
34	0x3db31e7b	0.08746048
35	0xbdbc8e29	-0.092068024
36	0x3d0b8dc8	0.03407076
37	0xbddbb895	-0.107285656
38	0xbdecdd9a	-0.11565705
39	0x3d431d03	0.04763509
40	0x3c830a8e	0.015996244
41	0x3d095491	0.033527914
42	0xbd4f82c9	-0.050661836
43	0xbcc5f963	-0.024166768
44	0x3dc7f3cc	0.097632974
45	0xbdc93a1d	-0.09825537
46	0x3dc2dda8	0.09514934
47	0xbd87a130	-0.06622541
48	0xbdee2b59	-0.11629362
49	0xbd34eddb	-0.04417215
50	0x3e17257b	0.14760391
51	0xbdb02286	-0.08600335
52	0x3c696aa9	0.014246621
53	0x3cd3c206	0.025849354
54	0xbdf81554	-0.12113443
55	0x3dda73ea	0.1066664
56	0x3de6879c	0.11256334
57	0x3e00399f	0.1252198
58	0x3c8de62d	0.01732167
59	0x3d139332	0.03602905
60	0xbccdc5cd	-0.025118733
61	0x3d3a56f7	0.045493092
62	0x3d37733d	0.044787634
63	0x3cf8662c	0.030322157
64	0xbdf724a4	-0.120675355
65	0x3dbd9e46	0.09258704
66	0x3c915054	0.017738499
67	0x3d0a8322	0.033816464
68	0xbc9317bb	-0.017955652
69	0x3d3b5acd	0.04574089
70	0xbc438670	-0.011933908
71	0xbdd9f7fb	-0.10643002
72	0x3dda87f5	0.10670463
73	0xbd3a049c	-0.045414552
74	0x3dadecd2	0.084924355
75	0x3d882713	0.06648078
76	0x3e113c58	0.14183176
77	0x3dab3e69	0.08361513
78	0x3c2cda27	0.010550058
79	0xbc8eb04b	-0.017418047
80	0x3d1e6acb	0.038676064
81	0x3d853f05	0.06506161
82	0xbd208104	-0.03918554
83	0x3d9e31c8	0.07724339
84	0x3e181a9d	0.14853902
85	0xbd2e7314	-0.042590216
86	0xbde6e873	-0.11274805
87	0x3dfb757b	0.12278267
88	0xbdb20a7b	-0.08693405
89	0x3e2007e2	0.15628007
90	0xbc4ea097	-0.01261153
91	0x3e07cd9f	0.13262032
92	0xbda83ceb	-0.08214744
93	0xbd4dff20	-0.050292134
94	0xbdd7d6d2	-0.105390206
95	0x3dd52647	0.104076914
96	0x3de0b686	0.109723136
97	0x3d1c5076	0.03816267
98	0xbdb16c06	-0.08663182
99	0x3dd4b7e7	0.10386639
100	0xbbb7ec35	-0.005612875
101	0x3cefd650	0.029276997
102	0xbe0b8421	-0.13624622
103	0x3da76252	0.0817305
104	0x3c819b25	0.015821049
105	0x3dc7ba56	0.09752338
106	0xbdc372d6	-0.095433876
107	0x3d713532	0.05888862
108	0x3e00437a	0.1252574
109	0x3c77a1ab	0.015114228
110	0x3d8e55b9	0.06949944
111	0xbddde0e9	-0.10833914
112	0xbd24a1d2	-0.040193386
113	0x3db4d5b6	0.088298246
114	0x3d34d14c	0.044144914
115	0xbd4bb5f3	-0.049734067
116	0x3e18ba99	0.14914931
117	0x3d87fd61	0.06640125
118	0x3e01edd1	0.12688376
119	0xbd68c340	-0.05682683
120	0xbc4eda17	-0.012625239
121	0x3d1b117f	0.037858482
122	0x3dff6663	0.124707006
123	0x3b8e9dcd	0.0043523074
124	0xbe0c313b	-0.13690655
125	0xbd8cf7fb	-0.06883236
126	0xbd98fff7	-0.074706964
127	0x3de90d9a	0.113795474
128	0x3d7cf72d	0.061759163
129	0xbe1d301d	-0.15350385
130	0xbafe737c	-0.0019413079
131	0x3c0fc962	0.008776041
132	0xbdc3be8c	-0.09557828
133	0x3db5fbb6	0.08885901
134	0xbddea8f3	-0.10872068
135	0xbe186022	-0.14880422
136	0x3d91b673	0.071148776
137	0x3dcced65	0.10006217
138	0x3cd03a4c	0.025418423
139	0xbe053d2e	-0.1301162
140	0x3dd9c2b8	0.10632843
141	0x3cd49b19	0.025952863
142	0x3d24a7b3	0.040198993
143	0xbcfc0b1c	-0.030767016
144	0x3d18e1b5	0.037324626
145	0xbdfe931c	-0.12430403
146	0x3db45e35	0.08807031
147	0x3d77d3ec	0.06050484
148	0xbdf7f443	-0.12107136
149	0xbe0818ab	-0.1329066
150	0xbd1562d3	-0.0364712
151	0x3d25464b	0.04035024
152	0x3d9ba6b4	0.076001555
153	0x3d8d2e77	0.06893628
154	0x3d001fc1	0.031280283
155	0x3c9394b8	0.01801525
156	0x3c71d9ec	0.014761429
157	0xbda0a907	-0.078447394
158	0x3dcc5491	0.09977067
159	0xbc5a5fca	-0.013328502
160	0xbc0702ce	-0.008240415
161	0xbe1548ca	-0.14578548
162	0xbc8dcfe1	-0.017311038
163	0xbd7ec713	-0.06220157
164	0xbcfda405	-0.030962
165	0xbdffc9a9	-0.124896355
166	0xbc75b999	-0.014997863
167	0xbdc7d116	-0.09756677
168	0x3e0173ba	0.12641802
169	0xbc6446bf	-0.013932883
170	0xbd0eb199	-0.03483734
171	0x3e010bf2	0.12602213
172	0xbd21533a	-0.03938601
173	0xbd8bdfd0	-0.06829798
174	0xbd54441a	-0.05182276
175	0x3e1cae3d	0.15300842
176	0x3a55f2c0	0.0008161478
177	0xbd36392f	-0.04448813
178	0x3b5a14d0	0.0033276565
179	0x3e0819c2	0.13291076
180	0x3dede2a1	0.11615492
181	0xbcf95e2c	-0.030440412
182	0x3df94c57	0.12172764
183	0x3d4d2acb	0.05008964
184	0x3e00bcd3	0.1257203
185	0x3d6f358d	0.05840068
186	0xbe16eb4f	-0.147382
187	0xbd0398ea	-0.032128252
188	0x3d858f6c	0.06521496
189	0xbdb06172	-0.08612336
190	0x3b9c312e	0.004766605
191	0x3d69a921	0.05704606
192	0xbd746d2b	-0.059674423
193	0xbd88a978	-0.066729486
194	0xbdc374d9	-0.09543771
195	0x3c111cef	0.008856996
196	0x3dad29e0	0.08455253
197	0xbde67d31	-0.11254347
198	0x3dde32bf	0.10849523
199	0x3c8beae3	0.017079776

lstm.bias_hh_l1 f4 [200]
0	0xbd31eb71	-0.043437425
1	0xbe06f7d7	-0.13180481
2	0x3dd19b26	0.1023467
3	0xbdaec555	-0.08533732
4	0x3dae2d26	0.08504705
5	0x3cba8cf7	0.022772295
6	0x3d7dccaa	0.06196276
7	0xbdb66415	-0.08905808
8	0xbcbd4872	-0.023105834
9	0xbda18362	-0.078863874
10	0xbd2e9c65	-0.04262962
11	0x3dff53da	0.12467165
12	0x3df65711	0.12028325
13	0x3d36fbb5	0.04467364
14	0xbded949b	-0.1160061
15	0xbda71322	-0.08157946
16	0x3de11a18	0.10991305
17	0x3ac18c12	0.0014766476
18	0xbd31f68f	-0.043448027
19	0xbd75bda6	-0.059995316
20	0xbc85cb2f	-0.016332237
21	0x3d5f9520	0.054585576
22	0xbd39c1fb	-0.04535101
23	0xbde69430	-0.11258733
24	0x3deb77c6	0.11497454
25	0x3db92bc3	0.0904155
26	0x3d89a2b9	0.0672049
27	0x3c149e92	0.009071009
28	0xbdc666c0	-0.09687567
29	0x3de66c21	0.11251093
30	0x3df2bf8e	0.118529424
31	0x3be3371a	0.006934059
32	0x3c2a2bca	0.010386417
33	0x3d4164c2	0.04721523
34	0x3d85c4e2	0.06531693
35	0x3e10a931	0.14127041
36	0x3d7ff1ed	0.062486578
37	0x3cb645de	0.022250112
38	0xbca0e0d8	-0.019638464
39	0x3df4a502	0.11945535
40	0x3dea73ac	0.11447844
41	0xbd5916fd	-0.05300044
42	0x3d312e62	0.043257125
43	0xbd92d293	-0.0716907
44	0xbd200802	-0.039070137
45	0x3e151a85	0.14560898
46	0xbdc5cdaa	-0.09658368
47	0x3dbd6446	0.09247641
48	0xbb8b278f	-0.004246659
49	0x3d6378d5	0.055535156
50	0xbd41baea	-0.047297396
51	0x3da08fd2	0.078399315
52	0x3d954ba7	0.0728982
53	0x3da7b5c7	0.08188968
54	0x3e1cc85e	0.15310809
55	0x3d8f1029	0.06985504
56	0x3d4ac490	0.049503863
57	0x3d9702f1	0.07373608
58	0xbcde462c	-0.02713307
59	0xbd0b9b23	-0.034083497
60	0x3cfdf6ba	0.031001437
61	0xbdac0651	-0.08399642
62	0x3df8bc0f	0.12145244
63	0x3df28149	0.118410654
64	0x3cbe0a04	0.023198135
65	0x3dd7bd60	0.10534167
66	0x3d6de64d	0.05808096
67	0xbd1965e6	-0.037450694
68	0xbd78406a	-0.060608305
69	0xbdbe354a	-0.09287508
70	0x3c6c290e	0.014414085
71	0xbbeb88aa	-0.0071879225
72	0xbd0922c5	-0.033480424
73	0x3d357170	0.044297636
74	0xbd802f90	-0.06259072
75	0xbcfe9c82	-0.031080488
76	0xbcb49d36	-0.02204762
77	0x3d824fef	0.063629024
78	0x3e077283	0.13227277
79	0xbd80ec3f	-0.0629506
80	0x3d86a3df	0.06574225
81	0x3d937817	0.0720064
82	0xbddfa62c	-0.10920367
83	0xbd7c418f	-0.06158596
84	0xbdd328db	-0.10310527
85	0xbd81d573	-0.0633954
86	0xbde83541	-0.113382824
87	0x3d1aca41	0.03779054
88	0xbd607afc	-0.054804787
89	0xbde1876a	-0.11012156
90	0xb891e2e0	-6.9563976e-05
91	0xbdfb3852	-0.122666016
92	0x3dcf4435	0.10120431
93	0xbe089202	-0.13336948
94	0xbda8e2d9	-0.08246393
95	0xbda07991	-0.07835687
96	0x3e0c6c22	0.13713124
97	0x3cc28fc6	0.023750197
98	0xbda819ac	-0.082080215
99	0x3e13d4d1	0.14436652
100	0xbdbe225c	-0.09283897
101	0x3cfd88f0	0.030949086
102	0xbc99b760	-0.018764198
103	0x3d3b538b	0.04573397
104	0xbce1f0f3	-0.027580714
105	0x3d997b3c	0.07494208
106	0xbdc201f7	-0.09473031
107	0xbdaf4823	-0.08558681
108	0xbe009a0a	-0.12558761
109	0x3d814482	0.06311895
110	0xbd83d661	-0.06437374
111	0x3d30b163	0.04313792
112	0xbdfc6ce5	-0.123254575
113	0xbdb8af9d	-0.090178706
114	0xbd048036	-0.032348834
115	0x3d12a87b	0.035805207
116	0x3d2dbbe9	0.042415533
117	0xbd2de9c7	-0.042459276
118	0x3d06e170	0.032929838
119	0xbcde98d3	-0.027172482
120	0x3d837965	0.064196385
121	0x3db9b4a3	0.09067657
122	0x3cceda74	0.025250651
123	0x3b68c793	0.0035519346
124	0xbd0b3094	-0.033981875
125	0x3dd7860f	0.105236165
126	0x3e1c5243	0.15265755
127	0xbd046cdb	-0.032330375
128	0xbe0cce7f	-0.13750647
129	0x3c68a700	0.014199972
130	0xbd55ab17	-0.052165117
131	0xbcfc1ef7	-0.030776484
132	0xbdb543fb	-0.08850857
133	0x3d857408	0.06516272
134	0x3e1a654e	0.15077707
135	0x3d5a9e57	0.05337366
136	0x3de6b3e9	0.11264784
137	0xbe20ae02	-0.15691379
138	0x3d970659	0.073742576
139	0xbce073d8	-0.027398989
140	0x3deb3876	0.114853784
141	0x3e04e957	0.12979637
142	0x3db95748	0.09049851
143	0x3e0c43f8	0.13697803
144	0x3cc05d13	0.023481881
145	0xbde36648	-0.11103493
146	0xbd3f011c	-0.046631917
147	0x3d8e4277	0.06946271
148	0x3d9bf55d	0.07615159
149	0xbdee08f0	-0.116227984
150	0xbc71b12e	-0.014751716
151	0xbdcba9ff	-0.099445336
152	0x3e12bde8	0.14330256
153	0x3d74b01d	0.059738267
154	0x3c2d18d6	0.010565003
155	0x3e0b2ae0	0.13590574
156	0x3d9de348	0.07709366
157	0xbda1b217	-0.07895296
158	0xbd59bd7f	-0.053159233
159	0x3e1a9c2c	0.15098637
160	0x3d9ede71	0.07757271
161	0xbdd4e1ef	-0.10394656
162	0x3dbb6542	0.09150173
163	0x3dd6099a	0.1045105
164	0x3df0926f	0.1174668
165	0x3c0e3aec	0.00868104
166	0x3cfd7494	0.030939378
167	0x3d1a557c	0.03767918
168	0x3e03b9b6	0.12863812
169	0xbdccede4	-0.100063115
170	0x3d2c60ea	0.042084612
171	0xbdaf53ae	-0.085608825
172	0xbd9e97c5	-0.077437915
173	0x3d40327d	0.04692315
174	0xbd6a13f5	-0.05714794
175	0x3ddd0175	0.107912935
176	0xbd86a68e	-0.065747365
177	0xbd281fab	-0.041045826
178	0xbd8c8bb1	-0.068625815
179	0x3d387fcf	0.045043763
180	0x3cde1e5b	0.027114084
181	0xbdc8765e	-0.09788202
182	0x3c02d836	0.007986119
183	0xbd0bc8ba	-0.034126975
184	0x3c86f9e0	0.016476572
185	0xbd835050	-0.06411803
186	0x3c91490f	0.017735032
187	0x3e0b7d12	0.1362193
188	0x3db6bf85	0.08923248
189	0xbdc17714	-0.094465405
190	0x3b8eeeee	0.0043619787
191	0x3df5a39b	0.11994096
192	0x3d617561	0.055043582
193	0xbd79ce1e	-0.060987584
194	0x3deec2f5	0.11658279
195	0xbdd799a4	-0.105273515
196	0xbdd8e360	-0.10590243
197	0x3d9f7e12	0.07787718
198	0x3dfdf931	0.12401045
199	0x3dbb22fa	0.091375306

fc.weight f4 [1, 50]
0	0xbd7a44c3	-0.061100733
1	0xbdcfbeae	-0.10143791
2	0x3c2dc2cb	0.010605524
3	0xbd82412d	-0.063600875
4	0xbe015a0a	-0.12632003
5	0x3e0e0987	0.13870822
6	0x3d66f430	0.05638522
7	0xbcac1e5e	-0.021010574
8	0x3d03cd7d	0.03217839
9	0x3e0ddda3	0.13854079
10	0x3dd8ede1	0.10592247
11	0x3d13f4ae	0.036122017
12	0xbdd21c99	-0.10259361
13	0xbda960a3	-0.08270385
14	0xbaafd55c	-0.0013415026
15	0x3c491961	0.012274117
16	0x3d95bf06	0.073118255
17	0x3cca57e6	0.024700116
18	0x3c67a629	0.014138737
19	0xbdc7e726	-0.09760885
20	0xbd93cce1	-0.07216812
21	0x3d7119ff	0.058862682
22	0x3e1df311	0.15424754
23	0xbc9d0373	-0.019166684
24	0xbe20e894	-0.15713722
25	0x3dc009b6	0.09376852
26	0x3d864777	0.065565996
27	0x3da60aee	0.081075534
28	0xbdbc679a	-0.09199448
29	0xbda080f3	-0.07837095
30	0x3c331560	0.010930389
31	0xbdbe2d85	-0.09286026
32	0x3c5ba8b8	0.013406925
33	0xbd1cadb0	-0.03825158
34	0x3d8a8df3	0.06765356
35	0xbe1a72f1	-0.15082909
36	0xbd227bc8	-0.03966883
37	0xbe135b73	-0.14390354
38	0x3df8575c	0.121260375
39	0xbd8097b3	-0.06278934
40	0xbd44b1c9	-0.04802111
41	0x3dc56a50	0.09639418
42	0x3c4fe8dd	0.012689796
43	0x3ad0057c	0.0015870775
44	0x3e1d5c30	0.15367198
45	0xbbdc0409	-0.006714348
46	0xbde52a70	-0.11189735
47	0xbd79a464	-0.06094779
48	0xbd0978e9	-0.033562575
49	0x3d2e98e5	0.04262628
